projects/codes/SoftQ/outputs/CartPole-v0/20220818-154333/models/checkpoint.pth (torch, 71767 bytes, 6 tensors)

fc1.weight f4 [64, 4]
000000 70 af 2b bd 60 70 8c bc 70 00 40 be 78 90 eb 3d
       -0.041915357 -0.017143428 -0.18750167 0.115021646
000010 f2 cc 00 be 00 2d f5 3d c4 74 48 3e cd cd d1 3e
       -0.1257818 0.11971474 0.19575793 0.40977326
000020 61 41 2a 3e e9 69 8b be 93 79 4e be e7 a0 6e ba
       0.16626503 -0.2722924 -0.20163564 -0.0009102956
000030 06 3b b4 3e d8 21 1e 3f 24 5b 8b 3f 5c 95 42 3f
       0.3520128 0.6177039 1.0887189 0.76009154
000040 6b 59 22 be a9 31 6e bc 8e f0 59 3d e0 f0 ea bb
       -0.15854423 -0.014538207 0.053207926 -0.007169828
000050 bf d1 62 be 9b c5 71 bf 11 3b bb bf 1b b5 4b bf
       -0.22150324 -0.94442147 -1.4627401 -0.7957322
000060 45 19 91 be ab 38 1a bf e5 79 45 bf 08 9e f3 be
       -0.28339592 -0.6024272 -0.7713912 -0.47581506
000070 56 92 01 bf b0 a3 2d 3f 7b 15 af 3f c6 61 1c 3f
       -0.50613916 0.6782789 1.367843 0.6108669
000080 44 cc 52 3f 6e 4c 90 3e 59 6b df be ca 9f 02 bf
       0.82342935 0.2818331 -0.43636587 -0.5102507
000090 9f 88 ef 3e 11 ce 97 3d 01 42 f2 3e 6b 1f 35 3e
       0.4678392 0.07412351 0.47315982 0.17687766
0000a0 41 bf d6 3e 42 19 c5 3e d4 bf 0f 3d b0 6b 45 bd
       0.4194279 0.38495833 0.03509505 -0.048198402
0000b0 1d df 7d 3e 81 ce 1c 3e f7 46 2f 3e 3d 27 75 3e
       0.24792142 0.1531315 0.17116915 0.2394075
0000c0 bd 36 7c bf 08 cb 8e bd 34 40 a8 3e bf 78 32 3f
       -0.98521024 -0.06972319 0.32861483 0.69715494
0000d0 59 9c da be 9d de 08 3f ff ae 4a 3f e2 ba 11 3f
       -0.4269741 0.5346468 0.7917327 0.56925786
0000e0 b6 83 80 3e 9a cc 77 3e 85 a5 dd 3e e6 92 d7 3e
       0.25100487 0.24199143 0.43290344 0.42104262
0000f0 1b cd 99 be 99 ad de be 06 64 5c be 79 86 8e 3d
       -0.30039296 -0.4349182 -0.21522531 0.069592424
000100 89 21 57 3f f8 0e 40 3f df e4 ba bd 69 06 90 be
       0.84035546 0.7502284 -0.09125685 -0.2812989
000110 78 83 38 be c9 cc 4c 3f 15 bd 6f 3f fe 77 81 be
       -0.18018901 0.7999998 0.9364789 -0.2528686
000120 1f 53 e2 be fa ca 9c bd ab de 15 bf dc 71 d1 bd
       -0.4420404 -0.07655902 -0.5854289 -0.10226795
000130 86 33 19 bf 6f 39 94 be 8e d0 9b bf 87 72 2a bf
       -0.59844244 -0.28950068 -1.2173021 -0.66581005
000140 2a 45 87 be 56 80 18 be 69 e3 5a 3e d0 f0 c2 3c
       -0.26419955 -0.14892706 0.21375813 0.023796469
000150 57 3d 86 3e fd 84 80 be ad 08 bd bd 4b 51 1b 3f
       0.26218674 -0.25101462 -0.092301704 0.6067092
000160 b1 3f 85 bf 5c 21 23 be 4a 89 3a 3e e8 c0 0e 3f
       -1.0410062 -0.15930694 0.18216434 0.557631
000170 d9 ae b0 3e 07 b8 06 be 97 24 90 be d4 d7 dd 3d
       0.34508398 -0.13156138 -0.28152916 0.108321816
000180 65 13 bb be 27 f6 52 be c4 59 06 bf b8 b9 87 be
       -0.36538234 -0.20601712 -0.5248072 -0.2650888
000190 90 90 19 3e ca 91 e4 3e 39 b5 06 3f 6f ca 04 3e
       0.14996552 0.44642478 0.52620274 0.12967847
0001a0 09 91 32 be 0d c7 df 3e f5 71 bd 3e 8d 7c 7a 3e
       -0.17438139 0.4370655 0.37001005 0.24461575
0001b0 40 58 3b bf 98 82 b4 bd 7d 28 83 3f 19 32 e5 3e
       -0.73181534 -0.08813971 1.0246731 0.44764784
0001c0 ef 3b ca 3e 2e 65 ba be fe bb f4 3d 4c 01 76 be
       0.3949885 -0.3640532 0.11949919 -0.24023932
0001d0 05 84 12 3e d0 21 4d bd f1 c7 79 be 4b 5c 95 3e
       0.14308174 -0.050081074 -0.24392678 0.29171976
0001e0 45 74 fb 3e 47 61 09 bd a0 87 08 bf 3f 6a be bd
       0.49112144 -0.033540037 -0.5333195 -0.092976086
0001f0 6b 33 2a be 51 c7 d1 bd 66 f3 a5 3e 0c e8 ad 3e
       -0.16621177 -0.10243095 0.3241226 0.339661
000200 b6 7e e3 be a0 75 7c bd ed 7a 4a be 34 a8 c4 bc
       -0.4443261 -0.061635613 -0.19773455 -0.024005987
000210 24 f2 bc bd 1b a0 60 be 8a 07 14 bf 0b e3 af be
       -0.09225872 -0.21936075 -0.57824004 -0.34352908
000220 09 45 22 3f ea 47 d2 3e 3c ab 7b bf d5 9f 15 bf
       0.6338659 0.4107049 -0.9830816 -0.5844701
000230 9e f1 05 3e e8 f1 bb 3e 22 fc b2 be 91 7d 4d bf
       0.13080451 0.36707997 -0.34957987 -0.80269724
000240 8a b4 f5 3d fe 6e 87 3d 33 d6 e2 3e 5b 2a 18 be
       0.11997326 0.06612967 0.44304046 -0.14859907
000250 ee 3d 2c 3e a4 b9 dd be 8c 9d 66 bf ed 16 56 3d
       0.168205 -0.43305695 -0.9008415 0.052267957
000260 9e 07 a7 be 89 d6 c3 be 73 b7 dc be 88 e7 ad be
       -0.32623 -0.38249615 -0.4310871 -0.33965707
000270 d0 54 3d 3e b8 59 f1 3e 02 e3 03 3f 81 72 9a bb
       0.18489385 0.47138762 0.5151826 -0.004713357
000280 1a a7 a6 be 55 9d d6 be 21 fc 8b be ce 47 ec bd
       -0.32549363 -0.4191691 -0.27340797 -0.11537133
000290 e8 ee da be 4b af 7e 3e 56 d8 e9 be 52 23 d2 3b
       -0.42760396 0.24871556 -0.45672864 0.006412902
0002a0 3a 10 ce be 30 5c 91 3e 22 da e4 3d 6a 90 a1 3e
       -0.40246755 0.28390646 0.11174418 0.31555492
0002b0 6a aa e9 3c 2c 21 12 bf 41 d6 ea 3d e4 d1 04 bf
       0.028523643 -0.57081866 0.11466647 -0.5188277
0002c0 72 07 9a 3e cc d2 c6 be 7e 62 94 bc f0 56 dd 3d
       0.30083805 -0.388327 -0.018113371 0.10807598
0002d0 b1 94 67 3e 18 fd a9 3e 75 67 be 3f 5c a5 4f 3f
       0.22615315 0.33200908 1.4875323 0.81111693
0002e0 bc 4c 26 be fd b9 ad ba a7 5e b2 3e 11 f4 bf 3e
       -0.1624021 -0.0013254281 0.3483784 0.37490895
0002f0 c2 ad 94 3f a2 27 4b 3f 89 9b e7 3e b9 d1 ab 3e
       1.1615527 0.7935735 0.4523585 0.33558443
000300 88 8d 82 be a8 aa 08 bf e0 69 ff bc 61 54 f7 be
       -0.25498605 -0.533854 -0.031178415 -0.48306563
000310 e7 c7 af 3e 51 8b 3b 3f 83 5f 0c be 5d 68 88 be
       0.343322 0.73259455 -0.1370831 -0.26642123
000320 85 87 dd be ff d8 ea 3e 21 2d ab 3e 7b 94 ac 3e
       -0.43267456 0.4586868 0.33432868 0.33707032
000330 9d 49 ec bd 3d 4c af be 2e db 10 3e 0d 89 b9 be
       -0.11537478 -0.34237853 0.1414611 -0.36237374
000340 94 3a 53 3e 82 69 c9 3e 6e 53 88 be 5f fd 04 bf
       0.20627815 0.3933831 -0.26626152 -0.51949114
000350 3b 01 93 bf 35 3d 97 bd ae e7 0b 3f 8e b2 81 3e
       -1.148475 -0.07384721 0.5465039 0.2533154
000360 0f bb b4 3e 57 72 ab 3c b6 1d 0c bf 78 1a c6 bd
       0.35298964 0.020928545 -0.54732835 -0.09673017
000370 26 f1 39 3f a1 b3 9e bc b0 44 94 bf b7 2d 95 be
       0.7263359 -0.019372763 -1.1583462 -0.2913644
000380 9a a5 1e 3d 27 69 2d bd c8 a1 86 3e e9 99 51 3e
       0.03873215 -0.04233661 0.26295304 0.20468868
000390 72 81 00 3f fc 4c c7 3e 77 95 18 3e 86 2b 7a be
       0.5019752 0.38925922 0.14900766 -0.24430665
0003a0 16 34 85 3e 66 2c cb 3e 4e 22 de 3e 8b a4 a2 3e
       0.260163 0.3968231 0.43385547 0.3176616
0003b0 63 f6 b6 3e 8f ce 16 3f 47 f0 8d 3f 46 9d 0d 3f
       0.35734853 0.58908933 1.1088952 0.55318105
0003c0 7c 5d d5 be 09 8d ca 3e 5e 3e 98 3e 74 f7 26 3e
       -0.41672885 0.39560726 0.29735082 0.16305333
0003d0 3c 01 89 be 4d c8 c7 be 87 df 44 bf 30 a4 35 bf
       -0.26758754 -0.39020005 -0.76903576 -0.70953655
0003e0 56 dc 86 be 73 d5 d2 3d 03 42 f1 be 02 84 12 be
       -0.26339978 0.102946185 -0.47120675 -0.1430817
0003f0 66 ac e4 3e bc 12 b2 3e af 19 cc be 47 9b 5b 3e
       0.4466278 0.34779918 -0.39863345 0.21445952

fc1.bias f4 [64]
000000 1a 1b b9 be 6d e2 40 3f d1 d5 85 3e dd c1 99 3e
       -0.3615349 0.753455 0.2613969 0.30030718
000010 f7 e1 dd 3e 6f 9b 0f bd f1 3c 3d 3f 81 70 c7 bc
       0.4333646 -0.035060342 0.73921114 -0.024345638
000020 84 64 fe be 51 cb e0 3e b1 f6 fc 3e 6d 5c 1f 3f
       -0.49686062 0.43905118 0.4940696 0.62250406
000030 81 4b a7 be 2c 68 42 3e 6d ae 2f 3f fb 30 19 3f
       -0.32674792 0.18985051 0.6862553 0.59840363
000040 38 e2 a3 be c5 e3 bb 3e 5c 40 b3 3e 9a 68 0c be
       -0.3200853 0.36697212 0.3501004 -0.13711777
000050 e4 b0 15 3f 0c 88 a7 3e 92 5d 8d 3d 94 5e 08 3f
       0.5847304 0.32720983 0.06902613 0.53269315
000060 ea fa f0 3e ae 68 27 3f 04 73 f1 3e d0 04 9d be
       0.47066432 0.65394104 0.47158062 -0.30667734
000070 99 07 0c 3f ad 1b 0e 3f 8d 01 d6 3e cf af 96 be
       0.54699093 0.5551098 0.41798058 -0.29431006
000080 ed 3b ac 3e fa 47 43 3f c4 2f 97 3e 00 d5 43 be
       0.3363947 0.762817 0.2952863 -0.19124222
000090 bb 17 f4 be e0 30 9c 3e eb 50 05 3f 08 fd e1 3e
       -0.47674355 0.3050604 0.52076596 0.4413836
0000a0 92 f5 f7 3e 65 06 f0 3e e7 bd 0d 3f 3a 65 29 3f
       0.48429543 0.4687988 0.55367893 0.66170084
0000b0 18 df aa 3e 94 b6 7f bd ea 9a cc 3e c8 6a d3 3b
       0.33373332 -0.06242998 0.3996194 0.0064519383
0000c0 db f3 1d 3f a2 b0 ff 3e e1 79 ea 3e 27 a0 f1 3e
       0.6170022 0.49939448 0.4579611 0.471925
0000d0 af 3c 18 bf fb eb 61 bd c9 72 17 3f ab 55 e1 bd
       -0.59467596 -0.05515669 0.59159523 -0.11002668
0000e0 ba 62 ff 3e 70 9e 30 3f 11 b0 2a 3f b0 6d dd bc
       0.4988001 0.68991756 0.66674906 -0.027029842
0000f0 6e cd f4 3e 2c 2e 8b 3e b5 92 e7 3e 7a 19 38 3f
       0.4781298 0.27183664 0.45229116 0.71913874

fc2.weight f4 [256, 64]
000000 96 b2 80 3d ab f2 f9 3d 4a 0a 86 3e 2a 26 88 be
       0.062840626 0.12204488 0.26179725 -0.26591617
000010 8a d1 b2 3e 77 2a 74 bf f2 ce 99 3e 21 20 35 bf
       0.3492549 -0.95377296 0.300407 -0.7075215
000020 b8 95 5c be 2d e0 ac 3e 74 4a 2a 3e 90 c0 c6 3e
       -0.21541488 0.33764783 0.16629964 0.3881879
000030 fe 51 53 be 89 ba b2 be de aa 00 3e 66 b4 a7 3e
       -0.20636746 -0.3490794 0.1256518 0.3275482
000040 74 ff 3f be 49 a6 6a 3d de e3 1a 3e 5c 25 d4 be
       -0.18749791 0.057287488 0.15125987 -0.41434753
000050 28 90 6c 3e b5 6e e2 3d 43 ad 0e be 1b c4 a6 3e
       0.23101866 0.11056272 -0.13933282 0.32571492
000060 f2 cb 0a 3e 96 dc b4 3e 9d 36 c7 3e 7c a9 af be
       0.13554361 0.35324544 0.38908854 -0.34308994
000070 e5 cf 86 3e 88 46 97 3d a9 49 cc 3d e8 78 c7 be
       0.26330486 0.073865 0.09974987 -0.38959432
000080 dc 73 2f 3e d3 fc 8d 3e 0b 53 42 be 25 92 2a bd
       0.1713404 0.27731952 -0.18976991 -0.04164328
000090 5c 73 e9 bc 7c 01 40 3e 9c 7c 04 3e d7 b2 1c 3e
       -0.02849739 0.18750566 0.1293816 0.15302597
0000a0 33 b0 aa 3e c1 bc a4 3e af bd 44 3e a0 c0 bd 3d
       0.33337554 0.32175258 0.19212984 0.09265256
0000b0 db 8d 33 3e ee eb e2 be 1a e0 00 3e b7 6a bb be
       0.17534582 -0.44320625 0.12585488 -0.36604854
0000c0 62 28 10 3e f0 d5 f5 3c 61 06 42 3e 0a 9d 6a 3e
       0.14077905 0.03000924 0.18947746 0.22911468
0000d0 dc da a8 bd 01 69 59 be 26 18 8b 3e cb 66 0f bf
       -0.08244869 -0.21231462 0.2716686 -0.56016225
0000e0 1d 73 99 3e 14 95 59 3e f9 76 a9 3e 86 49 4b bf
       0.29970637 0.21248275 0.3309858 -0.7940906
0000f0 df 1a 4b 3e d5 c6 7d be 44 e2 cb 3d cc b0 81 3e
       0.1983447 -0.2478288 0.09955266 0.25330198
000100 a0 79 6f 3d a8 86 90 3e 05 16 99 3e a7 88 57 be
       0.0584656 0.28227735 0.29899612 -0.21048222
000110 1a 02 b3 3e 11 a4 52 bf f8 40 ef 3d 5a 9e 3e bf
       0.3496254 -0.82281595 0.11682314 -0.74460375
000120 de 5a 5c be de 60 99 3e a9 e4 5c 3e 8b 21 4e 3e
       -0.21519038 0.29956716 0.21571602 0.20129983
000130 6d 3d ce bd f2 06 9e be 0c de ac 3e ab 9e 80 3e
       -0.1007031 -0.30864674 0.33763158 0.25121054
000140 95 72 9a be e3 94 d0 3d 56 3d 9d 3e c0 cd d5 be
       -0.30165544 0.10184648 0.30710858 -0.41758537
000150 7c 11 97 3e 3c f0 99 3c 3b 76 e2 bd 0b 6c 91 3e
       0.29505527 0.01879131 -0.11057707 0.28402743
000160 05 68 02 3e 03 84 a5 3e 06 43 b9 3e e7 30 a6 be
       0.12734993 0.3232728 0.36183947 -0.32459185
000170 99 7e 48 3e 9b e4 c1 3d ba f2 1e 3e 4e aa 83 be
       0.19579543 0.09467431 0.1552228 -0.2571587
000180 b4 cb bb 3e 8d 2f 00 3e 67 0d 6c 3d f4 7d 31 bd
       0.3667885 0.12518139 0.05762997 -0.04333301
000190 98 28 9b 3c 8c f0 b1 3e d7 4a 04 3e 6c 90 3f 3e
       0.018940255 0.34753835 0.12919174 0.18707436
0001a0 8d e6 1b 3e c4 8c 4c 3e 0f 7b 2c 3e cb 79 ed 3d
       0.15224667 0.19975573 0.16843818 0.11595496
0001b0 8c 47 01 3e 45 29 ed be 16 aa fc 3c cc 8c d8 be
       0.12624949 -0.4632055 0.030842822 -0.4229492
0001c0 c0 84 4a 3e 02 8e 02 bd 8d 60 93 3e c1 73 f6 3d
       0.19777203 -0.03187371 0.287846 0.12033797
0001d0 84 0a 93 be 0d be 50 be 7f 28 90 3e 62 9b fa be
       -0.2871896 -0.20384999 0.28155896 -0.48946673
0001e0 a8 2a 97 3e c1 6a d2 3d a2 5a be 3e 1e 90 35 bf
       0.29524732 0.10274268 0.37178522 -0.7092303
0001f0 af fe 40 3e 38 cb 27 be ff 86 0d 3e a6 53 c4 3e
       0.18847154 -0.16386116 0.13821028 0.3834507
000200 1c c2 2b bd 40 df 55 3e 96 51 1c 3e 5b 70 80 be
       -0.041933164 0.20885944 0.15265498 -0.2508572
000210 c5 33 0f 3e a7 93 72 bf 46 5e a8 3d f0 58 32 bf
       0.13984592 -0.9475655 0.08221106 -0.6966696
000220 bd d3 c5 be 07 cd 1d 3e bb 7d 1e 3e ba 73 93 3e
       -0.38638106 0.15410243 0.1547765 0.2879923
000230 f7 b6 c6 be 28 27 11 be 9c 78 30 3e ff 16 25 3e
       -0.38811466 -0.14175093 0.17233509 0.16122054
000240 8c 06 9c be 21 3b 04 3e bf c3 4b 3e 8a 6f 1b bf
       -0.30473745 0.12913181 0.1989889 -0.6071707
000250 c3 f5 b4 3d 9f 84 cb 3d 2e 86 38 be 9c 5a 89 3e
       0.08835938 0.09937405 -0.18019935 0.26826942
000260 7c 08 20 3e 28 63 bd 3e 6d ff 9e 3e 2d bf b6 be
       0.15628237 0.36989713 0.3105425 -0.3569273
000270 a1 c4 96 3e c5 c7 68 3e d9 40 ad 3d 3e c3 a3 be
       0.2944689 0.22732456 0.08459634 -0.31984895
000280 61 64 8b 3e d3 c1 52 3e 25 d6 93 bd 13 d7 5e bd
       0.2722502 0.2058175 -0.07218579 -0.05440433
000290 36 17 d8 bd 18 8b be 3d 60 ae fe 3d 5f 99 1b 3e
       -0.10551302 0.09303874 0.12435603 0.15195225
0002a0 d6 51 ba 3d 8a c3 23 3e 73 bf e3 3d f5 c3 bd 3d
       0.0909764 0.15992561 0.111205004 0.092658915
0002b0 3d 1c 06 3e ba bd e4 be 8e a1 9a bc 4f 9f ab be
       0.1309671 -0.44676 -0.018875863 -0.3351998
0002c0 27 34 62 3d 46 da a0 bd 88 fb 7c 3e fa 06 53 3d
       0.055225518 -0.07854132 0.24705327 0.051520325
0002d0 61 02 8e be 91 1a e3 be 15 d2 12 3e 18 f8 d3 be
       -0.2773619 -0.44356206 0.14337952 -0.41400218
0002e0 77 df 26 3e 2d f7 d9 3b bb 95 96 3e d2 b7 2b bf
       0.16296183 0.00665178 0.2941111 -0.6707736
0002f0 05 03 1c 3e 0a d8 19 be c4 af 4e 3e 2f 14 93 3e
       0.15235527 -0.15023819 0.20184237 0.28726336
000300 a4 1a 1c bd bc 78 30 bd fc 12 bd 3d 6e 30 cf 3d
       -0.038111344 -0.04308389 0.092321366 0.10116659
000310 7c 22 76 bd 94 64 88 3d 10 42 dd bd 78 80 fd 3c
       -0.06009148 0.06659809 -0.10803616 0.030945048
000320 88 e1 8c bc 60 b9 90 bd 68 5f 3a bd e0 b6 a2 3b
       -0.017197385 -0.070666075 -0.045501143 0.004965648
000330 58 64 88 bc 9e 97 f2 bd a0 fd 54 3c fc a2 bf bd
       -0.01664941 -0.11845325 0.012999922 -0.09357259
000340 74 c1 8b bd c2 b5 c0 3d 60 8f dd bb 70 d0 fe bd
       -0.06824008 0.094096676 -0.0067614764 -0.124421
000350 3a 34 ee 3d e0 7b 93 3d 26 f2 c0 3d 9c 9f 4c bd
       0.11631055 0.07201362 0.09421186 -0.049956903
000360 1e d8 a0 3d 50 3a 83 bc c6 ec e2 3d c0 b3 83 3d
       0.07853721 -0.016019017 0.11080317 0.06430769
000370 a4 5e 84 3d 00 70 ed 39 5c 67 30 bd 4c 9d 9b bd
       0.06463364 0.0004528761 -0.04306732 -0.075983614
000380 98 ff 3d bd d8 a8 12 bd 40 20 95 3c 48 4c 9a bd
       -0.04638633 -0.035805553 0.018203855 -0.07534081
000390 c0 fe a6 bd 72 5d b4 bd 52 6d 85 bd 78 10 f2 bd
       -0.081540585 -0.08806886 -0.06514992 -0.118195474
0003a0 54 6e 85 bd c8 0f 3b bd ba 45 93 bd 58 bc ca bd
       -0.06515184 -0.045669347 -0.07191034 -0.09899205
0003b0 44 ee 26 bd 28 15 db 3c 44 be 0e bd 7c fc ae 3d
       -0.04075457 0.026743487 -0.03484942 0.08544251
0003c0 7a f3 be bd e4 93 b1 bd b0 95 0e bc 90 73 51 3c
       -0.09323783 -0.08670786 -0.0087026805 0.0127839
0003d0 9c d7 c9 3d 28 3b a7 bd 44 5a a4 3d 9a 88 8f bd
       0.09855577 -0.0816558 0.08025029 -0.070084766
0003e0 38 c3 28 bd 38 9d 1a bd 58 31 c0 bc 38 40 6e 3d
       -0.0412018 -0.03774759 -0.023461029 0.058166713
0003f0 e0 8d 50 3d 68 4b b1 3d c4 08 e2 bd 5e 2f ab bd
       0.050916553 0.08656961 -0.11036828 -0.08358644

fc2.bias f4 [256]
000000 3d 17 b1 3e d9 d1 86 3e 19 66 90 3e 8a 08 c4 bd
       0.34588042 0.26331976 0.28202894 -0.09571941
000010 b4 b7 e7 3d ac 6a ee 3d 97 b2 5a 3e 5b db cc 3c
       0.113143355 0.1164144 0.21357189 0.02500694
000020 1b 78 67 3e 2a 0e 56 3e e2 a1 58 3e d4 a6 aa bd
       0.2260441 0.2090384 0.21155503 -0.08332601
000030 29 73 c5 3c 5b 06 7b bd 5b 2c 6a 3e 33 fd 47 3e
       0.024102764 -0.061285358 0.22868483 0.19530182
000040 04 fe 9c 3e 70 b3 95 3e f2 20 c5 bd f4 fc 51 3e
       0.3066255 0.29238462 -0.096254244 0.2050665
000050 a6 65 07 3e ae df 78 3e 2a 40 e9 3d 66 41 94 3e
       0.1322237 0.24304077 0.113891914 0.28956145
000060 a6 f9 b4 3d 0e 22 8f 3e a2 96 11 3e 35 09 3c 3e
       0.08836679 0.2795567 0.14217618 0.18362887
000070 73 25 b0 3e ce 76 2f 3d a5 45 9d 3e 22 81 a3 3e
       0.3440357 0.04283791 0.30717197 0.31934458
000080 89 8e 65 3d 41 bc 81 3e 8c f0 08 3e f6 81 4f 3e
       0.056044135 0.2533894 0.13373011 0.2026442
000090 8f 03 70 bd 38 60 a4 bc 60 79 37 3e 8b e7 5a 3d
       -0.058597144 -0.020065412 0.17917395 0.053443473
0000a0 1b 49 dd 3d 53 64 8c 3e cb bb 16 3e 64 e3 ba 3a
       0.108049594 0.2742029 0.14720075 0.0014258442
0000b0 5d 9a 07 3e cc 5c 49 3e 85 13 92 3e 6f 9f c5 3d
       0.13242479 0.19664305 0.28530517 0.0964955
0000c0 97 33 af 3e dc 41 20 bd 54 a1 db 3d b1 e8 5f 3e
       0.34219047 -0.03912531 0.1072413 0.21866108
0000d0 36 36 02 3e 32 21 d6 3d 1b c2 6d 3e d3 56 0b 3d
       0.12715992 0.1045555 0.23218577 0.03401835
0000e0 ac a0 80 3e e7 11 f0 bd 4d c9 1d 3e 4a 31 04 3e
       0.25122583 -0.117221646 0.15408821 0.12909427
0000f0 b7 50 67 3e 05 c8 3d 3e 6e 9c c5 bd ee d4 a6 3d
       0.22589384 0.18533333 -0.09648977 0.08146082
000100 67 5d ac 3e bd 03 5d 3e a0 a8 ac 3e 02 d6 2a 3e
       0.3366501 0.21583457 0.337224 0.166832
000110 3c 3a 04 3d c4 00 a4 3e 52 57 8a 3d d7 9e 85 3e
       0.0322821 0.32031834 0.06754936 0.26097748
000120 e9 41 6a 3e c1 59 17 3e 9b 7c 3b 3e ca 7f 4b 3e
       0.22876705 0.14780332 0.18309252 0.19872966
000130 d9 64 92 3e 6e 7d a0 3e 42 c9 17 be bd a2 e0 3d
       0.28592566 0.31345695 -0.14822868 0.1096854
000140 91 0e 4b 3e 73 58 2c 3c b5 c7 ab bd 65 d7 12 3e
       0.19829775 0.010519135 -0.083877005 0.14339979
000150 6a 25 e7 bd f0 84 9e 3e 48 8b 8a 3e 9e 76 9a 3c
       -0.11286433 0.30960798 0.27059388 0.01885539
000160 bc 04 e9 3d 66 e1 80 3e a6 68 79 3e 14 5b 63 3d
       0.11377856 0.25171965 0.24356326 0.05550678
000170 20 e7 47 3e f8 60 24 be 9c 40 9a 3e 08 66 37 3e
       0.19521761 -0.16052616 0.30127418 0.17910016
000180 b6 fb 8b 3e 95 f9 78 3e ae 95 74 3d b1 cd 65 3e
       0.27340478 0.24313958 0.05971306 0.22441746
000190 84 46 fb bd bf 00 48 3d 14 76 ed 3d da 6c b2 3e
       -0.12269309 0.048828837 0.11594787 0.34848672
0001a0 7c 27 a9 3e b5 7b 30 3d b1 2d 3d 3e 63 3a 09 3e
       0.33037937 0.043086726 0.18474461 0.13401179
0001b0 16 45 0d 3e 73 1a 5b 3e 57 74 e1 3d 29 40 99 3e
       0.13795885 0.21396808 0.11008518 0.29931763
0001c0 b8 24 ae 3d 59 20 13 3e ee 3c cb bd b6 3e 82 3e
       0.08503097 0.14367808 -0.09923731 0.2543847
0001d0 59 cb 82 3e 44 77 82 3e 1d 95 82 3e 10 e1 b0 3d
       0.25545767 0.25481617 0.2550439 0.08636677
0001e0 21 a8 77 3e ef f0 4d 3e da a4 f9 3d f2 82 ea 3d
       0.2418523 0.2011144 0.12189646 0.11450757
0001f0 b1 33 96 3e 50 6c f5 3d aa cb 27 3e 2d ea a4 3d
       0.29336312 0.119835496 0.16386285 0.08052478
000200 2e 41 a9 3e 20 67 87 bc 4e 26 d2 bd 2b 9b 98 3e
       0.3305754 -0.016528666 -0.10261212 0.29805884
000210 8b 8d 66 bd 08 11 a8 bd c3 a2 72 3e 3a 45 a4 3e
       -0.05628733 -0.082063735 0.23694901 0.32084066
000220 48 74 a8 3e c5 5a 83 3e 40 80 b9 3b 42 f3 a0 3e
       0.32901216 0.2565519 0.0056610405 0.3143559
000230 c1 38 30 3e 83 fc 8c 3e 8e ad 86 3e 08 07 75 3e
       0.1720915 0.275364 0.26304287 0.23928463
000240 87 13 46 3e 2f de 8b bd 5c e2 91 3e e0 40 88 3e
       0.19343387 -0.068294875 0.2849301 0.26611996
000250 0a a6 86 3e b0 df 44 3d 6d fa 9b 3e ec 7c 8e 3e
       0.26298553 0.048064888 0.30464497 0.27829683
000260 06 b3 b1 3e 2b 06 61 3d 83 48 6e 3e b7 bc fa 3d
       0.34706897 0.054937523 0.23269849 0.12243026
000270 14 4f 20 3e 24 8e 82 3e 95 e6 55 3e ea 25 82 bd
       0.15655166 0.2549907 0.20888741 -0.06354888
000280 b4 33 25 bd 64 26 87 3e ad c0 16 3e 9a c4 26 3e
       -0.04033251 0.26396477 0.14721937 0.16285935
000290 1d d6 27 3e a4 53 8f 3e 80 b5 07 3c 7b 24 8b 3e
       0.16390271 0.279935 0.008283019 0.2717627
0002a0 02 14 42 3e 0b 0a 62 3e 42 cb a7 3e 69 b4 8a 3e
       0.18952945 0.22074144 0.3277226 0.27090767
0002b0 4d 53 57 3e c5 0c 02 3e f1 2a 56 3e 6f 2d 14 3e
       0.2102787 0.12700184 0.20914818 0.14470457
0002c0 24 6d 1f bc 30 9f 07 bd 7c a4 52 3e 72 0e 00 3e
       -0.009730611 -0.033110797 0.20570558 0.1250551
0002d0 72 f9 ac 3e ff 5a e8 bc a8 1a 99 3e 80 cb 31 3d
       0.33784062 -0.028363703 0.2990315 0.043406963
0002e0 e8 b2 a0 3e 6d 0e 2e 3e 70 f9 08 3d 13 5e ff 3d
       0.31386495 0.1699769 0.033441007 0.12469115
0002f0 a8 90 05 3e 53 06 47 3e d9 1b 30 3e 20 1d a5 3e
       0.13043463 0.19436006 0.17198123 0.32248783
000300 17 6a 80 3e b2 dc 22 3e 74 62 a9 3e 70 4c 7a 3e
       0.2508094 0.15904501 0.33082926 0.24443221
000310 ca ea 18 3e a0 3b 3f 3e 36 87 7b 3e 24 12 36 3e
       0.14933315 0.18675089 0.24563298 0.17780358
000320 34 11 db bd fe 98 55 3e 15 49 7c bd 92 39 32 be
       -0.106966406 0.20859143 -0.061593134 -0.17404774
000330 0c 19 0e 3d f7 3b 3d 3e 86 a9 17 3c 52 f3 65 3e
       0.034691855 0.18479906 0.009256726 0.224561
000340 e0 63 a0 bd 61 7d 39 3e d7 67 84 3e b0 a2 95 3e
       -0.0783155 0.18114235 0.25860474 0.29225683
000350 b0 2e ea 3c d4 8e 0e bd f5 54 f6 3d 79 08 9c 3e
       0.028586715 -0.03480418 0.12027923 0.30475214
000360 60 71 36 3d b7 1e 33 3c ab fe 37 3d bf 81 b2 3d
       0.044541717 0.010932616 0.044920605 0.08716153
000370 6c 3e e6 bd 5e 12 92 3e 93 cb 27 3d ae db 28 3e
       -0.11242375 0.28529638 0.040965628 0.16490051
000380 88 de b9 3d b5 f9 80 bd 72 f4 38 3d 75 90 11 3e
       0.090756476 -0.06297628 0.045154996 0.14215262
000390 1c 01 98 3e 2a 80 0f 3e 6d 4e 89 3e ac 59 a7 3e
       0.29688346 0.14013734 0.26817647 0.32685602
0003a0 5e e2 3d 3d ac cd 92 3e 14 a2 bf bd 23 5b 8c 3e
       0.04635846 0.2867254 -0.09357086 0.27413282
0003b0 9b e5 85 bc 12 cf 98 3e 0c 76 1b 3e 26 0f 69 3e
       -0.016344836 0.29845482 0.1518175 0.22759685
0003c0 59 5e 3a 3e fd d1 4e 3e 42 7e b9 3d fe 32 46 3e
       0.18200053 0.20197292 0.09057285 0.1935539
0003d0 ac 05 49 3d 11 af 7d 3e d2 ed 97 3e 1e c4 73 3e
       0.049077675 0.24773814 0.2967363 0.23805282
0003e0 88 43 34 bd 57 c3 b1 3e 74 a9 cc bd db 9e 8f 3e
       -0.044009715 0.34719345 -0.09993258 0.28050885
0003f0 f9 02 cc 3d fb 7f 91 bd 04 57 a0 3d 6e 6d 63 3e
       0.099615045 -0.071044885 0.07829097 0.22209713

fc3.weight f4 [2, 256]
000000 5c df a0 3e c8 ba b1 3e f7 fe da 3e 68 13 8d 3c
       0.3142041 0.34712815 0.42772648 0.017221168
000010 85 1c a9 3e 77 ee b4 3e 11 c8 ba 3e 72 6b ab be
       0.3302957 0.35338184 0.36480764 -0.33480412
000020 65 4f c2 3e ac 0b e1 3e aa 51 b0 3e 38 80 06 bf
       0.37951198 0.43954217 0.34437305 -0.52539396
000030 0e 5c 0a bf 6b 1e 10 bf 82 78 ab 3e 28 38 20 bf
       -0.54046714 -0.56296414 0.33490378 -0.6258569
000040 20 08 ba 3e 3b aa 26 bf 78 f0 07 3d 64 cc 00 3f
       0.36334324 -0.651035 0.033188313 0.50311875
000050 eb 4d 89 3e 75 77 a7 3e df b2 e0 be 9c a3 cd 3e
       0.2681726 0.32708326 -0.43886468 0.40163887
000060 5e 09 5b be ba 2c a4 3e 70 4f c1 3e 1e 66 ea 3e
       -0.21390292 0.32065374 0.37755919 0.45781034
000070 ab ed 8f 3e 6e 13 b2 bc 9e ad d6 3e 30 cc 87 3e
       0.28111014 -0.02173778 0.41929334 0.2652297
000080 10 5c de be dd ae 7a 3e df 25 a1 3e 36 15 1d bf
       -0.43429613 0.24480768 0.31474206 -0.6136049
000090 ba e9 40 3d 28 c2 20 3c 9f 0a d7 3e 0f 76 3a be
       0.0470979 0.009811915 0.4200029 -0.18209098
0000a0 70 db 22 be 4f e1 cb 3e ca ff e2 3e e7 db 53 bc
       -0.15904021 0.39820334 0.44335777 -0.012930847
0000b0 11 c4 f8 3e 80 e2 ce 3e 48 8e c6 3e 51 51 56 be
       0.48587087 0.4040718 0.38780427 -0.20929457
0000c0 c1 5b d2 3e 89 cf 14 bf 95 f8 c5 3e 88 d9 d4 3e
       0.41085628 -0.58129174 0.38666216 0.41572213
0000d0 33 70 23 bf e0 7f aa be 72 81 c7 3e fe 6b 9f bc
       -0.6384308 -0.33300686 0.38965946 -0.019460674
0000e0 61 fe dc 3e f0 2e 9c 3e e8 8e af bd e1 88 00 3f
       0.43162826 0.3050456 -0.08572179 0.5020886
0000f0 39 73 9a 3e 3d 2c b1 3e 6d f2 1d bf 66 9d 3d bd
       0.30166033 0.34604064 -0.6169804 -0.046292685
000100 ca a0 a7 3e 8b ff bc 3e d3 4e bc 3e cf a7 8a 3e
       0.3273986 0.36913714 0.36778888 0.27081153
000110 14 17 11 bf 0d dc a0 3e ae fe f8 bd 0b 55 ba 3e
       -0.5667584 0.31417885 -0.12157951 0.36393008
000120 8b 2d a1 3e d5 57 ab 3e 9d a1 ad 3e 5a 83 d6 3e
       0.3148006 0.33465448 0.33912364 0.41897088
000130 24 ea cc 3e 90 ea cc 3e af a7 99 be 58 ce c7 3e
       0.40022385 0.40022707 -0.30010745 0.39024615
000140 e5 46 b1 3e d3 f7 38 bd fc e1 ca bd 03 8e 9a 3e
       0.346244 -0.04515822 -0.09906384 0.3018647
000150 10 f3 96 bc 96 40 aa 3e 3b df b1 3e 9c 8f 25 bf
       -0.018426448 0.332524 0.34740624 -0.64672256
000160 36 78 36 bd 9a 00 c8 3e 93 50 d7 3e 0c 1e de bc
       -0.044548236 0.3906296 0.4205366 -0.027113937
000170 d3 ac b7 3e f2 ac ca be 60 0d e0 3e dd 2d 18 bf
       0.35874042 -0.39585072 0.43760204 -0.5944498
000180 29 8a bc 3e fe e7 d1 3e 50 f3 d0 bc 21 a8 cb bc
       0.36824158 0.40997308 -0.025506645 -0.024860444
000190 de 97 18 bf 4c 1b e6 be ed f3 b7 3e 9e b1 af 3e
       -0.5960673 -0.449427 0.35928288 0.343152
0001a0 8b b2 b3 3e 66 f4 1c 3d 56 9a eb 3e f1 c2 b4 3e
       0.35097155 0.038319014 0.46016186 0.35304978
0001b0 4d 87 d8 3e d3 07 a3 3e 0b e3 d3 3e 17 28 cb 3e
       0.42290726 0.31841907 0.41384158 0.39679024
0001c0 86 85 f1 3e c7 e6 9e be 77 22 1c bf 57 ea 01 bf
       0.47172183 -0.31035444 -0.6099009 -0.507482
0001d0 bf 3e f3 3e af 49 26 bf b9 11 dc 3e 36 0f 84 3d
       0.4750881 -0.6495618 0.4298227 0.06448214
0001e0 ed 59 da 3e be a6 e7 3e c5 66 4d 3e 5b 9a f7 3e
       0.42646733 0.45244402 0.20058735 0.4835995
0001f0 e7 24 d0 3e 02 6c 31 bd b0 cc b9 3e 2a 80 7e be
       0.40653154 -0.043315895 0.36288977 -0.24853578
000200 96 51 b0 3e 97 3f c1 be 10 56 44 bc 9f 58 e3 3e
       0.34437245 -0.37743828 -0.0119834095 0.4440355
000210 91 68 ce 3b 0c e1 f8 3c 1d e2 e7 be cd 2e 9c 3e
       0.0062990864 0.030380748 -0.45289698 0.30504456
000220 18 2a bb 3e 15 13 ab 3e b8 82 d8 bc cb 43 c2 3e
       0.36555552 0.33412996 -0.026429519 0.37942347
000230 5d 97 e7 3e 4d 6f 94 3e 02 e3 be 3e e5 bc e3 3e
       0.4523267 0.28991166 0.37282568 0.44480053
000240 20 9d 06 bf 0e 03 27 bf fb 6a d7 3e 48 85 ca 3e
       -0.52583504 -0.65239036 0.42073807 0.3955481
000250 91 6c 26 bf 31 04 2d 3b 83 c5 cd 3e 1f 97 d0 3e
       -0.6500941 0.0026400203 0.40189752 0.40740296
000260 ad 60 cb 3e 3c 6c 79 bc 39 f6 d6 3e 74 70 d3 3e
       0.39722195 -0.015223559 0.41984728 0.41296732
000270 c4 3b 09 bf 2a 09 f9 be 24 aa ab 3e 8c 38 e2 3c
       -0.5360682 -0.48639804 0.33528244 0.027614854
000280 b8 40 f8 3c 53 dd b7 3e 28 aa b0 3e 16 10 c9 3e
       0.030304298 0.35911044 0.3450482 0.39270085
000290 e3 e1 ab bd 00 a7 bd 3e ed f3 61 bd c0 2d c2 3e
       -0.08392694 0.37041473 -0.055164266 0.3792553
0002a0 94 4a 98 3e 43 43 ae 3e 37 ee d5 3e 63 82 d4 3e
       0.297444 0.34035692 0.41783306 0.41505727
0002b0 85 07 b6 3e c4 ee 24 bf f9 94 92 3e 36 34 cc 3e
       0.35552612 -0.6442683 0.28629282 0.39883584
0002c0 5a 1d 75 be 79 dc e4 bc 94 21 c9 3e 07 f8 b9 3e
       -0.23936978 -0.02793716 0.3928343 0.36322042
0002d0 1e 80 9a 3e 0e dd c2 be db 85 b4 3e 78 85 d7 bc
       0.3017587 -0.38059276 0.35258374 -0.02630876
0002e0 cb ff d5 3e 6d f1 b0 3e b9 ba 09 3d 96 53 be 3e
       0.41796717 0.34559193 0.03362534 0.37173146
0002f0 d7 ab da 3d 73 25 2f bf 74 cf c0 3e c1 f8 bb 3e
       0.10677307 -0.6841652 0.37658274 0.36713222
000300 b9 de 93 3e d3 04 e6 3e 73 8a c7 3e 0b 18 bb 3e
       0.2888086 0.44925556 0.38972816 0.3654178
000310 83 2a e8 be 7a 02 87 3e 34 a0 bf 3e 7a 56 dc 3e
       -0.45344934 0.26369077 0.37426913 0.43034726
000320 84 c4 8f bc 4c 55 17 bf 23 6f 21 bd ea 5a 00 bf
       -0.01754976 -0.5911453 -0.03941263 -0.50138724
000330 4c ba 21 bf 5d 2e d3 3e a9 5d ff be c0 36 b3 3e
       -0.6317489 0.4124631 -0.49876145 0.35002708
000340 d0 ac 2c 3c 2f 3b f3 be fe 15 db 3e 9d 49 bc 3e
       0.010539249 -0.4750609 0.42790216 0.36774912
000350 20 ba 48 3c 0c 10 52 bd 09 03 c7 3e b6 de f3 3e
       0.012251407 -0.051284835 0.38869503 0.47630852
000360 dc 6e bb bc bd bd 63 bd 52 b3 f2 be fe d5 9f bc
       -0.02288001 -0.05560087 -0.47402436 -0.01951122
000370 90 16 05 3d de 49 a4 3e a1 61 f9 3c 2b 7a 03 bf
       0.03249222 0.32087606 0.03044206 -0.5135829
000380 c5 c8 da 3e 81 40 28 bf a1 fb f0 be 30 f9 c3 3e
       0.427313 -0.65723425 -0.47066978 0.38276052
000390 c8 79 9e 3e f7 e1 de 3e e4 ea 94 3e 53 2e b7 3e
       0.30952287 0.43531772 0.29085457 0.3577753
0003a0 09 f4 ed be 36 90 ad 3e 29 2e 1f bf d9 1c fc 3e
       -0.46475247 0.33899087 -0.6217981 0.4924076
0003b0 c3 88 50 bd 4a 60 b6 3e d7 e9 a5 3e 0a 7c c5 3e
       -0.050911676 0.35620338 0.32404968 0.38571197
0003c0 09 12 c2 3e 07 79 cd 3e 49 c5 84 3c 15 6f 93 3e
       0.37904385 0.401314 0.016207354 0.28795686
0003d0 ac 6d 56 bd 58 fd d1 3e bd 9a d3 3e 30 b2 ab 3e
       -0.052350685 0.41013598 0.41328993 0.33534384
0003e0 18 75 23 3d 9c 9f b9 3e a0 f6 c8 bc 61 4d c3 3e
       0.03990659 0.36254585 -0.024531662 0.38144973
0003f0 44 a8 ea be d2 51 3c bd 40 69 db 3e 16 6b b1 3d
       -0.458315 -0.045976467 0.42853737 0.08663003

fc3.bias f4 [2]
000000 b5 30 33 3e c0 d6 33 3e
       0.17499049 0.1756239
