projects/codes/A2C/outputs/CartPole-v0/20220829-143327/models/actor_checkpoint.pt (torch, 8607 bytes, 4 tensors)

fc1.weight f4 [256, 4]
000000 a9 13 25 bd ac 4c 78 bc 60 40 45 be fb 05 e9 3d
       -0.040301953 -0.015154999 -0.19262838 0.11378094
000010 85 01 9a be 4a 2e 8c bd dd 0f b6 3e 19 1d 09 3f
       -0.30079284 -0.068447664 0.35558978 0.53560024
000020 77 f3 0c 3e a0 0d 3b be 38 b1 dd bd d4 f9 fe bd
       0.1376475 -0.18266916 -0.108248174 -0.12449995
000030 86 10 4b 3e 93 db 62 3d 70 e8 24 3e a9 1e eb 3e
       0.19830522 0.055385184 0.16104293 0.4592183
000040 5d fc 4e be a0 52 8c bc 0c 67 92 3d 66 da a8 bb
       -0.20213456 -0.017129242 0.07148561 -0.0051529882
000050 bc 0c b7 bc 1d 5c e1 be c5 63 13 bf 52 4b 09 bf
       -0.02234494 -0.4401559 -0.5757411 -0.53630555
000060 e7 f0 e6 be 58 7a eb be 05 f4 01 bf 6e de 03 bf
       -0.4510567 -0.45991778 -0.5076297 -0.51511276
000070 23 d8 fa be 9a e6 66 3e 7d 49 ec 3e 5f f4 d0 3e
       -0.48993024 0.22548905 0.46149817 0.4081144
000080 3e e4 8d 3e 94 6d 2e 3e ea f6 e6 3d 1a fa a5 be
       0.27713197 0.17033988 0.11277564 -0.32417375
000090 11 03 ff 3e 4e a7 31 3b 2d 59 02 3f 72 57 42 3e
       0.49807027 0.0027107778 0.5091732 0.1897867
0000a0 fd 97 cc 3e b5 e7 c0 3e d5 9f 74 be 4d 6b 4f be
       0.39959708 0.37676778 -0.23889096 -0.20255776
0000b0 7c a2 bb 3d da 2e a7 bc d8 c5 aa 3d ac ef 81 3e
       0.09161851 -0.020408083 0.08338517 0.25378168
0000c0 f6 9c ba be a4 b2 ce bc 49 e5 03 bf b7 54 db 3e
       -0.36447877 -0.025231667 -0.51521736 0.4283807
0000d0 6d 8c b3 be 7e 23 02 3e 52 6e 52 bc 89 a6 9f 3e
       -0.35068074 0.12708852 -0.012843685 0.31181744
0000e0 f9 da 3a 3c 75 09 7d bc 9e 0f 01 3f 4b 65 fd 3e
       0.011404746 -0.015444149 0.50414455 0.49491343
0000f0 c0 40 c1 be 41 24 f7 be d5 28 18 3e 48 38 4a 3e
       -0.37744713 -0.48269847 0.14859326 0.19748032
000100 e5 bc dc 3d 6b 4f ed 3e 51 7c a5 3e 6e 5c 3b be
       0.10778216 0.46349654 0.32321408 -0.18296978
000110 3e 83 b0 be e0 b8 c8 3e b9 4e 13 3f 35 8e 4a be
       -0.3447513 0.39203548 0.57541996 -0.1978081
000120 e7 2c 9d be a4 d5 32 3e cd 86 f5 be 24 28 36 be
       -0.3069832 0.1746431 -0.47954407 -0.1778875
000130 53 78 e8 be a8 16 0c 3e 43 87 a3 be 55 23 b4 be
       -0.454043 0.13680518 -0.31939134 -0.35183206
000140 0e e3 a1 be 73 38 37 be e8 85 a2 3e 61 47 96 3d
       -0.3161854 -0.17892627 0.31742787 0.07337833
000150 27 99 c9 3e 79 fd 32 be b4 43 5f bc 77 be 0c 3f
       0.39374658 -0.17479505 -0.0136269815 0.54978126
000160 fa 86 e8 be 92 2f 43 be 0c d3 b4 be a5 d4 ea 3e
       -0.4541548 -0.19061115 -0.35317266 0.4586536
000170 4b 3d 85 3e b0 ba 24 be 52 4d 1c be 14 93 24 3e
       0.26023325 -0.1608684 -0.1526387 0.16071731
000180 fa c4 1e be 33 56 0b 3e 96 78 cc be e4 f5 bf be
       -0.15504828 0.13607101 -0.3993575 -0.37492287
000190 cf b0 92 bc dd 32 97 3e 4f d4 dc 3e 03 8f b5 3d
       -0.017906575 0.29530993 0.4313073 0.08865168
0001a0 70 de 9d be 0d bf 7e 3e 7f c6 73 3e d0 01 5b 3e
       -0.3083377 0.24877568 0.23806189 0.2138741
0001b0 f8 17 3d be 5b 38 68 bd 9a d2 c7 3e 0c 4e 8e 3e
       -0.18466175 -0.05669437 0.39027864 0.2779392
0001c0 a1 67 aa 3e 0b 3b a3 be 37 b3 81 3e 0e 33 64 be
       0.33282188 -0.31880984 0.25332043 -0.22285101
0001d0 fd f0 b1 bc 14 42 6e be ad 15 b2 bd 81 c2 b5 3e
       -0.021721357 -0.23267394 -0.086955406 0.35499957
0001e0 2d 07 dc 3e 8d ce 23 3e af 14 a4 be 90 30 1a be
       0.42974225 0.15996762 -0.3204703 -0.15057588
0001f0 25 a0 ab 3e 65 80 1b be de 99 c6 be 38 43 fe 3d
       0.33520618 -0.15185697 -0.38789266 0.12415165
000200 34 49 cd be ea f3 05 bb 82 f9 4c be ac 21 70 bd
       -0.40094912 -0.0020439574 -0.20017055 -0.058625862
000210 6a 08 a7 bd bc 82 96 bd 10 b8 f9 be 4b 0a d5 be
       -0.08155902 -0.07349154 -0.4877324 -0.41609415
000220 bf 07 18 3e 33 bd db 3e ce 37 bf be 7d 98 e4 be
       0.14846705 0.42917785 -0.37347263 -0.4464759
000230 b9 3e 8b be c3 09 f7 3e c7 a9 b5 3e 13 00 08 bf
       -0.2719629 0.48249635 0.35481092 -0.53125113
000240 22 53 fb 3d 10 70 99 3d a8 bf c6 3e 3c 9b 3d be
       0.12271716 0.07492077 0.38818097 -0.18516248
000250 f4 01 3e 3e 90 06 78 be b6 6c 1b bf c9 98 6f bc
       0.18555433 -0.24221253 -0.60712755 -0.014623829
000260 7a b3 51 be 98 61 18 bd 3a bd 85 be 09 40 f7 be
       -0.20478621 -0.037202448 -0.2612093 -0.48291042
000270 13 0e 96 3e 84 de b0 3e 72 58 97 3e 3d 0f c8 3c
       0.29307613 0.34544766 0.29559666 0.024421329
000280 b9 f1 01 bf df 9c cc be 6c 34 97 3d 42 c1 08 3c
       -0.50759465 -0.39963433 0.073830456 0.0083468575
000290 c9 89 f4 be 35 e2 a0 3e 8c c8 71 be 8d df 46 3d
       -0.47761372 0.31422582 -0.23611659 0.04855304
0002a0 31 e2 ee be fd d3 0e 3e aa ea ef bc f7 c7 a6 3e
       -0.46656945 0.13948055 -0.029286701 0.32574436
0002b0 50 4c ee 3d 0a e1 c6 be 81 e6 a9 3e ad 1c 03 bf
       0.11635649 -0.38843566 0.33183673 -0.5121563
0002c0 fb ae 75 3e d7 fd b2 be ce 88 8d 3e 9e ea fb 3d
       0.23992531 -0.3495929 0.27643436 0.12300609
0002d0 43 41 0a 3e b4 d6 a9 bd 54 a5 17 3f 21 7a 04 3f
       0.13501458 -0.082929045 0.59236646 0.51748854
0002e0 32 4d b6 bd f6 95 45 be 90 9c 11 3e 94 7b b7 3e
       -0.089014426 -0.19295487 0.1421988 0.3583647
0002f0 a4 2c f6 3e a6 7b e7 3e 52 5f 0c 3e fb 7e 6c 3c
       0.48080933 0.45211524 0.13708237 0.014434571
000300 60 cb ad be ab a4 bb be cb 54 bc 3e 5d c7 d2 be
       -0.33944225 -0.3664907 0.36783442 -0.41167727
000310 81 df 18 bd 65 1d be 3e 37 3b 17 bf 1d 95 db be
       -0.037322525 0.371318 -0.5907473 -0.42887202
000320 26 af 02 bf 42 a5 8d 3e bb f1 87 3e 31 79 bf 3e
       -0.51048505 0.27665144 0.26551613 0.3739715
000330 c5 c4 40 bd 9d c8 14 be 20 4b d5 3e e8 16 a3 be
       -0.047062654 -0.14529653 0.41658878 -0.31853414
000340 a4 85 a9 be 8e 00 b0 3e 14 c0 11 3f 10 17 54 be
       -0.33109772 0.34375423 0.5693371 -0.20711923
000350 ce de ff be 56 1c 53 bc 05 2a d0 3d a6 e8 65 3e
       -0.49974674 -0.012885174 0.101642646 0.2245203
000360 ce aa 88 3e 21 18 a0 3c f2 72 f1 be eb a2 bf bd
       0.26692814 0.019542756 -0.4715801 -0.09357246
000370 bc 90 79 3e 26 4d 9e 3d 7c 9f 87 be 3c 40 a0 ba
       0.24371618 0.07729559 -0.26488864 -0.0012226175
000380 bc 3a 8a bd 23 4c 60 be 1b cf f4 3d b6 a1 0c 3e
       -0.06749484 -0.21904044 0.11953565 0.13733563
000390 bc c5 c9 3e 8b ed b8 3e 5d 99 1e be 48 19 e7 be
       0.39408672 0.3611873 -0.15488191 -0.45136476
0003a0 fa 00 0b 3e c0 f2 87 3e 72 a5 f2 3e 12 51 c6 3e
       0.13574591 0.2655239 0.4739185 0.38733727
0003b0 ed 4b 6f 3e 64 df d5 3d 5a ce 37 3e df 91 a0 3e
       0.23368807 0.10442999 0.1794981 0.3136129
0003c0 ab a1 f4 be 55 bf 86 3e a8 cb f3 3d 71 f8 d2 3d
       -0.47779593 0.2631785 0.11904079 0.10301293
0003d0 c9 9f 15 be d4 e1 c6 3d 2b 36 40 bd 47 09 0c bf
       -0.14611734 0.09711042 -0.04692666 -0.54701656
0003e0 97 90 81 be b3 5c 83 3e 99 69 67 be 66 35 fa bd
       -0.25305626 0.2565666 -0.22598876 -0.12217216
0003f0 87 64 a7 3e 29 e0 8f 3e 38 68 a5 be 79 02 8d 3e
       0.32693884 0.28100708 -0.32306075 0.2754095

fc1.bias f4 [256]
000000 d8 ec 2f be 04 02 ff 3e 3e e5 79 3c 8a 1d 83 3e
       -0.17180192 0.49806225 0.0152524095 0.25608474
000010 14 f2 54 be 24 dc 41 b9 8c 58 21 3e 92 87 c6 3e
       -0.2079547 -0.00018487923 0.15756434 0.38775307
000020 b9 15 da bc f2 1f b6 be 9f e5 aa 3e bc 98 b4 be
       -0.026621686 -0.35571247 0.33378312 -0.35272777
000030 bd e1 ee 3e ca fd 4a 3e 3d 59 fa 3e 14 de 8d be
       0.466566 0.19823375 0.48896208 -0.27708495
000040 3e b7 69 3d 16 11 90 bc f7 df 1c bd a8 e0 96 3e
       0.05705952 -0.017586272 -0.038299527 0.29468274
000050 71 3f b0 be b4 df 7e 3d ac ae 1f be 22 bf 3f be
       -0.34423402 0.06222506 -0.15593976 -0.18725255
000060 e8 d5 34 3e 70 b8 38 be db ae 8f be 8e bb a7 3e
       0.17659724 -0.18039107 -0.28063092 0.3276028
000070 9d 3d 5b be 5b c8 9e bd 9a a9 cf be b6 fa cf be
       -0.21410222 -0.077530585 -0.40559083 -0.40620965
000080 ff 05 82 3e 2c cb ba 3e 3f 41 4b be 6a a2 d0 bd
       0.253952 0.36483133 -0.19849108 -0.10187228
000090 2f fa 1d be 77 26 5d 3e cc e2 30 3e a1 2a 0e bd
       -0.15427469 0.21596704 0.17274016 -0.034708623
0000a0 93 af d4 3e 7c 7c d8 3e 90 6a 08 3e d0 35 eb 3c
       0.41540202 0.42282474 0.133219 0.028712183
0000b0 fb 2a f2 be e2 ca b4 3e bd 24 b7 be a4 11 b6 3d
       -0.47298416 0.35311037 -0.35770217 0.088900834
0000c0 54 d9 f4 be 2e de 76 3e 9a 69 73 3e 5a fe bb be
       -0.47822058 0.24108192 0.23770753 -0.36717492
0000d0 47 b6 06 3e d8 9e ef bd 34 52 af 3d ea 0a 36 be
       0.13155471 -0.11700219 0.08560601 -0.17777601
0000e0 11 0e d1 3e 88 49 9e 3e 81 ad db 3e fa fd 84 3e
       0.40831044 0.30915475 0.4290581 0.2597502
0000f0 f6 ae 03 3e d1 2f 98 3e b9 95 b0 3e 55 df dc be
       0.12859711 0.2972398 0.3448923 -0.4313914
000100 3c 71 89 3e ca c8 14 be 85 1f 4b be ab 69 75 3e
       0.26844203 -0.1452972 -0.19836242 0.2396609
000110 ca c3 d0 be e5 03 ff bd 0c 64 fe bd d4 ca c1 3e
       -0.40774375 -0.12451915 -0.12421426 0.37850058
000120 9a 2d c9 be 36 7e 77 bd 08 9b 74 bd d3 2b ff 3d
       -0.39292604 -0.0604231 -0.05971816 0.12459531
000130 0d 3e 7b bd fc 89 88 bd e4 b8 50 be 51 07 9b 3e
       -0.061338473 -0.066669434 -0.2038303 0.3027902
000140 0d 96 ae be 53 36 9c 3e 21 cf 9d 3e e3 f8 bc bd
       -0.34098855 0.30510196 0.3082209 -0.09227159
000150 ac 83 e1 3e cc 58 a2 3e 91 8a da 3d ed 2c f9 3e
       0.4404577 0.31708372 0.10670961 0.48667088
000160 43 62 3d 3e 6f 72 6d bd ed f7 c1 3e c2 36 52 3e
       0.18494515 -0.05797046 0.37884465 0.20528701
000170 e4 dd 8a 3e 2f c9 53 3e f4 76 49 3e 97 dd 97 3e
       0.27122414 0.20682214 0.19674283 0.29661247
000180 de b2 f7 3e 3c ad dd 3e 3c 8f 1b 3e e8 25 7a be
       0.48378652 0.4329623 0.15191358 -0.24428523
000190 41 49 c0 be 44 f5 f4 be d8 49 9e 3e 01 14 31 3e
       -0.37555888 -0.47843373 0.30915713 0.17292787
0001a0 24 99 be 3e 26 e4 a6 3e f3 e4 71 be 63 3f 4c 3e
       0.37226212 0.32595938 -0.23622493 0.19946055
0001b0 92 80 bf 3d 1b cd 92 be 8a a8 f6 3d 05 e3 f9 be
       0.09350695 -0.28672108 0.12043865 -0.48806015
0001c0 ba d5 e0 3a e3 32 e0 3e 99 2d 6e 3d e7 2f 33 be
       0.0017153539 0.43788823 0.058148954 -0.17498742
0001d0 72 44 b0 3e 74 db 22 3e 64 d6 9a be 39 aa ab bd
       0.3442722 0.15904027 -0.30241692 -0.08382077
0001e0 c7 04 d1 3e b0 7c e0 bc 05 18 a0 be f9 fe 84 be
       0.40823957 -0.027403206 -0.31268325 -0.2597578
0001f0 0d b5 62 be 20 5d cf be 3e 1a d2 3e 66 25 89 be
       -0.22139378 -0.40500736 0.41035646 -0.26786345
000200 2e e2 9c bd d1 42 28 bc d3 c0 21 be e9 c5 d6 3e
       -0.07660328 -0.0102698365 -0.15796213 0.41947868
000210 60 ce c2 be 4c 80 3b bc b2 56 cb 3e c0 09 bc 3d
       -0.38048077 -0.011444163 0.3971458 0.09181547
000220 60 6d 6a 3b 02 58 20 3c 24 55 f0 be 38 b9 c4 be
       0.003577076 0.009786608 -0.46939957 -0.3842256
000230 a2 6a 34 be d1 fc e1 be 83 b5 b0 bc 0c 86 8b be
       -0.17618802 -0.44138196 -0.021570927 -0.27250707
000240 91 68 ad 3d 72 27 aa 3d b6 3b bd be 89 21 9c be
       0.0846721 0.08308305 -0.36959618 -0.30494335
000250 58 4a d9 3e 19 aa 88 3e 77 f7 d0 be 81 12 51 3e
       0.42439532 0.26692274 -0.408138 0.20417215
000260 b8 96 5a bc 70 ce 74 be b4 52 d7 3e fb 63 fd bd
       -0.013341598 -0.23906875 0.42055285 -0.123725854
000270 6b 5f e9 3e d7 e5 75 be 76 9f c2 be b8 28 fc bd
       0.4558061 -0.24013458 -0.38012284 -0.12312454
000280 8a 96 94 3e 46 7c 63 3e 7a 84 65 3e 34 a9 74 3e
       0.29021102 0.22215375 0.22413817 0.23892671
000290 01 32 db be 7c c4 95 3e fd ad a9 3c 9e c7 88 be
       -0.42811587 0.29251468 0.020712847 -0.26714796
0002a0 40 1e 8f 3e c5 65 d7 3d 18 23 37 be ae 2a c7 bd
       0.27952766 0.10517458 -0.17884481 -0.097249374
0002b0 6d 09 bc be 74 34 8f 3e ba 31 40 3e 32 6a c7 be
       -0.3672594 0.27969706 0.18768969 -0.38948208
0002c0 31 f6 df 3e fa e5 79 3e 68 98 80 3e 1b 49 ae bd
       0.43742517 0.24404135 0.25116277 -0.085100375
0002d0 6f c0 10 3e 12 85 7d 3e 02 fe 02 3e fc cb c3 3e
       0.14135908 0.24757794 0.12792209 0.38241565
0002e0 f8 ad 7a be 68 9b 77 be ce ac 75 3e 38 4c f9 3c
       -0.24480426 -0.24180377 0.23991701 0.030431852
0002f0 e6 84 d8 bd c1 ee ea 3e 1a cc 09 be eb b6 ad 3d
       -0.10572223 0.4588528 -0.13456765 0.084821545
000300 31 1c c2 be ac 72 2f 3e e0 8e a8 be 1c 86 5e be
       -0.37912133 0.17133588 -0.32921505 -0.21730846
000310 91 96 e4 be af a4 2a 3e ed 15 ec 3b 90 0d e5 3e
       -0.44646123 0.16664384 0.007204762 0.4473691
000320 75 aa 81 3e 5e 5c 7b 3d b1 2f c4 be 8a f0 03 be
       0.2532536 0.061367385 -0.38317636 -0.12884727
000330 36 ea 13 3e e3 93 20 3e 8a 5b f5 3e d3 06 07 bf
       0.14444813 0.15681414 0.479214 -0.5274479
000340 2b 32 48 be ae ee 99 3e 5b ec 21 be d3 a6 73 be
       -0.19550388 0.3006491 -0.15812819 -0.23794107
000350 85 c3 c7 3e 18 e5 61 3e c0 a7 7d 3e ce a2 af 3e
       0.39016357 0.22060049 0.24771023 0.34303898
000360 22 7a 20 be 8a 5d ea 3d 82 f5 ab 3e 34 36 7f be
       -0.1567159 0.114436224 0.33585745 -0.2492302
000370 20 ff bd 3e 98 a7 e8 be 2b e4 d4 3d 09 c7 9c 3e
       0.37108707 -0.45440364 0.10395082 0.30620602
000380 cf fd 54 3e 06 b6 b6 3e b8 3e 44 be cf e5 f6 3e
       0.20799945 0.35685748 -0.1916455 0.48222205
000390 17 b9 dc bc 86 5d d3 3e d2 a0 d8 3b 54 3f e8 bd
       -0.026943726 0.4128229 0.006610968 -0.11340204
0003a0 23 c3 90 bd 51 b3 d9 3e 9f bd bd bd 66 2c 7a 3d
       -0.070684694 0.4251962 -0.09264683 0.061077498
0003b0 24 17 18 3c e9 58 be be ba c8 2a be 02 b1 22 3e
       0.009282861 -0.37177208 -0.16678134 0.15887836
0003c0 00 f9 a8 3e 34 e4 ca bc 94 16 c8 be a3 ca 04 3d
       0.33002472 -0.024767019 -0.39079726 0.032419812
0003d0 d7 cb 79 bd dd 02 ea 3e 4c 50 9b be 92 0d b8 be
       -0.060985412 0.4570531 -0.303347 -0.35947853
0003e0 7e 90 bb 3d 42 5b e9 3e 5b 46 a1 3e c6 aa ab bd
       0.09158419 0.45577437 0.3149899 -0.08382182
0003f0 c1 a6 88 3e bc d4 ed bd 72 fa d0 3d 42 51 00 bf
       0.26689723 -0.116128415 0.10204019 -0.5012399

fc2.weight f4 [2, 256]
000000 e3 6b 53 3c 00 d8 9d bd 03 70 d1 3d e3 d0 c8 3c
       0.01290414 -0.07707214 0.10226443 0.024513667
000010 a7 79 ae bb c8 2c fa 3d 90 c7 76 3d 08 8c b2 bd
       -0.0053245607 0.122155726 0.06024891 -0.08718115
000020 9e 6b 96 3d cb 7f 95 bd 7e 0a 4f 3d b6 0a 70 bd
       0.07344745 -0.07299765 0.050547116 -0.058603965
000030 6d 49 e4 3b d7 32 0e 3c 2c 29 54 3c 02 5c 5a bd
       0.006966761 0.008679113 0.012949269 -0.0533104
000040 e4 96 32 bd b7 95 03 bd 0a 66 bf 3d 48 d7 62 3c
       -0.04360093 -0.0321252 0.09345634 0.013845272
000050 5a 2b 2e bd 8a 3e c5 bc b4 5f 04 bd 44 07 50 bd
       -0.042521812 -0.024077673 -0.032317832 -0.05078818
000060 75 3b 98 3d 8c b1 5f bd 88 30 d0 3c 65 9b ac bd
       0.074332155 -0.05461268 0.025413767 -0.08428077
000070 70 f4 8b 3b 8c 5d 52 bd 9a 98 d9 3c b2 41 0c bd
       0.0042710826 -0.051358745 0.026562024 -0.03424234
000080 18 82 22 3d fc 86 55 3d 1a a6 47 bc 5c 33 f2 bb
       0.03967485 0.052130684 -0.012185598 -0.0073913764
000090 6b 02 75 3d 67 f5 44 3d 01 84 36 3d 68 d8 99 3c
       0.05981676 0.048085596 0.044559482 0.018779948
0000a0 98 a9 cd bc c8 de 54 bd 61 c2 e4 bc fa 24 13 3e
       -0.025105283 -0.051970273 -0.027924718 0.14369574
0000b0 46 92 92 3a cf e1 15 3c c4 04 96 bd 61 e6 24 3c
       0.0011182509 0.009148075 -0.07325128 0.010064692
0000c0 ee 9a a9 3b ae df f8 3c b0 50 31 bd 23 e9 fa 3c
       0.0051759398 0.030380096 -0.04328984 0.030628746
0000d0 c4 92 49 3c 27 4d b0 bc 9a 90 79 3d ff f8 7f bd
       0.012303058 -0.021521164 0.06092892 -0.06249332
0000e0 8f 9d 43 3d 94 f3 d9 3c c8 14 5d 3b 74 13 98 bd
       0.04775768 0.026605405 0.003373431 -0.074255854
0000f0 69 12 51 bd cf 1d d0 3c 07 cf 17 bd d8 a0 9a bc
       -0.051042948 0.025404839 -0.03706267 -0.018875524
000100 2b 0b 7e bc d1 b1 95 3d 20 92 7a bd 33 1d 2f bd
       -0.015505592 0.073093064 -0.061174512 -0.042752456
000110 f6 11 06 3d 00 ef 8c bd 76 c6 ef 3c c7 e6 24 ba
       0.032731973 -0.06881523 0.029269438 -0.0006290492
000120 0f 08 dd 3c 13 15 07 3d db 85 6a bd af af d5 3d
       0.026981382 0.032979082 -0.05725656 0.104338996
000130 ea f4 99 bd 59 11 6c 3d ea 92 80 bc 71 2c 98 bc
       -0.07517417 0.05763373 -0.015695054 -0.018575879
000140 fa fb 8e 3c 4f 74 99 3c 50 4d 21 bb 49 17 55 bd
       0.017454136 0.018732218 -0.0024612732 -0.05202416
000150 ca 97 09 3d 9d 57 01 bd d2 3c a9 bd 90 d3 fb 3c
       0.033592023 -0.031577695 -0.08263554 0.03074053
000160 11 ed d7 bc 5b 1f db 3d 3a d0 ba bc 42 02 b4 bb
       -0.02635816 0.1069934 -0.022804368 -0.005493433
000170 5d da d4 bc 24 8d 1a 3c 67 0f 21 bd 37 8b 06 bd
       -0.02598303 0.009433065 -0.03932133 -0.03284761
000180 ee 9f eb bc 44 75 63 3d 99 4a 25 3d 6b 1c 65 bd
       -0.028762784 0.055531755 0.040354345 -0.055935305
000190 8a 9b c4 bc 44 8d 05 3d ea 47 7b bd ff db 84 bb
       -0.023999948 0.032605425 -0.06134788 -0.004054546
0001a0 f0 61 89 3d 3e db 83 bc a2 c8 cc 3d ee ef 5b bc
       0.06708133 -0.016095754 0.09999205 -0.013423903
0001b0 51 4a ed 3d f1 d2 84 bc d6 61 97 bd f2 0e cd 3c
       0.1158644 -0.016213866 -0.073917076 0.02503154
0001c0 84 2c c9 3d 73 30 b2 3c 3f 49 34 bd c4 5f 7b bc
       0.09822944 0.021751618 -0.044015165 -0.0153426565
0001d0 f0 2c 92 3a 98 d2 08 3d a9 eb 21 bd 09 e0 c3 ba
       0.0011152308 0.033403963 -0.039531384 -0.0014944087
0001e0 c9 96 60 bc 7b 53 e2 3d fd 66 1a 3d 0c 24 ef 3a
       -0.013707825 0.11051079 0.037695874 0.0018244996
0001f0 0f ab a7 3d 8f e3 12 3d 5a 5a fc bb 33 b9 56 bd
       0.08186924 0.035861548 -0.0077012004 -0.052422713
000200 ce 06 c8 bd a0 82 96 3d 65 22 5a 3d 95 0d 0c bd
       -0.09766923 0.073491335 0.053255457 -0.03419264
000210 ca 66 d5 bb 81 03 a2 3c 5c e3 a4 bd 22 a3 b3 3d
       -0.0065124976 0.019777061 -0.08051178 0.087713495
000220 92 60 0d 3e 6c ed bb 3d 3c 08 ac bc e5 c6 bd 3c
       0.1380637 0.09176144 -0.02100002 0.02316613
000230 dc 50 ce bc 85 3d 2f 3d f2 a1 3a bd 6a 23 cf 3c
       -0.025185041 0.04278328 -0.0455646 0.025285441
000240 d9 e6 30 bb 70 5f ba bc 3a ff 05 3d 4a 98 83 3d
       -0.0026993065 -0.022750586 0.032714106 0.06425531
000250 57 91 d9 3b 8b 5f 92 bc d8 45 29 bd f2 0e 57 bd
       0.0066396403 -0.017867824 -0.041326374 -0.052504487
000260 ab 5c f9 3b e9 d3 0b bc 27 39 7d bd 15 fc 04 be
       0.007609924 -0.00853441 -0.061822083 -0.12986787
000270 a6 12 af 3d 00 ae a0 bc 36 78 63 bd 90 a5 5e 3c
       0.08548479 -0.01961422 -0.055534564 0.013589278
000280 3a b2 09 3d 46 b7 38 bd f2 7f 18 bd 60 22 bf bd
       0.033617236 -0.04509666 -0.037231393 -0.093327284
000290 10 43 d7 3c c8 12 bb 3d d2 4b 19 3d 37 0e a0 bd
       0.026277095 0.091344416 0.037425824 -0.07815211
0002a0 88 c4 32 3d 07 79 46 bd 1b e3 e2 bc 57 1b 0b be
       0.043644458 -0.048455264 -0.027696183 -0.13584648
0002b0 a3 6a 83 3d e6 f0 65 3d 39 ee 84 3c 6c fa 8b bc
       0.06416824 0.05613794 0.016226875 -0.017087184
0002c0 fb ea 26 bc 1b 9c 84 3d 9f 07 c2 3d be 62 22 bd
       -0.01018786 0.06475087 0.0947411 -0.03964495
0002d0 db 23 7e bd a7 77 df 3c 4c bc 19 bd 37 09 d5 bc
       -0.062045913 0.027278734 -0.03753309 -0.02600537
0002e0 ed 6f db 3c dc f6 6d 3a 96 81 7e bd 7a 9c a6 3b
       0.026786769 0.00090776174 -0.0621353 0.0050845714
0002f0 3a 20 09 3d 8b 35 13 bc 66 96 ed bc 81 4f 10 3c
       0.033478 -0.008984934 -0.02900238 0.008808018
000300 bb c4 15 3d a3 3e 66 bd 82 f5 b0 b9 4e 42 49 3d
       0.03656457 -0.05621208 -0.00033752254 0.0491355
000310 ef 64 a4 bc c9 2e a4 3c d0 c7 b3 3d 7f b8 b1 bc
       -0.02006766 0.02004184 0.087783456 -0.02169442
000320 a2 c2 b5 3a 52 1c cf bd ef 38 34 bc d0 6d b7 3c
       0.0013867209 -0.101128235 -0.010999902 0.02239123
000330 36 d4 c2 3c 51 88 8d 3d 7d 3d 98 3b 4b 05 82 3b
       0.02378283 0.06910766 0.004646002 0.003967916
000340 1e c1 95 bc 33 ef eb 3b 29 ea 89 bd dd 9d 2f bd
       -0.018280562 0.0072001456 -0.06734116 -0.04287516
000350 9f 3a 3e bd ab c1 8f bd a7 c9 d2 bc 53 f0 99 3d
       -0.046442624 -0.07019361 -0.025730921 0.07516541
000360 66 f8 8b bd 7b e8 53 bd 4d 43 99 3d 99 40 ce bc
       -0.068344876 -0.051735383 0.0748354 -0.025177287
000370 67 32 2a 3d 56 c6 29 3c d5 8a 69 bd bf 6d da bc
       0.041551974 0.010362228 -0.057017166 -0.02666366
000380 39 f1 be 3d 6b 5c b8 3d ec e1 b4 bc ab 84 45 bb
       0.09323353 0.09002002 -0.022080384 -0.003013889
000390 92 f2 8b bd da b9 62 bd 1e aa a7 bc 05 e2 db 3c
       -0.06833376 -0.055353023 -0.02046686 0.026841173
0003a0 05 1b 05 3d ab fc 59 bd ce df c7 bb 61 74 82 bd
       0.03249647 -0.05321948 -0.0060996776 -0.06369854
0003b0 6a 75 69 bd e8 79 7a bc 90 11 4a 3d 91 42 c1 3c
       -0.05699674 -0.015287854 0.049333155 0.023591312
0003c0 aa 20 4e bd 31 5e 83 bd f5 68 73 bd 2a 4b 66 3d
       -0.05032412 -0.0641445 -0.059426267 0.056224026
0003d0 cf 08 56 3a 76 4c 8c bd c2 ac 6d bc 3c 51 81 3d
       0.0008164765 -0.06850521 -0.014506521 0.06314322
0003e0 ed c7 ab bc 97 11 2e 3d 53 77 06 bd e7 f9 38 bd
       -0.020969355 0.042497244 -0.03282864 -0.0451602
0003f0 df a1 c3 bd 2b b9 ad 3d 33 28 aa 3d 1d 22 44 bd
       -0.09552359 0.084825836 0.08308449 -0.047884095

fc2.bias f4 [2]
000000 a9 06 b9 3c 8b 8c c0 bc
       0.022586184 -0.023504516
