projects/codes/A2C/outputs/CartPole-v0/20220829-143327/models/critic_checkpoint.pt (torch, 7583 bytes, 3 tensors)

fc1.weight f4 [256, 4]
-0.27386177 -0.49687165 0.39588916 0.14745015 0.2101388 -0.360866 -0.32980502 -0.15361995
0.22314185 -0.08052009 0.0801093 0.46418184 -0.1782133 0.12840289 0.18320608 -0.12376511
-0.27819145 0.2932043 -0.34555203 0.46027488 0.00830096 0.209853 -0.25541306 -0.20459473
0.12411904 -0.32854068 0.108842075 -0.26050532 -0.01711756 0.09562081 0.04554975 0.15543962
-0.018417895 -0.43803573 0.25351006 -0.20855457 -0.41211617 0.36693865 0.43400478 0.16446483
-0.012656927 -0.123734176 -0.2226091 0.05139613 -0.29367197 0.40730536 0.16389656 -0.31283098
0.27501386 -0.18125689 0.23972607 0.14861256 0.26612693 0.23159742 0.42531407 0.0810523
-0.15443444 -0.16604638 -0.19443876 -0.16827315 -0.27668083 -0.34627944 0.38158196 0.023570001
0.4002866 0.48683244 0.37705296 0.31743312 -0.23067498 -0.058965445 0.12783736 -0.42215806
0.30099052 0.104606986 -0.35289413 0.0044543743 0.20679414 0.36241448 0.40744835 -0.03378886
-0.060227633 0.3989659 -0.19576734 -0.10257846 -0.081498325 0.09568232 0.011185825 0.31006622
0.103547335 0.12423873 -0.11429459 0.46206433 0.00026285648 -0.48812443 0.09012246 0.2533331
-0.07712829 -0.46230185 0.050846517 0.41932225 0.1557594 0.11088711 -0.4936781 0.013608873
-0.32391125 0.43510562 -0.48974687 0.17167044 -0.33658642 0.29633003 -0.2929774 0.089476526
0.47101837 0.22999799 0.1677416 0.48631763 -0.018372357 -0.3819167 -0.2691145 0.29501206
-0.47080684 0.050563574 0.006900668 -0.32913846 -0.09281725 -0.3387385 -0.20493281 -0.3687017
0.29919565 -0.35239834 -0.33497614 -0.08784759 -0.06446129 -0.26145548 0.47659892 0.23137009
0.14747477 -0.03593278 -0.010611951 -0.3580209 -0.34566534 0.37935203 0.30700952 0.08647448
-0.3762951 0.103749156 -0.28946066 0.18980819 0.06606251 0.4450794 -0.21112347 0.13988543
-0.059931755 -0.09734917 -0.30416697 -0.36615908 -0.18016511 0.18621361 -0.3268326 0.1568445
0.34875935 -0.12234002 -0.43771744 0.24534088 -0.18984729 -0.37858832 -0.42443538 -0.3232746
-0.020403981 0.008349419 0.44201618 0.4893713 -0.038852215 0.29879856 0.44183666 0.12985337
-0.13130784 0.15002936 -0.16077018 -0.48445934 -0.36580205 -0.13694704 0.4706127 0.035410047
-0.44599164 -0.07733756 -0.41537523 0.014583588 -0.25199032 -0.005983293 0.41278934 -0.16075546
0.14737648 -0.25899357 0.40140635 -0.17070138 0.49071467 0.47604883 0.29923356 -0.009107053
-0.23117864 0.14328766 0.12668544 0.14756936 -0.13154596 0.17934531 -0.3275407 0.35515022
-0.4055074 0.2112211 0.16712075 0.38487208 -0.21217895 -0.06723738 -0.36641127 0.031179428
0.4809026 0.09831864 0.23464656 -0.045339763 -0.45997995 0.19937503 0.028695524 -0.30013078
0.45860875 -0.27815473 -0.430574 -0.02515757 0.46541 0.45932043 -0.2026692 -0.053671002
0.14709514 -0.29606313 -0.45017177 0.41938692 0.44226152 -0.14720923 0.10759914 0.2695462
-0.099339545 0.42166764 -0.21753955 0.1283912 -0.33506954 0.18967855 -0.34929627 0.44063652
-0.29586416 -0.40078413 -0.017983556 0.08041012 0.07860106 0.4014048 0.13707119 0.2865587
00000000: 9c37 8cbe f665 febe fcb1 ca3e 2cfd 163e
00000010: a02e 573e 6ec3 b8be 34dc a8be 8c4e 1dbe
00000020: 4c7f 643e b8e7 a4bd 5810 a43d 3ea9 ed3e
00000030: 8c7d 36be 0c7c 033e 609a 3b3e 9078 fdbd
00000040: 1c6f 8ebe e01e 963e 32ec b0be 26a9 eb3e
00000050: c000 083c b4e3 563e 80c5 82be 4881 51be
00000060: 2032 fe3d 7c36 a8be 98e8 de3d f460 85be
00000070: 203a 8cbc d8d4 c33d 6092 3a3d 902b 1f3e
00000080: 20e1 96bc 3846 e0be 12cc 813e 548f 55be
00000090: e400 d3be 62df bb3e e035 de3e 7869 283e
000000a0: 005f 4fbc 5868 fdbd a4f3 63be c084 523d
000000b0: 2c5c 96be 548a d03e 80d4 273e 622b a0be
000000c0: 9ece 8c3e 689b 39be c07a 753e e42d 183e
000000d0: ca41 883e e027 6d3e c4c2 d93e c0fe a53d
000000e0: 1024 1ebe 1008 2abe f41a 47be cc4f 2cbe
000000f0: 1ca9 8dbe 8a4b b1be b65e c33e e015 c13c
00000100: 5ef2 cc3e 1a42 f93e 160d c13e 9886 a23e
00000110: 1036 6cbe c085 71bd cce7 023e 1a25 d8be
00000120: 6e1b 9a3e 303c d63d 8aae b4be 00f6 913b
00000130: d8c1 533e 648e b93e 129d d03e 3066 0abd
00000140: 40b1 76bd 4245 cc3e 3c77 48be a814 d2bd
00000150: 98e8 a6bd 18f5 c33d c044 373c 00c1 9e3e
00000160: a010 d43d e070 fe3d 4813 eabd b293 ec3e
00000170: 00d0 8939 72eb f9be 2092 b83d e0b4 813e
00000180: 70f5 9dbd d4b2 ecbe 7044 503d 68b1 d63e
00000190: 647f 1f3e c818 e33d 60c3 fcbe c0f7 5e3c
000001a0: b2d7 a5be 2ac6 de3e 1ac0 fabe 60ca 2f3e
000001b0: 0e55 acbe 92b8 973e 2201 96be 783f b73d
000001c0: 5229 f13e 9884 6b3e 74c4 2b3e a0fe f83e
000001d0: a081 96bc 968a c3be 60c9 89be d20b 973e
000001e0: 980d f1be c01b 4f3d 001f e23b d684 a8be
000001f0: f816 bebd 226f adbe e8d9 51be 78c6 bcbe
00000200: 2c30 993e 8e6d b4be fe81 abbe 70e9 b3bd
00000210: 4804 84bd 7edd 85be c604 f43e 48ec 6c3e
00000220: a003 173e 402e 13bd c0dd 2dbc 844e b7be
00000230: 0cfb b0be 6e3a c23e 5a30 9d3e 8819 b13d
00000240: c0a9 c0be 707a d43d 3034 94be 145d 423e
00000250: c84b 873d 72e1 e33e c030 58be 203e 0f3e
00000260: 007b 75bd 005f c7bd c6bb 9bbe 3479 bbbe
00000270: 347d 38be c8ae 3e3e 9a56 a7be d89b 203e
00000280: 9690 b23e 688d fabd 801c e0be a43a 7b3e
00000290: 5467 42be 54d6 c1be 984f d9be 4084 a5be
000002a0: 4026 a7bc 00cc 083c f24f e23e e08e fa3e
000002b0: 8023 1fbd 20fc 983e 6a38 e23e 48f8 043e
000002c0: 9075 06be 4ca1 193e f0a0 24be 0e0b f8be
000002d0: 684a bbbe d83b 0cbe 26f4 f03e 200a 113d
000002e0: 0459 e4be 2863 9ebd 10ac d4be 00f0 6e3c
000002f0: e004 81be 800f c4bb 2059 d33e 149d 24be
00000300: dce9 163e ce9a 84be 2285 cd3e 58cc 2ebe
00000310: f43e fb3e acbc f33e 2435 993e c035 15bc
00000320: 18ba 6cbe 00ba 123e d4b9 013e 6c1c 173e
00000330: fcb3 06be 4ca6 373e 6ab3 a7be 40d6 b53e
00000340: aa9e cfbe 584a 583e b421 2b3e f40d c53e
00000350: 7045 59be c0b3 89bd 429a bbbe 006c ff3c
00000360: de38 f63e 485b c93d 3047 703e 30b6 39bd
00000370: 7e82 ebbe f828 4c3e e012 eb3c beaa 99be
00000380: c4ce ea3e 4c6a 8ebe 3274 dcbe 4017 cebc
00000390: 384a ee3e 0c2c eb3e 8488 4fbe 20d6 5bbd
000003a0: 1ca0 163e 9695 97be ea7c e6be e2b9 d63e
000003b0: 1a70 e23e 04be 16be f05c dc3d f601 8a3e
000003c0: 8872 cbbd d2e4 d73e b0c2 5ebe fc78 033e
000003d0: 3c8e abbe 183b 423e f6d6 b2be 1c9b e13e
000003e0: 827b 97be 9433 cdbe 4052 93bc 10ae a43d
000003f0: 98f9 a03d ee84 cd3e 645c 0c3e d2b7 923e

fc1.bias f4 [256]
0.49586695 0.24242377 0.26025802 0.49462736 0.11132246 -0.23429233 -0.19755203 -0.16529351
-0.05999887 0.37020034 -0.13624173 0.2938288 -0.25514036 -0.068104684 0.15635353 -0.47971147
-0.29876518 -0.3877949 -0.36469764 0.45526713 -0.032266855 0.0065096617 -0.12779546 -0.041567445
-0.4275155 -0.15699983 0.20527065 -0.3003809 -0.21863258 0.43271136 0.05110538 0.3865835
0.41500002 0.36724675 -0.09854251 -0.36153835 -0.19578785 -0.1147818 0.18342936 -0.1655553
0.06965959 -0.050667167 0.38467103 -0.05992937 0.3765992 0.3770699 0.20775187 -0.16726726
0.36944604 -0.46245694 -0.30264938 -0.15014756 0.2203905 0.15921086 -0.350568 0.35789776
-0.49128407 -0.08888078 -0.39516133 -0.4096583 -0.2846583 0.29779613 -0.42784172 -0.28720385
0.25664914 -0.029630661 0.02744019 0.22885305 0.15650207 0.10060042 -0.076509714 0.2174111
-0.008731425 0.14220512 0.48983812 -0.1634664 0.2767787 0.31245977 -0.24771231 -0.043382883
-0.43099552 -0.29477358 0.36248672 -0.48892248 -0.35886514 0.1705569 -0.15695769 -0.21273649
-0.4089976 0.21776658 0.09847522 -0.29319972 0.29454917 -0.34783888 -0.18893564 0.09683663
-0.027862012 0.38873965 0.05458796 0.14376718 0.01873219 0.11301899 0.031790733 -0.3087952
-0.44047529 0.19851863 -0.17270106 0.43552905 -0.09854734 -0.36630678 0.288042 0.47604966
-0.30129474 -0.3046428 0.15257978 -0.22027445 0.37181634 0.37394863 0.02716422 0.12965286
-0.35705745 -0.24158925 -0.17921752 0.4033019 -0.2659186 0.2408328 -0.22784573 0.0821628
-0.3767072 -0.26484942 0.031120896 -0.29572183 -0.42634666 0.17090493 0.45991707 -0.10575348
-0.35678482 0.06853384 -0.46250892 -0.16604984 0.11825293 -0.485103 -0.33213282 -0.3695082
-0.37979072 0.42422044 -0.33028376 -0.30128682 0.44872493 0.25938725 0.22274607 0.104264796
-0.39858508 -0.02243805 0.49598795 0.37770087 0.3014375 -0.45304722 0.18174106 0.2004329
0.1581366 -0.47790468 0.37640214 0.10716075 0.09785056 0.21692526 0.146155 0.06749487
0.275236 0.15339589 0.09571928 0.23147118 0.27744412 -0.11450434 -0.31951034 -0.27854913
-0.10530138 -0.13012451 -0.28239614 -0.057281733 -0.24111319 -0.143677 -0.05214691 0.1447475
0.42858845 0.09351683 -0.12230855 0.40847814 -0.4171272 -0.0631395 0.42004192 -0.29064214
0.24022055 -0.28275257 -0.24457985 -0.4751476 0.274781 0.37168294 -0.49870855 0.29670697
0.276213 -0.46882164 -0.032520175 0.38944674 0.43209618 0.38353622 -0.2539971 -0.30775368
-0.34993798 -0.16514903 0.4487993 -0.23268819 -0.22208929 -0.3233006 0.0771305 0.078078926
-0.28759027 0.17773277 -0.32253468 -0.0139575 -0.07277846 0.17789942 0.46042818 0.39937752
0.2693897 -0.2159611 0.19590878 0.44476694 0.107596755 0.37178046 0.08117616 -0.21892124
-0.4991305 0.32141143 -0.20312202 -0.1374135 0.45216745 0.046910882 0.17386723 0.14894485
-0.1696642 -0.43800765 0.022600949 -0.18492359 0.027192056 0.49848425 -0.3019982 -0.24207097
0.36189544 -0.3836965 -0.04283136 -0.111412525 0.30166692 0.20955318 0.15424943 -0.31710887
00000000: 46e2 fd3e f03d 783e 8a40 853e cc3f fd3e
00000010: 08fd e33d 54ea 6fbe 144b 4abe b442 29be
00000020: 60c1 75bd e68a bd3e f482 0bbe ba70 963e
00000030: c2a1 82be 787a 8bbd 241b 203e be9c f5be
00000040: c0f7 98be 0e8d c6be a6b9 babe c618 e93e
00000050: 402a 04bd 004f d53b d0dc 02be a042 2abd
00000060: 50e3 dabe 90c4 20be 7832 523e 86cb 99be
00000070: 38e1 5fbe 588c dd3e e053 513d 46ee c53e
00000080: e27a d43e c407 bc3e a8d0 c9bd 8e1b b9be
00000090: 9c7c 48be b812 ebbd e8d4 3b3e 5487 29be
000000a0: b0a9 8e3d 6088 4fbd 9af3 c43e 8078 75bd
000000b0: 9cd1 c03e 4e0f c13e e8bc 543e 1c48 2bbe
000000c0: 0828 bd3e 28c7 ecbe dcf4 9abe 48c0 19be
000000d0: 0cae 613e 2c08 233e a67d b3be 603e b73e
000000e0: 9689 fbbe 2007 b6bd 9652 cabe bcbe d1be
000000f0: bcbe 91be bc78 983e 120e dbbe 620c 93be
00000100: 8467 833e 00bc f2bc 40ca e03c 7458 6a3e
00000110: 1442 203e 9807 ce3d 20b1 9cbd 04a1 5e3e
00000120: 400e 0fbc 389e 113e 10cc fa3e bc63 27be
00000130: f0b5 8d3e bafa 9f3e 4ca8 7dbe 40b2 31bd
00000140: 72ab dcbe 90ec 96be dc97 b93e 0c54 fabe
00000150: 2cbd b7be 78a6 2e3e 84b9 20be 98d7 59be
00000160: 2268 d1be 34fe 5e3e 60ad c93d 461e 96be
00000170: 26cf 963e f017 b2be 5878 41be 4852 c63d
00000180: e03e e4bc e208 c73e a097 5f3d b437 133e
00000190: 4074 993c 8076 e73d 0037 023d 681a 9ebe
000001a0: fa85 e1be 7848 4b3e 8cd8 30be aafd de3e
000001b0: 30d3 c9bd 908c bbbe 3e7a 933e c8bc f33e
000001c0: 4e43 9abe 24fa 9bbe e03d 1c3e a08f 61be
000001d0: b65e be3e 3276 bf3e 8087 de3c b8c3 043e
000001e0: 3cd0 b6be 2c63 77be cc84 37be 967d ce3e
000001f0: 7c26 88be e09c 763e 6450 69be f844 a83d
00000200: c4df c0be 589a 87be 40f1 fe3c da68 97be
00000210: 1c4a dabe b401 2f3e 407a eb3e 4895 d8bd
00000220: 80ac b6be 785b 8c3d f8cd ecbe f808 2abe
00000230: 982e f23d 6c5f f8be 500d aabe 2e30 bdbe
00000240: ee73 c2be 6c33 d93e f41a a9be 4442 9abe
00000250: 46bf e53e 68ce 843e 8c17 643e c888 d53d
00000260: 5813 ccbe 00d0 b7bc 22f2 fd3e 0262 c13e
00000270: 0456 9a3e cef5 e7be 541a 3a3e 483e 4d3e
00000280: 90ee 213e ecaf f4be c8b7 c03e 1877 db3d
00000290: e065 c83d a821 5e3e a8a9 153e c03a 8a3d
000002a0: bceb 8c3e d013 1d3e 7808 c43d c806 6d3e
000002b0: 280d 8e3e 4081 eabd dc96 a3be fe9d 8ebe
000002c0: 40a8 d7bd 5c3f 05be 3a96 90be 40a0 6abd
000002d0: 60e6 76be 1020 13be 0098 55bd b038 143e
000002e0: f26f db3e c085 bf3d e87c fabd 0c24 d13e
000002f0: b291 d5be 484f 81bd bc0f d73e 0ccf 94be
00000300: 60fc 753e f2c4 90be 2473 7abe 8c46 f3be
00000310: 18b0 8c3e 3a4d be3e ba56 ffbe fae9 973e
00000320: ca6b 8d3e 6409 f0be e033 05bd 9065 c73e
00000330: b63b dd3e dc5e c43e e80b 82be e491 9dbe
00000340: 122b b3be d41c 29be 06c9 e53e d045 6ebe
00000350: 606b 63be a887 a5be 98f6 9d3d d8e7 9f3d
00000360: 083f 93be 94ff 353e 4423 a5be 00ae 64bc
00000370: e00c 95bd 442b 363e 3ebd eb3e 367b cc3e
00000380: 72ed 893e e824 5dbe 509c 483e 7eb8 e33e
00000390: b05b dc3d 025a be3e b03f a63d e42c 60be
000003a0: 088e ffbe 0a90 a43e 38ff 4fbe 20b6 0cbe
000003b0: 7e82 e73e a025 403d 400a 323e 0085 183e
000003c0: 74bc 2dbe 8a42 e0be a025 b93c 9c5c 3dbe
000003d0: e0c1 de3c 5439 ff3e 829f 9abe 74e1 77be
000003e0: 5c4a b93e de73 c4be f06f 2fbd 402c e4bd
000003f0: 1674 9a3e 1c95 563e 90f3 1d3e 185c a2be

fc2.weight f4 [1, 256]
-0.032540575 -0.057517365 -0.04496012 -0.0044209287 0.029446721 -0.058638968 0.038452975 0.04977972
-0.05900109 0.049551345 -0.0053621978 -0.01845713 -0.03776346 0.020000301 -0.030060142 -0.060437
-0.057791576 -0.045171306 -0.061162844 -0.022713281 -0.054168448 0.018681861 0.0071336105 0.025269695
-0.049501814 -0.008457415 0.0336952 -0.027568847 -0.05334966 -0.03892885 -0.0009037256 0.0006358102
0.025938347 -0.0009647086 0.049057536 0.052338623 0.010169476 -0.0020103976 0.031124003 -0.05245409
-0.053400375 0.049627572 -0.028714232 -0.04245396 0.040685967 0.014878131 -0.04025258 -0.02387271
0.0033560023 0.046797894 -0.061144322 0.01258342 0.0055054426 0.047715127 0.01648885 -0.0040833354
0.060304336 0.053402238 0.05491139 -0.06211427 -0.004849948 -0.0041383132 -0.010371193 0.046574585
0.048917606 -0.045504346 0.022608735 -0.011116564 -0.032615088 -0.0097903535 0.011629924 0.03852006
-0.009967886 -0.061184376 0.019639634 0.006732933 -0.038979456 -0.02734378 -0.046165682 -0.008686118
0.04596728 -0.028918557 0.004162602 0.0114234835 -0.046292797 -0.024849825 -0.028048933 0.0056314096
0.056094624 -0.030172706 0.050456375 -0.055761747 0.061553396 -0.038136058 -0.0070361346 0.0332333
0.047455497 0.021960296 -0.040549167 0.0486764 0.013671808 -0.042012773 -0.049163297 -0.021662824
-0.015842058 0.00017480552 -0.058727235 0.034531817 0.04768441 0.010108478 0.04424216 0.0347175
-0.042460814 -0.042753324 -0.059748575 0.03365448 -0.029019505 0.021941118 -0.018536404 -0.03855557
0.050866053 -0.029073618 -0.016016774 0.061289854 -0.03835962 0.0010751933 -0.026644148 -0.008794539
0.0067012757 -0.044693857 -0.0055909753 0.056540668 0.041568004 0.060899198 -0.005284801 0.04921551
0.001439929 -0.002198331 -0.0009912848 -0.049062267 -0.054041237 -0.037496552 0.007957086 0.035470143
-0.0017609373 0.04841572 0.061221354 0.02607914 -0.039103903 -0.054423943 0.038595937 -0.043675296
-0.054649062 0.04863678 -0.035536297 -0.058533765 -0.028712109 -0.0034306198 0.04730486 0.05823434
0.0024944246 -0.04182744 -0.014927968 -0.04365863 -0.051255755 0.040529005 0.047911286 -0.043186255
0.04683447 -0.009464741 0.011324294 -0.017601922 0.05287078 0.008318268 0.0017688647 -0.026509404
0.05436402 0.019084021 0.0017546564 0.048650853 0.018638693 -0.0023908466 0.014573999 -0.0023296773
0.048364945 -0.050604217 -0.04807993 -0.048132457 0.03725648 0.003000699 0.02663581 -0.012973249
0.027447753 -0.052546777 0.03231135 -0.058864824 -0.040277883 -0.0022236258 -0.004741475 0.0038589612
-0.03548453 0.056080483 0.061425813 -0.04256074 0.061451264 0.056608737 -0.003341347 0.041755684
-0.05314239 -0.017940007 -0.05104614 -0.06063342 0.016079195 -0.039367624 -0.03401465 0.013916552
-0.04383304 0.02143529 0.034024566 -0.008259401 0.05152414 -0.005893789 -0.01928807 -0.019696437
0.011334807 0.03495218 -0.0067596138 0.051067516 0.03310027 0.04192798 0.03145743 -0.017304942
-0.010703124 -0.042008817 -0.055169895 -0.014011994 0.05519069 -0.0363994 0.029086687 0.027101554
-0.047061086 -0.046624117 0.056897715 -0.045150295 0.05687625 -0.055272922 0.005282052 -0.0041922107
0.042349167 -0.054180324 -0.018232435 -0.0075198933 0.01861795 0.05471997 0.011614174 -0.027344018
00000000: 4449 05bd 5497 6bbd 1a28 38bd 70dd 90bb
00000010: 403a f13c 6a2f 70bd de80 1d3d d2e5 4b3d
00000020: 20ab 71bd 5af6 4a3d 60b5 afbb 6833 97bc
00000030: dcad 1abd acd7 a33c b040 f6bc ca8c 77bd
00000040: dcb6 6cbd 8c05 39bd e485 7abd 3411 babc
00000050: bcdf 5dbd b40a 993c 10c1 e93b 6402 cf3c
00000060: 6ac2 4abd f890 0abc fa03 0a3d 10d8 e1bc
00000070: 2c85 5abd dc73 1fbd 00e8 6cba 80ac 263a
00000080: a87c d43c 80e4 7cba 8ef0 483d 0661 563d
00000090: e09d 263c e0c0 03bb c4f7 fe3c 1ada 56bd
000000a0: 5aba 5abd 4846 4b3d 1c3a ebbc 34e4 2dbd
000000b0: 54a6 263d 68c3 733c e4df 24bd b490 c3bc
000000c0: 60f0 5b3b 26af 3f3d 7872 7abd b02a 4e3c
000000d0: 0067 b43b f070 433d a013 873c 80cd 85bb
000000e0: ae01 773d 4ebc 5a3d c4ea 603d 886b 7ebd
000000f0: 50ec 9ebb b09a 87bb f0eb 29bc fec4 3e3d
00000100: d45d 483d c462 3abd f435 b93c 4022 36bc
00000110: 6697 05bd b867 20bc 708b 3e3c 36c7 1d3d
00000120: 5850 23bc 789c 7abd 4ce3 a03c f09f dc3b
00000130: eca8 1fbd 1000 e0bc 3a18 3dbd 3850 0ebc
00000140: 3048 3c3d 9ce6 ecbc 7066 883b 9029 3b3c
00000150: 849d 3dbd dc91 cbbc e0c6 e5bc b087 b83b
00000160: 7ac3 653d c02c f7bc 58ab 4e3d 6e66 64bd
00000170: 6a1f 7c3d 8e34 1cbd 608f e6bb a41f 083d
00000180: b260 423d 14e6 b33c e216 26bd e860 473d
00000190: b8ff 5f3c 9615 2cbd 745f 49bd 3c76 b1bc
000001a0: 34c7 81bc 004c 3739 f88b 70bd 3c71 0d3d
000001b0: ba50 433d 089e 253c 4437 353d f033 0e3d
000001c0: 64eb 2dbd 1c1e 2fbd ecba 74bd 48d9 093d
000001d0: 50ba edbc dcbd b33c a8d9 97bc 72ec 1dbd
000001e0: ec58 503d cc2b eebc 9c35 83bc 120b 7b3d
000001f0: fa1e 1dbd 80ed 8c3a d444 dabc f816 10bc
00000200: 6096 db3b e810 37bd 8034 b7bb 3097 673d
00000210: 3643 2a3d 7071 793d 202c adbb 3496 493d
00000220: 00bc bc3a e011 10bb 00ee 81ba 84f5 48bd
00000230: 585a 5dbd fc95 19bd 705e 023c 2449 113d
00000240: 40cf e6ba 904f 463d 3ec3 7a3d eca3 d53c
00000250: 6a2b 20bd a4eb 5ebd c616 1e3d dee4 32bd
00000260: b2d7 5fbd 5c37 473d 828e 11bd 1ac1 6fbd
00000270: a835 ebbc 40d4 60bb bec2 413d 2287 6e3d
00000280: 8079 233b 4053 2bbd 7094 74bc 64d3 32bd
00000290: 8ef1 51bd be01 263d a03e 443d 12e4 30bd
000002a0: 80d5 3f3d 0012 1bbc 8889 393c e831 90bc
000002b0: 088f 583d 5849 083c 40d9 e73a 402a d9bc
000002c0: ceac 5e3d 1856 9c3c 80fc e53a 1e46 473d
000002d0: 2cb0 983c c0af 1cbb c8c7 6e3c 80ad 18bb
000002e0: 521a 463d 5e46 4fbd 76ef 44bd 8a26 45bd
000002f0: 409a 183d 60a7 443b 5833 da3c c08d 54bc
00000300: 1cda e03c 4a3b 57bd e858 043d 3e1c 71bd
00000310: 6cfa 24bd 40ba 11bb 605e 9bbb a0e6 7c3b
00000320: 3a58 11bd a6b4 653d a299 7b3d 2c54 2ebd
00000330: 52b4 7b3d 90de 673d 80fa 5abb 0208 2b3d
00000340: d6ab 59bd ecf6 92bc c215 51bd c05a 78bd
00000350: 84b8 833c f23f 21bd f252 0bbd 4002 643c
00000360: 468a 33bd 1099 af3c 585d 0b3d 7052 07bc
00000370: fa0a 533d b020 c1bb 0402 9ebc 6c5a a1bc
00000380: a0b5 393c 042a 0f3d c07f ddbb 2c2c 513d
00000390: 2694 073d acbc 2b3d 82d9 003d 18c3 8dbc
000003a0: 285c 2fbc 7011 2cbd d4f9 61bd 9092 65bc
000003b0: a20f 623d 8a17 15bd 3447 ee3c 1404 de3c
000003c0: 20c3 40bd eef8 3ebd 940d 693d 84ef 38bd
000003d0: 12f7 683d dc65 62bd 1015 ad3b d05e 89bb
000003e0: 5276 2d3d 30ec 5dbd 305c 95bc 7069 f6bb
000003f0: ac84 983c 0c22 603d 6049 3e3c 9000 e0bc
