projects/codes/PPO/outputs/CartPole-v0/20220920-213310/models/ppo_actor.pt (torch, 272279 bytes, 6 tensors)

actor.0.weight f4 [256, 4]
000000 a8 5d da bd 9d 44 b0 bd 24 72 ed bd ae 64 33 3e
       -0.10662395 -0.08606837 -0.11594036 0.17518875
000010 11 81 8e be 5c 33 93 bc d8 17 bd 3e 1d 7a 08 3f
       -0.27832845 -0.017968826 0.36932254 0.5331133
000020 97 ee b5 3d 05 e9 6b be e2 d6 d3 bd d5 fa cf bd
       0.08883398 -0.23038109 -0.1034372 -0.10155264
000030 e5 52 71 3e 19 f5 2e 3e 08 94 cd 3e 1c e0 08 3f
       0.23566778 0.17085685 0.40152 0.53466964
000040 92 fa 21 be 2a f2 af 3c 80 a3 9d 3d 72 35 28 bd
       -0.15818241 0.021477778 0.07697201 -0.041066594
000050 a8 04 ac bd 63 09 fc be 7e b8 1b bf c7 63 f3 be
       -0.083993256 -0.49225911 -0.6082839 -0.47537062
000060 aa dd f6 be c2 30 02 bf a7 b0 17 bf d4 3e 05 bf
       -0.4821599 -0.5085565 -0.59253925 -0.52048993
000070 3a 4f f4 be 96 1e 8e 3e e5 e8 01 3f 9b a6 d6 3e
       -0.47716695 0.2775771 0.50745994 0.41923985
000080 06 9a 89 3e 74 3c f1 3d bc d2 13 3e b9 2d 9f be
       0.26875323 0.11779109 0.14435858 -0.3108957
000090 70 49 f6 3e dd 68 82 bb 10 a7 fa 3e 59 8e 6b 3e
       0.48102903 -0.003979786 0.48955584 0.2300352
0000a0 b6 cc f5 3e 0c 2f d1 3e 97 1d 4f be 7f 0a 6d be
       0.48007745 0.40856206 -0.20226131 -0.23148535
0000b0 3e 61 a2 3d bd c0 41 bb 83 da a7 3d 4f ab 73 3e
       0.07928704 -0.0029564344 0.08195975 0.23795818
0000c0 6a 78 bd be 9f 0a 04 3d 09 06 87 be cb 07 0b 3f
       -0.3700593 0.03223669 -0.26371792 0.54308766
0000d0 38 4e b1 be 8f 3c 2e 3e 2a bf 0e 3d 36 cc b9 3e
       -0.3462999 0.17015289 0.034850277 0.36288613
0000e0 ce 4c 87 3b 3b 0f 6f 3c 69 58 0f 3f 1b ce 07 3f
       0.004129029 0.014591034 0.5599428 0.53048867
0000f0 20 b3 c2 be eb 16 01 bf 75 60 59 3b 86 b5 4b 3e
       -0.38027287 -0.50425595 0.0033169065 0.19893464
000100 9b 67 d5 3d f8 79 d9 3e a8 20 67 3e ee c0 76 be
       0.10420152 0.42475867 0.22571051 -0.24097034
000110 ae ff 90 be cf e6 c8 3e 52 25 c4 3e fe 63 62 be
       -0.28320068 0.39238593 0.38309723 -0.22108456
000120 54 39 ac be 49 d4 05 3e b2 4b de be 1d aa fa bd
       -0.33637488 0.13069262 -0.43417126 -0.12239478
000130 96 a5 07 bf 85 bd 3b 3d 86 2d be be a0 7f c2 be
       -0.5298704 0.045835037 -0.37144107 -0.37987995
000140 3e ee 88 be 02 dc f7 bd 28 d2 58 3e cb 66 49 3b
       -0.26744264 -0.1210251 0.21173918 0.0030731435
000150 13 e7 f1 3e 9d e4 04 be 90 85 f6 bd 16 14 0a 3f
       0.47246608 -0.12977834 -0.12037194 0.539369
000160 de 39 e5 be f4 49 35 be e4 03 c0 be b8 40 ea 3e
       -0.44770712 -0.17703992 -0.37502968 0.457525
000170 34 90 9c 3e ed 0e b7 bd 65 58 2f be 31 30 e9 3d
       0.30578768 -0.08938394 -0.17123564 0.11386145
000180 6d 8b 51 be fc 45 62 3d 44 71 d9 be 6d 12 cd be
       -0.20463343 0.055242524 -0.42469227 -0.4005312
000190 8c b2 11 bd c0 d3 d4 3e ab db 0c 3f 71 dc 77 3d
       -0.035570666 0.41567802 0.55022687 0.060512964
0001a0 f4 b9 93 be 3b 02 aa 3e 04 4d 90 3e f7 a7 a1 3e
       -0.28852808 0.33204827 0.28183758 0.3157346
0001b0 63 8b 13 be 36 d0 d8 ba f7 f9 cf 3e b8 b8 8d 3e
       -0.1440864 -0.0016541544 0.40620396 0.27679992
0001c0 e9 6b a3 3e 26 86 97 be 26 e8 9e 3e d2 90 30 be
       0.31918266 -0.29594535 0.3103649 -0.17242745
0001d0 f1 c6 a5 3d fb d3 36 be 10 bb 84 be 6f 0f ad 3e
       0.08094586 -0.17854302 -0.25923967 0.33800837
0001e0 88 16 ce 3e 07 83 0c 3e f6 0a cd be 6f 48 2c be
       0.40251565 0.13721858 -0.40047425 -0.16824506
0001f0 42 99 ad 3e eb 09 fb bd 0a c8 ce be 85 d3 c9 3d
       0.3390599 -0.12257751 -0.40386993 0.09854797
000200 84 d5 c2 be f1 8f d3 3c 38 50 63 bd 9a 88 81 bc
       -0.38053524 0.025825473 -0.055496424 -0.015812207
000210 fb b0 2d be 6b 6a 33 be 55 82 fd be a5 b9 d1 be
       -0.16962044 -0.17521064 -0.49513498 -0.40961948
000220 e4 d2 4e 3e 70 dc ce 3e 84 e5 ff be 0c 8e 01 bf
       0.20197636 0.40402555 -0.49979794 -0.5060737
000230 cb a1 96 be f2 a0 d9 3e dd 68 c8 3e 88 0e 02 bf
       -0.29420313 0.42505604 0.39142504 -0.5080342
000240 63 75 d9 3d d1 be 28 3d 34 3c df 3e 1c 6d fd bd
       0.10618093 0.0411976 0.4360062 -0.123743266
000250 dc c5 38 3e 50 1f 98 be fa 35 2a bf 03 25 52 3c
       0.18044227 -0.2971139 -0.6648861 0.012826207
000260 5c 5e 8d be 44 5c 02 be 0a cc 99 be c1 72 f4 be
       -0.27611053 -0.12730509 -0.30038482 -0.477438
000270 c1 cd 9d 3e 28 41 be 3e 1e e3 a9 3e af 84 33 bc
       0.3082104 0.37159085 0.3318109 -0.010956927
000280 f5 ef e0 be 45 83 d7 be ef f8 24 be 41 b3 b7 bd
       -0.43933073 -0.42092338 -0.16110586 -0.08969737
000290 c6 50 e7 be 64 42 ac 3e 55 f6 46 be 12 c2 99 3c
       -0.45178813 0.33644402 -0.19429906 0.018769298
0002a0 1c 0c f5 be 4d d0 59 3e 57 3f 5e 3e 2d 01 e2 3e
       -0.478608 0.21270867 0.2170385 0.44141522
0002b0 f0 82 7a 3d 7a ce e0 be b9 d0 93 3e 74 9b f0 be
       0.061160028 -0.4390753 0.2887018 -0.469936
0002c0 bf 3f 6b 3e 2e a2 b0 be 54 04 a9 3e 01 f9 f4 3d
       0.22973536 -0.34498733 0.33011115 0.11961556
0002d0 94 6e fd 3d 06 8d 41 bd de 5d 2a 3f 62 de 0d 3f
       0.12374607 -0.04725363 0.6654948 0.55417454
0002e0 27 84 83 bd fe 64 80 be df 9a 25 3e b4 e7 d4 3e
       -0.064216904 -0.2507705 0.1617236 0.41583025
0002f0 c6 82 f6 3e 43 4e f0 3e d4 4b 32 3e 2f 2c a9 bb
       0.48146647 0.4693471 0.17411739 -0.005162738
000300 01 91 af be b5 80 b8 be 69 9a a4 3e 6f 00 ef be
       -0.34290317 -0.36035696 0.32149056 -0.46680018
000310 69 85 94 bd 52 96 98 3e 28 f1 02 bf bb 08 e1 be
       -0.072520085 0.29802185 -0.51149225 -0.43951973
000320 e5 76 f2 be 65 38 b1 3e ae 15 a8 3e ea a8 cc 3e
       -0.47356334 0.34613338 0.3282904 0.3997262
000330 30 23 35 be 52 f6 1d be 64 04 c9 3e e6 eb 0c bf
       -0.17689204 -0.15425995 0.39261162 -0.5504745
000340 9d c9 9b be 01 d4 8f 3e 64 18 e4 3e 33 e1 81 be
       -0.30427256 0.28091434 0.4454986 -0.25367126
000350 f0 8d ee be 6a 55 4a 3d e9 5d c6 bd 7f 33 e3 3d
       -0.46592665 0.049397863 -0.09685881 0.110938065
000360 fc 80 86 3e 93 be 2d bd ef 1d ef be dc 73 ed bd
       0.26270282 -0.042418074 -0.46702525 -0.11594364
000370 cd 65 51 3e 20 37 49 3d 97 43 a6 be d0 cd ae 3c
       0.2044899 0.049124837 -0.32473442 0.021338373
000380 78 6b b6 bd 3b 32 25 be b0 2e d3 3e db 1f 83 3e
       -0.08907217 -0.16132443 0.41246557 0.2561024
000390 eb eb 0b 3f 4e a5 c0 3e 78 fe 35 be a5 e8 e5 be
       0.5465686 0.37626117 -0.17772853 -0.44904056
0003a0 fc f5 37 3e 7f 04 9b 3e f8 07 d4 3e 7c 64 af 3e
       0.1796493 0.30276868 0.4141233 0.3425635
0003b0 b6 4c 9e 3e 57 5f 4a 3e 0d 88 48 3e 39 d7 98 3e
       0.309179 0.19762932 0.19583149 0.29851702
0003c0 39 01 01 bf 2d f9 8d 3e a4 92 a9 3e a6 ff 76 3e
       -0.5039249 0.2772917 0.3311969 0.2412096
0003d0 47 a1 25 be c6 82 86 3d b3 7e 09 3d b6 18 06 bf
       -0.16174804 0.06567912 0.033568095 -0.52381456
0003e0 4f 94 92 be 7f e7 24 3e 28 fc de be 1a 2e 43 be
       -0.28628775 0.16103934 -0.43551755 -0.19060555
0003f0 f6 64 a7 3e a6 c0 92 3e f9 2b b5 be 28 2a 85 3e
       0.32694215 0.28662604 -0.3538511 0.26008725

actor.0.bias f4 [256]
000000 73 21 ce bd 69 a8 ef 3e 13 1b 26 3d df 2f 73 3e
       -0.10064974 0.46808174 0.040553164 0.2374873
000010 3c cd 86 be 80 0f 80 3d e0 e1 10 3e af fe c0 3e
       -0.26328456 0.062529564 0.14148664 0.37694308
000020 d4 8b c0 bd e7 9a b6 be 72 9c 71 3e ef ee bc be
       -0.0940167 -0.35665056 0.23594835 -0.36901042
000030 63 ce d1 3e d0 a2 3f 3e 7c 79 f4 3e df 62 82 be
       0.40977773 0.18714452 0.47748935 -0.25466058
000040 e2 28 ab bc 16 94 e3 bd 45 00 b0 bc d3 21 73 3e
       -0.020893518 -0.111122295 -0.021484504 0.23743372
000050 0a 1d cb be ee e6 74 3d ab 24 39 be 1b ee 4e be
       -0.39670593 0.059790544 -0.18080394 -0.20208018
000060 f2 a0 0d 3e 5c 8a 9a bc 0a cb 86 be a5 c7 99 3e
       0.13830927 -0.018864803 -0.26326782 0.3003513
000070 dc 7e 7a be 15 cb 1f be 96 27 d9 be ed fc da be
       -0.24462456 -0.15604813 -0.42413014 -0.42771092
000080 6b b4 c3 3d f0 50 9a 3e e6 76 4a be 46 2a 36 be
       0.09555896 0.30139875 -0.19771919 -0.17789564
000090 fa df 4d be 3f 9f 2f 3e e0 62 14 3e 54 03 62 3c
       -0.20104972 0.17150591 0.14490843 0.013794739
0000a0 2d d9 b7 3e 17 95 97 3e e6 11 0a 3e a1 d9 a2 3d
       0.3590788 0.29605934 0.1348339 0.07951666
0000b0 cc 8d f0 be 7e 8d b1 3e 49 31 99 be 8e 77 20 3d
       -0.46983182 0.34678262 -0.29920414 0.039176516
0000c0 7a 3e f0 be de 7c 5a 3e 6e 5c 5b 3e 33 3e 4c be
       -0.46922666 0.21336696 0.21421978 -0.19945602
0000d0 6d a3 ac 3d 64 3a 42 be 3c f3 38 3c d6 0d 50 be
       0.084296085 -0.18967587 0.01128846 -0.20317778
0000e0 0f be b6 3e b2 b7 66 3e 0f be ce 3e 58 ce 5b 3e
       0.35691878 0.22531012 0.40379378 0.21465433
0000f0 8a d1 07 3e 8e b0 6d 3e 15 a1 95 3e 66 e9 d7 be
       0.13263527 0.23211882 0.29224458 -0.42170256
000100 00 dc 69 3e 90 aa 33 be 74 e7 85 be 65 8a 46 3e
       0.2283783 -0.17545533 -0.26153147 0.19388731
000110 c8 f7 bd be cd 62 42 be 13 5c 31 be 9c d4 be 3e
       -0.37103105 -0.18983002 -0.1732028 0.37271583
000120 56 59 c7 be ad 0e 94 bd be a5 97 3c cd f3 c4 3d
       -0.38935345 -0.07229362 0.01851165 0.09616814
000130 b0 56 45 bd d9 d7 02 be 33 d3 68 be fe ed 93 3e
       -0.048178375 -0.12777652 -0.22736816 0.2889251
000140 04 11 8b be d6 23 96 3e 20 c3 8d 3e a9 0f 32 be
       -0.2716142 0.29324216 0.2768793 -0.17388786
000150 0a 5e b7 3e 96 b7 70 3e 66 c0 ef 3d dc a6 e9 3e
       0.35813934 0.23507532 0.11706619 0.45635116
000160 f7 cb db 3d 46 03 32 be 52 00 ac 3e 6a 52 0a 3e
       0.107322626 -0.17384061 0.33593994 0.13508001
000170 da 97 3c 3e 68 4d 2a 3e cd 6b 2f 3e 30 72 88 3e
       0.18417302 0.1663109 0.17130966 0.26649618
000180 21 ec aa 3e c2 fe d9 3e 3f f9 41 3d 1c 31 8a be
       0.33383277 0.42577177 0.04735684 -0.26990592
000190 bc fd d3 be ca 89 fb be 30 ae 99 3e 64 e7 01 3d
       -0.4140452 -0.49128562 0.30015707 0.031714812
0001a0 68 45 85 3e 98 ff 66 3e cd 80 92 be f4 b2 3f 3e
       0.26029515 0.22558439 -0.28613892 0.18720609
0001b0 32 3c e4 3d 99 af 75 be 87 ce eb 3d ac 00 e1 be
       0.11144294 -0.23992766 0.11514001 -0.43945825
0001c0 dc c6 df bc a8 0d cd 3e f1 c1 14 bd 88 76 81 be
       -0.027316503 0.4004948 -0.03631777 -0.25285745
0001d0 87 1e 86 3e b4 5d 00 3e 9a 46 d2 be b4 9b d8 bd
       0.26195166 0.12535745 -0.4106949 -0.10576573
0001e0 3b 7d 8c 3e 18 18 bc 3b 65 41 5a be 8a 05 37 be
       0.27439293 0.005740177 -0.21314009 -0.17873207
0001f0 f1 67 9e be da 41 d1 be b7 aa 9d 3e 00 95 6b be
       -0.30938676 -0.40870553 0.30794308 -0.23006058
000200 3d 55 cc bd 82 49 95 bd 48 f9 55 be f6 e1 c1 3e
       -0.099771954 -0.07289411 -0.20895875 0.37867707
000210 7c 81 98 be ae 54 e5 bc 52 4f bb 3e 40 65 9b 3d
       -0.2978629 -0.02799448 0.36583954 0.07587671
000220 87 bf b0 3c 5c 46 2f 3d 94 b7 e0 be 77 3c ce be
       0.021575702 0.04279171 -0.4389006 -0.40280506
000230 cb c2 10 be f4 aa db be de 1f 57 bd 05 2a a2 be
       -0.14136808 -0.42903864 -0.052520625 -0.31672683
000240 bd 1e 91 3d d7 33 cb 3d 1e 42 bf be 97 9c a9 be
       0.07085941 0.09921997 -0.3735513 -0.3312728
000250 22 ad b7 3e b9 c2 59 3e f6 e8 e5 be f4 1f e6 3d
       0.35874277 0.21265687 -0.44904298 0.11236563
000260 53 e6 77 bc 6a 09 4e be a7 6f c0 3e 15 8f 24 be
       -0.015130597 -0.20120779 0.37585184 -0.16070206
000270 bb 83 99 3e 10 88 2b be 3e f0 96 be eb 63 f9 bd
       0.29983315 -0.16751122 -0.29480165 -0.12177261
000280 0b 96 3a 3e 18 1d 2b 3e 83 ee 32 3e 81 70 5b 3e
       0.182213 0.16710317 0.17473798 0.21429636
000290 a8 c3 c6 be 87 d6 49 3e f6 c2 a5 3d a8 6b ba be
       -0.3882115 0.19710742 0.080938265 -0.3641026
0002a0 41 0c 78 3e e6 1c b1 3d 75 93 4d be b1 ba 10 be
       0.24223424 0.0864809 -0.20075782 -0.14133717
0002b0 17 3c db be d1 29 47 3e ef 66 c7 3d 97 39 c2 be
       -0.42819282 0.19449545 0.0973643 -0.37934563
0002c0 27 41 c9 3e e4 f3 4a 3e c0 62 57 3e 39 a6 36 be
       0.3930752 0.198196 0.21033764 -0.17836846
0002d0 50 6d 0b 3e a7 c7 6c 3e b3 67 d9 3d ea 6d a8 3e
       0.13615918 0.23123036 0.10615482 0.32896358
0002e0 96 12 5a be 2f 38 82 be 87 84 48 3e 9d 84 ce bc
       -0.21296152 -0.2543349 0.19581805 -0.02520972
0002f0 72 a9 1a be 73 0c cd 3e 18 f0 4a be cd 01 7e bd
       -0.15103701 0.4004856 -0.19818151 -0.062013436
000300 e2 2a c3 be db 0b 2c 3e 54 11 93 be 4a ef 7e be
       -0.38118654 0.16801398 -0.28724158 -0.24895969
000310 8b 28 e8 be 5e 25 03 3e 10 65 f9 3c ae 26 96 3e
       -0.45343432 0.12807223 0.030443698 0.29326385
000320 f8 f6 36 3e ed 45 01 3e be d9 c7 be a9 15 34 be
       0.17867649 0.12624331 -0.39033312 -0.17586388
000330 91 53 b4 3d e2 5a df 3d 32 25 c1 3e 59 48 06 bf
       0.088050015 0.109060064 0.3772369 -0.52454144
000340 f1 82 4b be 59 60 90 3e 7b 96 1a be 1a b6 62 be
       -0.19874169 0.28198507 -0.15096466 -0.22139779
000350 c7 77 8a 3e 65 d5 62 3e b6 12 64 3e ef 92 a3 3e
       0.27044508 0.22151716 0.22272763 0.3194804
000360 79 c9 e6 bd cf aa 00 3d f2 70 95 3e b1 a6 a9 be
       -0.112688966 0.031412896 0.29187733 -0.33134988
000370 18 9a 93 3e 76 a4 07 bf 99 b8 4d 3d 11 2a 9b 3e
       0.28828502 -0.5298532 0.050224874 0.30305532
000380 91 37 4c 3e ad 83 96 3e 1b b8 81 be de 80 9b 3e
       0.19943072 0.29397336 -0.25335774 0.30371755
000390 8a d3 98 3d ee 8b a2 3e 08 19 64 bd 21 e8 03 be
       0.07462223 0.31747383 -0.055687934 -0.12881519
0003a0 14 fa 46 be ff 85 c9 3e 33 30 21 be 86 60 b0 3d
       -0.19431335 0.39360043 -0.15741043 0.086121604
0003b0 5d 23 49 bd 00 c2 cb be 01 bf af bb b3 20 d0 3d
       -0.04910599 -0.39796448 -0.0053633456 0.10162487
0003c0 67 3c 9c 3e d3 dc 86 bc e0 00 dc be 86 52 a2 bc
       0.30514833 -0.016462719 -0.42969418 -0.01981474
0003d0 bd 98 03 be 0a 3c de 3e c9 d4 9a be fd 91 c6 be
       -0.12851234 0.4340518 -0.30240467 -0.38783255
0003e0 30 ce d9 3d 5c 6a df 3e 98 d1 81 3e ce df 2d be
       0.1063503 0.43635833 0.2535522 -0.16979906
0003f0 83 67 77 3e 76 c5 74 be c9 6c a2 3d 02 13 f7 be
       0.2416058 -0.2390345 0.07930905 -0.4825669

actor.2.weight f4 [256, 256]
000000 4c 2f da 3c 88 04 77 bd d8 45 0f 3d ae 21 7c 3d
       0.026633881 -0.060307056 0.034978718 0.061555557
000010 50 46 f7 3b 58 da 85 3c f0 42 3b bc e0 e9 7b bd
       0.0075462237 0.016339466 -0.011429533 -0.061502337
000020 f4 7c 4d 3d e8 fc e8 bc ba 13 0b 3d f2 a6 67 bd
       0.050167993 -0.028440908 0.03395436 -0.056555696
000030 69 8a 27 3c 4b d7 f2 3c 4a 9f 24 3d e9 67 2e bd
       0.010225871 0.029643675 0.040190972 -0.042579565
000040 28 04 50 bd 64 58 39 bd f7 7c ff 3c 7e af ea bc
       -0.050785214 -0.04525031 0.031187518 -0.028648134
000050 1c 29 b6 bc 20 73 22 3b c6 fe 4d bc 42 67 48 bd
       -0.0222364 0.0024787858 -0.01257295 -0.0489266
000060 4d ba 93 3c 80 e2 0e bb 02 b2 16 3d 2d ec 8f bd
       0.018033171 -0.0021802485 0.036790855 -0.07027469
000070 c0 3a 8d 3a 84 9d f6 bc 38 69 ae 3c ec 35 93 bc
       0.0010774955 -0.030104406 0.021290407 -0.017970048
000080 4e 8c b2 3c 1c c6 99 ba ea b7 56 bd 86 53 15 bd
       0.021795418 -0.0011732015 -0.052421488 -0.036456607
000090 be 7b 60 3d ff 65 27 3c c4 8d 9f bc 94 3f 17 3d
       0.05480551 0.010217189 -0.019476779 0.036925867
0000a0 d5 fb 22 bd 09 f7 90 bd a0 33 31 3c 14 76 53 3d
       -0.039790947 -0.07078368 0.010815531 0.05162628
0000b0 48 ba b0 3c e0 81 3b 3d b6 0b 25 bd 64 2c 88 3c
       0.0215732 0.045778155 -0.04029437 0.01662273
0000c0 a5 ec 4c bc 6a 2f 7f bc 19 76 76 bb 95 10 d1 3c
       -0.012507592 -0.015575269 -0.0037607013 0.025520602
0000d0 ae 3a 29 bb f1 0d cc 3b c0 9b ef 3b 0a 11 71 bd
       -0.002582233 0.006227248 0.007312268 -0.05885414
0000e0 22 9b 44 3d 55 01 e8 bb 78 9a ea 3c 22 ea 4a bd
       0.04799951 -0.007080237 0.02863811 -0.049539693
0000f0 ac f7 e3 bc 2e bc aa bc 53 ba 8d bd b8 4c 14 3c
       -0.02782806 -0.020841684 -0.06920304 0.009051494
000100 10 77 d1 bc 00 0d 7e 3c e0 7d 60 3b 48 d2 46 bc
       -0.025569469 0.015506029 0.0034254715 -0.012135096
000110 93 49 c6 3c c2 55 1c bd a0 ef 05 3c b0 d3 f0 bc
       0.024205005 -0.038167723 0.008174807 -0.029397815
000120 38 e7 24 3c 9b 96 13 3d 20 fb a2 3b e1 e9 50 3d
       0.0100648925 0.0360323 0.004973784 0.051004294
000130 c8 73 06 bc cd 46 55 3c a4 57 e1 bc 50 f7 89 3c
       -0.008206315 0.0130173685 -0.02750761 0.01684156
000140 ee 8b 08 bd 50 4a 9c bc 30 0e 25 3d a8 b8 1a bd
       -0.033336572 -0.019078404 0.040296733 -0.03777376
000150 7a 3a a0 3c b3 23 e4 bc 94 06 f2 bc bb ca d2 bb
       0.019559134 -0.027849054 -0.029544152 -0.0064328588
000160 4e b7 7b bd d9 ec 28 3d 5b 25 83 bd 00 fc 1c ba
       -0.06145411 0.0412415 -0.06403609 -0.00059884787
000170 4b af 29 bd 60 ca 95 bb 9e d0 58 bd 82 2c 54 bd
       -0.041426938 -0.004571244 -0.052933328 -0.05180026
000180 5d 32 35 bd e6 ab d9 3b a8 d8 4a 3c 50 93 c6 bc
       -0.044237483 0.0066428063 0.012380756 -0.024240166
000190 34 d6 c4 3c b6 86 5e 3d 7a bd 18 bd a6 6f 13 bc
       0.024027921 0.05432769 -0.037290074 -0.008998787
0001a0 de 4a 30 3d 65 b6 23 bd 15 96 d1 3c f0 15 43 bd
       0.04304015 -0.039968867 0.02558426 -0.047628343
0001b0 2a a4 f2 3c 40 d1 4e bb 2e 67 33 bd dc 51 55 3d
       0.029619295 -0.0031557828 -0.04379957 0.05208002
0001c0 cd 19 d2 3c ce 7a 82 bc 16 30 0d bd 70 66 5a 3c
       0.025647068 -0.015927698 -0.034469686 0.013330087
0001d0 17 26 85 bc 24 ec 1a 3d 60 47 22 3c dc 26 cc bc
       -0.016253514 0.037822857 0.009904712 -0.024920873
0001e0 02 3c 14 bd 42 fe 54 3d f7 a7 59 3b e0 9f 40 3b
       -0.03619004 0.05200029 0.0033211687 0.0029392168
0001f0 27 eb d4 3c d6 7e 73 3d 6b 72 0a bc ac ec e7 bc
       0.025991036 0.059447132 -0.008450131 -0.028311096
000200 f0 3e 48 bd 23 ff 21 3d 73 73 12 3d 89 92 92 bd
       -0.048888147 0.039549958 0.035754632 -0.071568556
000210 68 b6 4a bd b8 26 1b 3c 72 06 64 bd f3 a2 96 3c
       -0.049490362 0.0094696805 -0.05567021 0.018388247
000220 5c cd 54 3d 1c 1a b2 ba 70 86 1b bd 0e 95 0d 3d
       0.05195366 -0.0013588103 -0.037970006 0.034565978
000230 95 4b c4 bc 68 f9 7d 3d 78 21 6d bc e0 14 55 bc
       -0.023961822 0.06200543 -0.014473312 -0.013005465
000240 30 d3 8f 3c 3c 58 6f 3d e8 20 10 3d 98 60 41 3d
       0.017556757 0.058433756 0.03518763 0.04721126
000250 5c 16 d6 bc 80 81 29 bc 98 17 e5 bc 5e dc 82 bd
       -0.026133709 -0.010345817 -0.027965352 -0.06389688
000260 a0 ed ab bb 1b 48 5c bd dd ce 62 bd 40 4e 3b bd
       -0.005246833 -0.053779703 -0.05537306 -0.045728922
000270 6d 04 51 3d 46 26 41 bd 00 84 fb bc ec 86 32 bd
       0.05102961 -0.04715564 -0.030702591 -0.043585703
000280 95 11 19 3b 04 29 1b bd ae dc 5b bd f8 54 42 bd
       0.0023356427 -0.037880912 -0.053677253 -0.047444314
000290 66 78 0f 3d cf e8 58 3d dc 2f 8f bd b4 13 1a bd
       0.03502693 0.0529564 -0.0699155 -0.037616447
0002a0 27 5d d7 bc 0e fd 1f bd 00 97 32 3b 4c 2d f0 bc
       -0.026289536 -0.03905969 0.0027250648 -0.029318474
0002b0 e0 bd 10 3b e7 a9 ae 3c 1c ef 6a bc f0 a5 f2 3c
       0.002208583 0.02132125 -0.014339235 0.02962014
0002c0 ad bc 26 bd 23 73 22 3d 8a 51 ad 3c 57 c0 64 bc
       -0.04070728 0.039660584 0.021157045 -0.013961873
0002d0 8f 9a 83 bd c2 fb 8c bc fb 13 6e bc 0d 1a 82 bd
       -0.06425964 -0.017209891 -0.014531131 -0.06352625
0002e0 8c 9e bb 3c 94 60 f3 bc 2d 07 8e bc f8 1a 83 bc
       0.02290275 -0.029709138 -0.017337406 -0.01600407
0002f0 b4 2b fe 3c d5 5e 09 bd 3a 7c 52 bd 7a 18 b6 3c
       0.031026699 -0.033537704 -0.051388003 0.022228468
000300 40 c1 e2 3b 5c 20 b5 bc 53 a7 44 bb f8 ac 23 3c
       0.00692001 -0.022110157 -0.003000696 0.009989969
000310 94 f2 d9 bc e9 a0 87 bb 29 0f b6 3c b5 9a 07 bd
       -0.026604928 -0.004139055 0.022224026 -0.033106524
000320 9e 64 e5 bb 5a 54 1a bd 80 3d 80 bb 01 6e 91 bc
       -0.00700052 -0.0376781 -0.0039135814 -0.01775265
000330 fe 1d b1 bc 66 17 11 3d c8 8d 5d 3c 80 ec 43 3a
       -0.021620747 0.035422705 0.013522573 0.0007473901
000340 0f bc 38 bd 62 b8 56 bd 9b 92 85 bd 7c 1a 2d bd
       -0.04510122 -0.052421935 -0.065221034 -0.042261586
000350 fb 1c 59 bd 68 3a a6 bc 5b aa 4d bd 1f b9 e4 3c
       -0.053006154 -0.020291522 -0.05021129 0.027920304
000360 88 ff ac bc 9e 32 16 bd c7 a6 26 3d d8 4a c4 3c
       -0.02111794 -0.036669366 0.040686395 0.02396147
000370 61 3e 34 3c 60 eb ba bc 8b 4a 66 bd 58 a1 34 bc
       0.0110012 -0.022817314 -0.056223433 -0.0110247955
000380 a6 3b 98 3c 40 01 33 3d ec d0 fc bc cb c5 a4 bc
       0.01858313 0.043702364 -0.03086134 -0.020113846
000390 04 04 8d 3c a5 c7 8a bd 80 2c fd 3b 50 48 69 bc
       0.017213829 -0.067763604 0.007726252 -0.014238432
0003a0 89 b6 15 bd 6c 73 38 bd d0 39 b3 3c 56 4d 78 bd
       -0.036551032 -0.04503195 0.021878153 -0.06062063
0003b0 5c a1 4e bd 5c d3 18 3b b0 89 3f bd 90 0a ed 3c
       -0.050446853 0.002331934 -0.04676217 0.0289357
0003c0 5e f0 1e bd f6 02 46 bd ac 1b 2f bd 7a b6 11 3d
       -0.03880345 -0.048342668 -0.042751 0.035574414
0003d0 c4 64 a1 bc 40 e0 1a bd d0 70 00 3c 20 42 14 3d
       -0.01970137 -0.037811518 0.007839397 0.036195874
0003e0 7b f0 1b 3d dc cb 12 3d 7c 17 d6 bc 5c fa 2e bd
       0.038071137 0.035838947 -0.026134245 -0.04271923
0003f0 d0 a2 77 bd 60 f8 51 bc 9a f5 54 3c e0 32 c7 bb
       -0.060458004 -0.012815565 0.012998009 -0.006079063

actor.2.bias f4 [256]
000000 a6 6d 44 3d 43 b5 86 3d 6c 76 16 3d 21 b9 05 3b
       0.04795613 0.06577542 0.03673403 0.0020404535
000010 a2 c9 30 bc 6d 83 0e bd 38 cb 5a bc a3 8b 4f 3d
       -0.0107902605 -0.034793306 -0.013354115 0.050670277
000020 ca 78 cb bb 6c 41 46 3d 7b ac 36 bd d7 1b 39 bd
       -0.0062094675 0.048402235 -0.044598084 -0.045192566
000030 b9 c2 b2 3c 59 1b 7f 3c c4 32 5a bb 17 d5 16 bd
       0.021821367 0.015570485 -0.0033294419 -0.036824312
000040 a2 d8 39 bd 37 a2 be bc df 96 67 bd 6e 15 5a bd
       -0.045372613 -0.02327071 -0.056540366 -0.053243093
000050 fe 9e 91 3c de 57 24 3c 25 e8 81 bd 1e 9e 47 3a
       0.017776009 0.010030715 -0.06343106 0.0007614809
000060 92 88 72 bd 19 15 21 bd 9d ca 5c 3b b2 de 4d bd
       -0.059212275 -0.03932676 0.0033690103 -0.050261207
000070 c1 05 69 3d c0 16 df 3b 91 2e 30 3d 5d a4 8c bd
       0.056890253 0.006808132 0.04301316 -0.06867287
000080 e0 26 18 3b 12 f6 8b 3d 83 af 15 bd ff 35 62 bd
       0.002321653 0.068340436 -0.036544334 -0.055227276
000090 76 96 2f 3d 42 d9 39 3d 0a 0c 3f 3c 19 ba a3 bc
       0.0428681 0.04537321 0.011660585 -0.0199862
0000a0 d9 69 ef bc bf 15 20 bd 70 1a 81 bd fd 62 24 3c
       -0.029225277 -0.03908324 -0.06303871 0.010033366
0000b0 4d b8 22 3d 9b 5f 96 bc 9a 96 e0 3c 25 83 34 3d
       0.039726544 -0.018356135 0.027415562 0.04407038
0000c0 68 92 e5 3a e0 23 13 3b 53 dd 9f 39 41 8f e5 3b
       0.0017514946 0.0022451803 0.00030491743 0.0070056026
0000d0 49 f0 8d bd e6 06 64 bc 73 29 88 bc 54 d4 83 3d
       -0.069305964 -0.01391766 -0.016621327 0.06436983
0000e0 57 c2 1e bc 3e 5f aa bc 2c 34 45 3c 7d 63 63 bd
       -0.009689889 -0.020797368 0.0120363645 -0.0555148
0000f0 bf 6b 72 3c d2 d0 fa bc 04 ac 8b bd 79 c1 66 bd
       0.0147961965 -0.030617151 -0.06819919 -0.056336854
000100 a7 60 ef bb eb 59 cb 3c 33 72 04 bd e8 48 7b bb
       -0.007305223 0.02482315 -0.03233547 -0.0038343016
000110 34 f3 df bc 6f 3e 82 3d 33 36 32 bd 10 42 70 bc
       -0.027337648 0.063595645 -0.04350872 -0.014664188
000120 38 18 fd 3c 64 a4 0f 3d e1 14 8e bb 51 d6 6c 3d
       0.030895337 0.035068884 -0.004335985 0.057821576
000130 d0 2b 68 bd 05 16 e3 3c 67 be 63 bd b3 d6 81 3c
       -0.056682408 0.02772046 -0.055601504 0.015849447
000140 d6 18 73 bb 21 28 61 3d 09 54 1c 3c 07 08 0e 3d
       -0.003709366 0.05496991 0.00954152 0.034675624
000150 b3 6d 19 3c 3a 31 59 3d fc 70 fe bc a7 d5 1a 3d
       0.009364533 0.05302546 -0.031059735 0.03780141
000160 3e ea 2c 3c d1 2d 51 3c 1e 1c 2e 3d d5 4b 05 3d
       0.010553895 0.012767271 0.042507283 0.032543022
000170 fe cd 09 3d 68 9b 3d 3c 41 1e a8 bd c3 9c 53 bc
       0.033643715 0.011572696 -0.082088955 -0.012915793
000180 40 36 49 3c b9 70 d0 bc a2 22 ed bc 9a bc 0e 3d
       0.012281001 -0.025444375 -0.028947178 0.034847833
000190 cb 83 ac 3c 5c 60 59 bc 07 9b 4a bc 6d 9a 24 bd
       0.021058938 -0.013267603 -0.012366063 -0.040186334
0001a0 f9 97 1c 3d be b8 2a 3d 6e df c2 bb 1e bc 70 bd
       0.03823087 0.04168009 -0.005947045 -0.058773153
0001b0 c6 26 32 3d 68 f9 06 bd 27 3b f2 3c bf 62 4b bd
       0.04349401 -0.032952696 0.029569222 -0.04965472
0001c0 fb aa 8a 3d b8 1d 04 3d db 2e f5 3c 6e ec 4c 3c
       0.06770893 0.032254905 0.029929569 0.012507541
0001d0 4d 66 42 bc 1e 37 d0 bc 27 fb 50 3d 41 17 10 3d
       -0.011865211 -0.025416907 0.051020768 0.035178427
0001e0 b1 9f fc bc e5 10 a6 3c de 3b a5 3d 7e ce e7 3c
       -0.030837866 0.020271728 0.080680594 0.028296705
0001f0 c2 c2 2f 3d 2c a3 31 3d 08 1f 12 3d 78 16 18 3d
       0.042910345 0.043368503 0.035674125 0.037130803
000200 2b 83 73 3a 21 8f 8f bd 9f 08 e5 3c 12 df 82 3d
       0.000928926 -0.070097215 0.027958212 0.063902035
000210 36 70 1f bd 55 b8 5e 3d 48 ac 96 3c 1d a3 8a bd
       -0.038925372 0.05437501 0.018392697 -0.06769393
000220 8b 3f 1a 3d 1d 54 85 bd f8 e4 07 3c 30 ad 62 3d
       0.037658256 -0.06510184 0.0082943365 0.055340946
000230 26 d2 33 3d 68 8f 45 bc 6f c6 b6 bc 72 f1 9b bd
       0.043901585 -0.0120581165 -0.022311417 -0.076144114
000240 83 33 04 bd 8f 23 22 bc 2e 9b 76 bc 6b 22 89 3d
       -0.032275688 -0.009896173 -0.015051646 0.06696018
000250 f2 ae 2c 3d 92 1c 86 bd f6 89 8a bd ea ff 87 bd
       0.04215903 -0.06548418 -0.06764595 -0.066406086
000260 61 c9 94 3c 8e df 39 3d 56 20 90 bd 52 28 58 3c
       0.018162431 0.045379214 -0.070374176 0.013193207
000270 d1 7b fc 3c 7b 5b 39 bd d7 ed 0e 3c 0c a8 62 bd
       0.030820759 -0.04525326 0.008723698 -0.055336043
000280 60 3a 35 3d 4a 9d ee bc 0e 9d d8 3c 75 61 5c bb
       0.044245124 -0.029127736 0.026442077 -0.0033627425
000290 3e 70 89 bc b8 c9 3e bd ad c0 99 3c 47 03 52 3d
       -0.016777154 -0.046579093 0.018768633 0.051272657
0002a0 47 e7 6d 3c 86 d0 66 bd 36 66 c0 3d b1 43 84 3c
       0.014520473 -0.056351207 0.09394495 0.016145559
0002b0 86 69 f3 bc 6b e5 2c 3d a4 77 32 bd ff 09 23 3d
       -0.029713403 0.042210978 -0.04357113 0.039804455
0002c0 70 c3 4c 3d b7 81 68 bd 12 9d f3 3a e0 eb 83 bd
       0.04999107 -0.05676433 0.0018586239 -0.06441474
0002d0 68 a9 2f 3d 54 4c 12 bd 3b e9 ef bb 18 a7 0f bc
       0.042886168 -0.035717323 -0.0073215044 -0.008767866
0002e0 31 ad 05 bd e2 2f 0d 3c 03 74 1c 3d e6 b6 73 bc
       -0.03263587 0.008617373 0.038196575 -0.014875149
0002f0 2f 7b 4d 3c 07 f6 d7 3c 55 c6 66 bd c6 5c 41 3d
       0.012541576 0.026362432 -0.056341488 0.047207616
000300 97 05 fb 3c e8 2e af bc 5c bf 88 3d 4f 81 9e bc
       0.030642314 -0.021384671 0.06677124 -0.019348769
000310 2c f3 96 bb 3f fa 18 bd 85 1c 16 3d c9 c4 30 3b
       -0.004606625 -0.03734803 0.036648292 0.0026972762
000320 57 28 8b bd 52 8e 87 bd 69 8f 35 3d d6 c1 49 bc
       -0.067948036 -0.06618942 0.04432622 -0.0123142805
000330 56 71 f0 3c 08 70 2f 3d f1 51 84 bd 0b 9b 12 bc
       0.029350918 0.04283145 -0.064609416 -0.008948098
000340 92 5f 9c 3b 4b 2c 9c 3c 86 a8 63 bd 5e 83 b6 bc
       0.004772135 0.01906409 -0.05558064 -0.022279438
000350 1b 74 2a 3d 6e ff 83 bd cb 96 81 3c d5 50 05 3d
       0.041614633 -0.06445204 0.015818974 0.03254779
000360 b8 ad 75 bb e5 75 01 3d 1d 3f ff 3b e8 49 1b bd
       -0.0037487578 0.031606574 0.007789506 -0.03791228
000370 9f 90 6d 3d d8 57 a1 3c 30 90 88 bd 60 48 29 bd
       0.05799925 0.019695207 -0.066681266 -0.041328788
000380 ed 9e 28 bd 25 8e 1d bd 7d 49 dd bc 46 ce 89 bd
       -0.04116719 -0.038465638 -0.027012581 -0.06728797
000390 ae 53 6b bd c6 d7 2d bd 2b 39 82 3c 29 0c 5f bc
       -0.05745285 -0.042442106 0.0158964 -0.013613739
0003a0 08 d9 cc 3b 9b 05 c6 3b 0a 93 28 3c 4c 77 47 bd
       0.006251458 0.0060431487 0.010288963 -0.048697755
0003b0 68 a5 9f bd 16 f1 8c bd be 0a c6 bc 91 4e e9 bc
       -0.077952206 -0.06881921 -0.024175044 -0.028479846
0003c0 71 41 87 3d 52 22 1e 3c 5f 9a 0c bd 08 01 52 bd
       0.06604279 0.009651737 -0.034326907 -0.051270515
0003d0 59 3b ed 3c 09 1e 14 bd 4a 0e e5 bb 47 0b 8c 3c
       0.028958963 -0.036161456 -0.006990229 0.017095221
0003e0 73 a0 20 bc 7f 78 ab 3c 46 b4 64 3c 40 be 1f bc
       -0.009803879 0.02093148 0.013958996 -0.009749949
0003f0 41 8a 96 3b 09 f9 74 3c c4 21 4c 38 7f af 50 3d
       0.004594118 0.014951953 4.8668837e-05 0.050948616

actor.4.weight f4 [2, 256]
000000 63 0c 54 3d e5 0e 6e bd e4 2b c6 bd aa 0e 91 3d
       0.051769625 -0.058119673 -0.0967634 0.07082875
000010 59 64 27 bd 21 ed e5 3c b1 03 b5 3c ea cb 38 3d
       -0.040867183 0.028067173 0.022096487 0.045116343
000020 09 ed 9a 3d af ed 1b bd dc 5f c3 3c 0c e5 ca bc
       0.07564742 -0.03806847 0.02384942 -0.024767421
000030 55 39 5f 3c 91 5a 35 3c 2f f2 14 3c 4e 9d a3 3c
       0.013624509 0.011068956 0.009090944 0.01997247
000040 cb ad 42 3c e7 2a f7 3c d5 cc 79 bc aa ba 5b 3d
       0.011882256 0.030171825 -0.01524659 0.053644814
000050 d2 9d 84 bd 71 27 04 3d c5 60 2a bd 0d ac 05 bd
       -0.06475414 0.032264177 -0.041596193 -0.032634784
000060 60 27 ec 3b 86 76 5b bd 99 6e 3d 3d 74 33 59 3d
       0.0072068423 -0.05357983 0.046248052 0.053027585
000070 5d aa 6d bd 06 2d 05 3c 3a ca 1c bd 67 d7 ed 3c
       -0.0580238 0.00812841 -0.038278796 0.029033376
000080 9e 47 c6 bc b6 6f 89 bd e8 fc 40 bd 8c ff 9a 3d
       -0.024204072 -0.0671076 -0.04711619 0.07568273
000090 a7 f9 a6 3d e6 7f ba bc a9 39 4c 3d e7 bc 84 3c
       0.08153086 -0.022766065 0.049859677 0.016203357
0000a0 b7 59 97 3c bb 9c c0 bc ad b1 32 bd f0 c3 4b 3c
       0.018475397 -0.023512235 -0.043626476 0.012436852
0000b0 bc 2d 80 3d a4 1f 32 3d c9 b3 45 3d 27 f9 66 bc
       0.06258723 0.043487206 0.04826716 -0.0140974885
0000c0 55 41 95 bc cf fd ea bc 0a 54 67 bd 29 de 8c ba
       -0.01821963 -0.028685478 -0.05647663 -0.0010747361
0000d0 7d 80 69 bc 71 01 b8 bd 64 5d 21 3d 12 48 7b 3d
       -0.014251825 -0.0898465 0.039395705 0.06134803
0000e0 0d 47 5e 3d 70 61 bc bd 12 81 32 3a 0e 52 bb bc
       0.054266978 -0.09198272 0.0006809394 -0.022866275
0000f0 7e 25 2f bc e2 83 13 bd 76 97 91 bc d7 81 20 bd
       -0.010690091 -0.036014445 -0.017772418 -0.039186325
000100 ec 1d d6 3b 87 72 26 bb 18 75 37 3d 2d 54 92 3c
       0.0065343287 -0.0025397853 0.044789404 0.017862404
000110 84 d1 a2 bd 85 21 d2 3b 31 a2 41 bd d4 17 47 3d
       -0.07950118 0.0064126872 -0.04727382 0.04860671
000120 9e fa 4a 3d 1e b2 d2 bd ee 9c 8d bc c6 c6 59 3d
       0.049555413 -0.102878794 -0.017286744 0.05316808
000130 1b a8 d0 3a d5 22 21 3d 7d ae 5b 3d 7b 16 64 bd
       0.001591924 0.03933986 0.053633202 -0.0556855
000140 03 70 4f 3d d0 df 51 3d f2 40 c1 bc 81 1e 83 bc
       0.050643932 0.051238835 -0.023590539 -0.016005756
000150 5d 58 56 bc df 71 cc 3c 60 c9 53 bc 20 6d da bc
       -0.013082591 0.024956642 -0.0129264295 -0.026663363
000160 70 c6 ed 3b 74 68 02 3d a5 ba ba 3d 41 17 56 3d
       0.0072563216 0.031837896 0.09117631 0.05226827
000170 40 46 72 3c dc a8 89 bc 99 e1 88 3d 67 b1 50 3b
       0.014787257 -0.016804151 0.06683654 0.0031844021
000180 7d 05 2b bd ea ca bf bd fc aa ba 3c 00 23 56 3d
       -0.04175328 -0.09364875 0.02278661 0.052279472
000190 7e d2 fd bb 53 c7 d3 bc 83 b8 61 bd 92 36 31 bc
       -0.00774604 -0.025851881 -0.055107605 -0.010816233
0001a0 4b 4a 09 3c 2d 93 73 3d dd f5 2a 3d a0 be 6a bd
       0.008379529 0.05946653 0.04173838 -0.0573107
0001b0 38 65 11 bd f3 62 79 bd 53 09 aa bd 6b cf f0 3c
       -0.03549692 -0.06088538 -0.0830256 0.02939578
0001c0 ba 58 91 bd 06 52 42 3d e8 f5 c8 bc 07 aa 77 bd
       -0.070970014 0.047441505 -0.02453132 -0.060464885
0001d0 46 98 08 3b 6c c4 b1 3d 23 c8 8a bc dd 68 71 bc
       0.0020842715 0.086800426 -0.016941136 -0.014734474
0001e0 56 38 89 bd 81 a9 4b bd 84 f4 9a 3c aa 93 4f bd
       -0.06700198 -0.0497222 0.018915422 -0.050677933
0001f0 c7 c4 8f ba 57 ee 9c 3a 23 87 ae 3d 62 25 99 bd
       -0.0010968678 0.0011972886 0.08521869 -0.07477833
000200 65 30 25 3d 86 0f 28 3d 98 1b 0b bd 41 d0 86 3d
       0.040329356 0.04103043 -0.033961862 0.0658269
000210 e7 17 50 bd 8a f7 1e 3d a7 13 79 3d 5a 0b 96 3c
       -0.050804045 0.03881029 0.060809758 0.01831596
000220 78 c0 8e 3a a2 20 70 bb df 6b 29 bd 8c b2 7b 3d
       0.00108911 -0.0036640544 -0.04136264 0.061449572
000230 95 1f a0 3d b9 80 47 bc dd ac b9 3c 26 eb d9 bc
       0.07818524 -0.012176686 0.022665435 -0.026601385
000240 e4 e4 73 3c 94 be 39 bd 31 cb 99 3d 96 39 89 bd
       0.014886115 -0.045347765 0.07509459 -0.06700437
000250 26 74 c5 3c 65 1a 0f 3d 01 09 09 bd 7a c3 55 bd
       0.024103235 0.03493728 -0.033455852 -0.052188374
000260 b5 78 9f bc a7 43 0d bc 59 07 55 3d 1e e2 29 bd
       -0.019466737 -0.008622087 0.05200896 -0.041475408
000270 41 67 b3 3d a4 18 5f bd e2 73 a4 3c 5c 79 0d bd
       0.087599285 -0.05446686 0.020074788 -0.034539565
000280 88 40 8e 3d 71 b7 bf 3c ea c7 85 3b 86 18 55 bd
       0.06945902 0.023402901 0.0040826695 -0.05202534
000290 b8 f2 7c 3d 2c 17 53 bd 4d 4a 3f 3d e5 f8 87 bd
       0.061754912 -0.05153577 0.046701718 -0.0663927
0002a0 c1 4a 9c bd 14 c9 54 bd 58 48 fc 3d 10 4e 17 3d
       -0.07631446 -0.051949576 0.12318486 0.03693968
0002b0 45 01 0f bd a8 15 6a bd 6a 69 62 bd c3 3f 6b 3d
       -0.03491332 -0.05714956 -0.055276312 0.057433855
0002c0 32 c3 cc 3c 3d b7 2f bd ab 95 0a bd c2 b7 eb ba
       0.02499542 -0.04289936 -0.03383414 -0.0017983841
0002d0 d0 4f a0 bc a0 f4 ac bd 76 1b 01 bd 40 5a 1a bb
       -0.019569308 -0.08445096 -0.03152033 -0.0023552328
0002e0 9e ea a7 bd 26 7e db bc be 68 62 3d 29 85 ba 3c
       -0.081990466 -0.02679355 0.05527567 0.022768574
0002f0 94 c2 99 bd 18 61 02 3c e1 63 5e 3d 36 79 c5 3d
       -0.07507816 0.007957719 0.05429447 0.0964226
000300 cf 82 c4 3c 03 83 43 3d 9d 65 3f bd 10 76 43 3d
       0.023988156 0.047732364 -0.046727765 0.047720015
000310 52 c6 91 bc de d8 aa bd cc 90 96 bc c2 19 0c bd
       -0.017794762 -0.083421454 -0.018379591 -0.034204252
000320 4d 39 20 bd 7a 96 9a 3c 2b b8 52 bd 0a 47 c1 3c
       -0.039117146 0.018870581 -0.051445168 0.023593444
000330 19 79 c6 bd 65 ba 95 bd 6a f3 6a 3c bc 72 ae bd
       -0.09691066 -0.073109426 0.014340261 -0.085179776
000340 da b7 e0 3c 43 5b 7b 3c 94 c9 ba 3b 3c ae 8a bc
       0.027431417 0.015341583 0.0057002995 -0.016928785
000350 ed 55 e5 3c 3a 0f 1d 3c 54 9b ff 3c 7a 0c 4d 3d
       0.027995074 0.00958615 0.031201996 0.050060727
000360 19 6f 81 bb af 3a 92 bd ae c9 4d 3d c2 c8 80 3c
       -0.0039500115 -0.07140099 0.050241165 0.015720729
000370 bf 1c 5e bd 1d 91 ed bc 99 ca 2f bd c2 b0 82 bc
       -0.054226633 -0.02899986 -0.04291782 -0.015953425
000380 0e 33 42 3c cf b5 6f 3d 33 cc 66 bd 5a 2f 4e 3d
       0.011852993 0.058522996 -0.056347083 0.050338127
000390 e3 05 34 bc 06 8f 5b 3c 86 75 4f bd 30 db 0a bd
       -0.010987732 0.013400799 -0.05064919 -0.03390044
0003a0 f6 9d 0b 3d b3 34 98 3c f3 f9 c9 bc 33 7a 47 3d
       0.03408619 0.018579816 -0.024655318 0.048700523
0003b0 b8 2d 02 bd 56 61 62 3d e9 2e 25 bc ec 85 23 3c
       -0.031781882 0.055268608 -0.010081985 0.00998066
0003c0 f5 16 01 3d cf 89 06 bd 03 6f af bb c6 d3 c8 bc
       0.031516034 -0.03284627 -0.00535381 -0.024515044
0003d0 c1 52 28 3c d4 2d 41 bd 57 65 c9 bc c2 cb cf bb
       0.010273636 -0.047162846 -0.024584455 -0.0063414285
0003e0 61 da d1 bc 8d 6d 95 3c 25 af 38 bd a5 b1 0b 3d
       -0.025616826 0.018240714 -0.045088906 0.034104962
0003f0 74 cb 58 bd 16 37 78 bd 46 70 41 3d 94 b9 a1 bd
       -0.052928403 -0.06059941 0.047226213 -0.07896724

actor.4.bias f4 [2]
000000 e9 7b da 3b e7 51 13 bd
       0.0066676033 -0.03596678
