projects/codes/PPO/outputs/CartPole-v0/20220920-213310/models/ppo_critic.pt (torch, 271255 bytes, 5 tensors)

critic.0.weight f4 [256, 4]
00000000: 112b 013d f8c8 85be ae6f 2fbe 58c3 dd3e
00000010: ae6e 3b3e 6126 f83e 2fe2 1e3e c852 ba3e
00000020: b5e7 4bbe 8b8d 773e 6bce d73e de13 80bd
00000030: bad5 77be f031 73be 7e06 4abf deea 5fbe
00000040: 65cb cabe 8dea eebe 74b9 79bf 981a b8be
00000050: 0d7f d4be 8f21 9a3e 469f 42be 503c 8abc
00000060: 2a63 47bd e718 adbe ced3 fbbe b4bd 0f3e
00000070: 7c2d 963c 5ac9 56be 3e97 0b3f b44d 653e
00000080: 7338 36bd 0c46 b03e eeb7 883e f2e0 7f3e
00000090: b963 593d 2edc 9b3e 9700 2ebe dc2d 0d3d
000000a0: ce16 443f 10cf b03c 62d4 e73e daf6 c63c
000000b0: b744 b73e 187f 75be 6080 a73d 8a31 bcbe
000000c0: c7bf b13e a732 8d3e 23cd aebe 1c50 d7bd
000000d0: 68e4 9bbe a36b 87be a2f1 55be f68f bf3c
000000e0: 854f 8bbe 6a84 17bd 918a 45be d1e6 ea3e
000000f0: 8b0e 51bb c7c0 85be f319 a63e b063 eb3e
00000100: ee22 963c 6b10 4e3e 10c3 ef3d 811a 52be
00000110: e92f e73d 2aab a2be e32d 4cbd c640 f13d
00000120: 4c06 4d3e b553 71bd c72d a93e 47c5 b83e
00000130: 46ca 3b3f 0a72 60be 4231 85bd 8a89 3dbe
00000140: b342 393f cfc2 013f 9370 ee3e 6b54 9a3e
00000150: b039 dabd 7a74 efbc 5c96 d1bd 578e 923e
00000160: ef99 443f 103b c53e 53ad 3f3f 7003 963e
00000170: 4916 303e b6db 1fbe 952f 22be 89b6 bb3e
00000180: 755e c33d 7126 c1be 3f78 9c3e fddb 9abe
00000190: 97fb e5be df8c f43e b7c0 113f a2cc 0e3e
000001a0: f42a 1b3f 8987 b1be 3148 00bf 5ab0 abbe
000001b0: 8751 af3d 67b9 debe bb51 0ebf 1724 dfbe
000001c0: d346 f2be 3025 e8bb e535 853c 73b6 9f3c
000001d0: 644b 5cbe eb18 653e 7bbb b0bd 4b2a 393e
000001e0: 1bdd 363f 076c f63e 724f 1b3f c7c2 273e
000001f0: a413 ffbe 27f0 843e ec8d 653e 65db c0bd
00000200: 0f1e 813e 7b6e 80be 688d b43e 3409 923b
00000210: 420b 39bf 5f44 ecbe 2572 e8be 538b a3be
00000220: 0bdb 03bf e0fa dd3d 8d92 eabe d981 8abe
00000230: c94a dabd cd8c 5d3e cef5 843e 447c 863e
00000240: 3671 4a3d e27a b2be 0f06 77be 02b8 dcbd
00000250: a5e9 b0be e6d9 abbe a008 3f3d 6a06 8abe
00000260: ab91 3bbe 9418 74be 3769 a23e 71cc dabe
00000270: 1bad 563e 0dc4 47be 3808 52be 9ed3 ae3e
00000280: 9b70 6a3e c80e e7be 4d6c 493e 2732 663e
00000290: c434 03bd e5d0 bbbe 22cb e0bc 3bdb eebe
000002a0: fc9e a13e bdc5 05be e78a a9be d27e 543e
000002b0: 9131 27be 4be1 eabe e5d7 08bf 1b01 0ebf
000002c0: f2b7 2b3d bc8d dcbe 407e cebe a2ea dabe
000002d0: 6149 2e3f 5933 bdbe 5510 143e 9ea3 b1be
000002e0: ddad 0a3e 8d90 ac3e 369c 22bd 4048 fabe
000002f0: 8a23 1e3e 1966 2fbe 81fe 12be ac2f a93e
00000300: c698 cabe 96c4 593e 509a a13e 0919 6cbe
00000310: b3f5 17bc 0878 4cbe 0721 f73e b76a 703e
00000320: b20f 3cbf a767 2d3e fd67 5abe d935 263e
00000330: 7d6a d73e 51ff 003e fde3 203e 24dc abbe
00000340: b29e 8cbc 5359 acbe d7d4 d4be aeea d7be
00000350: 3c54 4d3d 151d 20be 5aa0 133e 8739 ff3d
00000360: 4af1 07bf 6caa 6b3e fa3e ecbe 631f 653e
00000370: dd11 c43e 1a84 1bbe ae9d b53e 7cdf 50bd
00000380: c6bd 17be b178 e8be 550d 903e 8482 7e3e
00000390: aa21 b93d 8e7e 27bf 3869 453c 0903 05bf
000003a0: 59bd 37be cefc c23d a217 be3e b6ec 9a3e
000003b0: 5d7e 1b3f 8a69 2b3e 7cdb 943d e540 933c
000003c0: 7d37 0bbf 773b a73e 35b7 1ebe b977 8e3d
000003d0: 04ab 44bc 7f86 843d cd65 8b3e 7d66 b93e
000003e0: a1bc a43e 2304 473e bb06 67be 154b 8dbd
000003f0: d59c c33e 4746 f83e a65a 1e3f e456 c63e
0.031535212 -0.2612989 -0.17132446 0.43313098 0.1830394 0.4846678 0.1551597 0.36391282
-0.19912608 0.24175088 0.42149672 -0.06253789 -0.24202624 -0.23749518 -0.78916156 -0.21866938
-0.39608303 -0.46663323 -0.97548604 -0.3595779 -0.41503182 0.30103728 -0.1900607 -0.016874462
-0.048678555 -0.3380806 -0.49185032 0.1403721 0.018332236 -0.20975247 0.5452765 0.22392923
-0.044487428 0.34428442 0.26702827 0.24988154 0.05307362 0.3044142 -0.16992413 0.034467563
0.765973 0.02158311 0.45279223 0.02428763 0.35794613 -0.23974264 0.081787825 -0.36756545
0.34716627 0.27577707 -0.34140882 -0.105133265 -0.30447698 -0.26449308 -0.20892957 0.023384076
-0.27209106 -0.036991514 -0.1929114 0.45879224 -0.0031899537 -0.2612364 0.32441673 0.45974493
0.018327203 0.2012345 0.11707127 -0.20517923 0.11288435 -0.31771213 -0.04984845 0.11779933
0.20021933 -0.05891772 0.33042738 0.3608801 0.7335552 -0.21918502 -0.06503536 -0.18509498
0.723674 0.5068788 0.46570262 0.3014253 -0.10655534 -0.029230345 -0.10233757 0.28624222
0.76797384 0.38521624 0.74873847 0.29299498 0.17196001 -0.15611157 -0.15838464 0.366627
0.095395006 -0.3772464 0.3056049 -0.30245963 -0.4491851 0.47763726 0.56934685 0.13945249
0.60612416 -0.34673718 -0.50110155 -0.33532983 0.08560472 -0.43500826 -0.5559346 -0.43582222
-0.4731966 -0.007084511 0.01626105 0.019496178 -0.21513134 0.22372787 -0.08629509 0.1808254
0.7143113 0.48129293 0.606681 0.16382895 -0.49819672 0.25964472 0.2241742 -0.09416846
0.25218245 -0.2508429 0.35264134 0.0044566635 -0.72282803 -0.46145913 -0.45399585 -0.31942233
-0.5150611 0.10838866 -0.45814934 -0.2705219 -0.106587954 0.21635742 0.25968784 0.26266682
0.049424373 -0.34859377 -0.24123405 -0.10777284 -0.34553257 -0.3356468 0.046639085 -0.2695802
-0.18317287 -0.23837501 0.31720898 -0.427341 0.20964472 -0.19508381 -0.20510948 0.34145826
0.22894518 -0.45128465 0.1967022 0.22480069 -0.032032743 -0.3668281 -0.027440611 -0.46651635
0.31566608 -0.13063712 -0.33113787 0.20751503 -0.16327502 -0.4587501 -0.5345443 -0.55470437
0.04192347 -0.43076885 -0.40330696 -0.42757136 0.6808072 -0.36953238 0.14459355 -0.34695143
0.13542886 0.33704033 -0.039699756 -0.48883247 0.15443245 -0.17128791 -0.14354898 0.33044183
-0.39569682 0.21266398 0.31563044 -0.23056425 -0.009274888 -0.19967663 0.48267385 0.23478208
-0.7346145 0.16934071 -0.21328731 0.16231479 0.42073432 0.12597395 0.1571197 -0.3356639
-0.017165516 -0.336619 -0.41568634 -0.42171234 0.05012916 -0.15636094 0.14416638 0.12462144
-0.5310255 0.2301423 -0.46141797 0.22375254 0.3829488 -0.15187111 0.35471863 -0.05099438
-0.14818487 -0.4540458 0.28135172 0.24854475 0.09039624 -0.6542748 0.012049012 -0.51957756
-0.17943324 0.09520875 0.37127405 0.3025872 0.6073969 0.16739479 0.07268426 0.01797528
-0.54381543 0.32662556 -0.15499575 0.06956429 -0.012003664 0.064709656 0.27226105 0.36211005
0.32175162 0.19435172 -0.22561161 -0.068990864 0.3820559 0.48491117 0.6185707 0.38738167

critic.0.bias f4 [256]
00000000: cde1 45be f6aa 46bd 3e04 eb3c ba76 2a3d
00000010: 7bfb 65bc 1544 cfbe 0aa0 b7be 7dbd afbe
00000020: d8d8 103f 682b 8abc c993 90bc 17cf 00be
00000030: 1b37 1d3f 9f88 ba3e acc9 9fbe 7128 0bbe
00000040: 2b5f 123f a94c 213d 9b7d f33e 778f 11bc
00000050: 5899 e9bd 8ff3 ab3e 7613 f2bc 6c0d 243e
00000060: b092 083e 972a 083f d25d 79bc 10dd 8ebc
00000070: 3801 b3bc 7bc4 f43d 1940 abbd 30bc 403c
00000080: f6f4 d03e 3749 28bc 17a6 37be 0b4b cb3e
00000090: 4035 5c3d 7a57 acbe cc25 013f d6cd 103f
000000a0: 66e9 fabd 083e c93e e0ca 0f3f 17e9 7bbd
000000b0: 7043 a3bc 9650 3cbc b739 0e3d f686 1c3e
000000c0: 4093 063e 2b0d cd3e ac46 9bbc 7439 d83e
000000d0: 34a9 f83e 347a 8dbd 2e02 c7bc c5e7 883e
000000e0: e3da 00bf 9e0c cfbc 6e5b 533d c878 a8be
000000f0: 7db5 70be 04de fa3e 8710 f1be 9430 c9bd
00000100: 4835 c2bd b466 133f ba8a cabe 84a1 0b3f
00000110: 5f90 c53e 0d5a 7f3d 751d fe3e 8dad ca3e
00000120: 97c5 1c3d cdc8 31be f4e3 053f e4f0 e93e
00000130: f164 163f 84cb ad3d 840f e83e 2842 1abe
00000140: 9d41 48bd e43a 08be 1834 0dbd 1715 083f
00000150: 782f 0b3f c1a6 63bd db18 0e3f 2b78 e53e
00000160: 5900 013f 9ff2 ee3e e51f a8bd a63c f53e
00000170: 86dc eb3d ea04 00be e957 2dbe da06 733c
00000180: 2165 d73e 4757 62be 45ed f03e ea1c 88bc
00000190: 0f6c c83e 48da dc3e 48f4 443e 7a32 21bd
000001a0: 1801 d63e 96c4 a3be b84f bb3e bebe 043f
000001b0: 8a49 4dbd 0aed b73e 2d55 dcbe 8a78 81be
000001c0: bba6 c1bb 7fb1 cebe cc43 0cbf 211e 72bc
000001d0: 2d54 d43e 97b1 183d 0a0e f33e 98c0 b5be
000001e0: 016e 80bc d395 eabe 777d 8bbd 2f8e 03bd
000001f0: 6452 5a3e b709 113f 0dce 483d b4e3 c43e
00000200: c193 98bc e6e7 bbbe c8e9 2dbd bc83 893e
00000210: 4d60 b7be 9fd4 a63e b020 54bc 3d63 7d3e
00000220: 3488 063f 0924 be3e 1e33 db3e a778 af3e
00000230: 97a9 8dbd f038 b9ba 1d64 b93e 6aaa 663d
00000240: c7fa ec3e db68 093f 2ad3 01bd 7f2f 66be
00000250: cbdd b7bd ef7f f2be e666 b43e 00e3 fcbd
00000260: 1670 f8bb be5f ce3e ceb1 043f f984 03bd
00000270: acab 5e3e 5d34 a9bd 2e00 82be 474c d63d
00000280: e4c8 a73d c6e4 fc3e 00aa af3e cabb 8f3e
00000290: 15c6 2b3e fe73 5abd 850c c63e 9993 cbbe
000002a0: d044 5ebc 4bf6 c2bb 34a2 c9be 2f5e b9be
000002b0: ee23 27bc efa0 f83e 7e75 ae3d 9dd8 c0be
000002c0: 8202 1b3f 7a1a a8be 89a5 7fbc 721f 123f
000002d0: dd21 e7bd abdf 833e 3446 ee3e 83db d23e
000002e0: ca52 26bd 12d5 6dbe 3c2b 9ebe ee08 943e
000002f0: 9a39 ca3e 7e0c 9dbe b057 043f 37fc d1be
00000300: ee8a 47bc e481 6fbc 8dc1 ccbd b1fb a03e
00000310: d549 5bbc 61d5 3b3e 9778 3bbd 5fb6 a73e
00000320: 0647 cdbe 15ea 5abc 3470 a4be 7c24 9cbd
00000330: e0fe ef3e d297 74bc a1ef 19bd 421f 88be
00000340: 482c c3bc 17da 003f bd67 ec3e d181 2e3e
00000350: 5ec6 3abc f49a 97be d523 90be 87ed 023c
00000360: d66a b6be aee9 e5be e07a d33d 46e0 3abe
00000370: ec9d 173f 2d60 18bd 9824 753d 98e4 f5bc
00000380: 192d 813e c1e1 bdbe fe3f 15bd 5000 7ebe
00000390: b6f9 8ebd 1f18 52bc 9976 d73e 2a55 f73e
000003a0: 8e90 863e c33d 2abd fd79 60bb c6c3 48bd
000003b0: 7c01 163f e3a1 803e 50c7 0abc 7617 c6bc
000003c0: fb7b 0d3f 4650 c93e d0ba 23bd a1c1 0f3f
000003d0: 4646 7ebe d989 ee3e 09aa 033f a2db b23e
000003e0: 96d6 463e e675 543e a53e 1cbe 7ed7 3e3e
000003f0: d56c 053f 2f68 043a 24a7 04bd 7c59 1dbd
-0.19324417 -0.048502885 0.028688546 0.041617133 -0.014037008 -0.4048163 -0.35864288 -0.34324256
0.5658088 -0.0168664 -0.017648594 -0.12578999 0.6141221 0.3643236 -0.3120855 -0.13589646
0.57176465 0.03937975 0.47556767 -0.008884302 -0.11406201 0.33584258 -0.029550295 0.16020745
0.13337207 0.53189987 -0.015220122 -0.017439395 -0.021851167 0.11951538 -0.08361835 0.011763617
0.4081189 -0.010271362 -0.17934452 0.3970569 0.05376172 -0.3366049 0.504483 0.5656408
-0.122515485 0.3930514 0.5616894 -0.06150159 -0.019929618 -0.011493823 0.03472301 0.15285859
0.13142109 0.4004911 -0.018954597 0.42231333 0.48566592 -0.06908074 -0.024293032 0.26739326
-0.50333995 -0.025274571 0.051600866 -0.3290465 -0.23506732 0.4899751 -0.47082922 -0.09823719
-0.09482819 0.5757859 -0.39558965 0.5454333 0.3858671 0.06234174 0.4963185 0.39585534
0.038274374 -0.17361756 0.52300954 0.45691597 0.58747774 0.08486083 0.45324337 -0.15064299
-0.0488907 -0.13303715 -0.03447351 0.5315718 0.54369307 -0.05557895 0.55506676 0.44818243
0.50391155 0.4666948 -0.082092084 0.47897834 0.11516671 -0.12501875 -0.16928066 0.0148331765
0.42069343 -0.22103606 0.47056022 -0.01661535 0.39144942 0.43135285 0.19233811 -0.03935478
0.4179771 -0.3198592 0.36584258 0.5185355 -0.05011896 0.35923034 -0.43033734 -0.25287277
-0.0059097684 -0.40369794 -0.5479095 -0.014777691 0.4147047 0.037278738 0.47471648 -0.354985
-0.015677454 -0.45817432 -0.0681104 -0.03211802 0.21320492 0.5665545 0.04902463 0.38454974
-0.018625142 -0.36700362 -0.04245928 0.26858318 -0.3581566 0.32584092 -0.012947246 0.24744888
0.5255158 0.37136868 0.42812437 0.34271738 -0.06917112 -0.0014131349 0.36209193 0.056314863
0.46285078 0.5367562 -0.031695522 -0.22479056 -0.089778505 -0.4736323 0.35234755 -0.12347984
-0.007581721 0.4030742 0.5183381 -0.032109234 0.21745175 -0.08261941 -0.25390762 0.104637675
0.08192614 0.4939329 0.34309387 0.2807296 0.16774781 -0.053333275 0.38681427 -0.39761046
-0.013566211 -0.0059497706 -0.39381564 -0.3620467 -0.010201437 0.48560283 0.085185036 -0.37665263
0.605507 -0.328327 -0.0156034315 0.5707923 -0.11285756 0.25756583 0.46537936 0.411831
-0.040606298 -0.23225811 -0.3089236 0.28913063 0.39497072 -0.30673593 0.516963 -0.41012737
-0.0121791195 -0.014618371 -0.099978544 0.31442025 -0.013384302 0.18343116 -0.0457693 0.32756326
-0.4009325 -0.013361474 -0.32116854 -0.07624146 0.46874142 -0.014928775 -0.037582044 -0.26586348
-0.023824826 0.5033278 0.46172896 0.17041709 -0.0113998335 -0.29610407 -0.28152338 0.007991201
-0.35628384 -0.44904846 0.10326171 -0.18249616 0.59225345 -0.037201095 0.05984935 -0.030016229
0.2522972 -0.370863 -0.03643798 -0.24804807 -0.06981222 -0.012823134 0.4208267 0.48307163
0.2628216 -0.041562807 -0.0034252398 -0.04901483 0.58596015 0.2512351 -0.008470371 -0.024181109
0.55267304 0.39319056 -0.03997308 0.5615483 -0.24831495 0.46589544 0.5143133 0.34933192
0.19417796 0.207481 -0.15258272 0.18636891 0.5211919 0.0005050925 -0.03238596 -0.038415417

critic.2.weight f4 [256, 256]
00000000: f94e e1bb 05b5 f0bd a151 ed3c 3b1c aa3a
00000010: 906d dabe aa35 19be f32c 8abd fc0b 8abc
00000020: 05b1 da3c 3800 b43c 5dae 8bbe 67ba c2bd
00000030: 5181 903d e088 813d 2512 58be bc67 0c3c
00000040: 18b3 693d a83e 053d cbb7 f5bb fe8e b2be
00000050: 2455 a8be 09a6 55bc 6f1b e8be f499 863d
00000060: 2d8d 53bd 3103 533d c5ff 52be 7308 09be
00000070: 0ccb 9bbc dbfc 183a 5d5c 40be 4e5c 903c
00000080: 0eee 5b3d bcc2 7ebe 0dc5 cabd bbf0 ebbc
00000090: da23 333c 483c 89bd ef88 143c 621e a03d
000000a0: 588c 933d d1d4 873d 713d 193e 7ed6 a9be
000000b0: 2e83 7dbe 6cbd c9be c994 01ba f020 36bc
000000c0: 7ec9 033d c55d cfbc 2e91 66be 68a6 dd3d
000000d0: a932 463d 13b4 b73c 949d 04be d120 f43d
000000e0: 3109 f1bd 2079 b3bd 458e bcbd 858a a4bc
000000f0: 5659 eabd 5b8f 2a3c 54ed 3bbb 719d 89be
00000100: 0407 993d c34e ab3d b6f4 dabd be46 ff3c
00000110: 14de 663d 2c45 8f3c edb2 1e3e e970 f73c
00000120: 4c62 9fbd 6556 a33c cf65 863d 35f5 093e
00000130: ce11 013d 47fe 543d 209c c53d 944b 96be
00000140: 4834 b9be 7be3 34be 5df5 d9be 3fb4 6f3d
00000150: 8a76 e8bb 3ba4 443d 0608 b03c 2e29 093e
00000160: 82f7 4bbd b1c4 8f3d dd73 40bb 4589 0e3e
00000170: c10b 9fbd fc96 65be 8a82 22be 233f 9abc
00000180: 9d78 1d3e 25bd b23d 6d06 b13d ba11 01be
00000190: 3a51 d03d 3326 0d3d 3d7d 423d c03e b8be
000001a0: e5ea 0c3d cac1 35be c322 d13d 9e16 8d3c
000001b0: f1ab cdbe 3a30 843d 92f6 dfbd 3bda 79bd
000001c0: 02cf 02bf 8ef3 8cbd 0757 1b3d b51a 48be
000001d0: f6b8 423c 8364 b1bc b188 8b3d 7081 06bc
000001e0: 552b 85be b180 74bc 3a20 97be 17df c5be
000001f0: 5e56 8a3c ab5a 8f3d f6da dcbd 9f61 6ebb
00000200: 62cd a4be 7680 16bd c191 b9be c607 1c3b
00000210: 2adc 01be 910f 333d 06b7 8dbe eeb1 5c3d
00000220: 4381 4b3d 35bb 1a3d 9bc6 093e 73c8 f93d
00000230: 787a abbd 720e 63bd e3e2 16bd 4296 19bd
00000240: 195f 71bd 06e6 433e 2b8f 23bd 9027 1abe
00000250: 3681 3bbe a9ee 03be a42a 17bd 6692 19bd
00000260: 778e 9cbe d8ab 93ba 4a0d b53d 69b8 b8be
00000270: abaf 913c ff66 13be fd8d 1d3a 871e 51bd
00000280: 29b2 b1bd 5598 dd3d 1ae7 fb3c dbbf 10bd
00000290: a5a3 393d 7e0e bebe eb13 e1bc 71a1 5fbe
000002a0: 3ef8 39be 2e98 15be 25b7 31be d950 edbd
000002b0: 7d68 84be bec4 873c b79c d5bc 3055 083d
000002c0: 92e9 393e a77f d4bd 8184 9abe b394 ce3d
000002d0: 7360 48be 18fd 763d 67a5 933c 9e88 1b3e
000002e0: 1231 bcbc 9d9f 41be a23b 36bd daef 733d
000002f0: cf13 bb3d 00ec 37bd 425c 913d 5555 09be
00000300: 4407 6abe 82d4 6dbe 5a1e 91be 81a9 e53a
00000310: b01b 68be 7e87 86bd a7c2 aebe 698a 5b3d
00000320: 1b15 d7bb 2572 3bbe 1745 fd3c 72bc 96be
00000330: fbe8 3fbc 21f0 b73c 215a b5be 348b 27bd
00000340: 5580 84be 8a6b 893b f897 563d e73a 2ebd
00000350: 39b7 8dbe 44d6 99bd a675 03be fdb5 8e3c
00000360: 9b94 e7bd 669b dbbd ae88 20bd 00ba 89be
00000370: d34e e23d 4b32 a9be 7777 9dbd fec7 dcbe
00000380: c0a5 0c3d c640 96bd 03bf e1be 86db 10be
00000390: e00d a1be 6231 89be 40a1 2ebb 619b 593c
000003a0: 39c7 2f3c f75c 89bc 0546 c2be b8ec 95be
000003b0: cfe3 a73d 958e 2c3d 4d08 debe 4d0f e03c
000003c0: e12b 883d 18d2 ab3d 67ce 99be e6ef 0c3e
000003d0: 2e9a 95be e773 a13c 4270 803d 855f 32bd
000003e0: 0ab6 2b3d 7b6f 633d ed28 a8be 1ce0 5f3d
000003f0: b83c cf3d 6c4d 0b3d c24f a7be 40b4 14bd
-0.0068758694 -0.11753277 0.028969588 0.0012978384 -0.42661715 -0.14961877 -0.06746855 -0.016851418
0.026695738 0.02197276 -0.27281466 -0.0950821 0.07055915 0.06324935 -0.21100672 0.008569654
0.057055563 0.032530457 -0.0074987165 -0.3487472 -0.32877457 -0.013040074 -0.4533343 0.06572333
-0.051648308 0.051516715 -0.20605381 -0.1338213 -0.019017719 0.0005836018 -0.18785234 0.01762214
0.053693824 -0.24878973 -0.09900866 -0.028801313 0.010933841 -0.06700951 0.009065851 0.07818295
0.07204503 0.066323884 0.14964844 -0.33171457 -0.24757072 -0.3940233 -0.000494313 -0.011116251
0.03217458 -0.025313267 -0.22516319 0.10822755 0.048388157 0.022424733 -0.12950736 0.11920322
-0.11769331 -0.08763337 -0.09206823 -0.020085583 -0.11442821 0.010410155 -0.0028675394 -0.2687793
0.07472041 0.08364632 -0.10691206 0.031161662 0.056364134 0.017489038 0.15497942 0.030205207
-0.077824205 0.019938657 0.06562387 0.13472445 0.03151112 0.05200031 0.09648919 -0.29354537
-0.361727 -0.17664902 -0.4257001 0.058521505 -0.007094209 0.048008185 0.0214882 0.13394615
-0.04979659 0.07019938 -0.0029365935 0.13919552 -0.07765914 -0.22420877 -0.15870109 -0.018828934
0.15378042 0.08727483 0.08643804 -0.12604418 0.10171743 0.034460258 0.047482718 -0.35985374
0.0344037 -0.17749706 0.102117084 0.017222699 -0.40170243 0.06454511 -0.109357014 -0.060999136
-0.5109712 -0.06882392 0.037924793 -0.19541438 0.011884918 -0.021654373 0.06813181 -0.008209571
-0.26009622 -0.014923261 -0.29516774 -0.38646767 0.016886886 0.069997154 -0.10783951 -0.0036374105
-0.32187945 -0.036743604 -0.36244014 0.0023808344 -0.12681642 0.043716017 -0.27678698 0.053880624
0.04968382 0.03777619 0.13454668 0.12196436 -0.083729684 -0.055433698 -0.03683747 -0.037496813
-0.058928583 0.19130716 -0.039931457 -0.15054154 -0.18311009 -0.1288401 -0.0369059 -0.037493132
-0.30577442 -0.0011266423 0.08840425 -0.36078194 0.01778396 -0.14394759 0.00060102326 -0.051054504
-0.086765595 0.10820071 0.030749846 -0.035339218 0.04532208 -0.37120432 -0.027475318 -0.21838929
-0.18161103 -0.14608833 -0.1735502 -0.11587686 -0.25860968 0.016573306 -0.026075704 0.033284366
0.18155506 -0.1037591 -0.30179217 0.10086956 -0.19568042 0.060299963 0.018023206 0.15188834
-0.022972617 -0.18908544 -0.044490464 0.059554912 0.091346376 -0.0449028 0.07097675 -0.13411458
-0.22854334 -0.23225597 -0.2834347 0.001752183 -0.22666812 -0.06568812 -0.34132883 0.053598795
-0.0065637953 -0.18305261 0.030916734 -0.29440647 -0.011713262 0.02245337 -0.35420325 -0.04090424
-0.2587916 0.004193728 0.052391022 -0.042536642 -0.2767885 -0.07511571 -0.12837848 0.017420763
-0.11307641 -0.10722999 -0.039192848 -0.2689972 0.11050191 -0.33046183 -0.07688802 -0.43121332
0.03433776 -0.07336573 -0.44091043 -0.14146242 -0.31455898 -0.2679549 -0.0026646405 0.013281674
0.010728651 -0.016767962 -0.37944046 -0.29282165 0.08197748 0.042128164 -0.43365708 0.027351046
0.06648994 0.083896816 -0.30040285 0.13763389 -0.29219192 0.019708587 0.062714115 -0.043548126
0.041921653 0.055526238 -0.32843724 0.054657087 0.10119003 0.034009382 -0.32678038 -0.036304712

critic.2.bias f4 [256]
00000000: 0315 9a3d e594 fa3d fa7f 6dbd 0eb2 193e
00000010: 75d8 463e 11ac 5e3c ae6e 133d b726 233e
00000020: 80d1 3dbd d8c1 4ebd 121d 09bd 85c8 543e
00000030: 75e4 6f3d 0204 3a3d 00e2 7d3b d242 213d
00000040: 7da7 533e 14c8 4abc 2d1a 4c3d 12e9 453c
00000050: 260d 2c3d 32f4 303d 8025 273c bd58 e93b
00000060: 50fd 763d 4c93 583d 3bcb 2ebc 68f4 f23b
00000070: c426 3e3d f502 43bc 9ace a13d 8d70 363e
00000080: ce0d 963d 35d3 033e 26db adbd d580 423d
00000090: 79fe 0a3e eeb1 aa3d 7728 d03c 0071 0dbd
000000a0: 6764 71bc 8a5b cbbd a60c d2bc 9ed9 0d3e
000000b0: f823 78bd d3ed a2bc 13b1 963d 30bb 573d
000000c0: c58d dbbd 2067 b1bc 3d8a 0b3e 7c19 123e
000000d0: 1882 5d3c 50a7 203d a5b1 cc3a 4775 d63c
000000e0: c355 ad3c 6967 3f3e 70c1 203d 6f76 073e
000000f0: 6407 403e 5983 d53d 6c8b 353d 8c7d 513d
00000100: 88e0 243d d885 9ebb 5e96 453e 97b5 a93d
00000110: a18e 163c 1069 c63d d353 3b3e 0697 37bd
00000120: c7fb 853c 7387 583d 8d73 1e3e 58cb 2d3e
00000130: ec30 cf3c a011 dfbc 9ca9 d03c 3df0 8d3d
00000140: 4731 0c3e 9770 e43c 5f09 9e3c 2730 27bd
00000150: e264 f73d d4fe e23d d4cc 083d c0c6 593d
00000160: 5d84 01bd 5243 533a 86cb b3bb e7d0 97bd
00000170: 88b8 07bd d7b2 eab9 dd0a 813d e7fa b1bc
00000180: 3158 363d 2ca6 063d b629 d5bb a71d 8abc
00000190: b348 2c3d 6883 a43b 2225 d63d 7ab9 c83d
000001a0: f855 2d3d 17f5 c93c ef35 b53d b023 d43c
000001b0: 166d 5b3c 077d 533d 941c 4cbd 3af7 053e
000001c0: 4ec0 d83c 4961 cc3d f425 413d a14a 513d
000001d0: 714a 83bd 770f 073e ce8c 91bc 25c1 923d
000001e0: b79b fb3c d207 373c 3527 91bc 2ed1 0b3d
000001f0: fe8a 3dbd 5d87 1ebd daf8 773c 82e5 88bc
00000200: 1053 1e3d 5bcc 93bd 80cb 033e 6449 5bbd
00000210: cf6d f83d 2542 813d 05fa 383d 7ef9 12bd
00000220: fa29 1fbd e077 7b3d 803b 29bc c718 b03d
00000230: a8b6 1d3e 025b 42bd 7fdf 043d 9e81 893c
00000240: 57e9 42bd cc33 ac3c 7ca0 213c 6548 0dbb
00000250: 9d66 13bd 74a6 c83d 94b3 193e 646e 28bd
00000260: 66ef ebbd 5b6b e43d d4ca c23c fa98 be3d
00000270: 96bb b23d fc38 183e f994 91bd 1f4b 4dbd
00000280: be7b 423e 15d6 1a3d 5c97 35bd 86bc 833d
00000290: b038 b6bd 879f f73a 0324 3d3e 26df 6e3c
000002a0: 788f f23d c072 e23d 9a23 9e3c 44cf 573c
000002b0: f605 b6bd 8a36 5cbd e112 0dbd aa2c 273e
000002c0: 3bd3 a5bc ee84 7bbd 600e 2d3d c255 373e
000002d0: c429 a9bd 0f26 1a3c e893 043e 560f 753d
000002e0: f819 38bd b072 2dbc 3403 323e 33cb 613d
000002f0: 05d1 663d f907 ccbb 0dce 85bd effa 723d
00000300: 19e3 5bbd 6daf aa3d 18e6 c03d 2248 d3bd
00000310: 8d98 483c 9546 223e 0cce 45bd 24d5 393d
00000320: 16c8 1abd 0f11 f93c b201 403d 6027 063d
00000330: 3604 423d 342f 1c3e 5d53 f0bc f931 9d3c
00000340: d4c5 30bd 6c8b 023e fb8f 3c3d 9b58 ad3d
00000350: 4247 eeba dc89 1d3d 2e6d eabc 97c6 4dbd
00000360: 442f dc3c 48bb 82bc 3fdb b83b 38df 903c
00000370: 4ca4 d43d b121 63bd 712c 043e 8444 39bd
00000380: 7e42 a13d fa5d 2fbd 8c6e 813c a1d6 a03d
00000390: bcee 0a3e b92a 22bd a0a3 b93d 6aff 033d
000003a0: 2c04 9c3d 54c9 ef3d 9070 c83b b7a7 6abc
000003b0: e818 243e 2748 f73d f50a c03d 1b28 be3d
000003c0: 89cc b2bb a150 063e ad17 dcbb 8c2f 9e3d
000003d0: 5d50 4a3d 9597 dd3d 5077 02bd e2ec 143e
000003e0: b02b 043d a50c 123e 57e9 413d d2c0 48bd
000003f0: 9daa afbb a130 3ebd 9ae6 7d3d 61cc c23d
0.07523539 0.12235431 -0.057983376 0.15009329 0.1941851 0.0135908285 0.035994224 0.15932737
-0.046342373 -0.050477833 -0.03347499 0.20779617 0.058567483 0.04541398 0.0038739443 0.039370365
0.2066936 -0.012376804 0.04982965 0.012079494 0.042004727 0.043201633 0.010201812 0.007121174
0.06030017 0.05287485 -0.010668571 0.0074143894 0.04642369 -0.0119025605 0.07900734 0.17816372
0.07326852 0.12873538 -0.08489065 0.047486145 0.13573636 0.08334719 0.02540992 -0.034531593
-0.01473341 -0.09929569 -0.025640797 0.13852546 -0.060581177 -0.019888794 0.07357993 0.05266875
-0.107204 -0.02165562 0.13626952 0.14267534 0.013519786 0.03922206 0.0015616907 0.02617897
0.021159058 0.18691792 0.039246976 0.13228773 0.1875282 0.10425443 0.044322416 0.05114512
0.040253192 -0.0048377328 0.19295642 0.08286589 0.009189279 0.09688008 0.18293695 -0.04482176
0.016355408 0.05286355 0.15473767 0.169721 0.025291882 -0.027230084 0.025471501 0.069305874
0.13690673 0.027885718 0.019291578 -0.040817406 0.12079789 0.11083761 0.033398464 0.05316806
-0.031620372 0.0008059043 -0.0054869084 -0.07412892 -0.033134967 -0.00044765204 0.063009 -0.021726085
0.0445177 0.032873318 -0.0065052165 -0.016859842 0.04206152 0.0050205477 0.10456301 0.09801002
0.042318314 0.024653 0.08848178 0.025895923 0.013392707 0.051632907 -0.04983194 0.1308259
0.026458886 0.09979493 0.047155336 0.051096562 -0.06410683 0.13189493 -0.017767336 0.07165746
0.030713899 0.011171298 -0.01771889 0.034135036 -0.04627513 -0.03870331 0.015135014 -0.016711
0.038653433 -0.07216712 0.12870598 -0.053536788 0.12130319 0.06311444 0.045160312 -0.035882466
-0.03885839 0.06139362 -0.010329127 0.08598476 0.15401709 -0.047450073 0.032439705 0.01678544
-0.04758581 0.021020792 0.009864923 -0.0021558043 -0.03598653 0.097973734 0.1500991 -0.0411209
-0.11520271 0.11153289 0.023778357 0.09306522 0.087271854 0.14865488 -0.071084924 -0.05012047
0.18992516 0.03780182 -0.0443338 0.06432442 -0.08897531 0.0018892147 0.18470769 0.01457957
0.11843771 0.11057043 0.019304086 0.013171975 -0.08887856 -0.05376295 -0.034441832 0.16325632
-0.020242324 -0.06140607 0.042250037 0.17903808 -0.08259919 0.009408488 0.12947047 0.05982908
-0.04494664 -0.010586426 0.17384034 0.055125427 0.05635168 -0.0062265364 -0.06533442 0.05932134
-0.053683374 0.08334241 0.09418887 -0.103164926 0.012243402 0.15847237 -0.048292205 0.045369282
-0.037788473 0.030403642 0.046876617 0.032752395 0.047367297 0.15252382 -0.029336626 0.019188868
-0.043157414 0.12748498 0.046035748 0.08464166 -0.0018179195 0.03846155 -0.028616514 -0.05023822
0.026878007 -0.015958443 0.0056413705 0.017684564 0.103829 -0.055452053 0.12907578 -0.045231357
0.078740105 -0.042814232 0.015799783 0.07853437 0.13567632 -0.039591525 0.09064412 0.032226004
0.07617983 0.11708322 0.006116934 -0.014322213 0.16025126 0.12074309 0.0937709 0.09284993
-0.0054565114 0.13116695 -0.0067166896 0.077239126 0.049393047 0.108199276 -0.031852067 0.14543489
0.032268226 0.14262636 0.04734167 -0.049012013 -0.005360915 -0.046433095 0.061987497 0.095116384

critic.4.weight f4 [1, 256]
00000000: d11a eb3d 4d39 e93d 1acc 3d3d 5972 f13d
00000010: 44bf 133e 7543 c1bd 8c6e cf3d 11f9 f33d
00000020: 2e54 5dba d658 713d 406a e13b 3157 f93d
00000030: 99b5 2c3e f899 713c 6ea5 d43c 38e0 933c
00000040: c465 f33d 9cb2 05bd d4d4 c1bc 5b75 c2bd
00000050: 2bc4 8abc aebd 093e 0b55 19bd 8501 76bc
00000060: 4c3c 113e 909f 1bbd beac 3fbd d18c 01bb
00000070: 84d2 203e af75 4fba 68f6 343e 4b4e e93d
00000080: 45a1 123e 7350 003e c3bc 37bd b637 23bd
00000090: 0d1d 0e3e 391c 233e 2928 3abd d852 933c
000000a0: d64b 46bd f566 a2bd 6397 b5bc c6e4 e33d
000000b0: 24a8 1cbd 2704 2bbc 2c64 0c3e 68a3 853c
000000c0: 656a 9abd faec 363d ac95 fe3d bccc d63d
000000d0: d0f6 30bd f646 213e f1b5 2fbd 2c8f 96ba
000000e0: 2471 2ebd 39cd 123e 1ba0 123e 71ea 1d3e
000000f0: bba6 fe3d 28f7 0a3e 59fe 233e 5ec3 1c3e
00000100: 6a40 683d 46d8 5dbd 7bd8 db3d e5ce 113e
00000110: 4711 c5bc 1b8c 1c3e ab27 fa3d 5ca8 edbc
00000120: 9f3b 94bc b4dd 1ebd abeb 043e fa71 093e
00000130: aef4 ffbc 0434 2dbb 0491 363e 4576 093e
00000140: 4a7a eb3d 8670 353e 6f22 00bd 21ba f23c
00000150: ca76 e93d de74 053e 6934 10bd 9a2b 5abd
00000160: b717 893b 50c9 29bd 46a4 88bc d33d 13be
00000170: e550 39b9 cf22 d7bb 8214 053e 5c7a 76bd
00000180: 62a1 093e e8a9 4dbc d052 ad3c ec21 4abc
00000190: b48e 043e 51b7 fbbd 0036 db3d ba84 ee3d
000001a0: 6549 363e a466 1c3e 87d3 e73d 18bb 243e
000001b0: cad4 6bbc c96f 1f3e c81c 97bc 82a5 243e
000001c0: 47cf 313e 496f 053e 0088 39bd 423d 91bc
000001d0: 8cc8 1bbd 3303 0a3e 77aa 11bd ac0b 0d3e
000001e0: 254a 21bd 91a4 2f3e 36a1 49ba 006c a7bc
000001f0: 647c 7a3c 10eb 39be 7f07 543c 367d ab3a
00000200: ee56 2bbd e54a 80bc 728c 373e 79ca bfbd
00000210: 33f6 183e f0bc ec3d ee2d dfbc 874b 02bd
00000220: f428 10bd 5a4a 023d 9056 383b af53 2d3e
00000230: 0962 f73d 5ff1 bd3c e129 b9bd 6518 0c3e
00000240: eb68 16bd ace2 47bd 3de1 32bd cf6c 9ebc
00000250: 96e3 13bd 84e2 243e c7e9 293e 0572 47bb
00000260: 7ebe 43bc 9eff 2f3e 246b f5bc a1a9 073e
00000270: f509 2c3e bc4c e23d 8fa2 14bd 584f 09bd
00000280: e19a 143e ab6d efbc 94f6 21bd 9a67 023e
00000290: 7c58 e0bb 2bc5 83bc e42f e73d cf0c 2c3e
000002a0: b15c 243e 6367 163e df48 31bd a3c5 94bc
000002b0: 21c3 02be c6f2 213d 59e5 12bd faaa 023e
000002c0: 4515 c8bc 5486 7c3d 8028 173e 2030 023e
000002d0: a5c5 a93c bf3f e1bc e51e 153e cbcc 1e3e
000002e0: 7b53 fdbc bd64 9abb ae61 143e 5bb6 c6bc
000002f0: 8332 273e 11ba 45bd 8ddd 20be c999 303e
00000300: 1fda 0dbd a646 3c3e 66c0 003e 3763 63bd
00000310: 9a66 dfbc c834 173e a04a dfbc e7ec 90bc
00000320: 946d 44bd 2fac 1d3e bb7a 883c 7095 253e
00000330: a6e6 103c c24e 103e be82 7bbb 9df0 69bc
00000340: 7fba 10be a653 333e a04f 303e 2910 163e
00000350: 120f 35be 8915 13bd e475 2cbd 5c07 d7bc
00000360: 531d 3b3e 921e 4cbd 8570 92bc 58bf 46bd
00000370: 3889 3e3e e644 b03b d221 293e 3e8a d7bc
00000380: 1ec5 453e f14f b0bd b405 7abd dfad 2c3e
00000390: b6fe 2f3e 7596 0bbc 2ffb 293e 3305 61bb
000003a0: c803 d83d 51d6 f73d 6811 1bbd cf85 fdbc
000003b0: 7aa5 db3d ae2d ec3d 9713 fd3d 4d87 333e
000003c0: 23c6 7abc 1765 ea3d 0659 45bd 4336 1c3e
000003d0: 4903 0d3e 90eb 073e 6a64 65bd 5179 2f3e
000003e0: 2b80 2dbd daa7 003e f4e5 d1bd d26d b9bc
000003f0: 719b 17bd 9e5c c3bd e039 1f3e 1a40 2a3e
0.11479724 0.113878824 0.046337225 0.11789388 0.14428431 -0.094366945 0.10128507 0.1191274
-0.00084430247 0.05892261 0.006879121 0.121748336 0.16866149 0.014746182 0.02595779 0.018051252
0.11884645 -0.03264104 -0.023661055 -0.0949504 -0.016939243 0.13451263 -0.03743462 -0.015015011
0.14183158 -0.037993968 -0.0467956 -0.001976777 0.15705305 -0.00079139596 0.17672122 0.11391886
0.14319332 0.12530689 -0.04485775 -0.039848052 0.1387827 0.15928735 -0.045448456 0.017983839
-0.048412167 -0.07929794 -0.022166913 0.111276194 -0.03824629 -0.010438002 0.13710088 0.01631327
-0.075398244 0.044659592 0.124308914 0.10488269 -0.04320413 0.15749726 -0.042898122 -0.001148676
-0.042588368 0.14336099 0.14318888 0.15421464 0.12434145 0.13570845 0.16014995 0.15308902
0.056702055 -0.054161333 0.1073465 0.1423908 -0.02405609 0.15287821 0.12214597 -0.029010944
-0.018094836 -0.03878565 0.12980525 0.13422385 -0.031244602 -0.0026428709 0.17828757 0.13424022
0.11497934 0.17718706 -0.03128284 0.029629769 0.1139961 0.13032863 -0.035206232 -0.053264238
0.004183735 -0.041451752 -0.016679894 -0.14379053 -0.0001767311 -0.006565429 0.12996104 -0.060175285
0.13440469 -0.012552716 0.021157652 -0.012337189 0.12945062 -0.12290824 0.10703659 0.11646409
0.17801435 0.1527353 0.113196425 0.16086996 -0.014393995 0.15569986 -0.018446341 0.16078761
0.17364226 0.13030733 -0.045295715 -0.017729405 -0.038033053 0.13477783 -0.03556296 0.13773984
-0.03937735 0.17152621 -0.0007691564 -0.02043724 0.015288446 -0.18156075 0.01294124 0.001308358
-0.04183095 -0.015660712 0.1792467 -0.093647905 0.14937668 0.115594745 -0.02724358 -0.03181031
-0.035195306 0.03180919 0.0028127767 0.16926454 0.120792456 0.023186384 -0.09041191 0.13681181
-0.03672115 -0.048800156 -0.043671835 -0.019338993 -0.036105715 0.16102034 0.16593085 -0.0030432951
-0.011947272 0.17187354 -0.029958315 0.13248302 0.16800673 0.11049792 -0.03628784 -0.033522934
0.14512207 -0.029227098 -0.039541796 0.12734833 -0.0068464857 -0.016085228 0.11288431 0.16801761
0.16050984 0.14687876 -0.043282386 -0.018160647 -0.12769748 0.039538167 -0.035863254 0.12760535
-0.024424205 0.061651543 0.14761543 0.1271367 0.020724127 -0.027496217 0.14562567 0.1550781
-0.030923596 -0.004711716 0.14490387 -0.024256876 0.16327862 -0.04827315 -0.15709515 0.17246164
-0.034631845 0.18386325 0.12573394 -0.05551454 -0.027270604 0.14766228 -0.027257264 -0.017691089
-0.047956064 0.15397714 0.016660085 0.16170287 0.008844053 0.14092544 -0.003837749 -0.014278558
-0.14133643 0.17512378 0.17217875 0.14654602 -0.1768153 -0.03590921 -0.042104617 -0.026248626
0.18272905 -0.04983384 -0.01787592 -0.048522323 0.18607032 0.005379307 0.16516808 -0.026311036
0.19313475 -0.086089976 -0.061040595 0.16863202 0.17187008 -0.0085197585 0.16599725 -0.0034335374
0.10547596 0.121014245 -0.037858397 -0.030947594 0.107249215 0.1153215 0.12357252 0.17532082
-0.015306029 0.114450626 -0.048180602 0.15255074 0.13770784 0.13273454 -0.056003965 0.17136122
-0.04235856 0.1256403 -0.10248938 -0.022635374 -0.037013475 -0.0953915 0.15549421 0.16626015
