projects/codes/HierarchicalDQN/outputs/CartPole-v0/20211221-200119/models/policy_checkpoint.pth (torch, 276837 bytes, 6 tensors)

fc1.weight f4 [256, 8]
00000000: f7b3 b4be 9013 313e 1f89 1d3e 3380 ca3d
00000010: dde4 45bd a422 8b3d 3ef9 7e3e 518d afbe
00000020: 4730 89be ccb1 26be 2cec 093e d1c8 93be
00000030: cb2c 2c3e 31e9 83be e8ee 243e aad9 2c3d
00000040: 8986 a23e c864 1dbd a17b 223e 6b9a a73e
00000050: a781 01bf 92af ac3c e4c8 88be 3101 a7be
00000060: 018e c43c 04b0 683d d9a7 9d3e 02e7 8a3e
00000070: 814d 20be 2a70 f0bd cac5 7d3e bbd3 b3bd
00000080: e0e4 acbe d2d8 663e 1c57 643e efe1 b83e
00000090: e321 d93e 1265 983e 4145 b9bd 20f9 a5be
000000a0: 9fc8 a73e cc26 c9bd 0b5e ef3e 0a02 303e
000000b0: 63cd 43be 6162 42be 2029 5e3e b7c4 2ebe
000000c0: 9d31 97be 4619 223e a51b 3f3e 25cb 57bd
000000d0: 5b2b b13e 26e2 6c3e 2d49 21be 7846 9fbd
000000e0: 578d 053e 4eff 30be 75ff 75be 4114 333c
000000f0: 3883 303e 7260 46be f0d2 683e 5040 743e
00000100: fba1 0dbe 00e0 95bc b26e a6be a8db 30be
00000110: 7326 693e 8a3e 2b3e 3ee3 183e 048f 313e
00000120: c985 e83d c400 1e3e 160d 023f 8d95 eabd
00000130: ff5f e23d a070 393e 5434 78be 13fc a2be
00000140: 4273 bb3d 30c0 433e 17ff f33e d6c9 04be
00000150: 2188 cb3e 1640 a93e 8c20 c03e ea5e dbbd
00000160: ef2d 843d 8773 9abe 92fd 2fbe f4ca 0a3e
00000170: a4c5 25be 2b93 2b3b c52d 7b3e d56e b63e
00000180: a564 a4be 46a3 37be a576 2bbf a774 c4be
00000190: a65d ee3d 45b5 7d3e eafe 60bd 85bc 513e
000001a0: 306a 99bc f164 973e 71d0 dcbe 2646 c5bd
000001b0: daec 6f3c 7034 a83e 6352 bbbe 3a4c 3fbe
000001c0: 31b6 a6bd d04b babe a824 9abe 8ec2 913b
000001d0: 6ef9 74be 8518 b0be aeec 79be 746b 723e
000001e0: 29d8 3bbe 35d3 86be 5c01 fc3d f54c 74be
000001f0: 28d9 eb3e ddfc 89be 20c5 d5bd 0c6c 9bbe
00000200: f0ef 023e 1b64 063e a9a2 a43e 2323 af3d
00000210: 99ee c83e 432a cbbe e1e0 5b3c 6507 a73e
00000220: 0209 1dbe 517b 2f3e d340 89bd 61e9 553e
00000230: 25ca 023d adba 513e 21a9 b13e 397c a43e
00000240: c3ed 9ebd 55e5 a83e b48b af3e 0452 da3d
00000250: d4c7 543e 3563 b4bd 1c3d ab3e 4690 8bbe
00000260: 125c e8bd 2b9c edbd c899 e43e a767 73be
00000270: 7231 5f3e b54b 37be 2515 5e3e 76a1 ebbd
00000280: 8500 373e 253b 1ebe 85a3 943e 11ee bc3e
00000290: 04dd f3be c817 6fbd dcc7 76be 257f abbd
000002a0: 3ff5 843e b855 a9be 36cf 40be 7085 ccbe
000002b0: 3655 aebd d161 ca3d 7607 833d 381a 853e
000002c0: 9b26 8dbd 6e64 aa3e 00d6 51be 33de ad3e
000002d0: aae3 7f3e 810d e3bc 3660 223e 4982 ad3e
000002e0: a50f d9bc 2f49 bebd bcb1 f7be d001 82be
000002f0: 7fb2 3abe 1a2f b83e 551e bb3e 5196 9a3e
00000300: fd9e 86be f9c3 92bc 7db6 edbe a164 9fbe
00000310: babd 90bd 225a 29be 5d70 04bd d5e1 733e
00000320: 198a d3bd 8c5a c7bd 4a85 01be c2fc 9b3e
00000330: cb23 ac3e cc7a 4b3c c67c 813e 597a 81be
00000340: 1a67 08bd fe81 5bbd dd3a 813e 23ed 86be
00000350: 6deb 813e 45f1 693d 2d9a c9bd fb2c bb3d
00000360: 219e bcbe 61a6 d53d 264a f33e 16c8 493e
00000370: 4e3e 513e 0036 853e 6fb0 cd3e 841a cc3e
00000380: 9fbb 85bd 7cc7 d63d 570d 7bbc 2d8e 35be
00000390: 0f74 b73e 9871 513e db1b 79be 095a ad3b
000003a0: 4791 f43d 8385 8c3e cf59 0dbf e8ee 9fbe
000003b0: 1fef 9ebd 7495 11be 1610 e3be 9f03 74be
000003c0: 3adc 8e3e 738a 67be a353 d53d 0e0d f3bc
000003d0: f0ed e2bd 31ad 6abd 83cf bb3e 02aa edbd
000003e0: 4621 d2bd ad4f bd3e f8b4 0c3e 5d50 863c
000003f0: db4e 233e 8871 3cbe 43d6 ecbd 795c 9f3e
-0.35293552 0.17292619 0.15384339 0.09887733 -0.048313964 0.067937165 0.24899766 -0.34287503
-0.26794645 -0.16278762 0.13468999 -0.28864148 0.16813962 -0.25763848 0.1610676 0.042199768
0.31743267 -0.03842619 0.15867473 0.32735 -0.5058846 0.021079812 -0.26715767 -0.32618096
0.023993494 0.056808487 0.3079212 0.2712937 -0.15654565 -0.117401436 0.24782482 -0.08780619
-0.33768368 0.22543648 0.22298855 0.36109874 0.42408666 0.2976461 -0.09046412 -0.3241663
0.3277025 -0.09821853 0.46751437 0.17188278 -0.19121318 -0.18982841 0.21695375 -0.17067228
-0.2953004 0.15829954 0.1866289 -0.052683968 0.3460339 0.23133144 -0.1575057 -0.07777113
0.13042198 -0.17284891 -0.2402323 0.010930122 0.17237556 -0.19372728 0.22736716 0.23852658
-0.13831322 -0.018295288 -0.3250633 -0.17271292 0.22768573 0.16723076 0.14930436 0.17339712
0.113536425 0.1542998 0.5080122 -0.11454306 0.11053466 0.1810937 -0.24238712 -0.31832942
0.09152843 0.19116282 0.47655556 -0.1296762 0.39752296 0.33056706 0.3752483 -0.10711463
0.06454074 -0.30166265 -0.17186573 0.13553983 -0.16188675 0.0026180248 0.24529178 0.35631433
-0.32108036 -0.17933378 -0.6697791 -0.3837025 0.11638956 0.2477618 -0.054930605 0.2048207
-0.018727392 0.295692 -0.43127778 -0.096325204 0.014643872 0.32852507 -0.36586294 -0.18681422
-0.08140219 -0.36385965 -0.30106091 0.0044482416 -0.23923275 -0.34393707 -0.24406692 0.23673803
-0.18344177 -0.26333013 0.12304947 -0.23857482 0.46064115 -0.26950732 -0.10437989 -0.3035587
0.12786841 0.13124125 0.3215535 0.08551624 0.39244536 -0.3968068 0.0134203145 0.3262283
-0.15335467 0.17136885 -0.06701817 0.20889808 0.03193106 0.20481367 0.34699348 0.32126024
-0.07760193 0.32987466 0.34286273 0.106601745 0.20779353 -0.08807985 0.3344506 -0.2725851
-0.11345686 -0.11602052 0.44648576 -0.23770009 0.21796206 -0.17899974 0.21687753 -0.115054056
0.17871292 -0.1545225 0.29031006 0.3690038 -0.4762956 -0.05837229 -0.24099678 -0.0837386
0.25968358 -0.3307321 -0.18829045 -0.39945555 -0.085123464 0.09881938 0.063979074 0.25996566
-0.06892129 0.33279747 -0.20491791 0.33958587 0.2498919 -0.0277164 0.15857014 0.33888462
-0.026496718 -0.092913024 -0.48377788 -0.25392008 -0.18232153 0.35973436 0.3654658 0.30192807
-0.26293173 -0.017915713 -0.4642829 -0.3113146 -0.070674375 -0.16538289 -0.03233372 0.23816617
-0.103290744 -0.09734067 -0.12648502 0.30466276 0.33621058 0.012419414 0.25290507 -0.25288656
-0.03330145 -0.053590767 0.25240222 -0.26352796 0.25374928 0.05711486 -0.0984386 0.09139439
-0.36839393 0.10432125 0.47517508 0.19705233 0.20433924 0.2601776 0.4017367 0.3986398
-0.065299265 0.104872674 -0.015323005 -0.17730017 0.35830733 0.20453489 -0.24327032 0.005290274
0.11941772 0.2744561 -0.5521516 -0.31236959 -0.077604525 -0.14217168 -0.4434821 -0.23829506
0.27902395 -0.22611408 0.10416343 -0.02966931 -0.11080539 -0.057294074 0.36681756 -0.11604692
-0.10260253 0.3697485 0.13740909 0.016395742 0.1594805 -0.18402684 -0.11564305 0.3112524

fc1.bias f4 [256]
00000000: d3c0 823e acea 9a3e d255 143e 389f 0cbe
00000010: 0089 e0bd 4fbe a6bd e44f 753c e706 4abc
00000020: 06c4 8d3e 06c3 923e 43c6 933d 28f5 3d3e
00000030: 199c 95bd 10e4 c5bc c533 58be f2e2 56bd
00000040: bb93 edbd 3eb9 823e 33c0 df3e b6a7 1f3d
00000050: 216e b5bd 2da9 b13e f775 763e 59c6 323e
00000060: 18b6 a7bd 5ecf 19bd 6fff b03e 780c 77be
00000070: 3bf6 be3e ad16 9bbe 4cd8 bb3e b6d1 cd3d
00000080: 82f9 56be a7e7 c8bb 952d 12bd 614a cf3e
00000090: 73d3 d8bc d3b7 d63e aadb 8e3e 43f1 8abc
000000a0: 9584 c2bd 8d4f db3e 6c08 b5be 8144 0c3e
000000b0: c10a 383e 900f 233d e2c8 423e dbff 54be
000000c0: e94a 8ebe d54b 59be 8f2c 4b3e e021 123e
000000d0: fe33 c13e 0f82 9d3d 3a2d 9cbe 079e 4d3e
000000e0: e48c 34be 063b 873e ecf0 d43d a0aa d53d
000000f0: fff8 553e 357a b43e ad4e 8b3e 402a d53e
00000100: ef1a 14be 7812 02be 82f8 febc 3997 af3e
00000110: 41c4 76be 1ce8 2bbe 3b68 91be 45bf b03e
00000120: 93f0 843e b2ed c63d ff9c b23e 18f3 37bc
00000130: a0c4 b23d 6231 a5bc 6c49 8b3e 63df a53c
00000140: 723b 6c3e d65a 51bc d192 87be 428f 73bd
00000150: b3fb 33be 7c0f 42be 9adb b43e f6c4 433d
00000160: 4244 2ebe 65d2 04be 9cbb 1dbd f881 a93e
00000170: f0e1 173e af8d 223d 6eb7 06be 45cf c23e
00000180: 3a28 a33d e1bd 443e 7587 aebd 5683 1abe
00000190: a688 6abe b986 ab3c 48f9 a4be a23f 1e3e
000001a0: f8ca 863c 23ef 7d3e a0ce 3a3e 98e1 e73c
000001b0: 76fc 9d3e da76 35be 089a 533d d291 973e
000001c0: d8a1 30be d2bb f23d 8482 243e 74c5 463d
000001d0: 19df 7ebe 687c a43e 2e78 913e 76fd 823e
000001e0: f0de ccbc 00d2 0cbd 997a cd3e 92b6 74be
000001f0: 5810 763e e8f0 9abd b3a4 0dbe 9b5e aebe
00000200: 288c 863d 968b a23e 141d bd3e 8377 c63d
00000210: 1dd6 2f3e 888d 423d 86db e93d 7bf9 653d
00000220: 4b62 0cbd 4f4e bf3e dcdc 85be 5eae 0bbe
00000230: 565f 66be 7b30 59be b246 383d 380e 9b3e
00000240: 246f 253e 78d5 efbd 1ac5 1cbe b174 c63e
00000250: fd90 053d 7b67 b3be fde1 2abe 0649 673d
00000260: d0b4 12be eee4 99be 818f c63e bbd0 673d
00000270: 549e c03d d57d 283e 0943 f53d b323 d6bd
00000280: 27f3 7ebe ee04 b83e 2239 b73e d70a 7c3e
00000290: b9de 913e 4070 883d 0ce4 7c3e 75a9 d13a
000002a0: b3dc 96bd 0cb3 b53e 204c f7bd 6a92 64be
000002b0: b55d 11be ef78 2bbe e9e4 88be 6cb1 97be
000002c0: fda0 dc3d 1394 8f3e 13c7 b03e b8bb 25be
000002d0: dc55 dc3d f231 c43e e227 c4bd 96bb 81be
000002e0: c926 1f3d f9e8 cc3e 8d77 df3e e684 5f3e
000002f0: bca4 1dbe b11c 293e 6864 903e 7e3a 3d3e
00000300: 8186 173e 2637 533e 5178 a83e d9cf 51be
00000310: c685 0d3e 5b4d 713e 1741 9abe db29 96bd
00000320: c2e9 793e 93c0 1d3e ea17 893e 85fe 29be
00000330: 4022 96be 0e44 08be a72e 593d a639 37bd
00000340: 5316 4c3e 20e4 7bbe 3978 083e 2cd6 563e
00000350: ba85 40be 8b19 fa3d 6957 9ebc 6699 8a3d
00000360: f079 e0bd 9738 fbbc 41de 543e 6a1d 683e
00000370: 128f e73d 214c 03be 991a b03e 12a9 c33c
00000380: bdfe cc3e 9988 b6be 3171 ac3c f043 8d3e
00000390: 3fcd c23e 2839 e9bb 1907 61be b232 be3e
000003a0: 06f8 2ebe a8ce 5d3d 060d 86be 95be 513e
000003b0: 210e 03bd 550b 1abe 9fb9 743d 8a4d 0e3e
000003c0: 5da4 473e 09c1 dbbd f09e 863e f113 cbbd
000003d0: 6a27 2b3e a103 b8bc 0a49 2cbd 1a53 7abe
000003e0: 299c 19be 016b a63c 18da 633e 2e65 a13e
000003f0: 6094 133d 8149 a5bc 13e0 44be e13c 123e
0.25537738 0.30257165 0.14485863 -0.13732612 -0.10963631 -0.08141767 0.014972661 -0.012330747
0.27688617 0.28664416 0.0721555 0.18550551 -0.07305164 -0.0241566 -0.21113499 -0.052462526
-0.11600443 0.25531954 0.43701324 0.0389783 -0.08858896 0.34699383 0.24068438 0.17458476
-0.081890285 -0.037551276 0.3456988 -0.2412585 0.37297234 -0.30290738 0.3668846 0.10049765
-0.20993617 -0.0061311307 -0.035688 0.40486434 -0.026468014 0.41937122 0.27901965 -0.016960746
-0.09497944 0.4283413 -0.35357988 0.13698007 0.17972852 0.039809763 0.19021943 -0.20800726
-0.27791527 -0.21220334 0.19841217 0.14270735 0.3773498 0.07690822 -0.30503255 0.20079814
-0.1763187 0.2641222 0.10397515 0.10432935 0.20895766 0.35249487 0.27208462 0.41633797
-0.144634 -0.12702358 -0.031124357 0.3429506 -0.24098302 -0.16787761 -0.28399834 0.34520927
0.25964794 0.097133055 0.34885404 -0.011227392 0.087289095 -0.02016515 0.27204454 0.02024812
0.23069552 -0.012778005 -0.264792 -0.059462793 -0.17576484 -0.1895122 0.35323793 0.04779526
-0.17018226 -0.12970884 -0.038508996 0.3310697 0.14832282 0.0396859 -0.1315591 0.3804876
0.07966657 0.19213058 -0.0852193 -0.15089163 -0.2290369 0.020938264 -0.32221437 0.15453961
0.016454205 0.24798255 0.18242884 0.028305814 0.30856675 -0.1772112 0.051660568 0.2960344
-0.17249238 0.1185223 0.16065413 0.04852815 -0.24889793 0.32126164 0.28412002 0.25584
-0.025008649 -0.03437996 0.40132597 -0.2389777 0.24029672 -0.075654805 -0.13832359 -0.34056553
0.065697014 0.3174712 0.36936247 0.09690764 0.17171521 0.047498256 0.11418824 0.056146126
-0.034273427 0.37364432 -0.26145065 -0.13640735 -0.22497305 -0.212099 0.044989295 0.30284286
0.16155678 -0.11710638 -0.15309563 0.38760903 0.032608975 -0.35039887 -0.1668777 0.056466125
-0.14326787 -0.30057472 0.3878136 0.056595545 0.09405199 0.16454251 0.119756766 -0.10456028
-0.24897443 0.3594126 0.35785776 0.2461351 0.28490236 0.06662035 0.24696368 0.0015995937
-0.07366314 0.35488164 -0.120750666 -0.22321478 -0.14195903 -0.16745351 -0.26737145 -0.2962755
0.107728936 0.2804266 0.34526882 -0.1618489 0.10758564 0.38319355 -0.095779195 -0.2533843
0.038855348 0.40021494 0.43645898 0.2182804 -0.15394872 0.16514851 0.28201604 0.18479344
0.14797403 0.20626506 0.32904294 -0.20489444 0.13820562 0.23564665 -0.30127785 -0.07332202
0.24405578 0.15405492 0.26776057 -0.16600998 -0.29323006 -0.13307211 0.053023007 -0.044732712
0.19930391 -0.24598742 0.13327111 0.20980138 -0.18801013 0.12211903 -0.01932879 0.0676754
-0.10960758 -0.030666633 0.20787908 0.2266747 0.11306585 -0.1282201 0.34395292 0.02388433
0.400381 -0.3565109 0.021050068 0.27590895 0.38047215 -0.0071174093 -0.21975364 0.37148052
-0.17086801 0.05415216 -0.2618181 0.20482858 -0.031995896 -0.15043385 0.059747335 0.13896766
0.19496293 -0.10730178 0.26293135 -0.09915913 0.16714254 -0.022462668 -0.042061843 -0.24445763
-0.15000977 0.020314695 0.22251165 0.31522506 0.036030173 -0.020176651 -0.19226103 0.14281036

fc2.weight f4 [256, 256]
00000000: 60c0 06bd edc0 eebd deb5 87bc 0822 423e
00000010: 4875 9dbc 8f2a 983d f236 c6bc c9c3 d83b
00000020: e922 01be 2fcf a4bd d48a 8fbd b358 13bd
00000030: aef8 f9bd a4d2 aebd 1625 8c3d 5870 39bd
00000040: 7274 96bc d4c4 cdbc bb74 d63d 467d 46bd
00000050: 1148 3c3d b7b0 00be 658a 183d 50b5 9ebe
00000060: db65 153d 8f8c 783d 52f2 24be 0967 90b9
00000070: 5825 f1bd f783 b6bd 4b59 e5bb e5c0 4abd
00000080: e2c5 3bbd 6519 523d 7b74 90bd 62f4 fe3d
00000090: 73d4 553c 17a0 b83d c03b d0bd e9ca 8238
000000a0: 90db c03b 3b71 a73c 6789 bc3d a3dd bb3d
000000b0: b64f 8bbc d198 ea3c ba62 0bbc bc75 f7bd
000000c0: 9bf7 ff3c 7ef3 47bd 7544 35bc 2719 d2bd
000000d0: db9b 8b3d 9797 ad3c b030 0a3d 33ea 503c
000000e0: 24c7 09bd de42 25be e873 bd3d 2ba6 073d
000000f0: 1eae 3c3d 8f76 8f3c 1734 c53c 90b1 94bd
00000100: 3b8e 073e 7835 afbd 27fe 183e 23e8 d2bc
00000110: eb2e 1dbe 3afe f3bc 898d 9abd f52d 103d
00000120: 624c 59bc c2e4 c2bd 7498 03bd 3803 943d
00000130: 1975 20bc 51d3 1bbd be0e e93c 4412 fdbd
00000140: 466e ebbc b8ab 04be b20d ca3d ae92 963d
00000150: 5ed4 d73d f59d 223d 0365 053d 3d27 4cbb
00000160: c181 a13d 4b00 02be 18c3 96bd 5681 c6bc
00000170: ea7b bb3d d17a 933d 28e0 923c 8601 c9bd
00000180: 1c4e 05be a6c3 973d 2d38 b03d 2c54 c7ba
00000190: 639b c73d ea73 5c3d 6ed2 603d b37c 35bd
000001a0: f293 00bb ee07 81be 5552 8c3c bd33 04bd
000001b0: f0ff f23c c5f1 95bd 1ffe 053d 4a52 67bc
000001c0: 89f3 303d a6bc ffbd c0f6 b4bd 6848 183b
000001d0: 14b3 94bb 13d3 62bd 09c8 223d 8271 15be
000001e0: 53e3 14bd 1c37 723d 32b7 16bc 1fee 4cbd
000001f0: 9178 8c3d ccf1 bc3d 7fd2 c8bd 1f98 213e
00000200: 625e 633d f610 96bd 7275 26bd e5c2 a7be
00000210: db9c 533d a223 873c 3f39 ecbd 7688 b83d
00000220: 477a 83bd 3557 fbbd a34f 01bd bc23 0ebd
00000230: b54a 323d bf0c 87bd 687e 39be bd01 d8bc
00000240: 0d83 a4bd fe57 bf3d 8b47 5f3d 237e bd3c
00000250: 4c26 863d c083 78bd 581b 893d 2bcd 02be
00000260: 3868 b9bd 2a8a 1ebe 6473 afbd e5ce 66be
00000270: 02ae 14bd a134 56bd 0b4f 1e3d 9558 0a3d
00000280: 29db 3d3d 56df 06bd 7c36 c43c ce70 4c3d
00000290: 80a0 86bc 8aab ea3b 2893 26bb 8374 7f3d
000002a0: 3db9 29bd d70e 0ebd f893 99bd 2431 773d
000002b0: 9e3a 8d3b d818 223e 3166 fd3d 084b ab3d
000002c0: 2569 013d 738c 233d 5541 9cbd 0e36 bfbd
000002d0: e15f 873d 2f93 40bc 4dc4 06bc 739d 2b3d
000002e0: 5800 8bbd e3b0 e8bd 1f1b 32bc 7676 60bd
000002f0: 739e 5e3b a3d3 83bd 4dd2 223d 4451 ebbc
00000300: 5f96 c2bd 5b56 10bd facc f8bd 559b 48be
00000310: 5bc1 ecbc c2ed 873d a9b5 373d d6c5 b23b
00000320: ca09 f3bc de9d 40bd f6e8 5dbd f35c c33d
00000330: 7ebd 223e 4817 7b3d 22d6 a0bd 54c7 5e3d
00000340: f849 26be 6d7f cf3b ffd2 573b ed23 34be
00000350: 8ff1 513d 4d2b 1abd 9777 b7bb de77 4bbd
00000360: 3cf1 7ebd 3796 d7bd ce0d f5ba 9a66 1dbe
00000370: 4738 eb3d 19ed 003c 6cb2 1ebe ce5e 1c3d
00000380: cd3f de3c 217d 53be 3521 5cba 20d9 36be
00000390: ae0c dcbd df62 543d 0c2c d73c 675d 30bd
000003a0: 71be 28be 5943 a9bd 96bf 56bb 6e25 46bd
000003b0: 556e d6bd b900 36bd fb16 3f3d d58f 5a3c
000003c0: 915c 603d da56 ebbc 34f5 873d 6583 cb3d
000003d0: 96f3 f13c 4e38 3dbd 8423 803d 7908 8cbd
000003e0: 0dc5 0c3c d7c3 873d 01c8 303c a927 323c
000003f0: 8542 f83c 0e8c bbba e723 c33d a146 3e3d
-0.032898307 -0.116578914 -0.016566213 0.18958294 -0.019220963 0.074299924 -0.024196122 0.0066151363
-0.12610973 -0.0804733 -0.07008901 -0.035973262 -0.12205635 -0.0853627 0.06843011 -0.045273155
-0.018366072 -0.025118269 0.10471483 -0.048459314 0.045967165 -0.12567411 0.03724136 -0.30997705
0.03647409 0.060680922 -0.16108063 -0.00027542587 -0.11774701 -0.08911889 -0.00699917 -0.049500365
-0.045843013 0.05129375 -0.07053467 0.12448956 0.01305114 0.0901491 -0.101676464 6.236678e-05
0.005885549 0.020439735 0.09205895 0.09173133 -0.017005783 0.028637322 -0.008507425 -0.12083003
0.031245997 -0.048816197 -0.011063685 -0.10258704 0.068168364 0.021190448 0.03373784 0.01275115
-0.03363718 -0.16138789 0.09250623 0.033117454 0.04606449 0.017512588 0.02407269 -0.0726043
0.1323785 -0.0855512 0.14940701 -0.025745457 -0.15349929 -0.02978431 -0.07546527 0.035200078
-0.01326284 -0.09516288 -0.032127813 0.072271764 -0.009793543 -0.038043324 0.028449412 -0.123569995
-0.028739106 -0.1295613 0.098658934 0.07352196 0.10538553 0.03970142 0.032567035 -0.0031151318
0.07886077 -0.12695424 -0.0736143 -0.024231594 0.09154494 0.0720116 0.017929152 -0.09814744
-0.13018078 0.07410364 0.08604465 -0.001520758 0.097464345 0.05382148 0.05488818 -0.044308376
-0.0019619432 -0.25201362 0.017129103 -0.032275904 0.029663056 -0.073215045 0.032713052 -0.01411874
0.043201003 -0.12487154 -0.08836126 0.0023236517 -0.0045379493 -0.055377077 0.03974155 -0.14594081
-0.036349606 0.059134588 -0.009198951 -0.050031777 0.06858934 0.092258066 -0.09805774 0.15780686
0.055509932 -0.07327454 -0.04063935 -0.3276588 0.05166326 0.016496483 -0.11534356 0.09010403
-0.06419807 -0.12272493 -0.031570088 -0.034702048 0.043528277 -0.06594228 -0.18114626 -0.026368016
-0.080328085 0.09342955 0.054511588 0.023131436 0.06550273 -0.06067252 0.066946685 -0.12773578
-0.09053081 -0.15482393 -0.08566931 -0.22539862 -0.03629876 -0.052296285 0.0386496 0.033775885
0.046351586 -0.032927833 0.023951761 0.049912266 -0.016433954 0.0071615623 -0.0025417302 0.062366974
-0.041436423 -0.03468212 -0.07498926 0.0603496 0.004309966 0.1582979 0.12373007 0.083639205
0.031594414 0.039928865 -0.076296486 -0.09336482 0.06610084 -0.011753841 -0.008225513 0.041898202
-0.06787175 -0.113618635 -0.010870724 -0.054800473 0.0033968955 -0.06436851 0.03975134 -0.028725274
-0.09501337 -0.035238605 -0.12148471 -0.19590504 -0.028900793 0.066371456 0.04485098 0.005455713
-0.029667754 -0.047025554 -0.054177247 0.09539213 0.15892598 0.0613015 -0.078533426 0.054389313
-0.16239154 0.006332329 0.003293216 -0.1759183 0.05125576 -0.03763895 -0.005598973 -0.04967486
-0.062241778 -0.10526698 -0.0018696131 -0.1537117 0.114853434 0.0078690285 -0.1549775 0.03817635
0.027130032 -0.20653202 -0.0008397282 -0.17856264 -0.10744606 0.051852103 0.02626612 -0.043057825
-0.16478898 -0.08264799 -0.0032768003 -0.04837554 -0.10470263 -0.044434283 0.046652775 0.013339956
0.05477578 -0.028727937 0.06638566 0.09937171 0.029535096 -0.046196274 0.06256774 -0.068375535
0.008591902 0.0662915 0.010789872 0.0108737135 0.030305156 -0.0014308707 0.09528332 0.046454076

fc2.bias f4 [256]
00000000: f9fe 20bd 0364 5fbd e590 4c3c cf14 a43d
00000010: b5a5 223c b652 bf3c 2035 663a 6e15 c2bc
00000020: ecf2 a23d 0364 88bc 0121 85bd 9bb8 1e3d
00000030: 43c6 5f3c 5290 b03d f284 07bc 8145 30bd
00000040: 2edd 2f3d 59d3 3abd 54f2 1dbc ec0b d9bc
00000050: 6fdf c13d acf3 b5bb 86fb 9f3c f062 353d
00000060: 0dd7 2a3d 5ca8 79bc 14c5 933c d460 8b3d
00000070: c1c8 2a3d 3498 d3bc 27ce 45bd 742f d0bc
00000080: ae7e 7d3d ca49 b63c 873c 983d 8405 433c
00000090: b04e 7a3d e3b3 b9bb ad7b 983d 30d7 bd3c
000000a0: 748b ffbc a628 6e3d 2612 0c3d 9f23 1abd
000000b0: 4030 233d 928d c33a 8f74 b4bc 3ed7 563d
000000c0: 2758 893c a42e 483d df5f af3c 8739 953d
000000d0: 39d6 1bbc 7fde 17bd 4afc ab3c 1d76 18bd
000000e0: 0419 813b d537 bc3d 5ec1 c93a 2c03 cc3c
000000f0: 61d8 ab3d a0e2 66bc 2a31 ee3b 7da2 df3c
00000100: 0acd 0d3d 2daf 433d 420b 123d 08d9 833c
00000110: c65a 69bc a208 9c3d 88eb 7cbc 41ea 763d
00000120: 6e56 7bbc feef 273d 4dc5 8f3d 98a4 43bc
00000130: 102f cebb 195d 953d c2a9 593c f323 88bd
00000140: 7046 03bd 82f2 843c bd26 37bc 6933 3c3d
00000150: 19be 1dbc 21bb 2ebd e4c1 47bb edfd 76bc
00000160: 534b 683d 120e 0d3c d849 313d cd91 7ebc
00000170: 2cbc bf3c 87aa 0a3d 4c19 a4bc 44de dfbc
00000180: c112 b33c e5bd fbbc 83b9 ebba a1e0 0e3d
00000190: 34d4 c2bc 3ea5 df3b 167c 273b 973c 053d
000001a0: d28e 69bc 4a26 2b3d 29da 503d f49f 61bd
000001b0: c183 c03b b0b3 aebb 7e6a 9b3d 18be 8e3c
000001c0: 782a acbc 36d1 923d 8508 c53c befd 6a3d
000001d0: dc3a 44bd 0725 3bbd ec02 22bd 3644 22bc
000001e0: 829b 8a3d e04c f73c 1f46 3d3d 7af2 a23d
000001f0: 8003 43bc fbb0 913b 1f74 22bd e67b 8f3c
00000200: 787c 6a3c 45dc 3bbd cd35 51bd ba35 b53c
00000210: 77f2 a53d a5a4 10bc 685b 50bc f428 e93c
00000220: 6968 b93d 1de2 3dbb a482 3c3d 4650 aa3d
00000230: 266b 5b3d 7732 78bd 92c4 1c3c 139e b43c
00000240: bcde 50bc 7321 17bd a2a1 f83c 36e3 193d
00000250: ce52 ddbc e6c8 0c38 b4e4 2e3c 524b 033c
00000260: b5b2 10bc 12fe 373d 00dd baba b070 543c
00000270: db44 83bc bb4e 4b3d 70e0 f03c 755d 5a3a
00000280: a51c 923c dc00 26bd ad99 123d 7ca0 2a3c
00000290: 9bc0 78bc 9986 973d ea01 2d3b 5dfe 4e3d
000002a0: befc 523d 3380 bdbc afe7 47bc 777b 853c
000002b0: 1d1e 63bb d498 0f3d 0e30 243d b853 d33c
000002c0: a019 44bd f078 a5bd d36f a93d f5dc a5bc
000002d0: 3e77 c43b b8f5 1cbd 9ce2 9a3c 4b95 503d
000002e0: ea8a 6b3d f2ec 63bd 3d46 953d 2c55 a23d
000002f0: 52fa a83c 848a e33c 7046 873d 2cbd 96bb
00000300: 86a7 f63c c2a9 423c 8d4b 143d 83e2 9fbc
00000310: 366f 553c f53f 843d 7b79 bc3d 5310 bd3c
00000320: ecf3 4bba d075 a93d 1f42 103d df10 923d
00000330: d27c 3d3d 51ea a73d 2d42 11bd 1cec eb3c
00000340: c1b9 7b3d 89a1 ab3b 669f 17bc 061b 1bbb
00000350: b053 4cbd fe78 bc3a 88ee ef3c bc54 1a3d
00000360: ca91 a43d 17da 8a3c 83be a03d a1be cd3c
00000370: c14b 0dbd 7f56 7cbd 34e5 c5bb 2687 273d
00000380: 31ca 21bc 951e 433d eee4 b5bc 190e 683d
00000390: a8e7 bb3c 99f8 dcbc 6d01 d13d 0124 5f3d
000003a0: 789c f23c fd07 a03d 8c1e 653b 58d6 34bc
000003b0: eafa 8f3c b236 6c3d fe78 4d3c b97a 103c
000003c0: e58d 463d 4dde e93d 3f50 33bc d462 9e3c
000003d0: 8add 043d 08a6 283c 6f70 fa3c e91d 873c
000003e0: 8f91 ffbc a11c cebc 7381 8d3d d36c 993c
000003f0: ef15 e9bc 926c 133d 5d47 233c 24f4 9d3d
-0.03930566 -0.054538738 0.012485717 0.080117814 0.009927203 0.02335487 0.000878172 -0.02369186
0.0795649 -0.016649252 -0.065004356 0.038750272 0.013658109 0.08621277 -0.008271443 -0.043035034
0.042935543 -0.045611713 -0.009640295 -0.026494943 0.09466445 -0.0055527296 0.019529115 0.044283807
0.041708995 -0.015237894 0.01803831 0.06805578 0.04169536 -0.025829412 -0.048292305 -0.025413252
0.06188839 0.022251982 0.0743342 0.0119031705 0.0611102 -0.005667196 0.07445464 0.023173898
-0.031194426 0.058144234 0.034196995 -0.037631627 0.039840937 0.001491951 -0.022028236 0.052451365
0.016765667 0.048872605 0.02140802 0.07286363 -0.009511524 -0.037077423 0.020994324 -0.037222017
0.0039397497 0.091903366 0.0015392711 0.024903856 0.083908804 -0.014092118 0.0072690444 0.02729916
0.03461937 0.047774483 0.035655268 0.0160947 -0.0142428335 0.07618834 -0.015437014 0.060281996
-0.015340431 0.04100036 0.07020054 -0.011941098 -0.0062922314 0.072931476 0.013285102 -0.06647482
-0.032049596 0.016228918 -0.0111786695 0.045947466 -0.009627842 -0.04265893 -0.0030480558 -0.015075189
0.05671246 0.008609312 0.043283314 -0.015537691 0.023405157 0.033854034 -0.020031594 -0.027327664
0.021859528 -0.030730197 -0.0017984364 0.03488219 -0.023782827 0.0068251183 0.0025556139 0.032528486
-0.014255242 0.041784562 0.050989304 -0.055084184 0.0058750813 -0.005331479 0.07588671 0.017424628
-0.021016344 0.0716881 0.024051914 0.057370894 -0.047907695 -0.04568961 -0.039553568 -0.009903958
0.06767942 0.030188024 0.04620945 0.07956405 -0.01190269 0.0044461465 -0.039661523 0.017515134
0.014311902 -0.045864362 -0.0510767 0.022120345 0.08102887 -0.008828317 -0.012717105 0.02846191
0.09053118 -0.0028973885 0.046023026 0.08316092 0.05356898 -0.060595002 0.00956835 0.022048032
-0.0127484165 -0.036897134 0.03035051 0.0375702 -0.027017023 3.3565702e-05 0.010674644 0.008013563
-0.00883167 0.044920035 -0.0014256537 0.01296632 -0.016024044 0.04963563 0.029403895 0.0008329966
0.017835924 -0.040528163 0.035791088 0.010414239 -0.0151826395 0.07398719 0.0026398846 0.05053555
0.051510565 -0.02313242 -0.012201234 0.016294224 -0.00346554 0.035057858 0.04008489 0.025796756
-0.047876 -0.080797076 0.08273282 -0.020246962 0.00599566 -0.038320273 0.018906884 0.050923627
0.057505526 -0.05564589 0.072887875 0.079264015 0.020627175 0.02777601 0.06605232 -0.0046001878
0.030109178 0.011881294 0.036204863 -0.019517189 0.013027003 0.06457511 0.09202858 0.023079073
-0.00077801826 0.08274424 0.035219308 0.07132124 0.046261616 0.08198989 -0.0354635 0.02879911
0.061456446 0.0052377624 -0.009254312 -0.002366723 -0.049884498 0.001437932 0.029288545 0.037678465
0.080356196 0.016949696 0.07848837 0.025115313 -0.034496073 -0.061605927 -0.006039286 0.040900372
-0.009874866 0.047636587 -0.022203889 0.05665407 0.02293761 -0.02697401 0.1020535 0.054477695
0.029615626 0.07814024 0.0034960834 -0.011037432 0.0175757 0.05766935 0.012541054 0.008818322
0.048475165 0.11419354 -0.010944425 0.019334234 0.03243784 0.010293491 0.03057119 0.016493754
-0.031197337 -0.025160136 0.06909456 0.01872865 -0.028452842 0.035992213 0.009965745 0.07712582

fc3.weight f4 [2, 256]
00000000: a97a c7bd c028 8e3d 5bd3 613e cd5a 283e
00000010: b989 953e a40b a13e d520 993e 26c9 b13e
00000020: b945 943e 8947 de3d e0e0 593d 4416 473e
00000030: d4e4 00bd 9e0e 2e3e 5f29 a33e 0623 d2b7
00000040: cd67 623d 71e4 cb3e 1c35 e3bd eaad 903e
00000050: 5f3f 4bbd 52fe 8b3e 5d73 1abd 554a 1a3e
00000060: e6ca 343e 5ac5 933e d808 20bd ee83 2c3e
00000070: 8b4c a7bb 5da5 0c3e 5761 d53d fa4b d6bd
00000080: a0da b4bd d8a5 37be 2229 573e 0586 3f3e
00000090: 10a0 3d3e 39b3 6f3e df51 1bbe 6217 4d3d
000000a0: f4d8 c6bd 7b3e bc3d bbe8 9b3e 3982 533e
000000b0: 339e 473e 27fd 883e 93c7 5ebb ecc6 193e
000000c0: dad4 183e 7cde 0bbe 8234 1a3e 494b 373e
000000d0: 7acc 143e 0256 e0bc 8090 cbbd f598 603e
000000e0: ff3c a8bd 55bf fcbd c69b 1c3c 7278 07be
000000f0: a17c 8cbd f209 203d f8f8 1e3e a554 503d
00000100: 1c9d b4bc 67fc 0fbe 7e3e 783e d5ed 3dbc
00000110: 7226 993e 95f8 403e 6228 53bd 2070 dc3d
00000120: b25e 493e 3e70 113e 7158 43bd 0d17 6cbd
00000130: efc8 f1bc 658b 143e 39f8 ef3d 63f1 87bc
00000140: c4d9 b53c 8048 9c3d 7fc7 ad3e 6654 09be
00000150: 1e51 3cbd 3ac8 0fbd 2f37 963c ec3e 253e
00000160: ed0e 43be d74c a83e 9980 d6bd bc9d 2fbd
00000170: 4335 243e 672e aa3d 09ce 3d3e d19a 15bd
00000180: 00d2 8a3e e779 ad3e 1a7f 25be cc12 0f3d
00000190: 3059 4a3e fa8b 0a3d e1e9 123e 37c6 4e3e
000001a0: a9f0 053c 04a7 893e dbde 67bd 8f07 443e
000001b0: 5677 01be 0a2f 71bd 29fb 323e 76a3 753e
000001c0: e058 273d 3cbe 233e a81d 393e 1686 a7bd
000001d0: f8b0 463d a293 3ebd 4cf0 9e3c e93f 5d3d
000001e0: f20e 143e 6af5 3d3d bd21 b2bc fc52 873e
000001f0: cc53 ddbc a16b 773d eee4 48bc 2196 2b3e
00000200: d808 173e e92c 9f3c 8fc5 8fbc 2444 7dbd
00000210: 4170 533e 5950 32be 4047 50bc cba4 703e
00000220: 6657 203e 39b8 17be e76b 343e 147c 55bd
00000230: 8b32 febd 8ee6 7e3e 964b 933e 2115 c9bd
00000240: 724f 623e 04ee 4c3e 1948 243c 3fcf 18be
00000250: 97ee 603e 68cf f2bd 5b2c 42be 9495 53bd
00000260: ccee 973e 9095 ac3d a01c 8cbc 43a2 9dbd
00000270: 241d 2abe e714 593e 1ce9 8d3e f7ad 623d
00000280: 954a 863e 07ff 373e 00a8 2e3e e91a 8e3e
00000290: c59f cfbd 21ce 1d3e f16b 57bd f283 563e
000002a0: 3616 1b3e 831c 3f3d 12af 233e 8b20 b1bd
000002b0: 74f9 1e3e 8eb3 2e3e 0dfb de3c a846 2fbe
000002c0: 7c2f 88bc 62d0 0a3e 7708 443e c0c6 103e
000002d0: 4f19 453e d880 3a3e 5e86 1a3d 942e 5f3e
000002e0: 761b 463e 5891 2f3c bab2 8fbd 804d 2a3e
000002f0: 4090 843e aa93 2c3e 3a2a 41be 1c91 213e
00000300: 309c ffbd 6371 7abd d4c5 9a3e d681 a53e
00000310: f7b9 b43d b562 5a3e 2051 3e3e f3e4 813e
00000320: 47a0 3d3e 4d12 0d3e c8ef c73d 8f0b 14be
00000330: b3bb 253e 2666 2b3e 9d29 843e 18ca 2f3e
00000340: 2580 2d3e 2e9b 183e 0afc e5bc c154 aa3e
00000350: 569d d2bd 48da 923e 85bc 313e f922 40be
00000360: ea63 3c3e aeb9 8b3e 20fe 0b3e 457f 8e3e
00000370: 6f00 e83d 43e2 5b3e 2dce 5bbd 4b69 3d3e
00000380: ad82 393e 3883 ecbd 944d 243e 98bf 56bd
00000390: 2464 dcbd 3404 663e 5770 bebd 9b72 3d3e
000003a0: 7413 39bc 9a05 a7bd 8dca 0a3e 68d8 103c
000003b0: 7716 903e 0e14 893e cf2b 3c3e 54c2 3a3e
000003c0: 90dc 413e 3887 c4bd 70fb bb3c 4962 463e
000003d0: a0fe 2a3c 037b 763e 6cbc 253e 5605 54bc
000003e0: 55c1 103e fdd0 bf3e dd5e 3b3e be8c 93bd
000003f0: e1ef 743c 50a1 0d3e 41a2 35bd 0f9e 5c3e
-0.097401924 0.06941366 0.22053282 0.16440888 0.29206637 0.31454194 0.2990786 0.34723777
0.28959444 0.10853488 0.053192973 0.19442087 -0.031468228 0.16997764 0.318675 -2.505026e-05
0.055274773 0.39822724 -0.11094114 0.28257686 -0.049620982 0.27342469 -0.037707675 0.15067418
0.17655525 0.28861505 -0.039070934 0.16847202 -0.00510556 0.13734956 0.10418957 -0.1046371
-0.08830762 -0.17934358 0.21011785 0.18703468 0.1851809 0.23408212 -0.1516795 0.050071128
-0.09709349 0.09191605 0.30450997 0.20655145 0.19493942 0.2675564 -0.0033993467 0.15017289
0.14924946 -0.1365909 0.15059093 0.17899813 0.14531127 -0.027384762 -0.099396706 0.21933348
-0.08214759 -0.12341181 0.009558624 -0.1322954 -0.068597086 0.039071985 0.15524662 0.050861973
-0.022047572 -0.14061128 0.24242589 -0.011592348 0.29912144 0.18844827 -0.051552184 0.10763574
0.1966503 0.14202973 -0.047691766 -0.05763917 -0.029514758 0.145063 0.117172666 -0.016594594
0.022198565 0.07631016 0.33941266 -0.13411102 -0.045975797 -0.03510306 0.01833686 0.16137284
-0.19048662 0.32871124 -0.10473747 -0.042875037 0.16035943 0.08309632 0.18535627 -0.036524598
0.27113342 0.33882067 -0.16161767 0.034930035 0.19760585 0.0338249 0.1434703 0.201928
0.008175054 0.26885235 -0.056609016 0.19143508 -0.1264318 -0.05888275 0.17478622 0.23988137
0.040856242 0.15990537 0.18077719 -0.08179872 0.048508614 -0.046527512 0.019401692 0.054016028
0.14458826 0.046376623 -0.021744603 0.264305 -0.027017497 0.060405377 -0.012261612 0.16756488
0.14749467 0.019430595 -0.017550258 -0.061832562 0.2064829 -0.17413463 -0.0127123 0.23500364
0.1565834 -0.14816369 0.17619286 -0.052120283 -0.12411984 0.24892637 0.28768605 -0.09818483
0.22100618 0.20012671 0.010026955 -0.14922808 0.21966015 -0.11855966 -0.18962233 -0.05165632
0.29674375 0.08426964 -0.017103493 -0.076969646 -0.16612679 0.2119938 0.2771691 0.055341687
0.26228777 0.17968379 0.17056274 0.27754906 -0.101378955 0.15410663 -0.052593175 0.2094877
0.15145192 0.04665805 0.15984753 -0.08648785 0.15524846 0.17060682 0.02721932 -0.17116797
-0.016624205 0.13556054 0.19143854 0.14138317 0.19247936 0.18213212 0.0377258 0.21795112
0.19346413 0.010715805 -0.07016511 0.16631126 0.25891304 0.16853204 -0.18863764 0.15778011
-0.12480962 -0.06114329 0.30229056 0.3232562 0.088245325 0.21326716 0.18585634 0.25369987
0.18518172 0.13776512 0.097625315 -0.14457534 0.16184883 0.16738185 0.25812998 0.17166936
0.16943415 0.14902946 -0.028074283 0.33267787 -0.10283916 0.2868216 0.1735707 -0.18763341
0.18397489 0.272901 0.1367116 0.27831474 0.11328208 0.21473031 -0.05366342 0.18497197
0.18116255 -0.115484655 0.16045219 -0.05242881 -0.10761288 0.22462541 -0.09298771 0.1850075
-0.011296142 -0.08155365 0.1355383 0.008840658 0.2814214 0.26773113 0.18376087 0.18238193
0.18931794 -0.095961034 0.022947043 0.1937343 0.010436684 0.24070363 0.16185158 -0.012940725
0.1413625 0.37464133 0.18297906 -0.07204579 0.01494977 0.13831067 -0.04434419 0.2154467

fc3.bias f4 [2]
00000000: 65fd a33d 2792 ca3d
0.080073155 0.098911576
