projects/codes/DoubleDQN/outputs/CartPole-v0/20220829-233435/models/checkpoint.pth (torch, 272151 bytes, 6 tensors)

fc1.weight f4 [256, 4]
00000000: df59 a63e 76fe 76be 6a2f dcbe 5e1b 793e
00000010: 2bec 82bf 48ec a93e 9d41 c23e 72ad 4b3e
00000020: 4c65 d23d b07e 6ebd cfa3 87bd 1c58 0c3c
00000030: 30ff 3a3e e486 47be 3051 15bd 4060 38bd
00000040: f01d 9f3d 6453 51bb 4ed4 e23e 53d8 243e
00000050: 1d74 91bb 0f36 e1be d064 15bf acdb 64be
00000060: bc75 aebe 2ebb d73d fd5c 453f 6fb9 843e
00000070: af96 3bbf 727a ed3e 43d1 293f c502 dc3e
00000080: 44ae d03e 98e8 09bf 5259 69bf f17c 9abe
00000090: 3828 cc3e 4818 c5bd 1066 9f3d 6c31 8cbe
000000a0: a898 083f 01b5 4dbe ad27 503e 20b7 0bbc
000000b0: fe28 bbbe 192a 923e 253f 83be 9bab 233d
000000c0: 5a7b af3d 7420 11bb 65a6 3abf a609 93be
000000d0: 2c1b a73d 4989 903b e361 823f bb17 cc3e
000000e0: d823 48be 65fd a5be ad07 283f 801b 283e
000000f0: f933 03bf 722d fe3e aa44 563f 6a3e d83e
00000100: d680 8fbe 788e a8bd c0b1 1ebc 1890 953d
00000110: 7fa8 c1be bf8d adbe a656 213e 9438 13be
00000120: 3f5c 843e ca70 28bb 9801 353e d9e0 0c3e
00000130: 3977 793e 2d1b 853e 323a 2bbf bca1 713e
00000140: 159c 9ebe 6586 bcbe 1096 0ebe ab1e f3bd
00000150: 3b3b ad3e 3e2d 93be c52a 26bf 0779 c73e
00000160: d00a 4dbe 19ab 9f3e dfc0 703e 3bc7 d3be
00000170: e496 953d 0d93 093e 0dc5 c3be 4357 87be
00000180: 7537 1b3f 5c74 75bd 0776 17bf e5d1 74bd
00000190: 4c93 c53e 222b 45bd 3d2c 213f 01ed 583e
000001a0: f44f 14bf 3489 bebe 09f3 6c3f 189c f83c
000001b0: 3116 aa3e f2cd 313d 56d6 803e a0fb c13e
000001c0: 5620 fb3e 8ff7 b2be 7bae 20be 6a1b c13e
000001d0: 0f7a 403f d888 5b3e 3aab 33bf 810e a3be
000001e0: ffcb d7be ca11 943d 20f3 233f 68a7 9cbe
000001f0: 0f9f 5c3e f28c abbe fda6 53bf bb92 0ebe
00000200: 4ac8 893e 0f52 fd3e 87bd b2be 19e0 103e
00000210: 1666 833e 61b5 ca3e 823d 4f3f e1dd d03e
00000220: 374f fd3e 4b3e be3d 20d8 1fbf 6887 f4be
00000230: 7051 32be b759 5dbd a680 08bf 0dd9 273e
00000240: 6b39 b53d 77ab f8bd 8596 e93d a0a8 203e
00000250: 827a b23e 31af d93e 1281 73be 9de5 ee3e
00000260: e9e8 203e 4491 bc3c cffe 3fbf 1de4 cbbe
00000270: 8d7a 14bf 6c17 11be 1db6 493f 906e 2abe
00000280: a12f 36bf aafe f83d ed40 1a3f 1a93 d03e
00000290: 9ad9 973c e88f 2b3d d05d 05bf 6c56 e4bd
000002a0: 0472 40bf 32e7 24be e280 933e de83 3a3e
000002b0: 9007 4ebc 6b5e ef3d 456a 683f fc8d 073f
000002c0: e2ef a23e 85e4 a9bc 17ec 51be b416 de3e
000002d0: 699e 143e 4004 4ebe dd38 54bf 5c02 fcbd
000002e0: da74 d2be 51e3 ec3e ae6e cbbe cc9f c2be
000002f0: 8155 ecbc d160 8dbe 1cc7 b73c de21 4cbe
00000300: ee0d 27be 7954 2abc cf1d 523e 1d90 d4be
00000310: 0a5d 253e 0ced b93e 950b 153f 13a3 c4be
00000320: a000 f83d 144b bdbe 608f da3e a89b 46be
00000330: ca33 9a3e 40e3 733c f080 1fbd c0b1 82bc
00000340: 7323 5dbd 53f5 a73e e981 013f a342 663e
00000350: 84c2 12bf 476d d03e 436f 123f a508 d63e
00000360: 0347 553e 8f7a 9abe 09a5 21bd 1930 f23e
00000370: 6259 90be 12a4 d43e 0840 04bf 6435 afbe
00000380: 6cee 6f3e 6ed9 b0be 2cde 9bbe a86d bb3e
00000390: b84f d23e 04a0 e03e 3d42 6ebe 5658 cfbe
000003a0: ca7b 053f f950 d1bd 3a80 cdbe 66f2 e23d
000003b0: 89c0 fdbe a46e c73e 7a60 f53e b601 d7be
000003c0: c7ba f2be 0f2c d3bc 9519 293e 171d c5bc
000003d0: 9084 0ebe 795d 90bd 8791 2abf 819c c3be
000003e0: e90c d2be eb9e f73e d800 0d3f d5e2 75be
000003f0: 30e6 3f3e a062 633e 8c91 28be 860e 93be
0.3249044 -0.24120507 -0.43004924 0.24326846 -1.0228323 0.3318808 0.37940684 0.19890383
0.10273227 -0.058226287 -0.06623041 0.008565929 0.18261409 -0.1948505 -0.03645438 -0.045013666
0.07769382 -0.0031940574 0.443026 0.16098146 -0.0044388906 -0.43986556 -0.5835695 -0.22349423
-0.340742 0.105337486 0.77095014 0.25922725 -0.732768 0.4638248 0.66334933 0.42970863
0.40757954 -0.53870535 -0.91151917 -0.30173448 0.39874434 -0.09623772 0.07783139 -0.27381456
0.53357935 -0.20088579 0.20327635 -0.008527547 -0.36554712 0.28547743 -0.25634113 0.039958578
0.08568449 -0.0022144588 -0.7291015 -0.287183 0.081594795 0.004410897 1.0186123 0.39861855
-0.19544923 -0.32419887 0.6563671 0.1641674 -0.5125118 0.49644047 0.83698523 0.42235118
-0.28027982 -0.08230299 -0.009685934 0.07302874 -0.37823865 -0.33897206 0.1575571 -0.14377052
0.25851628 -0.0025701993 0.17676389 0.13757648 0.24361886 0.25997296 -0.66885674 0.23596853
-0.30978456 -0.36821285 -0.13924432 -0.11871084 0.33834252 -0.28745455 -0.6490901 0.38959524
-0.20023656 0.31185225 0.23511074 -0.41362938 0.07304171 0.13435002 -0.38236275 -0.26433763
0.60631496 -0.059925422 -0.5916447 -0.059770484 0.3858894 -0.048136838 0.6295813 0.2118416
-0.579345 -0.37214053 0.9255834 0.030347869 0.33220056 0.043409295 0.25163525 0.37887287
0.49048108 -0.34954497 -0.15691559 0.37716228 0.75186247 0.2143892 -0.70183146 -0.31847003
-0.42147824 0.072299555 0.64042854 -0.3059647 0.21545051 -0.3350597 -0.8267668 -0.1392316
0.2691062 0.49476668 -0.34910223 0.14147986 0.25663823 0.39591506 0.8095323 0.4079428
0.494745 0.09289225 -0.62439156 -0.47759557 -0.17413878 -0.054040637 -0.533213 0.16391392
0.08848842 -0.12142079 0.114056624 0.15689325 0.3485909 0.42516473 -0.23779705 0.46659556
0.15713848 0.023018487 -0.7499818 -0.39822474 -0.579995 -0.14169091 0.7879351 -0.16643739
-0.71166426 0.12157948 0.6025532 0.4073723 0.018536378 0.041885287 -0.5209627 -0.11149296
-0.75173974 -0.16103819 0.28809267 0.18214366 -0.012575045 0.11687931 0.90787154 0.52951026
0.3182364 -0.02073885 -0.20500217 0.43376696 0.14513554 -0.20118809 -0.82899266 -0.123051375
-0.41104776 0.4626718 -0.3973288 -0.3801254 -0.028849365 -0.27612928 0.02243381 -0.19934794
-0.16313908 -0.010396116 0.20519184 -0.415162 0.16148773 0.36313665 0.582208 -0.38405666
0.12109494 -0.36971343 0.4268751 -0.19395316 0.30117637 0.014885724 -0.038941324 -0.015953898
-0.053988885 0.32804355 0.5058885 0.22486357 -0.5732806 0.40708372 0.5720102 0.4180347
0.2082787 -0.3017163 -0.03946403 0.4730232 -0.28193194 0.41531426 -0.51660204 -0.3422042
0.23430794 -0.34540886 -0.3044294 0.366071 0.41076446 0.43872082 -0.23267455 -0.40497082
0.5214201 -0.102205224 -0.40136892 0.1108139 -0.49560955 0.389516 0.47925168 -0.41993493
-0.47408125 -0.025777845 0.16513665 -0.024061723 -0.13917756 -0.070490785 -0.6662831 -0.3820534
-0.41025475 0.48363432 0.5507941 -0.24012311 0.18740153 0.22205591 -0.16461772 -0.28722018

fc1.bias f4 [256]
00000000: 818d 193e b86f d0bc 0ee4 573e b247 8fbe
00000010: 3ef5 f7be 98b3 5a3e 3113 dabd 8f70 81bd
00000020: 860a 003f 07d5 363e e132 c03e 8a4c e5bd
00000030: f6e9 b5be 0d40 e63d d88f a0be 24d6 593c
00000040: c4c9 c7be f76b f43e dc29 a8be 0f38 1f3f
00000050: a4df f13e aba1 003f fa10 bd3e 966d 693e
00000060: dfcb 853c 0a52 1ebc 7299 cabd 61eb e7be
00000070: b321 103f 0455 90bc 3eec a03e ea96 803e
00000080: 0b54 963e a838 adbd e7fb a8be 3fdc 0d3f
00000090: ba56 9c3e a331 cf3e 6631 d5be 1278 b73d
000000a0: bd7d 99be 70f6 81bd 285f 49bd 4c89 90be
000000b0: 561c f4be 88a5 e4ba 8fe2 133f 6f44 083f
000000c0: d593 8ebe af47 d3bc 0c14 d6be 96ec c7be
000000d0: 3880 efba 5185 0e3f 36cb 31be 65ae 093e
000000e0: 5252 093f 08fe b13d 4f84 133f 097a d53e
000000f0: 070f 143f b93c 723e b16c adbe 5acb d2be
00000100: e553 37be f800 143f d093 ad3e 20f6 693e
00000110: feab b8be 928b bcbe fd39 043f e8db 24bd
00000120: 348a f9be 96e2 cebc 870a 94bd 20a3 fd3d
00000130: bfbd 843e cd14 523e 939f b0be cffc 5cbd
00000140: a13f 6abe 2fec f03e 4f3b bf3e c64f c83e
00000150: 58f8 083f b5ce 863e 98d1 ffbe 3aef fd3d
00000160: d54c adbe e9e4 043e ea10 1c3d 6bdc 1d3f
00000170: 963f adbe 84de d3be 4cfe 80bd 22c7 523e
00000180: d024 f03e d532 0f3f d81c 133f 82cd 8a3e
00000190: 6d92 3ebe 096c 903b 8d8c 95be 8c42 243e
000001a0: 7267 a8be 771a 993e a2a7 f33e 4ebb 063f
000001b0: f29b fcbe 21dd 173f 6f7f 36be 744a fd3b
000001c0: bc73 083f 72ce ce3e c2df 713c b987 cf3e
000001d0: ad83 02bf 8070 073f e4e8 1f3f 5057 ccbc
000001e0: 269a 4e3e e488 01be c918 abbe 3a36 66be
000001f0: 086e 4ebc 00e9 cdbe 3534 bbbe 89b2 553e
00000200: 084a a0be ef1b 85be f774 0a3d 8390 63be
00000210: 12f3 1f3f 35c8 2ebe 7e41 59be 2fb4 c63c
00000220: 9e5f d8be 629b f33e d94e 153f a1da 15be
00000230: 1f9f 69bc 32fc 173f 5c30 b9be 7264 633e
00000240: 7294 d0be 37f9 e8be 2378 6e3d 125a 3abe
00000250: ba0f c63e 7bb0 c0bd 2dfd a03c cc2e 67be
00000260: d030 c23e 2e68 1b3f a871 e1bb affb 76be
00000270: 5a8b dbbe f8d8 283f 585a 9e3e e1df aa3e
00000280: 7df2 133e db08 a63e 47b2 9b3e 34dc c33e
00000290: a8f3 fc3e 0ad5 fd3d ce62 fd3e ed8e 033f
000002a0: aef9 9d3a 92b9 e6bd 9de2 353e 11c1 013f
000002b0: 32ce e73e 19b7 d3bd 77eb b1bd 8673 683e
000002c0: 8bd5 643e 116d 1c3f e77e d03e c0e3 6c3e
000002d0: 993e 533e 8b1a f4be 5c67 32be a149 54bc
000002e0: f016 b2be bd12 ddbe d7fb f13e 20e0 853e
000002f0: bca8 bbbe adb4 a63c be43 013f 2dee b13e
00000300: 0810 0c3f d42f 39be da7e a03e a4a9 cfbe
00000310: 2193 1d3c 0ef1 48be 3247 75bb d072 d23e
00000320: 2be2 ae3e 0084 5dbe ed8e 643c 39ea 49bd
00000330: d669 4dbe 9410 4abe 73fd ef3e 000c 023f
00000340: bdb4 0c3f 974c 93be f1e5 e63e 8840 80bd
00000350: e9ff b4bd 6030 1dbd 3b0e 643c b3b5 4abe
00000360: baea 97bb e874 9ebe baf5 bb3e edf1 d4be
00000370: 6353 19be f2ff a1be 47a6 e53e 9240 fe3e
00000380: ddf2 d3be eb2e 83be 3976 1d3f c1ed 563e
00000390: 2691 e13e 78f2 9dbe 7aa1 9e3e 3738 033f
000003a0: fc8d b9bd 2fc2 a53b cd91 d43e 7980 9c3e
000003b0: a4f6 923e caad 3b3e 58a0 25be 45ab 86be
000003c0: bd9e 1a3f 58ab 87bc 189b 133f 3735 0e3f
000003d0: 8697 86be 1991 2e3b d9d3 37bd 6f5a d1bc
000003e0: 6ef3 c63e fb5c c43e 930a 46bc b4b1 6bbe
000003f0: 50f9 acbe 8a87 7dbe 9637 b03e c4b1 87be
0.14995386 -0.025443897 0.2108309 -0.27984387 -0.48429292 0.21357572 -0.10648192 -0.06320297
0.5001606 0.17854701 0.37538818 -0.11196239 -0.3553006 0.112426855 -0.31359744 0.013295684
-0.39021122 0.4773862 -0.32844436 0.62194914 0.47240937 0.50246686 0.36927015 0.2279571
0.016332565 -0.009663114 -0.098925486 -0.45296767 0.5630142 -0.017618664 0.31430238 0.25115138
0.29360995 -0.08458072 -0.33004686 0.55414194 0.30534917 0.40467557 -0.4163925 0.089584485
-0.29978743 -0.06345832 -0.049163014 -0.2822975 -0.4767787 -0.0017444352 0.57767576 0.5322942
-0.27847162 -0.025791017 -0.4181217 -0.39047688 -0.0018272465 0.55672175 -0.17362675 0.13445432
0.53641236 0.08691031 0.5762376 0.41694668 0.5783543 0.23655976 -0.33871987 -0.4117077
-0.17903097 0.5781398 0.33901834 0.22847795 -0.3606872 -0.36825234 0.51650983 -0.04024878
-0.48738253 -0.025254529 -0.072285704 0.12384629 0.25926015 0.20515747 -0.34496745 -0.053952035
-0.22875835 0.47055194 0.37349936 0.39123362 0.5350394 0.2632958 -0.49964595 0.123991445
-0.3384768 0.12977947 0.038102068 0.61664456 -0.33837575 -0.41380703 -0.06298503 0.20583776
0.46903086 0.5593694 0.5746589 0.27109915 -0.18610545 0.00440741 -0.29208794 0.1604101
-0.32891423 0.29903004 0.4758883 0.52629554 -0.49337727 0.5932179 -0.1782205 0.007729823
0.53301597 0.4039188 0.014762821 0.40533236 -0.5098217 0.52906036 0.6246474 -0.024943978
0.2017599 -0.12649876 -0.33417347 -0.22481623 -0.012599476 -0.40216827 -0.36563268 0.20868887
-0.3130648 -0.25997874 0.033802953 -0.22223096 0.6248027 -0.1706856 -0.2121639 0.02425584
-0.4226045 0.47579485 0.58323437 -0.14634182 -0.014259129 0.59369195 -0.36169708 0.22206286
-0.40738255 -0.45502636 0.05822004 -0.18198422 0.38683873 -0.09408661 0.019651974 -0.22576445
0.37927866 0.6070584 -0.006880004 -0.24119447 -0.42879754 0.6595607 0.30928302 0.3337393
0.1444797 0.3242863 0.30409452 0.3825394 0.49404645 0.123941496 0.49489444 0.5138996
0.001205256 -0.112658635 0.17762227 0.5068522 0.45274502 -0.103376575 -0.086874895 0.22700319
0.22347085 0.6110392 0.4072182 0.23133755 0.20629348 -0.476765 -0.17422241 -0.012957008
-0.34783125 -0.4317836 0.4726245 0.26147556 -0.36652172 0.020349825 0.5049399 0.34752026
0.5471196 -0.18084651 0.3134678 -0.40559113 0.009617598 -0.19623205 -0.003742647 0.4110322
0.34156927 -0.21632385 0.013950092 -0.049295638 -0.20059904 -0.19732887 0.46873054 0.5079956
0.54963285 -0.2876937 0.45097306 -0.06262308 -0.088378735 -0.038376212 0.013919408 -0.19795875
-0.004636136 -0.30948567 0.36710912 -0.41590825 -0.14973216 -0.31640583 0.44853422 0.49658638
-0.41396227 -0.25621733 0.6150852 0.20989133 0.44056052 -0.3084905 0.30982572 0.5125765
-0.090602845 0.005058549 0.41517487 0.30566767 0.28703797 0.18328014 -0.16174448 -0.26302543
0.60398465 -0.016561195 0.5765853 0.5554995 -0.26287478 0.0026636778 -0.044879768 -0.025555817
0.38857597 0.38352188 -0.012087482 -0.23017007 -0.3378396 -0.24758735 0.3441741 -0.26502812

fc2.weight f4 [256, 256]
00000000: 8d83 88bb 1d28 493d 82cc d13a e0a5 6fbb
00000010: 3460 273d 6551 dabd 84c0 c43d 6725 b33d
00000020: f671 e4bd b14f 7abb 0b50 d03c 6565 c63c
00000030: 1844 343d 03c8 543c ad24 483c bd79 ef3d
00000040: f2af 71bd fe0f 57bd 826d 77bc a90d 8abb
00000050: 7df2 88bd 79b9 623b d385 fb3c 07e4 0e3d
00000060: a4e5 48bd d719 213d 2d99 c7bd cf3a 643d
00000070: 82a9 97bc 1002 dd3c a8db 4bbd dcee 30be
00000080: c912 6d3d 949a be3d 6320 09bd 1aa1 ef3b
00000090: c20f b038 edbb 943d 3c2d 7a3c 2479 73be
000000a0: 031f fd3c 51e3 1c3b 0436 0cbd bedc 053e
000000b0: 8c53 6e3c 9ec4 413d 75fc 08bd a44c e2bd
000000c0: 44e8 e5bc 4eb1 1dbd bc4f 95bc 20af e63b
000000d0: a4a4 b13c ae65 8c3d 9496 debc 35b3 473d
000000e0: 0be0 a33c 1206 a5ba b15e 4cbd f891 853c
000000f0: 4b4e 46bd 4201 103d e9dd 80bd b7e9 0bbd
00000100: 0814 45bd 6324 93bb d7bb 20be 12c8 02bd
00000110: 0c88 0b3c a075 2d3c f7f0 343d d1f2 83bc
00000120: 7153 08bd d7ee c9bc 1f65 903d fa33 40be
00000130: 0ae6 15bd 4f91 b23d c0d4 763c 5d25 933d
00000140: 13c4 b33c a180 2a3d 81c8 04bd bd2c cbbc
00000150: 9d5e 043d d1a9 99bc d091 213d 6289 dfbc
00000160: 78c1 cf3d b0a4 683c b434 11be e4e1 afbc
00000170: e96e 6a3c 566a cf3b 2124 de3d d374 86bd
00000180: 0046 8f3d f342 673c 423d 8fbc 1ec4 853d
00000190: 9b73 c73b 8941 d2bb fd1f 673c 1729 e93a
000001a0: 88f2 00bd b6b6 5e3a 4d69 6bbc f209 1d3d
000001b0: d227 223d fecd 1bbc ef1f 1a3e 769c 4c3d
000001c0: 5f43 1abd 3ebf 8e3d 5ba0 01be 9596 833b
000001d0: f416 66bd 1f65 c9bd b549 5d3c d651 d9bc
000001e0: 70c9 09bd 2192 e1bb 5ce8 b0bc 953f 1abd
000001f0: 32fd 69bd b43d 26bd 93e9 743d b878 77bc
00000200: 9097 babd d082 523d eeb0 07be f57a 003d
00000210: 0422 a1bd d450 afbd ff20 c53b 6e6b f7bd
00000220: 3c3f 153e 661b 413d fa2f 823c 7d90 a2bd
00000230: a897 ca3c 2a8c 23bd 7060 6b3c 5285 f8bd
00000240: 58df 233c 7bce 913d 2dc1 98bc 8f46 233e
00000250: c9d6 3e3d d4ac b63d 300f 0c3d d9c4 11bd
00000260: fb90 6b3d 8663 b23c 0d77 c73d 925b 9cbb
00000270: f3fa 6a3d 58a5 79bc e61e 5bbd aedf ecbd
00000280: d59d 693d afa2 5d3d 1a86 0d3d ab36 3ebe
00000290: 9d45 debc 0b5e bf3c 75f2 4fbd bcec c4bc
000002a0: 0f37 4ebd 7277 5bbd 7b90 9c3c 1dd1 65bd
000002b0: 60d1 c2bd 6544 bdbb 886f 64bc 17f9 83bc
000002c0: 919a 413d 6679 b3bd 7ce0 1ebd b4ea 44bd
000002d0: 7d80 d73c 35dd 83bc 164a 4b3d a435 bf3c
000002e0: 76e3 5abd 428b 3bba e7cb 7e3c b4ed 8a3c
000002f0: 0112 8c3c c111 4dbd 3412 01be 1bba b73c
00000300: b227 903d 5bd3 d9bc 9dcf 13bd 08f0 4ebd
00000310: ea65 293b 1ac0 3ebd f21c c1bc 6696 e8bc
00000320: 7f18 1f3c 2727 aa3d fa2a 473d 57cd 8bbc
00000330: eabe 5c3c d8bb 1bbc 9fa1 99bd 4d00 24bd
00000340: 360a c5bd e95d 1d3d f58e 0abc f309 b43b
00000350: d8f9 cfbb 8fe5 113d 9b8c 423c 3d62 063d
00000360: bd4a 6ebc 5f7c 62bd 9013 9b3b ad7e a8bc
00000370: 963a e2bc 720c 0dbc 9476 463c 9c1f 02bd
00000380: 494e ab3b ee04 30bb e2f8 3ebd 1e87 d13d
00000390: d3f5 9c3d ac03 14bc 6559 b43c e9b7 c0bb
000003a0: deb3 60bd 993c 073e 8b54 863d 60aa b73c
000003b0: d055 773d 0b19 273d ec25 e0bb 59ee 22bd
000003c0: f71c c3bd 98e8 073d cfa9 87bd 0a0d 8dbd
000003d0: 7f65 243c a938 dc3d 0556 b23c fbf2 163d
000003e0: db0b 543d d052 28bd 450a 593c 4762 c2bc
000003f0: b4d8 1bbc fd77 afbd f81f 03be ba6c 9a3c
-0.0041660727 0.04911052 0.0016006383 -0.0036567375 0.04086323 -0.10660056 0.09607032 0.08747368
-0.11154549 -0.0038194472 0.025428792 0.02421827 0.04401025 0.01298714 0.012215775 0.116931416
-0.059005685 -0.052505486 -0.015101792 -0.004213054 -0.06686876 0.0034595414 0.03070346 0.034885433
-0.049047127 0.039331283 -0.09746013 0.055720147 -0.018513445 0.026978523 -0.049770027 -0.17278618
0.057879243 0.09306827 -0.033478152 0.007312906 8.395269e-05 0.072624065 0.015269574 -0.2377668
0.030898577 0.0023939202 -0.0342312 0.13072488 0.014546286 0.04730665 -0.033443887 -0.11049774
-0.028064854 -0.03849917 -0.018226497 0.0070399195 0.021684952 0.06855331 -0.02717141 0.04875489
0.020004293 -0.001259031 -0.049894992 0.016304955 -0.04841451 0.03515745 -0.06292326 -0.034158435
-0.048114806 -0.0044904216 -0.15696655 -0.031929083 0.008516323 0.010587126 0.044175114 -0.016106995
-0.0332827 -0.02465002 0.07050537 -0.18769827 -0.036596335 0.08719122 0.015065372 0.07184861
0.021944081 0.041626576 -0.032417778 -0.024801606 0.032316793 -0.018757733 0.0394457 -0.027287189
0.10144323 0.014199421 -0.14180261 -0.021470018 0.01430867 0.006329815 0.10846735 -0.06565251
0.06995773 0.014115083 -0.017485265 0.06531547 0.0060867793 -0.006416504 0.014106748 0.0017788735
-0.031481296 0.0008495854 -0.014368367 0.038339563 0.039588757 -0.009509562 0.15051244 0.0499539
-0.037661906 0.0697007 -0.12658827 0.0040157535 -0.056174234 -0.098337404 0.013506343 -0.02652828
-0.03363937 -0.006883875 -0.021595173 -0.037658293 -0.05712623 -0.04058619 0.059793066 -0.015104465
-0.091109395 0.051394284 -0.13251087 0.03136726 -0.07867816 -0.085603386 0.0060158963 -0.120810375
0.14574903 0.04714527 0.015892018 -0.07937715 0.024730518 -0.039928593 0.014366254 -0.12134804
0.01000198 0.07119461 -0.0186468 0.15944885 0.046591554 0.08919683 0.03419417 -0.03558812
0.05751131 0.021775972 0.09739504 -0.004771658 0.05736823 -0.015237175 -0.053496264 -0.11566101
0.057035286 0.054110225 0.034551717 -0.18575542 -0.027132804 0.023360273 -0.050768334 -0.024038665
-0.050345477 -0.05358071 0.019111862 -0.05610763 -0.09512591 -0.0057759755 -0.013942607 -0.016109986
0.047266547 -0.08763389 -0.038788304 -0.048075393 0.026306385 -0.01609669 0.0496312 0.023341008
-0.05343958 -0.0007154235 0.015551544 0.016959049 0.017098429 -0.05006576 -0.126046 0.02242761
0.07038821 -0.02659004 -0.036086667 -0.05052188 0.00258481 -0.04656992 -0.023573373 -0.028392028
0.00971043 0.08308249 0.04862497 -0.017065687 0.013473252 -0.009505235 -0.0750153 -0.04003935
-0.09621088 0.038419638 -0.008456935 0.00549435 -0.0063469224 0.035619315 0.011874343 0.03280853
-0.014544186 -0.05529439 0.0047325566 -0.020568216 -0.027615827 -0.008608924 0.012113232 -0.031768426
0.005227838 -0.0026858407 -0.046624072 0.1023085 0.07664075 -0.009034079 0.022015283 -0.005881299
-0.054859035 0.1320671 0.06559094 0.022420108 0.06038457 0.040795367 -0.006840458 -0.039778087
-0.09527009 0.033180803 -0.06624185 -0.06887253 0.010033964 0.107529946 0.021769533 0.036852818
0.05176912 -0.0410946 0.013247077 -0.023728503 -0.009512115 -0.08567808 -0.12805164 0.018850673

fc2.bias f4 [256]
00000000: abb4 4e3d 9f9e d4bc f52a 133c bdc0 ae3d
00000010: 34eb 263d e790 7e3b 5091 25bd e795 5bbd
00000020: 60e0 a5bc d61c 623d 68fe 5c3c 7ab2 13bd
00000030: e389 6a3c 2924 243d 3aaa ed3c 9e4a 2d3d
00000040: 2245 a93d eae8 07bc 06bb f33c 87c0 a53d
00000050: 25b4 043e 2a1a 1f3d f76a 4ebd 692d 273d
00000060: 001f 47bb 651b bd3d 206a b33c ad24 aa3d
00000070: 50ff 573d f166 863d 43f3 113d 70e5 063d
00000080: 3ee9 593d aba0 d23c 8552 8bbd 0682 083d
00000090: 36ff c9bb 5edc 6abc 55c6 4bbc 9102 2f3d
000000a0: ae9f 913c 84b1 513c f007 02bd 7409 173e
000000b0: a9aa 373e 375f 853d c423 c239 b6c3 93bc
000000c0: 6306 9a3d 432d ff3c ef59 0cbd f213 0dbd
000000d0: d769 da3b 70e0 6bbc 2334 27bd c2bf 82bc
000000e0: cf07 ac3c d500 443d b59d 27bd f10e 1ebc
000000f0: ae9e f5bb 85ad 9ebc 792e a9bb dd48 be3d
00000100: 3c28 21bc d2bd 9d3c 7299 a33c 463b 603c
00000110: 548f f73d ac3b 333d cea9 f3bc c917 24bd
00000120: d626 65ba 4a88 3abd 541c 42bb eefb 1bbc
00000130: 9ced 9e3c b1df 13bd 05c0 e13c fffb cb3d
00000140: 8a34 7cbd 2705 d03c 44e4 e2bc 586e 0ebd
00000150: b8ae c63c 0eb9 acbc 805f d4bc de29 003e
00000160: ddc3 7f3a df29 12bc 795f 7c3d d7f0 c63b
00000170: 714d f23c 0848 043d 8046 463d 6859 523d
00000180: 00ac 5bbc c46a b63c d280 813d 063b be3c
00000190: 1bc4 c43c 3873 08bc aba9 20bd f0a0 1dbc
000001a0: 52cc 49bd 8b93 953d b6ac 833d 80e3 313a
000001b0: a3d8 09bb a2ca d6bc 1b3f 9cbc 99ec b1bb
000001c0: 8294 a6b9 7705 313e eb3f 9f3c 1b76 473d
000001d0: 11a5 ac3d 6578 23bd 3f1a 8c3c cc2b bc3c
000001e0: 6eb2 3f3e 01e3 d0bc 92b9 3b3d 27bc 6fbd
000001f0: f582 31bc 20af 8abb b6f1 25bd aece a6bc
00000200: 1d79 e1bc 1da5 813d 70e3 b6bc 4ebd 213d
00000210: 233b 573d 86f1 6f3d 77bc 213e 349a a63b
00000220: 10b8 c43d 5c3f 5bbd c888 55bd 6ae8 ea3a
00000230: 4130 203e 0c8e 703b 954d 193c 55d5 173d
00000240: 9208 853d 3e18 f6bb 2e86 3b3d ae93 e23c
00000250: 0058 c939 42b5 133d 739a 35bd 4b39 27bc
00000260: e3f2 003d 17cd 273d 0f7a 073d bb82 bd3d
00000270: 28a3 523c 440d b13a 5afd 7bbd b9c5 1b3e
00000280: 7686 14bd 9e14 343d 6209 173d 4f29 5ebc
00000290: 8096 b43b 08f5 ebbc 3ea1 d43c 476a 9d3d
000002a0: fd89 4b3d 5540 39bd 5a91 563d 1b7a c93c
000002b0: 7f41 973d 23f6 ca3c e801 a23c 0cb3 103e
000002c0: 7f17 c0bc f916 8e3d c5d5 073e 3d15 5abd
000002d0: 3d27 ae3d f951 e0bb b4b1 8bbc f346 0d3e
000002e0: 1156 b53c 3287 5abc 0256 d33b 62da 7cbd
000002f0: 4e4c 4bbc 87a2 2b3d 00a9 f039 afda 9f3c
00000300: bdbf e3ba 10b9 2c3c 36a0 063d 22cc 233d
00000310: d45a b43c 6027 7a3d e854 f73d 3543 483d
00000320: 8050 3f3c f771 e13d d0ed 1e3e cfee 7ebc
00000330: 50fc a3bc 70a6 1dbd 6591 963c 3829 ba3d
00000340: a445 0bbd 2f8c c0bc 24b6 86bc c554 8bbc
00000350: db40 703d 33b2 2e3d df6d 8f3d 15c5 e63b
00000360: 83b2 f93c f251 84bc b541 8b3d 6659 02bd
00000370: 3243 1fbc d9d0 3abd 102b 09bd e8f3 d9bb
00000380: c04f 3ebd b497 e0bc 4043 9b3b 2fa8 28bd
00000390: ed14 163d da6c eabc 4fba cb3d 2bca 803d
000003a0: 6e26 c53c 0797 353d 3518 c53c a2f4 ec3d
000003b0: 2a6a 67bd d234 4d3e 7b2d 133c 9458 dd3c
000003c0: 2fae cabc 8093 8d3c 11a8 763c 35e4 6b3d
000003d0: e637 6dbd 417c 7d3d b014 a43c 15da 00bd
000003e0: 68df dd3d 6300 883d c952 ba3c 3f15 ef3d
000003f0: 543c 253c d3f0 48bd 06da 79bd a349 803d
0.050465267 -0.025954543 0.00898241 0.08532856 0.04075165 0.0038843693 -0.040421784 -0.053609755
-0.020248592 0.05520328 0.01348839 -0.03605888 0.014315101 0.040073548 0.029011834 0.04230749
0.08265139 -0.008295277 0.029752266 0.08093362 0.12959345 0.03884331 -0.05039498 0.04081479
-0.0030383468 0.09233741 0.02190119 0.083077766 0.05273372 0.06562603 0.035632383 0.032933652
0.053200953 0.025711378 -0.06802849 0.033327125 -0.0061644567 -0.014334766 -0.012437423 0.042727057
0.017776337 0.012798671 -0.03174585 0.147497 0.17936195 0.065123014 0.0003702921 -0.018037658
0.075207494 0.031149512 -0.034265455 -0.03444285 0.006665449 -0.014396772 -0.040821206 -0.015960578
0.020999817 0.047852356 -0.040921886 -0.009647117 -0.0074957227 -0.01936985 -0.0051630107 0.09291241
-0.009836253 0.019255552 0.01997063 0.013686007 0.120878845 0.04375808 -0.029744055 -0.040061746
-0.0008741444 -0.04554013 -0.0029618936 -0.009520514 0.01940041 -0.036102 0.027557382 0.09960174
-0.061573543 0.025393082 -0.027696736 -0.0347732 0.024253234 -0.021084335 -0.025924444 0.12515971
0.0009756664 -0.008921116 0.061614487 0.006071191 0.029577943 0.032295257 0.048407078 0.051354796
-0.013407707 0.022267707 0.06323399 0.023221504 0.024019292 -0.008328252 -0.039224308 -0.00962089
-0.04926712 0.07303532 0.06429426 0.00067859143 -0.0021033667 -0.02621967 -0.01907306 -0.005429816
-0.00031772634 0.17287241 0.019439658 0.04869662 0.084299214 -0.03990974 0.017102359 0.022970103
0.1872041 -0.025498869 0.04583127 -0.058529045 -0.010834445 -0.0042323023 -0.040513717 -0.020362224
-0.027523572 0.06330321 -0.022325248 0.039487176 0.05254663 0.058579944 0.1579455 0.0050843004
0.0960542 -0.05352722 -0.052132398 0.0017922048 0.15643407 0.003670576 0.009356876 0.037068684
0.06495775 -0.007510214 0.04578226 0.02765831 0.00038403273 0.036061533 -0.044336747 -0.010206531
0.031481635 0.040967073 0.03307539 0.092534505 0.012856282 0.0013507982 -0.06152091 0.15212144
-0.036261044 0.043964975 0.036874183 -0.013559653 0.005511105 -0.028803363 0.025955793 0.076862864
0.049692143 -0.045227367 0.05238471 0.024594357 0.07385539 0.02477557 0.0197763 0.14130801
-0.023448704 0.069379754 0.1326514 -0.05324291 0.08503578 -0.0068457094 -0.017052509 0.13796596
0.022135766 -0.013337897 0.006449462 -0.061731704 -0.012408329 0.041903045 0.00045902282 0.019513456
-0.0017375868 0.010542169 0.032867633 0.039989598 0.022015966 0.061072707 0.120767415 0.04889222
0.011676908 0.11008065 0.15520406 -0.015559866 -0.020017773 -0.038488805 0.018379876 0.09089893
-0.03400196 -0.023504345 -0.016444273 -0.017008195 0.0586556 0.042650413 0.07003378 0.007042537
0.030480629 -0.016152356 0.06799642 -0.03182354 -0.00972061 -0.04560933 -0.033488333 -0.0066513903
-0.046462774 -0.027416088 0.0047382414 -0.041176017 0.03664105 -0.028616358 0.09947645 0.062885605
0.024066176 0.044333484 0.024059394 0.115700975 -0.05649773 0.2003968 0.008983011 0.027019776
-0.02474126 0.017282248 0.015054719 0.057590682 -0.057914637 0.061886076 0.020029396 -0.03145798
0.10833627 0.06640699 0.022744553 0.11673974 0.010085184 -0.049057793 -0.06099894 0.06264045

fc3.weight f4 [2, 256]
00000000: 7cd0 7c3e 346c 9abd 0d1a 4cbe a827 de3d
00000010: 0ee7 abbc 8ab4 b7bd 1473 323d 34a7 3bbe
00000020: c002 c3bb 4e18 1bbe 4e00 20be 72b7 213d
00000030: 7153 ef3d f373 273d bcec c0bd a0f9 413d
00000040: a29f ab3d 7f46 11bd 597d 14be e40a a03d
00000050: 0c5d f53d 9a0b c03d 0729 2abe 86b7 823d
00000060: fa5d 153d 9f94 9b3d f845 7b3d 2923 303d
00000070: 8849 083c 2517 c6bb fd26 15be d2ba 903d
00000080: b8d0 f23d 91c8 b03d 2035 cab9 5033 ccbc
00000090: 7b67 f9bd 8050 673c 101b 9abc 830c a53d
000000a0: 5902 e3bd 84db 9cbd 6e91 4d3d 2be4 d03d
000000b0: bab6 043e f01a d33d f5a0 31be ea03 1abe
000000c0: f4e8 5f3d 9551 d43c 36cc fa3c 6dbf 0fbe
000000d0: e74f bc3d e9e3 28be 8b75 31bd 2e28 b6bd
000000e0: d4bb 353d 703a 12bd df29 0cbe ea1a 873d
000000f0: 0d76 fabd 3042 e1bd 75da b2bd 0b61 bf3d
00000100: 64c6 0e3e caa5 ab3d 1821 553b a59e cc3c
00000110: 55b2 cf3d a880 0b3c 40aa 0b3e e47a 023d
00000120: c896 b4bd 7a76 12bd f43c 463d fc5c e0bd
00000130: 57a9 3b3d ca19 d0bc b25a acbd 4e3e bc3d
00000140: 1e91 133d 8a66 6f3d 5bce 5a3d 0072 f9bd
00000150: 3c9d 31be fa54 5f3d d584 6c3d 2236 a13d
00000160: e204 653c 3f90 24be c531 2a3c 4cc3 663d
00000170: 2dd7 693d 324b e83d 9f76 acbb 43a3 a2bd
00000180: ddc4 00be 3b29 d2bc 5dea c03d ecc8 dcbd
00000190: 0402 023c 0f1a 3ebe ab16 fd3d aed8 623d
000001a0: 6277 00be b713 713c bb8e 11be c041 2cbd
000001b0: 7263 a53b d1ae 403d aa33 a43d 8933 02bd
000001c0: 0752 ae3c d714 9d3d edfc 513d eb5a 2ebe
000001d0: 8122 c03d 3e3a abbc 06ba 22be e7a4 f13d
000001e0: e73e e03d cf4b 243d 0fd9 103d c218 3dbe
000001f0: ee1e 463d dcdd 603d c160 f5bd dca9 17bd
00000200: 9c83 2c3d 2d2a 49bc 0bee 68bc 44a0 3c3d
00000210: 63c3 533c f52b efbd fdce c43d fea0 04be
00000220: a0e1 ef3d 3fdf 47be 17d8 623d 2390 2abe
00000230: bbc0 ba3d 67c9 03be 249e 9bbd 60a4 b9bd
00000240: b152 b13d c5da dbbd b77c f23c e8a1 37bd
00000250: 16ae 53bd 5256 dabd b04a 60bc ded6 1abe
00000260: 8386 febd fee9 6f3d 425d e43d bbc9 b33d
00000270: 16b2 d8bd 20df 1b3c 305d 083c 623d 013e
00000280: cd66 39be 3664 b9bd 805d 0fbb 4600 0f3d
00000290: 5078 633d 4626 d93b c397 af3c 0c42 ab3d
000002a0: b597 c8bd d4c5 b83d a8f7 fdbc e4b0 cebc
000002b0: 5874 1bbe 0dad 1bbe 0980 d2bb 3936 963d
000002c0: d5b4 723d 8c1f a03d 0aa5 9f3d cd3e f03c
000002d0: e195 e73d 198f c83d 87d6 01be 5c03 823d
000002e0: 7e67 22be 38b9 2fbe 8b4c 91bd d045 eabb
000002f0: 47dc edbd 11b4 b23c 8430 dbbc 104b be3d
00000300: 0410 493e e011 4f3c a6c6 053e 9cef a73d
00000310: dfc3 a9bd 48bb 873c 51b0 9b3d 074f f23d
00000320: 0300 9e3c b334 c53d 2d8f aa3d a5b1 10be
00000330: 30e1 37bc 60ce 153d a95a 1fbd fa1e 603d
00000340: b764 913d 9d14 eabd aaa2 bfbd 643e 12be
00000350: 7166 9b3c f659 4a3d f198 c83d 1ebf 96bd
00000360: b82b 2b3c 2c1e f3bd f94e bb3d e5d6 d63c
00000370: b97c 25be 67bf 9fbd fe54 99bd 7cec 4cbd
00000380: f2c7 f13d 8d50 703d 0809 723d 3213 8e3d
00000390: d830 2bbe c5bb f13c 934f 1d3d e89f b03d
000003a0: e359 46bd 5e4d b63d d313 8ebd 4503 e83d
000003b0: a5c9 51bd d0af f93d 5cea b8bd cbc2 e43c
000003c0: 1342 d0bc 2b2a 6bbd 1003 9fbd 15ca d0bc
000003d0: 36e6 24bd 6a39 04be 04c2 b6bd 09d9 d3bd
000003e0: 2f9c f43d f649 1abc 441c d63d c932 cb3d
000003f0: fb0e 1abe 0f6b 353c 94f2 7e3d a586 19bd
0.24688905 -0.07540169 -0.19931813 0.108474076 -0.020984199 -0.08969982 0.04356678 -0.18325502
-0.0059512556 -0.1514599 -0.15625116 0.039481588 0.11685837 0.040882062 -0.094201535 0.0473572
0.08380057 -0.03546762 -0.14500941 0.07814577 0.11980638 0.09377213 -0.16617213 0.063826606
0.036466576 0.075967066 0.061346024 0.04300228 0.0083183125 -0.0060452395 -0.14565654 0.07066883
0.11856216 0.08632005 -0.00038568024 -0.024926811 -0.121779405 0.014118314 -0.018811733 0.08059027
-0.11084432 -0.07659057 0.05018752 0.101997696 0.1296033 0.10307872 -0.17346556 -0.15040556
0.05466552 0.025917808 0.030614953 -0.14037867 0.09194928 -0.16493191 -0.04332499 -0.088943824
0.04436858 -0.03570026 -0.13687848 0.0659693 -0.12229548 -0.109989524 -0.087330736 0.09344681
0.13942868 0.08381231 0.0032520946 0.024977991 0.10141436 0.008514561 0.13639164 0.03185548
-0.08817822 -0.03575752 0.048397973 -0.10955235 0.045815792 -0.025402922 -0.08415736 0.09191571
0.036027066 0.0584474 0.053419452 -0.12179947 -0.17345136 0.0545244 0.057743866 0.07871653
0.013978215 -0.1607065 0.010387843 0.056338593 0.057089973 0.11342467 -0.005263164 -0.07941296
-0.12575097 -0.025654426 0.09419701 -0.1078051 0.007935051 -0.18564628 0.12357839 0.055382423
-0.12545541 0.014714173 -0.14214604 -0.04205489 0.005047255 0.047041718 0.08017667 -0.03178743
0.021279348 0.076699905 0.0512666 -0.1702687 0.09381581 -0.020901795 -0.15891275 0.11799031
0.10949498 0.04011136 0.035363253 -0.18466476 0.04836934 0.05489908 -0.11981345 -0.037027225
0.0421177 -0.012278122 -0.01421691 0.04605128 0.012925002 -0.11678306 0.096097924 -0.12952039
0.117129564 -0.19518755 0.05538186 -0.16656546 0.09118792 -0.12869798 -0.07598522 -0.09064555
0.0865835 -0.10735086 0.029600484 -0.04483214 -0.051679693 -0.106609955 -0.013689682 -0.15121028
-0.12428 0.05857276 0.111506 0.087787114 -0.10580842 0.009513646 0.008322999 0.12621072
-0.18105622 -0.09052317 -0.0021875799 0.03491237 0.05553466 0.006626877 0.02143467 0.08362207
-0.09794561 0.09022108 -0.03100188 -0.025230832 -0.151811 -0.15202732 -0.0064239544 0.07334561
0.059254486 0.07818517 0.077951506 0.02932682 0.11307884 0.09792919 -0.12679492 0.06348297
-0.15859792 -0.17160499 -0.070946775 -0.0071494356 -0.1161428 0.021814378 -0.026756532 0.09291661
0.19635016 0.012638539 0.1306406 0.08199999 -0.082893126 0.016568795 0.07601989 0.118314795
0.019287115 0.09629192 0.0832809 -0.14130266 -0.0112231225 0.036573768 -0.03890482 0.05471704
0.07099288 -0.11429713 -0.093571976 -0.14281613 0.018969746 0.0494022 0.09794796 -0.073606715
0.010447435 -0.11870989 0.09145922 0.026225517 -0.16160859 -0.07800179 -0.07486914 -0.050030217
0.11805715 0.05867057 0.059090644 0.06937255 -0.16717851 0.02950848 0.038405966 0.0862425
-0.048425566 0.08901475 -0.06937375 0.113287486 -0.051217694 0.12191737 -0.090290755 0.027924916
-0.025422132 -0.05741326 -0.07764256 -0.025486985 -0.04025861 -0.12912527 -0.08923724 -0.103441305
0.11943852 -0.009417048 0.1045461 0.09921796 -0.15044777 0.011072888 0.06224306 -0.037481923

fc3.bias f4 [2]
00000000: 9aca 123c 0d95 b7bb
0.008959437 -0.005602485
