projects/codes/DQN/outputs/Acrobot-v1/20220824-124401/models/checkpoint.pt (torch, 275287 bytes, 6 tensors)

fc1.weight f4 [256, 6]
-0.6712766 0.15624242 -0.05538112 0.17085814 -0.5006074 0.04631274 -0.22028989 -0.6693203
-0.86155456 -0.044508476 0.21587336 -0.008955255 -0.42138162 0.19345425 -0.16592942 -0.042931978
0.0064094574 0.047511984 -0.6722534 -0.28205892 -1.0604868 -0.056693856 -0.2256709 -0.37397024
-0.6834769 -0.49447814 0.2378984 -0.76338387 -0.3901146 -0.15332162 -0.17476125 -0.2683985
0.32662326 -0.020224992 0.15906176 0.07618635 -0.24463436 -0.4070661 0.6347791 -0.15207966
0.43692857 0.19721173 -0.24769528 0.015099514 -0.085143395 -0.085005976 0.011507128 0.013003093
-1.0971276 0.050357137 -0.68803227 0.31521526 0.42653608 -0.23281711 -1.3630903 -0.115514696
0.39475417 -0.6183036 0.070348814 0.17525417 -0.7848296 -0.7473709 0.32711437 -0.71051383
0.41651717 0.12417238 -0.59431094 -0.16737774 0.23325132 -0.0038371175 -0.0037755352 0.049017992
-0.92568153 -0.49374598 -0.714492 -0.11863328 0.11276113 -0.38629034 -0.9132635 -0.34428236
-0.85152036 -0.09058471 -0.04860172 0.06193265 -0.136428 -0.12835231 -0.2229825 0.100344285
0.0042991214 0.0037666075 -1.4623688 -0.11331592 0.9570496 -0.18945217 0.08854075 -0.018070744
-0.38404277 -0.131643 -0.22775713 -0.22861186 0.044947885 0.024836132 -0.2523837 0.02100229
-0.2635731 0.037297983 0.014715756 0.022739217 -0.8074975 0.14232919 0.4054807 0.4612702
0.21222888 0.19332606 -0.16499688 0.5664602 -1.2124597 -0.07145108 -0.1967505 0.13689962
0.09580371 0.07514944 -0.3898839 0.08110614 0.110585876 -0.119126216 -0.90272176 0.04151005
-0.9651884 -0.06436938 0.08010534 0.03253443 0.17921466 -0.34790644 -0.31116632 -0.996624
-0.0027054525 0.17521822 -0.58495206 -1.2148336 0.21162002 0.76880527 -0.072843306 -0.1409724
0.050261896 0.6359238 0.022812003 1.0722427 -0.13601331 -0.14275363 -0.5283842 -0.80114424
-0.18417323 0.74541914 -0.54005563 -0.21848252 0.27065125 0.30871823 0.106220014 0.47568187
-0.2068573 -0.11481015 -0.70531195 -0.20778278 -0.59819055 0.025741117 0.1425898 -0.30331793
-1.5573788 0.3836956 -0.49825266 0.14579765 -0.3528632 0.065756455 -0.48036042 -0.63582253
-0.79844844 0.21380995 -0.060722236 0.105343096 -0.24682033 0.082685776 -0.14671656 -0.0017883927
0.06457793 0.0024093078 -0.7902267 -0.04284837 0.48358446 0.27716234 0.4504201 0.15630883
-1.053181 -0.29025865 -0.5619893 -0.1351368 0.226537 -0.0626082 -0.29478255 -0.028240794
-0.62162024 -0.2814668 -0.058648333 0.2670009 -0.8909974 -0.47715592 0.0522818 -0.62391317
0.31202725 0.021408407 0.29876575 -0.3343409 0.07950771 -0.72777957 0.6131622 0.05837441
-0.25113863 -0.10872549 -0.15020292 -0.039390013 -0.022026904 -0.018912395 -0.4516678 -0.74157196
0.21913297 -0.87454766 0.47275952 0.20392977 0.32952967 -0.60642207 -0.5911373 -0.4974932
0.08538146 -0.02037017 -0.363422 -0.02676507 0.50548196 0.17248411 0.60213566 0.22854632
-1.6625164 0.4619927 -0.13511142 0.7216355 0.29441616 0.082424045 -0.06913315 0.12912722
-0.15587252 0.02611109 -0.041543573 -0.0098665655 -0.060633406 0.43944398 -0.20110282 0.1511094
00000000: c9d8 2bbf 03fe 1f3e 50d7 62bd 70f5 2e3e
00000010: ce27 00bf 6db2 3d3d ac93 61be 9358 2bbf
00000020: d78e 5cbf 854e 36bd e80d 5d3e 10b9 12bc
00000030: 55bf d7be df18 463e 67e9 29be 71d9 2fbd
00000040: 6d06 d23b ed9b 423d cc18 2cbf 076a 90be
00000050: 08be 87bf d137 68bd 4616 67be 0779 bfbe
00000060: 58f8 2ebf 3d2c fdbe a39b 733e 206d 43bf
00000070: 1abd c7be 5800 1dbe 9df4 32be 876b 89be
00000080: 2a3b a73e e2ae a5bc 16e1 223e 9707 9c3d
00000090: 6e81 7abe f86a d0be e280 223f c5ba 1bbe
000000a0: 1ab5 df3e dff1 493e d5a3 7dbe f463 773c
000000b0: a95f aebd 9d17 aebd 6588 3c3c ed0a 553c
000000c0: ad6e 8cbf 4943 4e3d e222 30bf e563 a13e
000000d0: f062 da3e 9c67 6ebe be79 aebf f892 ecbd
000000e0: 381d ca3e 2549 1ebf 0a13 903d d475 333e
000000f0: 98ea 48bf b353 3fbf 897b a73e 3ce4 35bf
00000100: bd41 d53e 174e fe3d c324 18bf 1265 2bbe
00000110: 6fd9 6e3e 2678 7bbb f86e 77bb 17c7 483d
00000120: 77f9 6cbf 46cc fcbe f3e8 36bf 01f6 f2bd
00000130: 4fef e63d d9c7 c5be a3cb 69bf c745 b0be
00000140: 3dfd 59bf 7a84 b9bd 9912 47bd 17ad 7d3d
00000150: c8b3 0bbe ca6e 03be 8655 64be 4e81 cd3d
00000160: a5df 8c3b 30d9 763b e72e bbbf 2d12 e8bd
00000170: 3401 753f c0ff 41be da54 b53d 1909 94bc
00000180: 41a1 c4be 6ccd 06be 2a39 69be 3a19 6abe
00000190: 461b 383d 2575 cb3c 7038 81be ff0c ac3c
000001a0: 0ef3 86be c5c5 183d 5b1a 713c 9847 ba3c
000001b0: 28b8 4ebf bebe 113e 2b9b cf3e 9c2b ec3e
000001c0: 8752 593e 44f7 453e f1f4 28be 8903 113f
000001d0: e131 9bbf f254 92bd f778 49be 6a2f 0c3e
000001e0: bc34 c43d f3e7 993d dd9e c7be fa1a a63d
000001f0: d97a e23d 72f8 f3bd c618 67bf 7106 2a3d
00000200: 9616 77bf 18d4 83bd 450e a43d d342 053d
00000210: 0c84 373e cb20 b2be 3151 9fbe c022 7fbf
00000220: f64d 31bb 686c 333e 6bbf 15bf ab7f 9bbf
00000230: ebb2 583e 6cd0 443f df2e 95bd 125b 10be
00000240: 6bdf 4d3d e7cb 223f 3de0 ba3c 403f 893f
00000250: 1347 0bbe 022e 12be 3044 07bf ca17 4dbf
00000260: e897 3cbe cad3 3e3f 1641 0abf e2b9 5fbe
00000270: cd92 8a3e 5110 9e3e e189 d93d 938c f33e
00000280: 66d2 53be 9521 ebbd 538f 34bf 02c5 54be
00000290: 0423 19bf 09df d23c 0f03 123e 7d4c 9bbe
000002a0: 3058 c7bf c073 c43e f91a ffbe fb4b 153e
000002b0: 7caa b4be 52ab 863d cdf1 f5be 44c5 22bf
000002c0: 1e67 4cbf fff0 5a3e e1b7 78bd 1fbe d73d
000002d0: 78be 7cbe 2957 a93d de3c 16be 8068 eaba
000002e0: 6f41 843d 7ae5 1d3b 4c4c 4abf c681 2fbd
000002f0: 6298 f73e 39e8 8d3e 779d e63e 6c0f 203e
00000300: a3ce 86bf c89c 94be 88de 0fbf 4d61 0abe
00000310: 51f9 673e ba38 80bd bded 96be 3d59 e7bc
00000320: 8122 1fbf 6b1c 90be 3c39 70bd 58b4 883e
00000330: 6818 64bf c84d f4be 7125 563d c6b8 1fbf
00000340: 09c2 9f3e af60 af3c d3f7 983e bb2e abbe
00000350: f0d4 a23d c34f 3abf 33f8 1c3f 011a 6f3d
00000360: 3e95 80be 78ab debd cbce 19be 6c57 21bd
00000370: c471 b4bc 2bee 9abc 0041 e7be a9d7 3dbf
00000380: 6564 603e 5be2 5fbf 890d f23e f7d2 503e
00000390: 1db8 a83e 7a3e 1bbf c654 17bf 6eb7 febe
000003a0: 7adc ae3d 58df a6bc 7312 babe 6c42 dbbc
000003b0: 4467 013f ad9f 303e 9025 1a3f 0c08 6a3e
000003c0: 56cd d4bf 4f8a ec3e a65a 0abe 1bbd 383f
000003d0: b7bd 963e f0cd a83d ae95 8dbd ed39 043e
000003e0: 0c9d 1fbe ede6 d53c 9829 2abd 60a7 21bc
000003f0: bc5a 78bd cdfe e03e e6ed 4dbe 6cbc 1a3e

fc1.bias f4 [256]
-1.5976335 -0.9248519 -0.4331202 -0.52981603 -1.4506786 -1.0693771 -1.4310071 -0.4294522
-1.7464386 -0.31690282 -0.76558936 -0.9230505 -1.6487827 -0.57464314 -0.44354305 -0.6405103
-0.44050527 -0.24979924 -0.5603577 -1.4208885 -0.58428764 1.0312493 -1.3635347 -0.21582508
-0.97431064 -1.1522539 0.95263857 -1.6829253 -1.0413291 -1.0828509 -0.3741157 -0.9610583
-1.2239741 -1.5776678 -0.6593662 -1.4283032 0.1385403 -1.0741149 -1.0087405 -1.4205217
-0.9190676 -0.51295537 -1.2944987 -0.46497023 -0.024034357 -0.25876695 -0.754476 -0.88718414
-0.49666655 -1.2143382 -0.8217524 -1.0110806 0.11931674 -0.020256964 -0.8874492 -1.1066538
-1.1065948 -1.2900177 -0.5534615 -0.8209322 -1.0146545 -0.6942511 -0.51541865 -0.97263503
-0.8851628 -0.7496153 -0.115226954 0.9515897 -0.39082423 -0.3352102 -0.7522988 -0.68793494
-0.97669524 -0.7199771 -0.9636202 -0.38471556 -0.9308024 -1.2644155 -1.6018378 -0.26593322
1.0143685 -0.62651914 -0.23788072 -1.0872554 -0.7441483 0.27174133 -0.35113293 -0.40863463
-0.8273293 -0.51698494 -0.8807398 -1.145185 -0.25675964 -0.7217407 -1.3355436 -0.50681126
-0.56275254 1.7729765 -0.42357585 -0.42174006 -0.41191489 -0.75773734 -0.52137625 -1.5149444
-0.1794298 -0.6440533 -0.31161833 -0.51178366 -0.49006242 -0.6049459 1.7381303 -0.973165
-0.5045681 -0.65708476 -0.7806731 -0.65266067 -0.58263934 0.12485199 -0.25002837 -0.9308812
-0.7537171 -0.79917634 2.2663434 -0.3381593 -0.45313832 -0.4665726 -0.5138653 0.54777765
2.259096 -0.8633767 -1.1712914 -0.9199015 -0.5711259 -1.0503575 -0.73827875 -0.76488
-0.89937425 -0.7037865 -0.39149588 -1.0557063 -0.93848634 1.5872209 -0.2563415 -1.2788496
-1.8041747 -0.53927284 -1.2507498 -0.68508404 -1.2862352 -1.0643655 -0.6461906 -0.62995064
-0.28993312 -1.2769185 -0.5687313 -0.5235269 -0.75070584 -1.023844 -0.9245449 -0.7941167
-0.97428846 -1.0110637 -0.9929692 -1.0916914 -0.32224473 -1.6544075 -1.3614085 -0.7790743
-0.6179563 -0.8123776 -0.55343705 -0.3333971 -0.68367535 -1.0052396 -1.0719008 0.2612868
-1.3783382 -0.72438335 -0.54459274 -0.56736445 1.6078056 -0.6522482 -0.5293857 -0.7221142
-1.1683444 -0.951689 -0.7917024 -1.0411322 -0.28152105 -0.89982074 -1.1667525 -0.15183938
-1.2232338 -1.4681661 -0.31966335 -0.7948294 -0.70353585 -0.4456641 -0.7125145 0.5315514
1.0786157 -0.5225862 -0.68321943 -0.6955236 -0.65135616 -0.26096654 -0.70461273 -0.71285266
-1.2946142 -0.93921334 -1.0167819 -0.89329207 -0.6897153 0.1876518 -0.17437452 -0.21814007
-0.48359007 -0.94252306 -0.9593324 -0.37343362 -1.1755809 -1.3215609 -1.0321727 -1.4759723
-0.8920075 -0.48655567 -0.6554341 -0.4753974 -0.23242785 -1.4869443 -1.0012096 -0.71380264
-1.033566 -0.6167026 -1.0627091 -0.7588213 -0.9257951 -0.06748872 -0.0570899 -0.5575336
-0.2879377 -0.2003636 -0.53106415 -1.23419 -0.9093667 -0.45746356 -1.3100504 -0.4684053
1.0178493 -0.9023466 -1.414852 -1.2308785 -0.2598741 -0.8817676 -0.5159454 -0.8638452
00000000: 417f ccbf 18c3 6cbf eec1 ddbe 06a2 07bf
00000010: d6af b9bf 59e1 88bf 3e2b b7bf 29e1 dbbe
00000020: 4d8b dfbf 1641 a2be aafd 43bf 0a4d 6cbf
00000030: 500b d3bf d01b 13bf 1318 e3be 7cf8 23bf
00000040: e889 e1be 5fcb 7fbe 9a73 0fbf addf b5bf
00000050: e093 15bf faff 833f 4e88 aebf 4001 5dbe
00000060: 6c6c 79bf 0e7d 93bf 1fe0 733f 196a d7bf
00000070: 464a 85bf dc9a 8abf 188c bfbe eb07 76bf
00000080: 2fab 9cbf 05f1 c9bf 39cc 28bf a4d2 b6bf
00000090: 82dd 0d3e 997c 89bf 691e 81bf a8d3 b5bf
000000a0: 0448 6bbf 0b51 03bf 22b2 a5bf 9410 eebe
000000b0: b3e3 c4bc 1a7d 84be 5725 41bf 801e 63bf
000000c0: 144b febe 6f6f 9bbf 5e5e 52bf 176b 81bf
000000d0: 565c f43d eff1 a5bc df2f 63bf d5a6 8dbf
000000e0: e6a4 8dbf 4d1f a5bf a7af 0dbf 9d28 52bf
000000f0: 33e0 81bf 71ba 31bf 7af2 03bf 9cfe 78bf
00000100: 079a 62bf cae6 3fbf 1cfc ebbd 629b 733f
00000110: 1d1a c8be aca0 abbe a796 40bf 811c 30bf
00000120: b308 7abf 6b50 38bf d0af 76bf 70f9 c4be
00000130: 1149 6ebf 5ed8 a1bf 0509 cdbf 6628 88be
00000140: d4d6 813f 8f63 20bf 0197 73be 2f2b 8bbf
00000150: 8180 3ebf ae21 8b3e b2c7 b3be 8f38 d1be
00000160: dacb 53bf 2059 04bf 2a78 61bf 6c95 92bf
00000170: 0076 83be 00c4 38bf 18f3 aabf 62be 01bf
00000180: 8d10 10bf e5f0 e23f efde d8be 50ee d7be
00000190: 82e6 d2be 13fb 41bf ea78 05bf b3e9 c1bf
000001a0: 72bc 37be ade0 24bf 708c 9fbe 4104 03bf
000001b0: 76e9 fabe bcdd 1abf 0e7b de3f 5721 79bf
000001c0: 602b 01bf b536 28bf 31da 47bf c514 27bf
000001d0: da27 15bf 66b2 ff3d b803 80be 3b4e 6ebf
000001e0: 9bf3 40bf d296 4cbf c50b 1140 3723 adbe
000001f0: bf01 e8be 9be2 eebe ad8c 03bf 283b 0c3f
00000200: 0795 1040 4106 5dbf e0ec 95bf aa7e 6bbf
00000210: 4f35 12bf 1d72 86bf d6ff 3cbf 2dcf 43bf
00000220: 643d 66bf 5a2b 34bf 2672 c8be 6221 87bf
00000230: a440 70bf 0e2a cb3f 313f 83be 58b1 a3bf
00000240: 32ef e6bf c90d 0abf 9218 a0bf ab61 2fbf
00000250: 5ba3 a4bf 213d 88bf bf6c 25bf 7244 21bf
00000260: 1d72 94be 1172 a3bf 6098 11bf dc05 06bf
00000270: 422e 40bf 520d 83bf f9ae 6cbf 3b4b 4bbf
00000280: f86a 79bf 896a 81bf 3b33 7ebf 8bbc 8bbf
00000290: 43fd a4be a0c3 d3bf a242 aebf 6a71 47bf
000002a0: 6232 1ebf faf7 4fbf 0dae 0dbf 06b3 aabe
000002b0: 5905 2fbf b1ab 80bf 0c34 89bf 62c7 853e
000002c0: 636d b0bf 3071 39bf 6e6a 0bbf cc3e 11bf
000002d0: 93cc cd3f bdf9 26bf d285 07bf 7adc 38bf
000002e0: 4f8c 95bf e4a1 73bf 02ad 4abf d243 85bf
000002f0: 8723 90be a75a 66bf 2558 95bf c87b 1bbe
00000300: ed92 9cbf deec bbbf eaaa a3be f179 4bbf
00000310: ed1a 34bf 162e e4be 5a67 36bf c113 083f
00000320: 1410 8a3f 36c8 05bf 78e7 2ebf d60d 32bf
00000330: 47bf 26bf 689d 85be 8061 34bf 837d 36bf
00000340: ebb5 a5bf 4970 70bf e925 82bf caae 64bf
00000350: 2f91 30bf cb27 403e 3c8f 32be 1c60 5fbe
00000360: 1e99 f7be 3149 71bf cf96 75bf b132 bfbe
00000370: 6f79 96bf e828 a9bf 3c1e 84bf a9ec bcbf
00000380: 9b5a 64bf d31d f9be 87ca 27bf 4a67 f3be
00000390: 9101 6ebe 3154 bebf a327 80bf c5bb 36bf
000003a0: e44b 84bf 39e0 1dbf da06 88bf 1d42 42bf
000003b0: e800 6dbf 8737 8abd 19d7 69bd 86ba 0ebf
000003c0: 926c 93be 1e2c 4dbe d2f3 07bf f0f9 9dbf
000003d0: 42cc 68bf aa38 eabe bbaf a7bf d2d2 efbe
000003e0: e348 823f 3000 67bf df19 b5bf 6d8d 9dbf
000003f0: 380e 85be 85bb 61bf ff14 04bf f624 5dbf

fc2.weight f4 [256, 256]
-0.048151314 -0.028178189 -0.046233483 -0.07408661 0.049486145 0.0064368574 0.014262462 -0.057112124
-0.041225627 -0.03120333 0.027892731 -0.0728166 0.010013662 0.05802273 -0.034277942 0.0040661716
0.010898676 -0.090599366 -0.03477393 0.02468045 -0.043194003 0.05753436 -0.062280387 0.026231624
-0.1070012 -0.025574341 -0.05997535 -0.041067585 -0.049589723 -0.044568624 -0.07706262 -4.494281e-05
0.005693719 -0.041572258 -0.014309687 -0.054754466 -0.043744233 -0.02606932 -0.063518316 0.033868216
0.054250598 0.020558104 -0.0015821159 -0.02746833 -0.09116768 -0.005552691 -0.0487122 0.05091317
-0.054732095 -0.051105995 0.022373889 -0.08607488 -0.045489173 -0.056897487 -0.041510418 0.01694384
0.05316426 -0.053221103 -0.031311177 -0.056957424 -0.024304844 -0.03302772 -0.046593245 -0.05528535
0.0357008 0.0029462501 0.038028862 -0.014629163 0.035152085 -0.033971954 -0.028834373 -0.019361075
0.0040532984 -0.064774446 0.037623815 0.013075873 -0.10694877 0.0005567968 0.025849268 -0.030133514
-0.024555571 -0.0042236075 -0.08297347 0.037865598 -0.09977214 -0.08826772 -0.073568605 -5.718488e-06
-0.010534188 0.026750868 -0.048553083 0.015529841 -0.014286824 0.05775804 -0.07413813 -0.07289943
-0.063890316 -0.04381766 -0.021541646 -0.05778773 0.0063558146 0.05241528 0.007473467 0.013860889
-0.06170976 -0.0103062205 -0.052491743 0.042383708 -0.073226474 0.009451414 -0.117562115 0.037041254
-0.036622174 0.011184566 0.058877297 0.028749749 0.008963081 -0.014690189 -0.07773324 -0.047739588
-0.045641005 -0.038341314 -0.13434234 -0.005681526 0.0008625835 -0.053148538 -0.08690256 -0.11777136
-0.10109874 -0.05806701 0.037399456 -0.116967924 -0.041872017 -0.010980949 -0.02006373 -0.032681935
0.04756737 0.01692463 0.006426902 -0.079931416 -0.0013264939 -0.120230645 -0.043208167 -0.0160303
0.03837619 -0.04982042 -0.059029557 0.0010047008 -0.036182582 0.011725134 0.008257814 -0.019704225
-0.03837831 0.017485678 -0.08247201 -0.012168646 -0.03802087 -0.057771467 -0.022520639 0.023276702
-0.05286013 0.0076207467 0.04359492 -0.02729896 -0.05471468 -0.032798544 -0.023730911 -0.059331726
-0.053054422 -0.103707194 -0.014556357 -0.07433039 -0.017993942 -0.01321979 -0.004856527 0.03734982
0.055229582 0.0042322087 -0.01641348 0.006747176 -0.09557766 -0.13087602 -0.045725256 -0.01711838
0.046847552 0.004426256 -0.06775308 -0.021661054 -0.12653875 0.0018229485 -0.03149879 -0.00074791163
0.051598668 -0.020094432 -0.05684818 -0.044340026 0.038173053 -0.033323422 0.061339334 0.059506103
-0.03805935 -0.013135372 -0.02889733 0.017910957 0.0038373172 -0.056929104 -0.028449418 0.010409841
-0.040942587 0.044393778 -0.050688423 -0.03598313 0.008890477 -0.02730695 -0.10194151 -0.020410664
-0.05780012 0.0038974285 -0.0152016375 0.00028441334 -0.034173768 -0.0056674704 -0.057497494 -0.037640687
-0.058902632 -0.049520914 -0.0053855306 -0.04677739 -0.05382175 -0.06660403 0.05817625 0.04541062
-0.02533365 -0.0067088753 0.006387379 -0.049009524 -0.06827649 0.040423743 -0.0201254 -0.030404728
-0.060708676 0.033693276 -0.02442026 -0.010662283 -0.027192444 0.0040494236 -0.041883692 0.023709819
-0.10707813 0.055079564 -0.03698302 -0.050098017 -0.07595121 0.010051265 0.009825133 0.0501756
00000000: 503a 45bd f2d5 e6bc 525f 3dbd b8ba 97bd
00000010: fcb1 4a3d 46ec d23b 1aad 693c 67ee 69bd
00000020: 34dc 28bd 209e ffbc 4c7f e43c df20 95bd
00000030: 5810 243c 3ea9 6d3d 0767 0cbd 853d 853b
00000040: 5c90 323c 298c b9bd 1c6f 0ebd a82e ca3c
00000050: 32ec 30bd 26a9 6b3d b819 7fbd b4e3 d63c
00000060: 7223 dbbd 4881 d1bc b6a8 75bd 7c36 28bd
00000070: 981e 4bbd 978d 36bd 02d3 9dbd fa80 3cb8
00000080: 6092 ba3b ac47 2abd 2d73 6abc 3846 60bd
00000090: 272d 33bd 548f d5bc e415 82bd 66b9 0a3d
000000a0: e035 5e3d 7869 a83c 005f cfba 4305 e1bc
000000b0: 1fb6 babd 59f3 b5bb 7286 47bd 548a 503d
000000c0: c32e 60bd 8554 51bd 7249 b73c 0748 b0bd
000000d0: db52 3abd 570d 69bd d406 2abd cfcd 8a3c
000000e0: c4c2 593d 5ffe 59bd 2640 00bd 304c 69bd
000000f0: f41a c7bc 1348 07bd 8fd8 3ebd e472 62bd
00000100: 013b 123d e015 413b 27c4 1b3d 28af 6fbc
00000110: a2fb 0f3d 2d26 0bbd 1036 ecbc 1e9b 9ebc
00000120: 88d1 843b 77a8 84bd 6e1b 1a3d 303c 563c
00000130: f507 dbbd 00f6 113a d8c1 d33c 8fda f6bc
00000140: c428 c9bc 3066 8abb ffed a9bd f518 1b3d
00000150: 5655 ccbd b5c5 b4bd 23ab 96bd 70e1 bfb6
00000160: 9697 2cbc a324 db3c 99df 46bd e070 7e3c
00000170: 4813 6abc b293 6c3d bbd5 97bd 4c4c 95bd
00000180: edd8 82bd 267a 33bd 1b78 b0bc d4b2 6cbd
00000190: 7044 d03b 68b1 563d fce3 f43b c818 633c
000001a0: 60c3 7cbd 6cdb 28bc 9501 57bd 8a9a 2d3d
000001b0: c3f7 95bd 1bda 1a3c 68c4 f0bd 92b8 173d
000001c0: 2201 16bd 783f 373c 5229 713d 9884 eb3c
000001d0: e3d9 123c 1eaf 70bc 9b32 9fbd 968a 43bd
000001e0: 10f2 3abd c80b 1dbd 0a91 09be 182c babb
000001f0: 001f 623a 48b2 59bd f8f9 b1bd 1c32 f1bd
00000200: db0c cfbd acd7 6dbd 2c30 193d e18c efbd
00000210: fe81 2bbd 70e9 33bc b15c a4bc 7edd 05bd
00000220: 01d6 423d 86a5 8a3c c398 d23b 15b3 a3bd
00000230: c0dd adba 7c3b f6bd 0cfb 30bd fa51 83bc
00000240: 5a30 1d3d 7f10 4cbd fac8 71bd 2ab0 833a
00000250: 3034 14bd c71a 403c c84b 073c c16a a1bc
00000260: 9332 1dbd 203e 8f3c 16e7 a8bd 005f 47bc
00000270: c6bb 1bbd c6a1 6cbd 347d b8bc c8ae be3c
00000280: dd83 58bd 75b7 f93b 9690 323d 12a2 dfbc
00000290: 801c 60bd c457 06bd 5467 c2bc d305 73bd
000002a0: 984f 59bd 7064 d4bd c97d 6ebc 883a 98bd
000002b0: 0868 93bc d197 58bc 8023 9fbb 20fc 183d
000002c0: 6a38 623d 57ae 8a3b 9075 86bc 6a17 dd3b
000002d0: 38be c3bd 5d04 06be 684a 3bbd d83b 8cbc
000002e0: 38e3 3f3d 200a 913b 20c2 8abd 8672 b1bc
000002f0: 6093 01be 00f0 ee3a e004 01bd 800f 44ba
00000300: 2059 533d 149d a4bc a3d9 68bd e39d 35bd
00000310: 595b 1c3d 247e 08bd f43e 7b3d acbc 733d
00000320: 1fe4 1bbd be35 57bc 18ba ecbc 00ba 923c
00000330: 807b 7b3b 7e2e 69bd c10e e9bc 0a8e 2a3c
00000340: 6ab3 27bd 40d6 353d aa9e 4fbd 0c63 13bd
00000350: 5da9 113c d3b2 dfbc b6c6 d0bd 4434 a7bc
00000360: d2bf 6cbd 006c 7f3b 4a10 79bc 501d 9539
00000370: cbf9 0bbd 30b6 b9bb 7e82 6bbd 1f2d 1abd
00000380: e343 71bd 71d6 4abd 1b79 b0bb a699 3fbd
00000390: 3274 5cbd b267 88bd 384a 6e3d 7c00 3a3d
000003a0: 8488 cfbc 20d6 dbbb 384d d13b 36be 48bd
000003b0: 8bd4 8bbd 5e93 253d 06de a4bc 5613 f9bc
000003c0: a9a9 78bd f601 0a3d ff0c c8bc dbb0 2ebc
000003d0: b0c2 debc 07b1 843b 3c8e 2bbd 183b c23c
000003e0: c74b dbbd 1c9b 613d 827b 17bd 9433 4dbd
000003f0: 4f8c 9bbd 10ae 243c 98f9 203c ee84 4d3d

fc2.bias f4 [256]
-0.09274518 0.0024729825 -0.032133203 -0.07749422 -0.02342609 -0.04614571 -0.108602375 -0.040123712
-0.024385031 -0.08190875 -0.1035935 -0.07041759 -0.022084551 -0.099337965 -0.030133085 0.013808511
0.15000737 0.13072659 -0.05353068 0.018069262 0.89787644 -0.05144651 0.011868219 -0.09548258
0.03848955 2.635562 -0.031897146 0.12583192 0.019052975 -0.100898296 0.03033885 -0.0648313
0.015245563 -0.12026907 0.009125284 -0.08941713 -0.07348882 -0.13712865 -0.020741746 2.4425983
-0.0021752333 -0.11832784 -0.07902104 0.016856136 -0.046378095 -0.037045676 0.0020725152 0.009722457
-0.06794422 -0.1237495 -0.020315273 -0.14730486 0.013832322 0.0028140587 -0.11538906 -0.0044464027
1.6102761 0.010751044 0.023298874 -0.12851788 -0.011559158 -0.05480841 -0.024172956 -0.048599675
-0.09420541 0.020715658 -0.08566837 0.0005303984 -0.0017719019 0.029483661 -0.016796393 0.19290823
-0.056441996 -0.034489755 -0.11028605 -0.05246561 0.024737962 0.031906307 -0.030993944 -0.06178631
-0.06112438 -0.06499724 -0.26275685 0.028625408 0.038335465 -0.016563596 -0.07016039 -0.13953692
-0.022398401 0.06702402 -0.03478544 -0.015100646 -0.194586 -0.044250373 -0.12148454 -0.026802003
-0.024191624 0.011988563 0.037775528 0.25518376 0.014024508 -0.010487796 0.13099161 -0.062200803
-0.03240648 -0.40170753 -0.18027958 -0.14190042 0.30999303 -0.015135366 -0.0825371 0.58257425
-0.04055976 -0.09558062 -0.0073718033 -0.08585845 -0.06532382 -0.1097839 1.0409395 -0.019537602
0.036147058 -0.07580923 -0.81016433 -0.05796261 -0.021396223 0.15826803 -0.00021697444 -0.20547877
0.037605803 -0.13958932 -0.025697451 -0.066672295 -0.21078444 -0.01722657 -0.25609472 -0.2022228
2.2228177 -0.053069755 -0.037608188 -0.120540515 -0.03903969 -0.121099144 -0.033567965 -0.051596798
-0.00113053 0.008057326 0.0036003704 1.5868168 -0.054903656 -0.024747767 -9.8589306e-05 -0.0541199
-0.030473834 -0.051875573 0.13590156 0.016838165 0.019107902 0.53638303 0.028740425 -0.035499748
-0.057413355 -0.24231668 0.042535525 -0.018432619 0.07954943 0.0014009841 0.0022899373 -0.3123642
-0.0057503227 -0.03207027 -0.093299985 -0.027063083 -0.015450981 -0.019844789 -0.0038106458 -0.057463694
-0.05578027 -0.041934874 -0.027903019 -0.021059882 0.03886769 -0.07975366 -0.060339198 -0.04198316
0.01537169 0.24997221 0.016126307 -0.109320976 -0.052419893 -0.045913164 -0.10552852 2.779395
-0.08821919 -0.033595897 0.016319063 0.00812053 -0.026151802 0.20178442 2.6507866 0.94291306
-0.05577802 0.0010730136 0.10596113 -0.07573624 0.019306764 0.04800498 -0.05696785 -0.0415562
-0.00022032563 -0.06805333 0.009249034 -0.03654185 -0.031226737 0.028217576 -0.26411396 -0.035104197
-0.048991255 0.060717747 -0.111198895 -0.10736094 2.5463529 0.016490798 0.037192017 0.4126005
-0.002239841 -0.18612593 -0.07477437 0.08671213 -0.008160652 -0.0101672225 0.030489635 0.025730064
-0.47981083 -0.050565094 -0.07238344 0.020165628 0.3097621 0.11688599 -0.14308077 -0.030477691
-0.056104057 -0.061244562 0.1758248 0.0072954097 -0.017562384 -0.04226099 -0.10333104 -0.00035082287
-0.07290013 -0.10251447 0.03138776 -0.10331258 0.5422764 -0.011529405 -0.03551513 -0.03916882
00000000: 2ff1 bdbd c311 223b 1b9e 03bd 4ab5 9ebd
00000010: 12e8 bfbc 4903 3dbd ec6a debd c358 24bd
00000020: 1ec3 c7bc c6bf a7bd d428 d4bd 1937 90bd
00000030: a9ea b4bc b471 cbbd a9d9 f6bc 183d 623c
00000040: 889b 193e 31dd 053e fc42 5bbd fd05 943c
00000050: 3bdb 653f 93b9 52bd eb72 423c 5f8c c3bd
00000060: 38a7 1d3d 0cad 2840 95a6 02bd 15da 003e
00000070: fc14 9c3c c4a3 cebd 2e89 f83c 46c6 84bd
00000080: 87c8 793c a14f f6bd 3782 153c 5420 b7bd
00000090: 4e81 96bd 746b 0cbe 98ea a9bc 8853 1c40
000000a0: 5c8e 0ebb de55 f2bd c8d5 a1bd e115 8a3c
000000b0: f5f6 3dbd 35bd 17bd 09d3 073b f14a 1f3c
000000c0: 5726 8bbd 6170 fdbd 376c a6bc 16d7 16be
000000d0: f7a0 623c 126c 383b 1951 ecbd 21b3 91bb
000000e0: 871d ce3f 2625 303c 48dd be3c 319a 03be
000000f0: 9f62 3dbc c97e 60bd 5d06 c6bc 7410 47bd
00000100: c4ee c0bd e2b3 a93c e672 afbd 6f0a 0b3a
00000110: 293f e8ba b887 f13c 9798 89bc bc89 453e
00000120: b92f 67bd 2145 0dbd a7dd e1bd 2ee6 56bd
00000130: 44a7 ca3c 30b0 023d 03e7 fdbc a413 7dbd
00000140: 8f5d 7abd 461d 85bd 1188 86be d57f ea3c
00000150: a605 1d3d 61b0 87bc 40b0 8fbd c4e2 0ebe
00000160: da7c b7bc e443 893d 2d7b 0ebd b368 77bc
00000170: 8d41 47be e13f 35bd e3cc f8bd e08f dbbc
00000180: 832d c6bc ae6b 443c 83ba 1a3d 72a7 823e
00000190: 0dc7 653c 01d5 2bbc aa22 063e 45c6 7ebd
000001a0: a8bc 04bd 9cac cdbe 369b 38be 584e 11be
000001b0: 68b7 9e3e 53fa 77bc 3609 a9bd 9623 153f
000001c0: fe21 26bd c6bf c3bd 2b8f f1bb 8ed6 afbd
000001d0: 7fc8 85bd 62d6 e0bd 813d 853f 520d a0bc
000001e0: f00e 143d df41 9bbd ee66 4fbf 346a 6dbd
000001f0: 2247 afbc 0411 223e a283 63b9 0769 52be
00000200: 8b08 1a3d 81f0 0ebe 7683 d2bc 7c8b 88bd
00000210: e0d7 57be bc1e 8dbc d91e 83be 7e13 4fbe
00000220: a542 0e40 ac5f 59bd 0b0b 1abd f2dd f6bd
00000230: 15e8 1fbd d402 f8bd 907e 09bd 2a57 53bd
00000240: 4b2e 94ba e002 043c 31f4 6b3b d01c cb3f
00000250: a8e2 60bd d4bb cabc bbc1 ceb8 d4ac 5dbd
00000260: 43a4 f9bc 7b7b 54bd c729 0b3e 31f0 893c
00000270: 2d88 9c3c 6650 093f 0a71 eb3c 2f68 11bd
00000280: 442a 6bbd dd21 78be bb39 2e3d 0100 97bc
00000290: d0ea a23d 3aa1 b73a c612 163b 33ee 9fbe
000002a0: 346d bcbb 1e5c 03bd 1014 bfbd 66b3 ddbc
000002b0: 1d26 7dbc 8a91 a2bc 07bc 79bb 0d5f 6bbd
000002c0: da79 64bd e7c3 2bbd df94 e4bc c685 acbc
000002d0: ba33 1f3d e355 a3bd 3c26 77bd 89f6 2bbd
000002e0: 8ad9 7b3c b7f8 7f3e 511b 843c ade3 dfbd
000002f0: 3eb6 56bd 710f 3cbd 561f d8bd 9ce1 3140
00000300: 43ac b4bd da9b 09bd 8eaf 853c f90b 053c
00000310: 4e3c d6bc 93a0 4e3e 7da6 2940 c062 713f
00000320: 7e77 64bd 5da4 8c3a 2602 d93d 9a1b 9bbd
00000330: 3829 9e3c dfa0 443d 1f57 69bd d536 2abd
00000340: 3607 67b9 8b5f 8bbd 4389 173c e8ac 15bd
00000350: 37cf ffbc 8c28 e73c f239 87be 6bc9 0fbd
00000360: 0eab 48bd 2cb3 783d 3fbc e3bd 0de0 dbbd
00000370: 72f7 2240 b617 873c a856 183d 5f40 d33e
00000380: 4cca 12bb cc97 3ebe 4e23 99bd 2196 b13d
00000390: 41b4 05bc 6c94 26bc 66c5 f93c dbc7 d23c
000003a0: c4a9 f5be 581d 4fbd c53d 94bd 6332 a53c
000003b0: 2399 9e3e ec61 ef3d c483 12be 5aac f9bc
000003c0: 5ecd 65bd 94db 7abd 6b0b 343e 550e ef3b
000003d0: fdde 8fbc dc19 2dbd 399f d3bd a6ee b7b9
000003e0: aa4c 95bd 1bf3 d1bd 7490 003d 8c95 d3bd
000003f0: a0d2 0a3f d4e5 3cbc 5078 11bd 7c6f 20bd

fc3.weight f4 [3, 256]
0.011484243 -0.031227062 -0.00087259285 -0.011548514 -0.037042566 0.008859288 0.016644299 0.007142511
-0.004573542 -0.10636215 -0.011397775 0.029963221 0.0047119106 -0.07702964 -0.04842663 -0.04406412
-0.036036316 -0.017016046 -0.049247712 -0.026576007 -0.5201305 -0.007252874 -0.04153344 0.0038755673
-0.015074987 -0.60992706 0.0539464 -0.036064878 -0.03259496 -0.008252644 0.021032503 -0.01184494
0.03108565 -0.06216647 0.012192384 0.020016443 0.023451144 -0.069238886 -0.012008923 -0.45193872
0.014920484 -0.024577795 0.021413086 -0.025811354 -0.009484011 0.014672167 0.033971354 -0.0010687173
-0.005087749 0.027405389 0.025433302 0.045301244 -0.020812 -0.024153 0.07592892 -0.013107152
0.079577625 -0.0075338297 -0.018285291 -0.011072327 -0.020039273 0.047239758 -0.079910696 -0.0006713242
-0.005010692 0.037076622 -0.040683776 0.09539453 0.02376578 -0.023507334 0.023296803 0.1565953
-0.017196018 -0.047431905 -0.006932738 0.045571983 0.038240835 0.047208272 0.057738297 0.041552875
-0.019814165 -0.013561321 -0.09104612 -0.12268612 -0.029766463 -0.016103972 -0.018073993 -0.019866468
0.06908526 0.03413729 0.03277603 -0.014274402 -0.18035425 -0.026581734 0.015699446 -0.09276225
-0.004540885 0.033538178 -0.010640919 -0.002967716 0.031344745 -0.021447688 -0.031289656 0.0038862675
0.046584517 0.61291945 0.7232964 -0.036465466 0.034256756 -0.051017374 0.0051334198 -0.18347
-0.065720014 0.022263575 -0.022898516 -0.02724673 -0.019055754 0.56938785 0.017153045 0.07191823
-0.02113356 0.011521432 0.44808686 0.037626266 0.0026220758 0.025710365 0.025029821 -0.009484192
-0.0043017277 0.028001431 0.048773963 0.028167898 0.8346167 0.018579375 0.60807955 0.09883715
-0.44280383 0.021900097 -0.050929192 0.036836684 -0.016637426 -0.05810287 -0.009009553 0.048163358
-0.10380383 0.020989245 0.020844543 -0.017501615 0.005628871 -0.015373058 0.058421016 0.008493227
-0.003529133 -0.03736372 -0.04327809 -0.011586825 0.033651125 -0.3321498 0.01241122 -0.047828265
-0.029718297 -0.018748432 0.035883877 0.015092661 0.02182139 0.0396336 -0.0016602238 0.36269468
0.025431685 -0.029127525 0.012703022 -0.019465156 0.01013493 -0.0006764821 -0.011222013 0.04207138
0.016438752 0.035599604 -0.061006725 -0.030244451 -2.4794046e-05 -0.0032269775 -0.0109658195 -0.019739985
0.018691003 0.011987459 0.037290156 -0.013336 -0.026732152 -0.034018803 0.0096920915 -1.2686542
0.025083035 -5.0627437e-05 -0.06879175 0.02577504 -0.10287416 -0.3798175 -0.8339038 0.13698645
0.04603979 0.06589466 -0.25435147 -0.048375726 -0.025412193 0.0016461816 0.044999316 -0.037087172
0.011220477 -0.024935847 -0.0047045057 -0.04797841 0.004730196 -0.037489112 -0.009759926 -0.09624796
-0.0441526 0.052515466 -0.022660697 0.08268262 -0.38959002 3.9056853e-05 0.042606216 -0.52118856
0.015751151 0.028368868 0.023186235 0.010772607 0.025373599 0.012968627 -0.020984177 -0.05139794
0.43769243 -0.043112747 0.023424055 0.0037131498 -0.38272667 -0.13419689 0.06318447 -0.005273644
-0.034383222 -0.008921079 -0.018119184 0.011561838 0.012865423 -0.04417459 -0.0690199 -0.006149062
0.028860617 0.10426758 0.040856298 -0.13945335 0.12128937 -0.006658949 0.030010786 -0.015507579
00000000: 6828 3c3c e5cf ffbc b7be 64ba fa35 3dbc
00000010: f2b9 17bd 8c26 113c a059 883c ba0b ea3b
00000020: a7dd 95bb 66d4 d9bd bcbd 3abc 6e75 f53c
00000030: 5f66 9a3b b7c1 9dbd 015b 46bd 947c 34bd
00000040: d19a 13bd 3c65 8bbc f8b7 49bd edb5 d9bc
00000050: 4627 05bf 84a9 edbb f81e 2abd 3bfd 7d3b
00000060: 14fd 76bc 2e24 1cbf e6f6 5c3d c4b8 13bd
00000070: 4b82 05bd 1936 07bc 5b4c ac3c 4711 42bc
00000080: 55a7 fe3c 45a2 7ebd 91c2 473c 86f9 a33c
00000090: 9d1c c03c 1ecd 8dbd 13c1 44bc 8364 e7be
000000a0: 0c75 743c 5f57 c9bc 7f6a af3c 5572 d3bc
000000b0: d362 1bbc 8763 703c 8c25 0b3d 3414 8cba
000000c0: 22b7 a6bb 4481 e03c 8059 d03c cc8d 393d
000000d0: ed7d aabc 83dc c5bc 9f80 9b3d 61bf 56bc
000000e0: 98f9 a23d 58de f6bb 09cb 95bc b568 35bc
000000f0: 6729 a4bc 7a7e 413d 38a8 a3bd cefb 2fba
00000100: bb30 a4bb a8dd 173d 08a4 26bd 355e c33d
00000110: 74b0 c23c 7492 c0bc f0d8 be3c 855a 203e
00000120: aade 8cbc f547 42bd 052c e3bb b0a9 3a3d
00000130: 6ca2 1c3d 765d 413d fe7e 6c3d 5933 2a3d
00000140: 5151 a2bc 4e30 5ebc 6376 babd dc42 fbbd
00000150: ccd8 f3bc 7aec 83bc e90f 94bc 01bf a2bc
00000160: 937c 8d3d 8bd3 0b3d 2940 063d 2edf 69bc
00000170: c9ae 38be f0c1 d9bc 209c 803c 22fa bdbd
00000180: b4cb 94bb 545f 093d 4057 2ebc 037e 42bb
00000190: 5963 003d 10b3 afbc 9529 00bd c0b0 7e3b
000001a0: 68cf 3e3d 4ae8 1c3f f429 393f d05c 15bd
000001b0: d050 0c3d 98f7 50bd 3f36 a83b 8fdf 3bbe
000001c0: 3798 86bd 1a62 b63c ab95 bbbc 8934 dfbc
000001d0: d01a 9cbc 67c3 113f 8b84 8c3c dd49 933d
000001e0: 4a20 adbc 63c4 3c3c a46b e53e 001e 1a3d
000001f0: 22d7 2b3b 8b9e d23c 570b cd3c 9663 1bbc
00000200: 82f5 8cbb 4263 e53c 35c7 473d 5dc0 e63c
00000210: 71a9 553f c633 983c 1aab 1b3f 226b ca3d
00000220: 2fb7 e2be d567 b33c 219b 50bd 10e2 163d
00000230: 364b 88bc 46fd 6dbd ce9c 13bc f146 453d
00000240: 1a97 d4bd a3f1 ab3c 2dc2 aa3c 8c5f 8fbc
00000250: 6472 b83b 47df 7bbc e04a 6f3d 2d27 0b3c
00000260: 0749 67bb b30a 19bd 5e44 31bd abd6 3dbc
00000270: c3d5 093d 8a0f aabe 6e58 4b3c 92e7 43bd
00000280: c973 f3bc 5096 99bc f9fa 123d 3547 773c
00000290: c6c2 b23c d756 223d de9b d9ba 1eb3 b93e
000002a0: 1c56 d03c d99c eebc 5620 503c 6475 9fbc
000002b0: fa0c 263c f255 31ba 89dc 37bc 0a53 2c3d
000002c0: 90aa 863c e4d0 113d 30e2 79bd 36c3 f7bc
000002d0: cffc cfb7 b37b 53bb fba9 33bc c0b5 a1bc
000002e0: e01d 993c 0c67 443c 90bd 183d 3d7f 5abc
000002f0: 63fd dabc 4d57 0bbd 94cb 1e3c 4363 a2bf
00000300: f07a cd3c cc58 54b8 b0e2 8cbd 2d26 d33c
00000310: b0af d2bd 7077 c2be b87a 55bf 2d46 0c3e
00000320: 3894 3c3d c8f3 863d 5b3a 82be a025 46bd
00000330: 3b2d d0bc b0c4 d73a 3451 383d b8e8 17bd
00000340: 17d6 373c 4346 ccbc 4128 9abb 0285 44bd
00000350: c3ff 9a3b 2f8e 19bd 19e8 1fbc a71d c5bd
00000360: 5bd9 34bd 751a 573d eda2 b9bc 8155 a93d
00000370: 5878 c7be fad0 2338 db83 2e3d 9d6c 05bf
00000380: 8f08 813c d465 e83c 0ff1 bd3c 977f 303c
00000390: 4bdc cf3c 5d7a 543c 02e7 abbc a586 52bd
000003a0: 3919 e03e fe96 30bd cee3 bf3c 5158 733b
000003b0: c0f4 c3be e96a 09be dc66 813d 88ce acbb
000003c0: 6cd5 0cbd b829 12bc af6e 94bc dd6d 3d3c
000003d0: 7fc9 523c 6af0 34bd 4e5a 8dbd 127e c9bb
000003e0: 1a6d ec3c 3e8a d53d ef58 273d dccc 0ebe
000003f0: 9066 f83d 5033 dabb 2ed9 f53c 8013 7ebc

fc3.bias f4 [3]
-1.5557635 -1.767088 -1.6391798
00000000: 4223 c7bf f12f e2bf a5d0 d1bf
