projects/codes/DDPG/outputs/Pendulum-v1/20220713-225402/models/checkpoint.pt (torch, 270231 bytes, 5 tensors)

linear1.weight f4 [256, 3]
00000000: a27e f53d faf8 21bf aaaf 913e 34b1 eabe
00000010: bd22 183f d974 593e 2a67 3e3e c914 f93d
00000020: a964 d33e c6b0 c9be f77f bcbe 7fe6 80be
00000030: 8707 32be bf60 233f cdf5 673e 0b8c 883e
00000040: 3948 a23e 22de 78be d61b 77be 2dbb c6be
00000050: 5288 0f3f 10e4 813e 0efa 313e ca95 adbe
00000060: 999e 6b3e 505e 123f 5a4f c7be 30dc d7be
00000070: 0875 0cbf 91f0 05bf 65ac 87be 635a 3f3f
00000080: cccd fc3e 014d a13e fdf7 4f3d 74cc 40be
00000090: 6fdb 963c c390 4abf dc50 4dbd b393 67be
000000a0: 2f97 793f 6a7a 1d3e 660a 05be 7fa7 0b3f
000000b0: 32f5 f1be b60a 6bbe 3ef1 6bbf b746 ccbe
000000c0: 2f98 c03e ac4f 3f3e c16a 8b3e 3194 1dbf
000000d0: 1764 663d 0d18 973d 02ef 9fbe 87f0 13bf
000000e0: ca95 c3bd d0f0 2abf 2f64 77bf 43fc 0bbe
000000f0: 4a68 24bf 110f eb3d 1bcc febe ab60 05bf
00000100: cfb7 933d 1664 713d 6d17 303e 6fbf 7cbe
00000110: cc2f 0b3d e9ae c1be cbb0 b0be ad2f ee3e
00000120: a00a 15be c832 483e 0220 abbd a1ea 39be
00000130: 86d9 fb3d 032c 31be ac03 3fbf a5ae c93e
00000140: 2ab9 87be 325b 653e 7fba 29bf 2934 15be
00000150: 972a 81bd a316 393e cf71 d1bb 1e12 d63a
00000160: c416 be3c 0dca 5838 ef32 18bf 7ba3 e8be
00000170: 5f6d dabe 9010 133e f327 72bd 2a63 9e3e
00000180: 49f5 8d3e bac8 af3e aac4 eb3e 7ddc 07bd
00000190: d723 513d 072b 973e 2adb efbe 64c7 3e3e
000001a0: 2ae7 03be f263 d23e 1e25 1f3f f7cd f03d
000001b0: 72bc 1b3e d55a a9be d622 bbbe 0c36 c43e
000001c0: 8599 1b3f 5b06 d7be 7f62 163f 78cf 07bf
000001d0: 887a 49be 9d36 d13e 2011 a0be f16a 8ebe
000001e0: 9d4c 3a3e 9984 d33d 1900 b93c 60a7 2ebf
000001f0: 030b adbe dcca acbe 44dd 113e 446d d0be
00000200: 3a98 413e deb3 82be 033a bf3e cdeb f3be
00000210: 800a 113f b448 1ebe b4fc a53e 831f 633e
00000220: 7748 82be 61bf a0be 6d62 ca3e b541 a73e
00000230: 3206 e2be a571 013e 89be 44bf 2927 b1be
00000240: fa05 243e 349b 20bf 707d bebe 68e6 b4be
00000250: 6eb2 af3d dfec c0bd f03b 063f 0bf5 973e
00000260: ddf1 e0be 8ca0 843e b782 78be ea50 b8be
00000270: 06ad 5d3e 1af1 613f 4bd0 063e 651b a23e
00000280: 12ea 143f 9172 75be 3d47 0ebf f27d 163f
00000290: e76b a63e 6f44 de3e f629 073f 2c33 b13d
000002a0: 16d9 3b3e 0072 423e 11d8 aabd 96ed 583c
000002b0: 7eef 783d 591b 163e 6204 763e dfd1 223f
000002c0: 3f51 57be 0d48 38bf 951c c63e d4fd d8bc
000002d0: 3371 9ebe c3f4 723f adb0 543e 0f6d 2b3f
000002e0: a5ed 2dbe 8de3 cd3d 55e2 21bf 4245 99bd
000002f0: 9924 883e 777a 403e d0b0 b43e 357b eebe
00000300: ac56 1fbe 7262 093f 136f 5a3d 99ea 3ebf
00000310: 966c d9be 7f39 55be bc47 76be dfd1 58bf
00000320: 37a7 a8be ea48 a4be 3c78 ab3e 5fe5 17bf
00000330: cd66 153f b44d 043f 37fe c93d 7d05 b73e
00000340: f5ce a63e 35cb b5bd e7e7 1d3e 1506 9b3e
00000350: 3b90 aa3e befe ff3e 3706 123f dce2 bb3e
00000360: b110 38bf f19b 093e 195d b8be e565 71bd
00000370: d684 babe 1403 9ebe 5c22 723e b029 cc3e
00000380: cb70 73be 6272 c43a 5f1d 8e3e 38b0 ab3e
00000390: d951 dcbe 2a97 073f e3a2 103f 9418 b5be
000003a0: b701 97be d58c 013f 44aa 073f 878b 833e
000003b0: 7c96 7d3e 6c8f d33e 025c dbbd df37 e7be
000003c0: ff62 41be 8a5d 3a3d 9e1f 5d3e 2f08 0c3f
000003d0: 3ffb 0a3f 0ee9 013f 54fd f3be 3ab9 f5be
000003e0: ec05 093e 0ab6 1dbe 20f8 cf3d d6ed 9a3e
000003f0: 8656 a9be 2069 c7be 32ea 143f 7219 873e
0.11987044 -0.63270533 0.28454334 -0.4583832 0.59428006 0.2123598 0.18594041 0.121621676
0.41287735 -0.3939268 -0.3681638 -0.25175855 -0.17385684 0.638195 0.2265236 0.26669344
0.31695727 -0.24303487 -0.24131712 -0.3881468 0.56067383 0.2536931 0.17380545 -0.33903342
0.23009719 0.5717516 -0.38927728 -0.42160177 -0.54866076 -0.523202 -0.26498714 0.74747294
0.4937576 0.31504062 0.05077361 -0.18827993 0.018415181 -0.7912714 -0.05012594 -0.22614937
0.9749631 0.15378729 -0.12992248 0.54552454 -0.47257382 -0.22953305 -0.9216498 -0.398977
0.37616107 0.18682736 0.27229884 -0.6155425 0.056247797 0.07377634 -0.31237036 -0.5778889
-0.09550054 -0.667737 -0.96637243 -0.13670449 -0.6422163 0.11477483 -0.49765095 -0.5210063
0.07212793 0.05893334 0.17196436 -0.24682401 0.03398113 -0.37828758 -0.34509882 0.4652075
-0.14554834 0.19550622 -0.083557144 -0.1815591 0.12297349 -0.17301945 -0.7461498 0.39391056
-0.26508456 0.2239807 -0.66300195 -0.14570679 -0.063069515 0.18075041 -0.006391741 0.0016332304
0.023204215 5.1686588e-05 -0.5945272 -0.45437226 -0.4266157 0.14361787 -0.05912013 0.3093503
0.277262 0.3433283 0.4604848 -0.03316926 0.05105957 0.29525015 -0.46846896 0.18630749
-0.12881151 0.41091877 0.6216601 0.11758035 0.15208605 -0.33077112 -0.36550015 0.38322484
0.6078113 -0.41997036 0.58744043 -0.5305095 -0.19675648 0.4086198 -0.31263065 -0.27815965
0.18193288 0.10328025 0.022583054 -0.68224144 -0.33797464 -0.3374852 0.14244562 -0.40708363
0.18905726 -0.25527853 0.37348947 -0.4764084 0.56656647 -0.15457422 0.3241936 0.2217999
-0.2544591 -0.3139601 0.39528218 0.32667318 -0.44145352 0.12641008 -0.76853234 -0.3460019
0.16017905 -0.6273682 -0.37205076 -0.35332036 0.08578955 -0.094201796 0.5243521 0.2967914
-0.43934527 0.25903738 -0.24268614 -0.35999233 0.21648034 0.88258517 0.13165395 0.31661525
0.5816966 -0.23969485 -0.5557745 0.5878593 0.32504198 0.43411586 0.527984 0.086523384
0.1834453 0.189888 -0.08341993 0.013240239 0.060775273 0.1465887 0.2402511 0.6360149
-0.21027087 -0.7198494 0.3869368 -0.026488222 -0.3094574 0.94904727 0.20770521 0.66963285
-0.16985185 0.100531675 -0.6323598 -0.07483913 0.26590422 0.18796717 0.35291147 -0.46578375
-0.15560406 0.5366584 0.053328585 -0.7457672 -0.42465657 -0.20822714 -0.24050802 -0.8469524
-0.32940075 -0.3208688 0.3349017 -0.5933437 0.58359987 0.51681066 0.09862941 0.35746375
0.3257977 -0.08876649 0.15420495 0.30278078 0.33313164 0.4999904 0.57040733 0.36696517
-0.7190047 0.13438393 -0.36008528 -0.058935065 -0.3642947 -0.30861723 0.2364592 0.39875555
-0.23773496 0.0014987702 0.27756783 0.33532882 -0.43031195 0.52965033 0.56498545 -0.35370314
-0.29493496 0.5060552 0.5299418 0.25692388 0.24764436 0.4132036 -0.107109085 -0.45159814
-0.1888542 0.045499362 0.21594092 0.5469999 0.5428962 0.5074624 -0.47654212 -0.4799288
0.13381165 -0.15401474 0.10154748 0.3025958 -0.33073825 -0.38947392 0.58169854 0.263866

linear1.bias f4 [256]
00000000: 77b8 ce3e 1a31 823e aa9b 303e 477e 893c
00000010: fa93 c2be b5bc 0abe a25b 7bbe 2ce3 6a3d
00000020: 4af4 19bf aace 443b a9d2 5b3d 18be 7ebe
00000030: 85e9 4abe fcd0 213f b85f 17bf ea5b 1e3e
00000040: 56c1 23be 33a0 f0be a16b 233e b117 bbbe
00000050: e6fb 1bbf 6a90 d5bd 2e2c 0d3f 8f65 183e
00000060: cc03 9a3e eb92 96be 9bc9 e63d 6469 823b
00000070: 294a 7f3e 6c4d 163f b9cf 8cbe 63c2 053f
00000080: 8a20 ef3d e6e5 a13e f030 28bf a1c4 bf3e
00000090: a564 89be 85dc fdbe 6834 92be 9af3 87be
000000a0: f335 003f dda5 8bbd e3d3 fc3c 098e f8be
000000b0: ecc8 f0be e034 4b3d adef 06bf 48d5 f93e
000000c0: 5b33 aa3e a49c 07bf 91c6 c5bd 6ce6 12be
000000d0: 6555 0a3f a736 f1be 2ff4 943e fd38 843e
000000e0: 2b41 053f 7f6c 60bc 45a5 ccbe 28bd b9be
000000f0: 2bea 01bd a5d9 353e 7095 abbe 9878 17bf
00000100: e33d da3e 1b2c ea3e c4e6 fc3e 96f2 26bf
00000110: 43d2 d63e e9ee 213f 4745 3f3e 0e36 063e
00000120: c13d a73e 705b 20bf 6dcc 63be 06bf c03d
00000130: e4b3 c03d b5f5 143e ed97 f9be f127 f2be
00000140: 6f12 c13d ebdd fb3e 4539 123e 6522 0bbe
00000150: dc7c 963e 312c fa3e 024d 183f c805 c5be
00000160: 3e0c 053f baeb c43e ba7b 49be 0ef2 55be
00000170: fc29 debd dd9b 503e 1443 c73e 3242 f6bd
00000180: a8bd e5bb d875 50be d533 4dbe 5fce 863d
00000190: 1ee4 acbe 324b 863e f0c4 d73e fb74 b6bd
000001a0: bd0c 433e 04a4 17be 1fe0 96be d3c7 8e3c
000001b0: 53f8 99be 4b76 4bbd 904b abbd 6d36 3fbe
000001c0: f580 42be 1778 f7bd 77d7 843e 5793 11be
000001d0: 24ab 213f ddd2 87be 297e cfbe 9989 b43e
000001e0: 1834 14bf aebd 7fbe 2ea6 8f3e b820 06bf
000001f0: dbbc 953b 97d9 98bd cc8d 86bd a615 3dbe
00000200: 07ec cdbd 6490 f03c 7fb2 0b3f eaef 023f
00000210: ec3c 053f 95dc 943d 2f1f ec3e 615c 2a3f
00000220: 2a80 613e a1c3 953c b891 14bf 749f 933e
00000230: 65a3 953e 99e2 cf3e 4f4e cbbe e3d3 72be
00000240: fcdd 11be 8539 93be 712b f03e db65 113f
00000250: 3ae7 063f e77b 24bf 3576 acbe 161f 17bf
00000260: 7b0c 003f 9950 ebbe fd6f 263c dc6f e43e
00000270: 73dc aa3e 4d07 83bd 3a6d 00bf 2ac5 ed3d
00000280: 7215 313f 819c bfbe 8bc2 353e 8f38 b73e
00000290: 1539 9f3e 1906 153f 2b7b 7f3e b99e 5e3e
000002a0: fb14 bb3e d2d6 a3bb da7a cf3e 17da 76be
000002b0: ffa1 d13e a234 a1be df36 f13e 83c4 063f
000002c0: e6c7 8dbe d36c c03d 81c7 30bd a35d 863e
000002d0: 509f e6be 30cc a83d 67b5 acbe 3a35 3bbe
000002e0: 1388 b73e 6294 8f3e ec86 af3e e07b 15be
000002f0: 67cd 863e d8cc e3be ca11 0b3f 7370 98bc
00000300: d346 1f3e 90b5 efbd 8d21 5f3e 5f10 023f
00000310: cb53 11be 1d3e e73e 9919 113d a789 0d3f
00000320: 1524 3bbe 941e f5bd 2c91 bfbe 2a56 a33d
00000330: e315 453e 56e9 18bf af36 6bbe f0ea c23e
00000340: 9622 bc3e 7e71 9abe c6f4 263d 1292 683e
00000350: 4014 f7be 8fec 10bf 8546 aa3e c21f a63d
00000360: 7022 a4be ffe1 863e 1c3b dfbe ba09 0c3f
00000370: 3c63 383e 116c 0a3f 59b5 ba3e fb75 73be
00000380: 84c5 eabe 1069 0dbf 7115 82be 48e1 82be
00000390: b9d3 ac3e f896 123e bb2e 38be 4df8 35be
000003a0: 5f10 2ebf d855 f13d 88a7 853e a064 af3d
000003b0: adfd 2a3e a7d7 933c bf24 893e 7782 dbbe
000003c0: e6f8 663d 6073 3a3e 6d32 87bd 766e debe
000003d0: aa7f a7bd 7780 e1be e519 203f c037 313c
000003e0: 9f33 ea3e 79f2 d83e 7d7d 62be 0289 ad3e
000003f0: 2c82 83be 7f28 203e 7948 32bc 270d 65be
0.4037511 0.25428087 0.17246881 0.016783847 -0.38003522 -0.13548549 -0.24546674 0.057345554
-0.6013838 0.0030030408 0.053667698 -0.24877203 -0.19815643 0.6320951 -0.5913043 0.1546475
-0.1599172 -0.46997222 0.15959026 -0.36541513 -0.6093124 -0.104279354 0.5514554 0.14882492
0.30081022 -0.29408965 0.11268922 0.0039798487 0.24930634 0.58711886 -0.2750223 0.52249736
0.11676128 0.3162071 -0.6569967 0.37454703 -0.26834598 -0.49582306 -0.28555608 -0.2655304
0.5008232 -0.06818745 0.030862754 -0.48545864 -0.4702829 0.049610972 -0.52709466 0.48795533
0.33242306 -0.5297339 -0.09657014 -0.14345711 0.5403655 -0.4711201 0.29092547 0.2582473
0.52052563 -0.0136977425 -0.3996984 -0.36277127 -0.03171746 0.17758806 -0.3351245 -0.59168386
0.4262534 0.45736775 0.4939481 -0.65213907 0.41957292 0.6325517 0.18678771 0.13106558
0.32664302 -0.6263952 -0.22245951 0.09411435 0.094093114 0.14546855 -0.48748723 -0.47296098
0.09427344 0.49192747 0.14279659 -0.13587339 0.29392135 0.4886184 0.59492505 -0.38480973
0.51971805 0.38461095 -0.19676104 -0.20893118 -0.10847852 0.20371957 0.38918364 -0.120243445
-0.007011134 -0.20357454 -0.20039304 0.06582331 -0.3376779 0.26229244 0.4214244 -0.08909031
0.19047828 -0.14808661 -0.29467866 0.017429268 -0.3007227 -0.04967336 -0.08364022 -0.18673106
-0.18994506 -0.12083452 0.25945637 -0.14216362 0.63151765 -0.26528063 -0.4052594 0.3526123
-0.5789199 -0.24974701 0.28056473 -0.52393675 0.0045696325 -0.07463377 -0.06570014 -0.1846529
-0.10054784 0.029365726 0.5456924 0.5114733 0.52046084 0.07268635 0.4611754 0.6654721
0.22021547 0.01828176 -0.5803485 0.2883259 0.29226223 0.40602568 -0.39708182 -0.23713641
-0.14244837 -0.2875482 0.46908143 0.56796044 0.52696574 -0.6425156 -0.33683935 -0.5903181
0.50019044 -0.4595993 0.010158536 0.44616592 0.33371314 -0.06397877 -0.50166667 0.11609872
0.6917335 -0.3742409 0.17749994 0.35785338 0.31098238 0.5821243 0.24949329 0.21740235
0.36539444 -0.004999974 0.40523416 -0.24106632 0.40943906 -0.31485468 0.47112176 0.52643603
-0.27691573 0.093957566 -0.04315901 0.26243314 -0.4504342 0.08242071 -0.3373215 -0.18282023
0.35846004 0.28042895 0.34282625 -0.14598036 0.26328585 -0.4449222 0.5432402 -0.018608307
0.15554361 -0.11704552 0.21790142 0.5080623 -0.1419212 0.45164576 0.035424802 0.55288166
-0.18275483 -0.11968723 -0.37415445 0.07975419 0.1924663 -0.5973104 -0.22970079 0.38069868
0.36745137 -0.30164713 0.040760778 0.22711971 -0.48257637 -0.5661096 0.33256927 0.08111526
-0.32057524 0.26344296 -0.43599784 0.5470234 0.18006605 0.54071146 0.36466482 -0.23775475
-0.45853817 -0.5523844 -0.25406983 -0.255625 0.33755282 0.14315403 -0.17986576 -0.177705
-0.6799373 0.117839515 0.2610438 0.085641146 0.16698332 0.018047167 0.26785848 -0.42872974
0.05638971 0.18208075 -0.06601415 -0.4344365 -0.08178647 -0.44043323 0.6253951 0.0108165145
0.4574251 0.42372492 -0.22118182 0.3389359 -0.2568525 0.15640448 -0.010881537 -0.22368298

linear2.weight f4 [256, 256]
00000000: c3f7 223d 2697 19bb 9e6a 8b3d 322e c1ba
00000010: ae68 ecbd 82e3 e93c 5be8 bfba 8ad9 23bd
00000020: 5993 5c3d 4349 113d e230 a3bc 5815 713d
00000030: a71b 963e 39f6 263d e600 b33c 38cc dabd
00000040: 6bef 7f3c a522 a6bc 2db5 343e 746d 85be
00000050: 9858 11bb daaf 01bb 6862 61bc c6d5 5c3b
00000060: 46ce 92bc b8bc 273d 60a8 053d 7854 eb3d
00000070: a0c7 343d 5cbd 58bc f425 81bc a843 8c3d
00000080: c4d5 f83b 802a 0b3d 3e93 193d 9ab4 3e3d
00000090: 86ff 513d e364 943d df2f 6f3e 67ae 823d
000000a0: 60b8 01bd 4104 123d 4397 593d 3902 02bd
000000b0: ff37 a1bd e7da 463d 2d56 753d f9c0 e0bb
000000c0: 4833 853b 61c9 133e 459f 833d 8fb6 ec3b
000000d0: b89f 873d 1da3 473d 348b c23c 14ab 88bd
000000e0: fd21 e03c 77cc 89bd 371d b83d 2c26 15bd
000000f0: bd09 843d e771 efbc 94b7 6f3d 9f99 0e3d
00000100: 3581 f2bc f074 e5bd 8212 9e3b f500 863d
00000110: bec2 2cbd b561 96bd e71c 233d a060 333d
00000120: ad30 9abd f80e 9f3c 4e4d 403c ef5d 923d
00000130: ab4e 393c 8fde 06bd 00bd 75be 608f 033d
00000140: 3966 8a3d 230b 8ebc 8bac 703d de94 ea3b
00000150: 65c7 523d f8e3 2b3d 2bd8 92bd 58b6 773d
00000160: 2e4c dc3d 9cf1 013d b10b 1dbc fef5 06bc
00000170: 5192 87bc 9f0a 1a3e 9942 d33d df4a 8e3d
00000180: ae21 5abc 89cc 193c 79ca 8abd 4408 8fbd
00000190: 88bf cf3d d682 89bd a61e a73c 5775 c6bd
000001a0: d7a7 883c 322e 92bd 0951 c3bd 9dbd 20bd
000001b0: 5580 ee3c eca6 a93c 3ec1 2bbc f82c a43c
000001c0: ddee 2fba fbb7 aabc 362b ec3d f6db 883d
000001d0: df00 23bc da8e bbbe 33d4 86bd 5e2c 18bd
000001e0: 7933 96bd 75a1 e6bb bfd3 7fbc f2b7 c4bd
000001f0: dbe4 413c d19a 8dbd 2cc6 b2bb 08c2 c7bc
00000200: ae91 e33b 7516 08bd c7d8 903d ac4e d739
00000210: b3bf d1b9 7e44 4ebc 2ea2 87bc b727 2ab8
00000220: 9d46 a33d 85c0 25bd b5c8 1ebd 6959 743d
00000230: ce21 c3bd af4d 973d f4e1 c33d 6604 943d
00000240: 0a6a 353c 663d f63d 9cc7 15bd 1989 bbbc
00000250: 6eec 413d 0006 703d 1b3d fabb d21f 93bd
00000260: 2f3f 023d 99a9 13bd 44f7 4cbd 5cfa 3bbc
00000270: cdd3 21bd a74e da3c f847 3c3d 7f25 d4bc
00000280: ebaf 8d3b 0b0e 4ebe 0cc8 3cbc f2a3 943a
00000290: 709b 303b a15e aebc 8ac1 2a3d 018f 2a3d
000002a0: 5f9d cd3c b494 09be 9007 acbd e3ca 593e
000002b0: 5270 883d bec7 3cbd 3e67 db3c cb94 123d
000002c0: 5922 493d 274c c63d b670 c6bc bcb8 6e3d
000002d0: d367 063e 1e31 893c ce0a 163e d390 c43c
000002e0: 2125 29bd 2fec 7bbd ed8d 97bd 00b3 523d
000002f0: d37f cb3c c9b4 d6bb e3b8 9bb9 4671 e9bd
00000300: ff80 24b8 ab12 36bd f135 623c 6d91 a9bd
00000310: 502e 583c 3b69 913c 1579 13bd de08 20bb
00000320: 6978 6dbb 0ee3 72bd 56aa 0d3d e36d d23c
00000330: f431 e63c cdd8 75bd 8907 a13b a0e1 573c
00000340: df08 6e3d abfa c3bd d6d7 df3d 403a 2ebd
00000350: 1c06 873d 61b6 973d 4ba3 12bd 0fdf 4abd
00000360: 2565 113e f6d6 183d 38d6 48bd ac9d b0bd
00000370: 055f 863d 13a8 37bd ca9f 07bd c750 25bd
00000380: a99d a23e b025 05be f578 e03c b6dc dcbd
00000390: f879 313e d70e f2bd dc97 2cbd a06a 3cbc
000003a0: a53c 83bd 23f0 cd3c 442a 473c 4dae b13c
000003b0: 557c f339 d6d4 ab3d 8d99 b53c 6546 913d
000003c0: 173c e83d dca6 d6bc 79d3 a9bc e3b6 29bc
000003d0: ec4b 21be 5e53 b5bd 239f bfb9 48b5 223d
000003e0: 5417 a23c a4be 30bc f61d bb3d 7294 433c
000003f0: 2afc 963c 2e6f 293d da21 d2bd 5319 28bd
0.039787065 -0.0023436039 0.06807445 -0.0014738499 -0.115434036 0.028550867 -0.0014641391 -0.040002383
0.05385146 0.03547026 -0.01992077 0.058858246 0.29317972 0.04076216 0.021851014 -0.10683483
0.015621047 -0.020280192 0.17647238 -0.2606007 -0.002217805 -0.0019788654 -0.013756372 0.0033696755
-0.017920624 0.04095146 0.032631278 0.114907205 0.04413569 -0.013228741 -0.015765168 0.06848842
0.007593842 0.033976078 0.037493937 0.046558954 0.051269077 0.07245805 0.23358105 0.06380921
-0.031669974 0.035648588 0.05312277 -0.0317404 -0.078720085 0.048548605 0.059896637 -0.0068589416
0.004064951 0.14432289 0.064268626 0.007223911 0.06622261 0.04873954 0.023748018 -0.066732556
0.027359957 -0.06728452 0.08989947 -0.036413357 0.0644717 -0.029229118 0.058524683 0.034814473
-0.029602626 -0.11203945 0.0048239836 0.06543151 -0.042177908 -0.07342855 0.039822485 0.04379332
-0.075288154 0.019416317 0.011737181 0.07146823 0.01131026 -0.032927092 -0.23997879 0.032119155
0.06757779 -0.017339295 0.0587583 0.0071588596 0.05145969 0.041965455 -0.07170137 0.06047663
0.107567176 0.031724557 -0.009585307 -0.00823736 -0.016549261 0.15043114 0.10315437 0.06947874
-0.013313694 0.009387144 -0.067769 -0.069839984 0.101439536 -0.06714408 0.020400357 -0.096903495
0.016681595 -0.07137717 -0.095369406 -0.03924333 0.029113928 0.020709477 -0.010483084 0.020040974
-0.00067113136 -0.020839682 0.11531679 0.06682579 -0.009948938 -0.36632425 -0.065834425 -0.037151687
-0.073340364 -0.00703829 -0.015614449 -0.09605397 0.011834349 -0.069142945 -0.005455753 -0.024384513
0.0069448566 -0.03322454 0.07072597 0.0004106661 -0.00040006413 -0.012589572 -0.016556825 -4.0568146e-05
0.07972453 -0.040466804 -0.038765628 0.05965558 -0.09527932 0.07387864 0.095645815 0.072274014
0.011072645 0.120234296 -0.036567315 -0.022892522 0.047344618 0.058599472 -0.007636679 -0.071838036
0.031798538 -0.036050413 -0.0500405 -0.011473265 -0.03950863 0.026648832 0.045967072 -0.025896786
0.0043239496 -0.20122544 -0.011522304 0.0011340363 0.0026948117 -0.021285357 0.04168848 0.041640285
0.025099454 -0.13435632 -0.0839988 0.21268801 0.066620484 -0.046088926 0.026782628 0.03578643
0.049105022 0.09682494 -0.024223667 0.058281645 0.13125543 0.016747054 0.14652559 0.023994839
-0.041295175 -0.06150454 -0.07400117 0.05144024 0.024841225 -0.006552313 -0.00029701655 -0.11398558
-3.9220784e-05 -0.044451397 0.013806806 -0.08279691 0.0131946355 0.017750373 -0.036004145 -0.0024419348
-0.00362351 -0.059298567 0.034586273 0.025687164 0.028099991 -0.06002121 0.0049142283 0.013176352
0.05811393 -0.095692955 0.10929839 -0.04253602 0.06592962 0.07407833 -0.03580026 -0.04952913
0.1419874 0.037314378 -0.04903242 -0.086238235 0.06561092 -0.044838022 -0.03311137 -0.04036024
0.3176091 -0.13002658 0.027401427 -0.10784285 0.17331684 -0.11819237 -0.042137012 -0.011500031
-0.064080514 0.02513892 0.012156073 0.021689558 0.00046441206 0.083902046 0.022167945 0.07093505
0.11339586 -0.026202612 -0.02073072 -0.010358545 -0.15751618 -0.08853792 -0.00036548925 0.039723665
0.019786514 -0.01078764 0.09136574 0.011937248 0.018430788 0.041365795 -0.10260363 -0.041039776

linear2.bias f4 [256]
00000000: 68ec 7f3d ea24 d03c 3b6d 4d3d 2892 833d
00000010: c2a8 8cbc ea5c 86bd 62a4 203d e26b 443d
00000020: 98ed 40bd a6ab 3dbd a61f 38bd 9827 c6bc
00000030: d872 723c 9009 0b3d 3676 4e3d 238c 933c
00000040: 8440 c5bc 911a 993d 8a5c b1bb 0382 983c
00000050: 9247 45bc 4b49 173d c018 433c d3e9 5e3c
00000060: 2103 953d e589 bd3d 60a0 fd3c abb3 d83d
00000070: 5dcc 573b af07 663c 2fbd e73c b4fe 6e3d
00000080: 13b4 2cbd d847 be3c d21d 55bd 55e8 47bd
00000090: fcc1 e63d 0324 973d 7ad3 11bd 8ef7 743d
000000a0: 0ace 4abd 3964 583d 8553 f4bc 11e9 e4bb
000000b0: 2a87 243d e0a3 583d a885 db3d b7e0 d33c
000000c0: 769f d73b fe26 32bd f788 663d 58e2 aa3d
000000d0: 735a aa3c 6647 283d 6607 a93d dfec 0c3d
000000e0: d364 e93c fe6e 053d c473 4b3c 865c cebc
000000f0: 5e1f 36bd 53b8 19bd 385f 1f3c f520 a2bb
00000100: 97b7 f9bb 0084 6f3c 51a7 223d 8e88 78bc
00000110: e33e 56bc 0dd3 423d 98a5 6e3d 0dce 303d
00000120: c4df 2e3c 7ce8 913d d0a2 703d c4df 963d
00000130: ac52 7cbd 9b96 de3d e611 cd3b c4ca ea3d
00000140: 9a02 04bd 4b7e 4abc 1165 7fbc 9166 b0bc
00000150: f727 96bb 7aeb 99bc bcef 863c 8796 d63d
00000160: 7a5b bf3c 1f9d 6b3d 56cf 6d3c dca9 e3bc
00000170: 8ad3 79bd 86c6 813c 81b6 063e a28f cbbc
00000180: 9a74 fb3c 60fc 54bd ecb7 d83c 5d59 7c3d
00000190: 7001 313d 35a2 6a3c b6bf fdbc ee01 aa3d
000001a0: f315 213d 1cc7 d5bc 3da8 85bc ac31 81bd
000001b0: 10a0 113d d325 933d 2a79 19bb 8476 47bd
000001c0: 26a6 a0bc 0c58 7abd 189e 3abc 78e1 c9bb
000001d0: 77ce 1bbc 7bce 1ebd 9a97 cbbc 36cf ab3d
000001e0: ff41 58bd d5df e33b ca50 a63d 5dad 95bd
000001f0: 48f4 dfbc eb85 a8bc b7ff bdbc bbf5 6abd
00000200: b028 5fbc 745a 26bd c982 3a3d b6ac 203d
00000210: eb17 943d 45b2 31bd c250 05bc 4a4f b0bd
00000220: eb89 033d 9b78 023d 9431 bf3c 962f 603d
00000230: e94e 853d 1e19 febc c297 983c ec12 ce3c
00000240: 641e 1e3d 39b8 a73b bd7d ab3c df06 a53c
00000250: 006f 413c 8917 cf3c db76 87bd ef8c 53bc
00000260: 87f3 68bc 5721 acbc e2bb 073d c009 5f3d
00000270: c944 733c 9a93 183c d995 883c 4f7e 28bc
00000280: 9735 643d 9a90 9f3c a37d 9abd 8587 203d
00000290: cf2f ea3d adee 2b3c 4a0e 463d a272 c5bc
000002a0: 9123 0e3d 2caa 1dbc a3bd 8e3d 8fb5 783d
000002b0: 445a 403c a319 cc3d 8da3 bdbc f17d 66bc
000002c0: 6113 cdbc 94db fbbc c65d 9c3d 2d15 493d
000002d0: 4322 4b3b 4fba 123d d0bd 0ebd b550 fb3c
000002e0: 6e17 e23a 5790 f13a d573 babc 8c38 533d
000002f0: 0727 f7bc f879 55bd 36c1 393d 1738 ab3c
00000300: f11b df3c 2cdb 0bbd b7fa 52bd 180f 153d
00000310: 1dc5 f73c a5e3 1cbd ab43 243d 4e34 573d
00000320: 837c 50bc fd48 ccbc 9baf 903d a955 3fbd
00000330: 512f 313d d3ed da3c e3e1 b4bc 4186 233d
00000340: eb09 a03d c526 f43c 835d 3d3d a2d9 e93c
00000350: 0fbe d33c acba 91bd 3a7f 12bc 81a3 353d
00000360: bc5f 07bd 5c4e 5e3d cb53 05bd cc0e 973c
00000370: 0201 80b9 d281 023d 319c 09bd 5f50 f23d
00000380: 9f0a e93d 7052 903b a75d 96bd 40c3 20bc
00000390: 6ef6 d73c ac91 633c e923 03bd 6b0b 5cbc
000003a0: 4d51 813d 307b 85bd 0a84 fc3d 1ab2 973d
000003b0: ce4e 483d 3dbb 22bd 591d ad3d 0833 753c
000003c0: d926 2f3d 1e4c 5abc a9e8 b63c 18d1 023c
000003d0: 9843 dbbc 72b6 e7bc 948d 45bd 85e5 153d
000003e0: 5189 24bd 600b 8fbc d382 8abc 2ad4 953d
000003f0: 64f0 563d 672f 1ebd 3f2b 83bc 6bbe 38bd
0.062481314 0.025408227 0.050153 0.064243615 -0.017170314 -0.06560691 0.039219268 0.047954448
-0.047101587 -0.046306275 -0.044952057 -0.024188802 0.014797889 0.033944666 0.050405703 0.018011158
-0.024078615 0.0747577 -0.005412643 0.018616682 -0.0120409895 0.036935132 0.011907756 0.013605553
0.072759874 0.09254817 0.030960262 0.10581144 0.0032928206 0.014039918 0.028288452 0.058348373
-0.04216392 0.023227617 -0.052030392 -0.048805553 0.11267468 0.073799156 -0.03560207 0.0598064
-0.0495129 0.052829955 -0.029824981 -0.0069857915 0.040167965 0.05289066 0.10718852 0.025863988
0.0065802885 -0.043494217 0.056282964 0.08343953 0.020795083 0.041083716 0.08253364 0.034405585
0.02849046 0.032576554 0.012417737 -0.025190603 -0.044463508 -0.0375293 0.009727292 -0.0049477764
-0.0076207626 0.014618874 0.039710347 -0.015169276 -0.013076517 0.047564555 0.05826339 0.043165255
0.010673467 0.07124421 0.05874902 0.07366899 -0.06160228 0.108685695 0.006258237 0.11464456
-0.032229044 -0.012359212 -0.015588061 -0.021533282 -0.004582401 -0.018789042 0.016471736 0.104779296
0.02335905 0.05752289 0.014514765 -0.027790956 -0.060992755 0.015841734 0.13155557 -0.024848763
0.030695248 -0.051998496 0.026454888 0.06160866 0.04321426 0.0143209 -0.030975204 0.08301149
0.039327573 -0.02609592 -0.016315574 -0.06308302 0.035553038 0.07184949 -0.0023418167 -0.04869701
-0.019610476 -0.061119124 -0.011390232 -0.006160911 -0.009509674 -0.038771134 -0.024852563 0.08389132
-0.052797314 0.006954173 0.08120878 -0.07308457 -0.027338162 -0.02057167 -0.023193223 -0.057363253
-0.0136205405 -0.040613607 0.045534883 0.03922721 0.072311245 -0.0433829 -0.00813693 -0.08608873
0.03211395 0.0318533 0.02333907 0.05473288 0.065091915 -0.031017836 0.018627051 0.025155507
0.0386032 0.0051183966 0.02093398 0.020144878 0.01180625 0.025279777 -0.06614467 -0.012912019
-0.014218218 -0.021011991 0.033138163 0.054452658 0.014847943 0.009312535 0.016673015 -0.010284021
0.05571517 0.019478131 -0.075434946 0.03919174 0.114349 0.010493916 0.04835347 -0.024102513
0.034701888 -0.009623092 0.06969764 0.060720023 0.011740271 0.09965827 -0.023149276 -0.014068113
-0.025033655 -0.030744351 0.07635073 0.04909246 0.0030995763 0.03582221 -0.034848988 0.030678133
0.0017249414 0.0018429857 -0.022760311 0.0515676 -0.030169977 -0.05211827 0.045350276 0.02090077
0.027235003 -0.034144565 -0.05150863 0.036391348 0.030245358 -0.038303036 0.040103596 0.052540116
-0.012724998 -0.024937147 0.07064744 -0.04671255 0.043258015 0.026724732 -0.022080367 0.039922956
0.07814392 0.029803643 0.046231758 0.028546158 0.025847463 -0.07115683 -0.008941466 0.044345383
-0.033050284 0.054273948 -0.032550614 0.018439673 -0.00024414813 0.031862088 -0.03359622 0.11831736
0.11378979 0.0044043586 -0.073420815 -0.009812176 0.026362624 0.013889711 -0.03201667 -0.013430457
0.06314335 -0.06517637 0.12329872 0.07407017 0.04890328 -0.039729346 0.08452863 0.01496578
0.042761657 -0.013323812 0.022327738 0.007984422 -0.02676563 -0.028285239 -0.048230723 0.03659584
-0.040170018 -0.017461479 -0.016908085 0.07315858 0.052475348 -0.038619425 -0.016011832 -0.04510347

linear3.weight f4 [1, 256]
00000000: 89e6 1b3d ef8c 053d fafc 26bd 2f99 8b3c
00000010: dcf8 14bd 90bf 393e c316 31be ab81 de3c
00000020: 2024 34bd 2972 6cbe d3c0 f3bd b7f3 2bbb
00000030: e23a 11bc 39e0 03be 3936 483e bfbd 5fbd
00000040: 7e0b 3d3e e224 3c3d 06cd 9b3c a94f 1c3d
00000050: f441 633e c865 7dbd a40a f13a 7ec7 45bd
00000060: ab11 3cbe 01d3 4f3e 374d a5bd 6080 753e
00000070: a0f6 31bd 1a6a ffbc 698b e53d 2f60 87bd
00000080: 17b7 bcbd a1f0 503e 385b f3bd dc74 a73a
00000090: f096 0ebe f31d a33c a801 86be 204b e5bd
000000a0: 341e 24bd b75c 703e 7f5b f13c 628c 9eb7
000000b0: 3ccb 55bc af2d 33be 216b 22be a440 693a
000000c0: c650 363e fa04 3ebb aa3a 8e3d 409d af3e
000000d0: b923 fa3a 2f6f bf3c 50c2 273e 9b10 853c
000000e0: 35c5 0f3d a824 90ba f2a9 8fbe 4a4d e4bc
000000f0: 0aa4 64ba 993a cfbd 998d c8bd 2cfb af3a
00000100: 3cb1 82be b30f 68bd b656 b5bd 5d1a 96bd
00000110: 2fb1 b33d 68e3 b7bd f89a f73a cebc 233d
00000120: 8433 103e cdfe 453d 9f75 813d 69fe 64bd
00000130: 57d7 3fbb e091 743e 7515 cfbd 7fc4 fe3d
00000140: efe2 813b ffed 43bd 4c76 23bb e06e 4eba
00000150: 5bb5 febd 05b3 f63c 74eb 023e 0b05 35be
00000160: a713 30bd cf9f 463a 905e 31bd 75e6 a1bd
00000170: aecd 14b9 f141 cebd f25b 8fbe 68ae f3bc
00000180: d3d2 143d 2a82 8137 644e 7b3d 7c07 273e
00000190: 7fc7 d8bd 6d52 363e 164f 83bd c373 1d3d
000001a0: a692 a8bb f60c fbba cb8d 313d eeb3 1f3a
000001b0: fe8f bfbc f569 53bd ea32 16bd 3a9b f5ba
000001c0: 9726 7b3a 0ce1 013b 36a1 113d 0362 1c3d
000001d0: 9eb9 dd3c c434 61bd e019 803b 3413 aa3d
000001e0: 4d04 27bb 2420 003d a0a1 a5be 2077 af3e
000001f0: e9a6 2138 889c 28bd 7a74 e1ba c28a 953a
00000200: 94b6 d33a bc7b a9bd f87e 073d 4518 09bd
00000210: 5d27 eb3c 5385 17bb b871 8f3a f501 8b3e
00000220: 8612 f03d dec3 a4bd bd9e 0f3e eb6a d73c
00000230: c308 4a3d e0ac 42bd 8b48 cf3d 88ae 86bd
00000240: bb84 2e3d 46b2 d8bd 06d7 e13c 0482 373e
00000250: 45cb c0ba 4c87 5d3b 5e7f 313a b2aa d83c
00000260: 37d8 3c3a a2e6 54be f74a 2a3e ef6f 133d
00000270: 13af bcbc 1e4b 3f3a 1736 823c e6f2 f139
00000280: ef58 ea3d 4d64 35bd 7a0b dcbd 92c0 593a
00000290: ca96 1dbe d0b1 b6bd 9c94 a73c 16f8 07be
000002a0: 070f 623d 37a3 a23c 5b1f e63d 7a03 39bd
000002b0: 966b a63a 91cb 093e 5e4c abbd a63a 9ebd
000002c0: 7146 34bd 41bf 153b 9176 96be ad01 f3bc
000002d0: 3068 9abd 7191 79bd 2fa7 8d3c 798b 073d
000002e0: 4206 97bd 7ab6 0b3d c06b 103d 54e8 21be
000002f0: 7cf8 c33c f863 89bd 761f 1a3e 5a4e 64bd
00000300: 02e8 883d 9e7f f9bd 3ee9 93be 79a9 263a
00000310: ccbc bdbd 3223 eaba ad9c 22bd 8fb9 d43d
00000320: ceff 603b 4eb6 76be f25d 383d a30a 43bd
00000330: 30d1 223d 5f5a 5e3d 9ea1 573d 3eb8 d23c
00000340: e1a4 ebbe 9572 693c 2707 36be 2fe3 2d3b
00000350: a3cb afbd 13ad c43e a488 6fbe 18e7 ccbd
00000360: 85dc 40bd 8958 923d 2eb1 8b3a 3c0e e23d
00000370: 54ab 9cbb 5c73 ae3a 782f b039 1bfc 9bbe
00000380: b940 e03d 3e43 24bb 78f7 353d d735 613d
00000390: 4b7e eb3c 9ada 7bbd 18a1 343d 3158 f5bd
000003a0: a431 66bd 85eb c8bd 8202 013e 7e5b 433e
000003b0: e96c ed3d 70ed 6fbd 8bc0 cc3e 303d 99ba
000003c0: 8c67 463a a1dd 193d bba8 eb3c c897 a7b9
000003d0: 6ad9 95bd 0363 17bd 7ea3 dd3c d87b 5bbd
000003e0: d7a3 933c a918 353e 3cac 393e e930 123e
000003f0: d1e8 463d 3611 ae3a b366 d8bd 7f7e 73bd
0.038061652 0.032605108 -0.0407686 0.017040817 -0.036370143 0.18139482 -0.17293839 0.02716144
-0.043979764 -0.23090424 -0.11902013 -0.0026237795 -0.008864136 -0.12878503 0.19551934 -0.054624315
0.18461415 0.04593361 0.019018661 0.038161907 0.22193128 -0.061864644 0.0018390012 -0.048285954
-0.18366115 0.20295335 -0.08071368 0.23974752 -0.04344809 -0.031178523 0.11208231 -0.066101424
-0.09214609 0.20404293 -0.11882633 0.0012775916 -0.13924766 0.019911742 -0.2617314 -0.111959696
-0.040067866 0.23472868 0.029462574 -1.8900439e-05 -0.013048943 -0.17497896 -0.15861179 0.0008897877
0.1780425 -0.0028994665 0.06944783 0.3429966 0.0019084133 0.023368446 0.16382718 0.01624327
0.03510018 -0.0010997253 -0.28059345 -0.027868886 -0.00087219535 -0.101185985 -0.097926326 0.0013426295
-0.25525844 -0.056655597 -0.088544294 -0.07329247 0.087740295 -0.08978921 0.0018890789 0.03997498
0.14082152 0.0483387 0.063212626 -0.055906687 -0.002927264 0.23883772 -0.101115145 0.124398224
0.00396382 -0.047834393 -0.0024942337 -0.0007874798 -0.124369346 0.03011466 0.1278513 -0.17677705
-0.042987492 0.0007576914 -0.043303072 -0.07905284 -0.00014191002 -0.10071171 -0.27999836 -0.02974625
0.03633387 1.543861e-05 0.061354056 0.16311449 -0.10584926 0.1780488 -0.06411569 0.038440477
-0.005144435 -0.0019153643 0.043348115 0.000609218 -0.02338409 -0.05161472 -0.03666965 -0.0018738278
0.00095806405 0.0019817976 0.035554133 0.03817941 0.027066048 -0.05498196 0.0039093345 0.08304444
-0.0025484741 0.03128065 -0.32349873 0.34270573 3.854084e-05 -0.041164905 -0.001720085 0.0011409151
0.0016152435 -0.082755536 0.03308007 -0.03347041 0.028705293 -0.002312024 0.0010943925 0.2714993
0.11722283 -0.08045171 0.14025398 0.0262961 0.049324762 -0.047528148 0.10121258 -0.06576258
0.04260705 -0.10580878 0.027568351 0.17920691 -0.0014709017 0.0033802567 0.00067709934 0.026448581
0.00072038494 -0.20791104 0.1663016 0.03599542 -0.0230327 0.0007297265 0.015894933 0.00046148075
0.11442744 -0.044285107 -0.107443765 0.0008306588 -0.15389553 -0.08920634 0.020456605 -0.13278231
0.055190112 0.019853218 0.11236449 -0.04516933 0.0012696858 0.1345656 -0.08364175 -0.0772603
-0.04401249 0.0022849592 -0.29387334 -0.029663885 -0.075394034 -0.06092972 0.017291633 0.033091996
-0.073742405 0.03410957 0.03525901 -0.15811282 0.023922198 -0.06708521 0.15051064 -0.055738784
0.06684877 -0.12182544 -0.28888887 0.0006357651 -0.09264526 -0.0017863272 -0.0397002 0.10386955
0.003433216 -0.24092981 0.04501147 -0.047617566 0.039750278 0.054285403 0.052644365 0.02572262
-0.4602423 0.01424851 -0.17776166 0.0026533117 -0.085837625 0.38413295 -0.23391968 -0.10005015
-0.047085304 0.07145793 0.0010657662 0.11037871 -0.004781166 0.0013309526 0.00033604703 -0.3046578
0.10949845 -0.0025064494 0.044425458 0.054982986 0.028746745 -0.06148777 0.044098943 -0.11979712
-0.056199685 -0.09810547 0.12598613 0.1907787 0.115930386 -0.058576047 0.3999065 -0.0011691209
0.000756853 0.037564877 0.02876698 -0.00031965808 -0.07316859 -0.03695966 0.027055498 -0.053584903
0.01802246 0.17685188 0.18132108 0.1427647 0.048561875 0.0013280276 -0.10566463 -0.059446808
