codes/DoubleDQN/outputs/CartPole-v0/20211229-145006/models/checkpoint.pth (torch, 272151 bytes, 6 tensors)

fc1.weight f4 [256, 4]
000000 66 9e b6 bd 3e fe 0d bf b1 a6 32 bf 36 80 91 3e
       -0.08916931 -0.5546607 -0.697856 0.2841813
000010 78 71 e6 be dc e5 7a be aa 3d 9f 3d 68 23 a9 be
       -0.45008445 -0.24501747 0.07775433 -0.33034825
000020 fd 56 48 3e 38 16 39 3e a0 1f 06 bf e4 95 ed be
       0.19564433 0.18074882 -0.52392006 -0.4640342
000030 b8 f0 dc 3d 32 15 23 3e 32 d0 4b 3f 45 3e 06 3f
       0.10788101 0.15926054 0.79614556 0.52438766
000040 97 36 e9 3e f4 26 a4 3e 3f 58 0c 3e f4 a5 b5 bd
       0.4554946 0.3206097 0.13705538 -0.08869544
000050 d4 01 0e 3f 64 22 07 be c9 1b 06 bf b5 5d 3e 3d
       0.5547154 -0.13196713 -0.52386147 0.046476085
000060 4d 44 9f 3e 64 93 a4 be 2e 17 08 be 76 18 cd 3e
       0.31106797 -0.321437 -0.13290092 0.40057725
000070 39 07 cf 3e 0b 67 06 3f ec 3e 14 3f 89 f3 47 3e
       0.40435198 0.5250098 0.5790851 0.19526495
000080 66 9b be bd 43 ce 0a 3e 7d ca 17 bf d8 3a e6 be
       -0.09306984 0.13555245 -0.5929335 -0.4496677
000090 83 ba 93 3e 8a bc 0c 3e d1 02 c2 3e 17 0c 9d 3b
       0.28853235 0.13743797 0.37892774 0.004792701
0000a0 51 51 09 bf 09 ba eb 3e f7 72 2c 3f 3b 67 c5 3e
       -0.53639704 0.4604037 0.6736292 0.3855532
0000b0 41 4f 54 3d a2 d6 85 bd 79 5e f1 be 42 f5 6a be
       0.051833395 -0.065350786 -0.4714239 -0.22945121
0000c0 46 8e d1 3e 78 3d e5 be 3a a2 b8 bd 98 f3 89 3c
       0.4092886 -0.4477346 -0.09015317 0.016839787
0000d0 6b 1d 68 3e b7 c3 81 3e 49 be 19 be 1e 0c c6 be
       0.22667472 0.2534463 -0.15013994 -0.3868112
0000e0 af f5 a3 3e 35 87 b1 be 9e ba cd 3e 8e 12 05 3e
       0.3202338 -0.34673467 0.4018144 0.1299536
0000f0 48 d8 01 be a1 8f ca be db 27 9b 3d c0 5d 88 3c
       -0.12680161 -0.39562705 0.07575961 0.016646266
000100 9e 15 8b bd 71 f8 a7 3c bb 9a 8f 3e 1e 5d 1d 3f
       -0.067912325 0.020504208 0.28047737 0.6147021
000110 5b 81 d3 be 8c d7 c0 be c5 df 3c bf 70 da c0 be
       -0.41309628 -0.3766445 -0.73778945 -0.37666655
000120 37 a5 bd be 29 52 1c bf 1d 80 31 bf fe 43 22 bc
       -0.3704011 -0.61062866 -0.6933611 -0.009903906
000130 85 cc b1 3d 75 97 01 3f f9 57 d8 3e 9a 5b bb be
       0.08681587 0.5062173 0.42254618 -0.36593324
000140 61 a7 b7 3e 42 b2 18 3f 4d 07 4d bc 28 33 6b 3d
       0.35869887 0.59647 -0.012513948 0.057421833
000150 12 bb 31 3d 10 af 4f be ca d6 81 3e e7 e5 63 be
       0.043391295 -0.20281625 0.25359184 -0.2225567
000160 74 ad e2 bd 3d 47 d4 3e a2 a2 44 3f 14 0b dd 3e
       -0.1106824 0.414606 0.7681066 0.43172514
000170 50 9d 4c 3e f3 4c d0 bd 0a 9b cc 3e 24 44 04 bd
       0.19981885 -0.10170927 0.39962035 -0.032291546
000180 21 bb 0c bf 11 ad 67 be b0 06 5a be bc 49 97 3e
       -0.54973036 -0.22624613 -0.21291614 0.29548442
000190 b0 d3 b4 be 05 3a 83 3d 06 07 08 3e 7c 9c 01 3e
       -0.35317755 0.06407551 0.13283929 0.1265735
0001a0 be 18 04 3e 79 3f 25 3f 7c 2f ca 3e ef 06 4f 3e
       0.12900063 0.64549977 0.39489353 0.20217489
0001b0 ee 60 2b 3c 27 dd b9 be ca 4b 95 bd 75 13 c6 be
       0.010460122 -0.36301538 -0.07289846 -0.3868672
0001c0 51 a4 06 be 38 2a b5 3e 6d 03 83 3e 5d e5 63 be
       -0.13148619 0.35383773 0.2558855 -0.22255464
0001d0 61 93 bf 3d 89 53 69 be 84 da 29 bd d2 1a f6 be
       0.09354282 -0.22785772 -0.04146816 -0.48067337
0001e0 40 95 f1 be 7f 23 78 be 2b 8f 87 3e 62 c6 ba be
       -0.4718418 -0.2423229 0.26476416 -0.3647948
0001f0 2a c5 9b 3b 92 59 2b 3f f2 73 57 bd c1 0e 36 bc
       0.0047537284 0.6693355 -0.05260081 -0.011111916
000200 8a e6 8b bc a3 37 48 bf 38 9f 19 be 8c 8e e5 be
       -0.017077703 -0.78209895 -0.15002143 -0.44835317
000210 4f c6 20 be 37 f2 0d bf 50 3a 06 be 97 c3 16 bc
       -0.15700649 -0.55447716 -0.13108182 -0.009201906
000220 86 bb dc be a3 17 ef bd 12 53 0c bf 47 93 f5 bb
       -0.4311182 -0.1167443 -0.54814255 -0.0074943635
000230 28 13 d6 bd cc a4 8b bd fa 60 27 3f d2 fb 07 be
       -0.104528725 -0.06818542 0.6538235 -0.13279656
000240 4d 7b 99 3e ff e9 83 bd b6 a8 b2 3d 33 da c4 3e
       0.29976884 -0.064411156 0.08723585 0.38447723
000250 82 4f e6 be 7a 48 7f bc 0c b5 a8 3e a4 a1 3b be
       -0.44982535 -0.015581245 0.32950628 -0.1832338
000260 60 14 b6 be 78 f0 81 bd 6e 85 c4 3e 5f 46 9d 3d
       -0.3556242 -0.06344694 0.3838305 0.07679438
000270 fa ad 71 3e 77 9b 5e be 39 74 7a be da 8b b4 be
       0.23601523 -0.21738993 -0.24458398 -0.35262948
000280 d3 8a 47 3d 00 af a2 be bc b9 00 bd ab 21 ec bd
       0.048716377 -0.3177414 -0.03142713 -0.11529859
000290 50 ab d8 3d 14 6d 5c 3f 70 4d 35 3f 62 37 08 3e
       0.1057955 0.8610394 0.70821285 0.13302377
0002a0 54 80 d2 3e 10 d5 c9 3e e0 6e 8f 3d 4f 6d b8 3e
       0.41113532 0.39420366 0.070035696 0.36020896
0002b0 37 d4 1b be db 40 da 3d 9f 17 9f 3d 0b 64 bc 3e
       -0.15217672 0.106569014 0.07768177 0.36795077
0002c0 0c f8 ac 3e 86 7c 26 3f 60 1b 74 3e 67 f9 a9 3e
       0.33782995 0.6503376 0.23838568 0.3319809
0002d0 b5 ce a7 be 7c 46 16 bf e9 a3 05 bd 3f 94 18 3e
       -0.32774892 -0.587013 -0.03262702 0.14900301
0002e0 d3 f5 3b 3e c6 5c 65 3e 4f 88 67 3c 96 0b 00 bd
       0.18355493 0.22398672 0.01413162 -0.03126105
0002f0 b4 63 9b be 30 b4 04 bf 8d d7 e9 bd 1e 9b ad 3e
       -0.30349505 -0.51837444 -0.11418066 0.33907408
000300 dc 3f c6 3e 39 74 d7 bd 14 c6 97 be e3 4a 3e 3e
       0.38720596 -0.105202146 -0.2964331 0.18583255
000310 a7 ee 3f 3e dd b1 40 be 3f 17 2c bf 1b f2 e8 be
       0.18743382 -0.1881785 -0.6722297 -0.45497212
000320 d8 c1 a9 be 73 5f f0 be 84 96 1d bf 42 45 53 3d
       -0.33155704 -0.46947822 -0.61557794 0.05157972
000330 b0 d2 be 3e 02 be 17 bf a9 b9 28 3e 36 c6 db 3e
       0.37270117 -0.59274304 0.16477074 0.4292466
000340 0f 06 37 bd b0 81 10 3f 48 2b aa 3e bc 27 06 bd
       -0.044683512 0.5644789 0.33236146 -0.032752737
000350 08 12 10 3e 3c 6a 71 be b9 f3 29 3f 92 27 1f 3f
       0.14069378 -0.23575681 0.66387516 0.62169755
000360 45 cd ed be c4 e0 04 3f b5 85 3f 3e aa bd d7 bc
       -0.4644567 0.51905465 0.18703349 -0.026335556
000370 43 10 1f 3f c4 f1 dd bd 65 ea fe be c3 b4 9f bd
       0.6213419 -0.10837129 -0.49788204 -0.077981494
000380 ed 4e 3c bd b8 2e 87 be 16 fc 46 3e 59 7d 2a be
       -0.045973707 -0.2640283 0.194321 -0.16649379
000390 c9 8d 8b be bd 69 37 3e fa 0d 0d 3f d7 f3 c8 be
       -0.2725661 0.1791143 0.5509945 -0.39248535
0003a0 78 56 ca 3e 07 88 91 3e a5 4e ee 3e a9 9b d3 bd
       0.39519095 0.28424093 0.46544376 -0.10332424
0003b0 14 ba d1 be ab d9 b5 3e bf 70 cb be 55 29 c6 3d
       -0.4096228 0.3551763 -0.39734456 0.09675852
0003c0 00 ad 47 bc d8 bc 85 bd 62 8a e4 be 30 85 c0 bd
       -0.0121872425 -0.0653016 -0.44636828 -0.094004035
0003d0 a9 7c 46 be e8 a3 e9 bc dc 90 80 be 7c fe 81 be
       -0.19383492 -0.02852054 -0.2511052 -0.2538947
0003e0 76 08 f6 3e 0d 65 2e 3f 56 72 66 3e 12 1d 1d 3f
       0.4805333 0.6812294 0.22504553 0.6137248
0003f0 a5 e2 68 be 6e 52 f1 be ac fc b3 3e 5e 4d 3e bd
       -0.22742708 -0.471332 0.3515371 -0.0464605

fc1.bias f4 [256]
000000 25 00 59 3e cc 5d c4 3e 6b 93 67 be 0f 01 b5 be
       0.21191461 0.3835281 -0.22614829 -0.3535237
000010 05 f5 79 3e e6 82 43 3e c6 db 9e be fc 46 1d 3e
       0.24409874 0.19092903 -0.3102705 0.1535911
000020 e8 36 b3 be 79 dd 23 3e b5 71 fc 3e d4 24 07 3f
       -0.35002828 0.16002454 0.49305502 0.5279057
000030 86 86 04 3f 21 98 7f be 01 95 08 3f d6 b2 e5 be
       0.51767766 -0.24960376 0.5335236 -0.44863003
000040 b3 18 e7 bd 49 af 72 bd ac b6 87 3e 4f b2 d6 be
       -0.11284008 -0.059249196 0.26506555 -0.41932914
000050 45 ac 8a 3e 38 39 8f 3e ea a0 c6 be eb 0c c6 bd
       0.27084556 0.27973342 -0.38794643 -0.09670433
000060 07 27 0d bf 7e 33 91 3e 6e 2a 3c 3e 46 84 60 3e
       -0.55137676 0.28359598 0.1837556 0.21925458
000070 db 5a 3e 3e 8f 0b 10 be e0 b3 8b 3e 30 45 94 be
       0.18589346 -0.14066909 0.2728567 -0.28959036
000080 d2 2c c5 3d e3 e3 6f 3e 27 b5 ee 3d 10 32 26 3c
       0.096276894 0.23426776 0.11655646 0.010143772
000090 4e d6 8f be e1 15 09 3f 49 a8 f8 be 4b 22 8d be
       -0.2809319 0.5354901 -0.4856589 -0.27565226
0000a0 e6 2e bb 3e b3 0d 1f 3e 5f d4 f7 3e fd ef 1c be
       0.36559218 0.1553257 0.48404214 -0.15325923
0000b0 4f d2 ee 3d ac e2 94 be 79 7d 98 3e d9 5d de 3e
       0.11661207 -0.29079187 0.29783228 0.43430975
0000c0 88 4d 88 be b4 62 95 be 5c c7 2a bd d7 ee b2 3e
       -0.26621652 -0.29176867 -0.04169403 0.34947845
0000d0 ba 53 3a 3e c0 d4 f6 bd 16 00 34 3e 30 46 65 3e
       0.18196002 -0.120522976 0.17578158 0.22390056
0000e0 2f 4d 04 3f 0b 74 87 3e 94 45 f3 3e df 8c ea be
       0.5168027 0.2645572 0.4751402 -0.458106
0000f0 40 83 76 be 3a 92 07 bf 18 1c b5 3c 86 5a e1 be
       -0.24073505 -0.529575 0.022108123 -0.44014376
000100 2e 8d c1 be 71 35 6b be e5 42 eb 3d 0a 22 7f be
       -0.37803024 -0.22969605 0.114873685 -0.24915329
000110 57 cf 90 3e 73 26 11 3f 55 69 00 3e 75 d3 01 3f
       0.28283188 0.56699294 0.12540181 0.5071328
000120 76 d2 ee 3e 31 f6 b7 3e 83 94 48 3c ea 1a d5 3e
       0.46644944 0.35930017 0.012242439 0.41622096
000130 85 0d 26 3e 2a 8a f1 be a8 79 07 3e ca c2 e6 be
       0.16216095 -0.47175723 0.13230002 -0.45070487
000140 3c e0 05 3f 53 34 a1 3e 48 63 e0 3e 19 b5 97 3e
       0.5229528 0.31485233 0.43825746 0.29630354
000150 0d 5a 47 3e 05 ff d1 3e b3 48 8c bd 45 62 aa bd
       0.19467945 0.41014877 -0.06849804 -0.08319525
000160 8a ab 7f bb 59 4b 18 3e 0a 4f 6f 3d 36 37 b8 be
       -0.0039012157 0.14872493 0.058424987 -0.35979623
000170 87 10 10 3f b4 50 6f be 17 86 61 3e bb 38 03 be
       0.5627522 -0.2337063 0.22023807 -0.1281461
000180 4b 47 ca be 58 fb 0b 3e 07 f0 c4 3e 90 46 97 bd
       -0.39507517 0.13670099 0.38464376 -0.073865056
000190 3d ce 8d be 26 c4 d8 be ed ef cb be 39 ec d4 3e
       -0.2769641 -0.4233715 -0.39831486 0.41586474
0001a0 a0 ed 23 3e 77 b3 82 be a3 29 62 be 1c e7 85 be
       0.16008615 -0.25527546 -0.22086196 -0.26152885
0001b0 61 db eb 3e 27 a0 9e be cc e1 66 be b3 f5 f8 3d
       0.4606581 -0.30981562 -0.22547072 0.121562384
0001c0 0c 5c 4a be 32 71 a3 3e 08 a6 d5 3d 7c 4b 34 3e
       -0.19761676 0.319223 0.104320586 0.1760692
0001d0 fa 28 14 be cc 00 08 3f 31 f4 ae be 6c a1 de be
       -0.14468756 0.53126216 -0.34170678 -0.4348253
0001e0 33 57 ff 3e 09 3a 87 be bb fb f5 3e eb c3 cb be
       0.49871215 -0.26411465 0.48043618 -0.3979791
0001f0 67 61 38 be 8d 3d d8 be 97 c9 f5 be 7c 50 93 be
       -0.18005906 -0.4223446 -0.48005363 -0.28772342
000200 70 58 2e be 14 77 a9 3e 39 5c c3 3e b4 11 3b 3e
       -0.17025924 0.33098662 0.38156298 0.18268472
000210 9b 9b 46 be 2f e0 e1 be ab 65 2a 3e 5d 61 e6 3d
       -0.19395296 -0.4411635 0.16640346 0.11249039
000220 15 73 dc bc 95 3f d3 3e 37 08 e4 bd af ad a0 3e
       -0.026910344 0.41259447 -0.11134379 0.3138251
000230 c0 f9 29 bc 8b a0 ec be fe ea c8 be e9 97 a6 be
       -0.010374486 -0.46216235 -0.39241785 -0.32537773
000240 d9 32 24 3e d9 00 a6 be d4 58 f0 3e c5 47 9a 3e
       0.16035022 -0.32422522 0.4694277 0.3013288
000250 08 7d d2 3e b8 00 dd be a1 cd b1 3c e4 d4 c4 3d
       0.41111016 -0.4316461 0.021704497 0.09610918
000260 b7 a3 ba 3e 12 35 f9 be 34 ef de 3e cb e0 0b 3f
       0.3645303 -0.48673302 0.43541873 0.5463988
000270 03 68 89 be 83 c5 6a bd a1 86 d0 3d e2 b4 e4 3e
       -0.26837167 -0.057317268 0.101819284 0.44669253
000280 88 fd fd be d4 ff af 3e d2 8d dc be 10 7e 51 3e
       -0.49607491 0.3437487 -0.4307695 0.20458245
000290 55 68 dc be 8e 5d b4 be af b2 d3 3e 94 69 66 bc
       -0.4304835 -0.35227627 0.41347262 -0.014063258
0002a0 90 cc b7 be 34 ad 8c be 1c b9 a4 3e ed 8b 76 3e
       -0.35898256 -0.27475893 0.32172477 0.24076815
0002b0 bd 2d 12 3d 0b be a7 3d 15 63 dd be e4 d3 0e 3e
       0.03568815 0.08190545 -0.43239656 0.13948017
0002c0 8d 5f 93 3e 75 f9 d6 3d 84 b5 94 be 8d 0c 8c be
       0.28783837 0.10496799 -0.29044735 -0.27353325
0002d0 ca 43 40 3e 18 23 8c 3e 9a a0 e2 3e d4 9f 65 bd
       0.1877586 0.27370524 0.44263154 -0.056060627
0002e0 fc ec 0f 3f bd 0a ec 3e 00 ee 86 3e 31 4c 96 be
       0.56220984 0.46101943 0.26353455 -0.29355004
0002f0 af 8a 57 3e fa 4f 0e 3f cd f2 80 be 22 dd fc 3e
       0.21048997 0.55590785 -0.25185242 0.4938746
000300 5c 4b 27 3e ec 07 fe bd fe b6 21 3e 9b 5b ed 3e
       0.16337341 -0.12403855 0.15792462 0.46358952
000310 42 fa 99 bd 94 05 10 be b8 f4 06 3e c3 5d a1 be
       -0.07518436 -0.14064628 0.1317929 -0.31516847
000320 b7 de 0b 3f f6 a6 88 be 82 47 81 be 9e be 5f 3e
       0.5463671 -0.2668988 -0.2524987 0.21850058
000330 3e 3a 91 be 4a 99 b2 be 7b 70 d9 be 9b c2 01 3c
       -0.28364748 -0.34882575 -0.42468628 0.007919933
000340 00 89 fb bd 56 0d 08 3f ac f9 db 3e 29 87 e1 3e
       -0.1228199 0.5314535 0.42963922 0.44048432
000350 3a 1e 97 be f3 d5 b9 bd 0d e4 81 3c fc 17 cc bd
       -0.2951525 -0.09074011 0.015855813 -0.09965512
000360 f6 eb 51 3e 85 87 e3 3e d2 b3 59 3e f9 6e fa 3e
       0.20500168 0.4443933 0.21260002 0.4891279
000370 a4 60 ea be f5 8c d8 be d6 f1 84 3e b0 96 6e 3e
       -0.45776856 -0.42295042 0.25965756 0.2329967
000380 95 76 9e 3e 42 e5 87 be a0 c1 ab be f6 06 4f 3e
       0.30949846 -0.26542097 -0.33546162 0.20217499
000390 0e 9d d1 3d bf e9 94 be 62 8e 8b be 3f b1 77 3e
       0.10235034 -0.29084584 -0.27257067 0.24188708
0003a0 8e aa ba be 19 db 1f be 16 7a ec 3e fb ad cb be
       -0.36458248 -0.15610923 0.46186894 -0.39781174
0003b0 9b a2 a4 be f7 1f da 3e ef bc 73 be 57 cb 9f be
       -0.32155308 0.42602512 -0.23802541 -0.31209823
0003c0 f8 33 61 be 58 6f ca bd d4 27 99 be 94 99 08 be
       -0.21992481 -0.098845184 -0.299132 -0.13339835
0003d0 c5 85 28 3d 01 3d d0 3e ea a5 d7 be 23 67 94 bc
       0.041143198 0.40671542 -0.4211877 -0.018115586
0003e0 ac e3 09 be 48 66 95 be fa d5 fc be e5 0c 55 be
       -0.13465756 -0.29179597 -0.49382 -0.208057
0003f0 fc 7f 12 3d 19 1a d3 3d c9 72 b9 3d 20 3a ce 3e
       0.035766587 0.10307712 0.09055097 0.4027872

fc2.weight f4 [256, 256]
000000 9c 8c 16 bd c8 51 2b bd 60 04 8f bc b0 14 86 3c
       -0.03675519 -0.04182604 -0.01745814 0.016367286
000010 00 26 64 3b 60 f1 bb bc 60 db 97 bc e0 20 29 bc
       0.0034812689 -0.022942245 -0.018537223 -0.010322779
000020 a6 fb 22 bd d4 29 56 3d 28 a4 48 bc 88 99 6a 3d
       -0.039790772 0.052285984 -0.012246169 0.057275325
000030 28 ee 04 bc 90 24 99 3b 38 fa 27 3c 74 1a ac 3c
       -0.0081134215 0.004673548 0.010252528 0.021008708
000040 1e 0d 5d bd 00 ad ff 3a 60 3e 5c bd 58 37 60 3d
       -0.053967588 0.0019506514 -0.053770423 0.05474028
000050 82 a6 10 3d 4a e2 69 bd 20 2e 5f bc 20 d2 73 bc
       0.035315044 -0.05710057 -0.013621837 -0.014881641
000060 96 8a 69 bd 7c 17 b2 3c f4 11 a8 bc 40 19 75 3b
       -0.05701693 0.021739714 -0.020516373 0.0037399083
000070 d0 95 ff 3c 36 7e 07 bd dc af 95 3c 28 43 43 bd
       0.031199366 -0.03307935 0.018272333 -0.047671467
000080 60 f0 e2 bb 90 72 76 3c 94 95 34 bd 62 08 49 3d
       -0.0069256276 0.015041962 -0.04408796 0.04908026
000090 0c d3 96 3c 16 19 12 bd 0c 81 c4 3c e8 6f 89 3c
       0.018411182 -0.035668455 0.023987316 0.016776994
0000a0 60 7b 0a bc fc 82 18 bd 18 f9 3e bd a8 d2 14 3c
       -0.008452266 -0.03723429 -0.046624273 0.0090834275
0000b0 8c 28 1b 3d 14 f2 cd bc 60 ef f2 3b 98 0b 23 bc
       0.037880465 -0.025139846 0.0074137896 -0.009951495
0000c0 08 78 38 3c 58 e0 54 3c c0 2e b7 3a e8 a8 61 3c
       0.011259086 0.012992941 0.0013975725 0.013773181
0000d0 28 d0 60 bc 6c 4b e3 bc b4 ef 4c 3d 48 36 4e bc
       -0.013721503 -0.027745925 0.050033286 -0.012586184
0000e0 da fb 77 3d 34 24 a4 bc fe f9 77 bd c0 93 5b bb
       0.06054292 -0.020036794 -0.060541146 -0.0033504814
0000f0 64 5b 09 3d b0 5d a1 3b 60 35 3a 3c d4 cf 02 3d
       0.033534423 0.0049244985 0.011365265 0.03193648
000100 10 d3 2a bd 4c 1c f7 3c 58 83 7e bc a0 36 4f bc
       -0.04170519 0.03016486 -0.0155342445 -0.012647301
000110 24 28 fb 3c 80 e5 14 ba a0 a2 cb 3b 70 f9 fb 3c
       0.030658789 -0.000567995 0.006214455 0.03075859
000120 6c 86 ce 3c 6e 50 5c bd 7c 0f 7d bd 3a 7d 53 3d
       0.025210582 -0.05378764 -0.061782345 0.051633097
000130 c0 0e 93 ba 70 09 83 bb ee 14 4f bd a8 29 9b bc
       -0.0011219606 -0.003998928 -0.05055707 -0.018940762
000140 40 a4 3c bd e2 9c 36 bd 32 b4 78 bd ae 86 10 3d
       -0.04605508 -0.04458321 -0.060718723 0.03528469
000150 72 93 26 bd c8 c2 5c 3c b4 a1 c6 3c 00 4d fc bc
       -0.04066796 0.013474174 0.024247028 -0.030798435
000160 b4 9d 38 3d 26 99 63 3d 84 bb f8 3c ce 09 14 bd
       0.045072272 0.055565976 0.030362852 -0.036142163
000170 c4 30 21 3d d0 47 13 3d 80 5d 78 ba f8 bd 53 3d
       0.039353147 0.035957158 -0.0009474382 0.05169484
000180 f0 a1 be bb f8 02 70 bc d8 b9 65 3c 64 d4 4b bd
       -0.0058176443 -0.014649145 0.014021359 -0.0497631
000190 fa 40 74 bd c0 db 9a 3b 00 c7 e1 bc 4c 94 b4 3c
       -0.05963228 0.0047259033 -0.02756071 0.02204337
0001a0 94 8e 9d 3c 30 33 9d bc 2e b2 39 bd 68 c0 d6 bc
       0.019233026 -0.019189447 -0.04533594 -0.026214793
0001b0 50 98 1c 3c c8 9e 73 bd dc b1 88 3c ee 2c 34 3d
       0.0095577985 -0.059477597 0.016686372 0.04398816
0001c0 8c 5f 3e 3d 0a 8f 52 3d ec 4e f3 3c b0 c3 24 3d
       0.04647784 0.051405944 0.029700719 0.040225685
0001d0 94 eb b5 bc 2e df 75 bd 38 0c 31 3d 9c 6e e2 bc
       -0.022207059 -0.060027294 0.043224543 -0.027640633
0001e0 5c 8e b4 3c 00 82 18 3c d6 da 0b bd 36 17 1a bd
       0.022040538 0.009308338 -0.034144245 -0.037619792
0001f0 c8 72 fe bc 70 67 ac bc 0c 16 08 3d c8 5a f4 3c
       -0.031060591 -0.021045417 0.03322415 0.029828444
000200 a0 aa 5e 3d 00 61 26 bd 7e 08 21 bd 80 0d 65 bc
       0.05436194 -0.04061985 -0.03931474 -0.013980269
000210 ec 13 07 3d f8 31 8b 3c 2a 3f 7c bd 40 0c cc 3b
       0.032977983 0.0169916 -0.061583675 0.0062270463
000220 fe 4b 3d bd a0 b6 66 bb ea a8 45 3d 50 7a 39 bc
       -0.04621505 -0.0035204068 0.048256792 -0.0113206655
000230 84 9c b8 3c b4 66 c9 bc 68 5d 23 3c 80 00 4a 3a
       0.02253557 -0.024585105 0.009971 0.0007705763
000240 2e c1 45 3d 18 a7 38 3d d6 88 04 bd f0 46 da 3b
       0.048279934 0.045081228 -0.03235706 0.0066612884
000250 8c bf 87 3c 58 31 b1 3c 30 1b 9a 3b 58 5b 22 bd
       0.016570829 0.021629974 0.004702948 -0.039637893
000260 d6 52 1c bd ae a9 03 3d d2 83 76 bd a4 86 f4 3c
       -0.038164936 0.03214424 -0.060184307 0.029849358
000270 d4 2a ac 3c cc 9a 52 bd 08 48 6a bc e0 f1 12 bb
       0.021016516 -0.051417157 -0.0142994 -0.0022422
000280 c4 7a 6d bd a8 ec cb 3c 6e 9a 76 3d 18 9b 05 bd
       -0.057978407 0.02489312 0.06020587 -0.032618612
000290 ea 69 4f bd 40 cc 7c 3b 78 14 74 bd c8 d8 b8 bc
       -0.050638117 0.003857389 -0.059589833 -0.022564307
0002a0 7c 5d 3e 3d f0 4a 32 3d 50 a5 f0 3c b0 bc 50 3d
       0.046475872 0.043528497 0.029375702 0.050961196
0002b0 90 c7 8a 3c 2c 01 0e 3d 06 64 1f 3d 50 b4 d8 bc
       0.016940862 0.034669086 0.03891375 -0.026453167
0002c0 b8 d7 a7 3c 28 d3 40 bc 9e ca 63 3d f0 56 48 bd
       0.020488605 -0.011769094 0.055613153 -0.048911035
0002d0 cc a1 27 3d b4 22 4b 3d 0a 9a 77 bd d6 3a 15 bd
       0.040925786 0.049593642 -0.060449637 -0.036433063
0002e0 f6 8b 74 bd 2e f1 39 bd c6 37 13 bd e0 8c 4b bd
       -0.05970379 -0.045396022 -0.03594186 -0.049694896
0002f0 0a 17 49 bd e8 14 22 bd 60 1e 33 bc 44 dc 1d 3d
       -0.049094237 -0.03957072 -0.010932535 0.03854014
000300 f4 5a 3d 3d 80 51 ec 3a 98 cb 47 bc c4 96 36 3d
       0.046229318 0.001802966 -0.012194537 0.044577375
000310 9c d8 8c bc 20 2b 2f bd 8e 33 06 bd 42 b3 4e bd
       -0.017193131 -0.042765737 -0.03276401 -0.050463922
000320 44 1d 90 3c 6e f4 2c bd 70 e2 8e 3c 54 f2 89 bc
       0.01759208 -0.042225294 0.017441958 -0.016839184
000330 30 74 da bc c0 32 ae 3c a4 94 2e 3d 12 1a 4b 3d
       -0.02666673 0.021264434 0.042622223 0.04958541
000340 7e fb 28 bd 04 53 ac bc c8 49 14 bc 14 b3 e4 bc
       -0.041255467 -0.021035679 -0.009050794 -0.027917422
000350 80 25 75 bd 28 53 88 bc 30 f9 23 3d 50 2e 53 3d
       -0.059850216 -0.016641214 0.040032566 0.05155784
000360 90 30 93 bc 2c dd 4c bd ec de 85 bc 74 ab 70 bd
       -0.017967492 -0.050015613 -0.016341649 -0.05875726
000370 cc 63 9b bc e4 1d cc bc 68 f1 7c bc f0 98 81 3b
       -0.018968485 -0.024916597 -0.015438415 0.003954999
000380 80 85 96 3a 2c 0d b0 3c d4 82 e4 3c 40 7e cd bc
       0.0011483878 0.021490656 0.027894415 -0.025084615
000390 60 b9 1f 3c d4 62 16 3d a4 3f 2f bd 38 ba df bc
       0.009748787 0.036715344 -0.0427853 -0.027310476
0003a0 44 bc 5d 3d 28 1e 66 bd c0 92 bd 3c 50 76 05 3c
       0.054134622 -0.056181103 0.023141265 0.008145884
0003b0 70 ca 60 3c 94 c9 a3 3c 5e 1c 28 3d d8 40 cc bc
       0.01372014 0.01999358 0.041042678 -0.024933264
0003c0 92 a6 65 3d 80 65 65 ba ae 48 06 3d 84 bb 07 bd
       0.056067057 -0.00087507814 0.032784157 -0.033137813
0003d0 9c e7 71 3d 0c 20 78 3d 48 77 12 3d 06 4f 73 bd
       0.05905877 0.060577437 0.035758287 -0.059401534
0003e0 24 26 a9 3c b8 1b 69 3d 20 5b 20 3d 50 cd 4a bd
       0.02064807 0.0569112 0.039149404 -0.049512208
0003f0 28 b1 34 bc d2 50 37 bd 1a f3 3e bd 24 cf 7b 3d
       -0.0110285655 -0.04475481 -0.04661856 0.06147684

fc2.bias f4 [256]
000000 30 3f ce bc fd bd a9 3d 53 61 8a 3d 63 2a 41 3d
       -0.025176615 0.082881905 0.06756844 0.047159564
000010 dd 83 d7 bc 8c 97 c1 b8 31 7b 24 3d a2 f4 51 3c
       -0.026307994 -9.231185e-05 0.040156547 0.012814673
000020 76 8b 1e 3c 2d 48 4b bd 38 93 93 3b 6f a4 20 bd
       0.009676805 -0.04962938 0.004503634 -0.039219316
000030 26 34 5b 3c f3 b9 c8 3d 6e 41 c1 3d 76 75 55 3d
       0.013379132 0.09801092 0.09436308 0.052113973
000040 9b d2 5c ba 6d 2c d0 bc 1d 19 1b 3c c1 0e 8c 3d
       -0.00084237166 -0.025411809 0.009466437 0.068387516
000050 42 0c b0 3d fc cd a3 3d e6 61 8d 3d df bb 6b 3d
       0.08596088 0.07998273 0.06903438 0.057552215
000060 c5 f4 26 bc b0 9f 31 3d a0 80 35 bc 7a fe aa 3c
       -0.010190194 0.04336518 -0.01107803 0.020873297
000070 31 78 cc 3c e7 ae 64 3b b6 6d e8 bb db 2b 16 bc
       0.024959655 0.003489429 -0.0070931567 -0.009165729
000080 07 ad 0c 3e 60 e7 91 3d 1e b8 18 bd 09 e1 65 3d
       0.1373788 0.071242094 -0.037284963 0.056122813
000090 e5 92 68 bc 1a 83 9d 3c 5d 42 eb 3c e0 f8 22 3d
       -0.014195179 0.019227553 0.028718168 0.039788127
0000a0 40 41 03 bd 8c d7 55 bc 23 7f bf bc 08 26 8d 3d
       -0.03204465 -0.013051879 -0.023376053 0.068920195
0000b0 f2 94 00 3d d1 42 0b 3d 96 f3 56 bb 20 08 63 bd
       0.031392045 0.033999268 -0.0032798997 -0.05542767
0000c0 28 42 a2 3c 60 97 78 bb fe f7 38 3d 27 3f bd 3c
       0.019806936 -0.0037932023 0.04515838 0.023101402
0000d0 95 c8 07 3d ff 3a 50 3d e6 a2 74 bd b0 35 e8 bb
       0.033150274 0.050837513 -0.059725665 -0.007086478
0000e0 cf c0 3c 3d 12 5a 05 bd 59 ab be ba 83 aa b4 bc
       0.046082314 -0.0325566 -0.0014546915 -0.022053963
0000f0 79 88 c1 3d 4e e5 4a 3d 12 5d 14 3c 4a 15 17 bd
       0.09449858 0.04953509 0.009055393 -0.036885537
000100 cc 15 1f bd e8 6f ab 3d de ce 97 bc dc 74 a3 3c
       -0.038839146 0.08370954 -0.01853126 0.019953184
000110 4a 57 02 3d df 53 e9 bc 6e b2 12 bc 05 d0 e9 3c
       0.031821527 -0.028482376 -0.008953674 0.028541574
000120 3e 10 59 3d 05 7c 06 3d 62 f7 d8 3c f1 1c 80 bd
       0.052994005 0.032833118 0.026485149 -0.0625552
000130 8a 51 80 bd 02 da 83 3d d8 48 26 bd 90 6a 02 3d
       -0.06265552 0.06438066 -0.040596813 0.031839907
000140 c0 ad a0 3d e2 0d c2 3d d0 b7 89 3d c6 a9 22 3d
       0.0784564 0.09475304 0.067245126 0.03971269
000150 09 a2 24 bd 4f fd 17 3d 7a 81 34 3b a4 d5 85 3c
       -0.04019359 0.03710681 0.0027542994 0.016337223
000160 0d 1c a3 bc 41 cb ab bc af e4 aa 3d 06 ac da 3c
       -0.019910837 -0.020970942 0.08344399 0.026693355
000170 aa 57 d2 3c 74 be c3 3d 8f f9 99 bc 55 b5 7f 3c
       0.025676567 0.095578104 -0.018795757 0.015607198
000180 37 41 81 3b e1 63 40 bd 67 80 31 3c ba b9 62 3d
       0.003944542 -0.046970252 0.010833836 0.055352904
000190 91 b9 16 bc 30 b9 ea bc f4 41 57 3d 9b b8 1e bc
       -0.009199516 -0.028652757 0.052553132 -0.009687568
0001a0 60 67 18 bd c9 8d 8c 3d 01 4c 3c 3d 59 6b fa 3c
       -0.03720796 0.06862981 0.04597092 0.030568765
0001b0 6c b3 f1 bc 90 16 75 3d 37 55 6c 3d f4 ef c0 3c
       -0.0295045 0.05983597 0.057698455 0.023551919
0001c0 b0 96 2b 3d f9 24 88 3d 61 82 5e 3d 28 00 10 3d
       0.041891754 0.06647677 0.054323558 0.0351564
0001d0 53 4e 75 bc 1f 53 16 bd 5b 67 cc bb d5 1f 59 bd
       -0.014972287 -0.036700364 -0.006237907 -0.053008873
0001e0 41 73 d8 3d c0 59 9e 3d 9f 7e fc bb 3a 59 9b 3d
       0.10568858 0.07731962 -0.007705524 0.07585378
0001f0 be 87 a9 3d b1 e5 99 3d 22 7f 64 3d 11 a9 62 bd
       0.08277844 0.07514513 0.055785306 -0.055337016
000200 8c 12 9d 3d 9e c6 96 3d 39 5b 82 bd bd fb 85 bc
       0.07669553 0.07362102 -0.063650556 -0.01635539
000210 37 28 9c bc 91 14 8e 3d 2f 91 2b 3d c2 04 a2 3d
       -0.019062145 0.069375165 0.041886505 0.07911064
000220 8c 0f ca bc 8e 1e 81 3b 6d 70 92 3d a4 fa e1 3c
       -0.024665616 0.00394041 0.0715035 0.027585335
000230 de 45 e6 3d a0 5f 3d 3c 0e 29 56 3d 9c bb 53 3d
       0.11243795 0.011558443 0.052285247 0.05169259
000240 c8 b6 6c 3d a0 4f 9d 3d 38 59 69 bc 81 27 99 bc
       0.0577915 0.07681203 -0.014242463 -0.018695595
000250 25 ab 83 3d 3a 1d 9c 3d aa 0e 49 3c 06 8c 54 b7
       0.064291276 0.07622762 0.012271563 -1.2668786e-05
000260 ba be 45 3d 90 7c 88 3b bd fc 00 bd 18 0a 58 bc
       0.048277594 0.0041652396 -0.03149103 -0.013186
000270 a0 9a 82 3c bc 00 82 3d 2b a0 8d bc 47 a1 f8 bc
       0.015942872 0.06347796 -0.017288288 -0.03035034
000280 9d a3 82 bb 84 47 a4 3d 1b 73 a6 bc 8a e1 4b bd
       -0.0039867894 0.08021453 -0.020318558 -0.049775638
000290 33 00 cd 3c 5d 00 28 3d 87 dc c9 bb bf 04 77 bd
       0.025024509 0.04101597 -0.006160322 -0.06030726
0002a0 a4 17 d4 3b 44 0c 1c bc a4 aa cd bc eb 1b 8f 3d
       0.0064725447 -0.009524409 -0.025105782 0.06987747
0002b0 d3 6a 08 3d 0d 4c 7e 3c c8 27 c2 bb 34 bd 1b bc
       0.033305 0.015521062 -0.0059251525 -0.009505559
0002c0 d4 ad bb 3c 3c 59 75 3c 87 1b 27 bd 40 e9 21 bc
       0.022910036 0.014974888 -0.040797736 -0.009882271
0002d0 40 84 cb bc 14 26 6c bd 89 f8 55 3d 49 99 68 bd
       -0.024843335 -0.0576535 0.052238975 -0.05678681
0002e0 36 53 97 3d eb 45 53 3a cd 69 ea 3b 89 f8 55 3b
       0.07388918 0.000805943 0.0071537257 0.003264936
0002f0 cc c4 10 3c bd 93 2e 3c ee ca 2d bd 30 88 96 3d
       0.0088359825 0.010655341 -0.042429857 0.073501945
000300 0e 58 b5 3a 90 ad 14 3d c9 40 e1 bc 18 eb 91 3d
       0.0013835446 0.036298335 -0.027496712 0.07124919
000310 19 42 c2 3b 7b 70 35 3d 3c b6 78 3d 55 50 fc bc
       0.0059282896 0.044296723 0.060720667 -0.030800024
000320 d9 6b 90 3d d5 c1 3a 3d a4 b9 39 bd d4 4c f7 3d
       0.0705182 0.04559501 -0.045343056 0.12075201
000330 1a 62 17 bd 9a ef 3b 3d b4 1d 66 3c de 8a 95 bc
       -0.03695879 0.0458828 0.014045168 -0.018254694
000340 f8 39 bc 3b f7 fc 3a bd 14 b8 12 bd e9 2b ee bc
       0.005744215 -0.045651402 -0.03582008 -0.029073672
000350 ed bc 80 3d f3 49 9b 3d 17 63 82 3d d0 25 d9 3b
       0.06286035 0.07582464 0.06366556 0.006626822
000360 f5 96 46 bd a1 6a 4b 3b df 70 c2 3d 06 cc 4f 3d
       -0.048483808 0.0031038898 0.09494185 0.05073168
000370 64 22 02 bd 40 0a d4 ba 56 71 08 3c 1a 22 fe ba
       -0.03177108 -0.0016177371 0.008327803 -0.0019388825
000380 da b3 c8 3d e6 61 f9 bc f3 0d 58 3d 00 b4 68 bd
       0.09799929 -0.03044219 0.052747678 -0.056812286
000390 88 1e ab 3d e5 b8 14 bd 8b e8 82 bd 70 1e dc 3c
       0.08355433 -0.03630914 -0.0639201 0.026869982
0003a0 72 cc 7c 3d 68 fd 78 3d f2 17 9f 3d 8b a1 cc 3b
       0.06171841 0.060788542 0.07768239 0.0062448434
0003b0 2c 98 0f 3e 76 f6 8d 3d f2 3d db 3c 3f 4b 43 3d
       0.14022893 0.06931774 0.026762936 0.047679182
0003c0 9c 8b 18 bc 93 88 a1 3d 3a ed c2 3c 4a 47 6b bc
       -0.009310629 0.078873776 0.023794759 -0.014360258
0003d0 d8 c0 39 bc a4 96 d7 3c 10 ad f3 bc 74 84 2f 3d
       -0.011337481 0.026316948 -0.029745609 0.042850927
0003e0 e0 e8 b1 ba f1 15 ec 3b 84 5e 2f bd 9a 80 49 3d
       -0.001357343 0.007204764 -0.042814746 0.04919491
0003f0 f8 e4 87 3d 36 35 33 3d af 18 be bc 0e d2 fb 3c
       0.06635469 0.043751918 -0.02320513 0.03073981

fc3.weight f4 [2, 256]
000000 a0 c3 40 3b 1b 64 0d be 0f 04 11 be c3 b1 3d 3e
       0.0029413477 -0.13807718 -0.14161704 0.18524842
000010 83 33 39 3e f2 45 5a 3e d9 f7 a5 bc 6f cb 6e 3e
       0.18086056 0.21315745 -0.020259785 0.23319791
000020 97 48 23 bd 34 09 c8 be 49 b7 ec 3e e2 83 9c 3d
       -0.03986415 -0.3906952 0.46233585 0.07642342
000030 26 a4 6e 3e 47 39 5f 3e c0 08 63 3e 16 a0 29 3d
       0.23304805 0.21799193 0.22171307 0.041412435
000040 43 35 98 be fb 49 24 3e 3a 86 00 3d 56 8c 03 3e
       -0.29728135 0.16043846 0.03137801 0.12846503
000050 1e c8 34 3e 88 c6 7c 3e 66 b0 21 be d0 ef e3 3d
       0.17654464 0.24685109 -0.15789947 0.11129725
000060 2d 0c 55 3e c8 14 b6 3c 3c e6 5c 3d fb 84 31 3e
       0.20805426 0.022226706 0.053930506 0.17335884
000070 85 92 0a bd f6 6a 35 be 3d 9d 7f be 81 0a f0 3c
       -0.03383114 -0.17716584 -0.24962325 0.029301884
000080 44 27 19 bc 0c 94 66 3e d9 8b 13 3e 40 f4 96 be
       -0.009347741 0.22517413 0.14408816 -0.29483223
000090 10 83 e3 3e 96 e6 8f bc c9 71 59 3e 77 c7 85 ba
       0.4443593 -0.017566007 0.21234812 -0.001020654
0000a0 5a 61 17 3d 34 9d 46 3e 1c 3c 23 3d 2e 1d 76 3e
       0.036958076 0.19395906 0.039852247 0.24034569
0000b0 72 02 32 bd 54 2a 30 be f5 ba 37 3e 46 58 d4 3b
       -0.043459363 -0.17203647 0.17942412 0.0064802496
0000c0 a2 35 67 bd 52 92 5a 3d 80 a5 c4 bb f5 dc 85 3e
       -0.056447633 0.0533622 -0.0060011744 0.2614514
0000d0 d0 ea f0 3d f3 cb e3 bc bc d9 b3 3c f8 2a 73 3c
       0.11763537 -0.027807212 0.02195441 0.0148417875
0000e0 5c 3c 0a 3e 57 dd 5b 3e 2e 0a 50 3e ce f2 1a be
       0.13499588 0.21471153 0.20316383 -0.15131685
0000f0 5f 9b 73 3e 93 e3 62 3d 57 7d 1a 3e a8 98 db bc
       0.23789738 0.055392813 0.15086876 -0.02680619
000100 28 0a 78 bd 3f 23 2c 3e 0d 40 07 3e 36 64 40 3e
       -0.06055656 0.1681032 0.13208027 0.18788227
000110 6d d8 3f bd 39 02 69 3e f8 77 1a 3e e7 65 21 3e
       -0.04683726 0.22754754 0.15084827 0.15761529
000120 88 42 81 3e a8 4b 13 3c 28 1b e4 bc 23 ae 34 bd
       0.25246072 0.008990206 -0.02784498 -0.044111382
000130 0a 0b 57 bd b0 7e 6d 3e ea c8 e4 bc 02 39 f4 3d
       -0.052500762 0.23192859 -0.027927835 0.11924936
000140 1e c4 41 3e 42 9b 62 3e af f1 fe 3d d4 14 2f be
       0.18922469 0.22129539 0.12448441 -0.17097789
000150 51 fb 48 be 4c 1e 6f 3d 42 eb 4f 3e 08 c2 f9 3d
       -0.1962712 0.058378503 0.20304587 0.12195212
000160 7e f9 fa 3d c9 51 4c 3e 5b e9 06 3e 41 d5 80 3e
       0.12254618 0.19953074 0.13174956 0.251627
000170 9a af 0d be 2c f3 69 3e f1 d3 6b bc bb dc dd 3d
       -0.13836518 0.22846669 -0.0143937925 0.108331166
000180 ed 10 08 3b 53 e7 b7 bb 87 34 35 3d 50 76 15 be
       0.0020762042 -0.005612293 0.044239547 -0.14595914
000190 cb ce 61 3e a2 75 29 bd 2e e0 97 be e4 79 4f 3e
       0.22051542 -0.04137195 -0.29663223 0.20261341
0001a0 2b 24 18 bd a3 f8 50 3e 17 a8 9c be 6e 97 90 be
       -0.037143867 0.20407347 -0.30596992 -0.28240532
0001b0 95 6d 2c 3e 5c bd 26 bd 41 bc 2a 3e 7c 93 34 3e
       0.16838677 -0.04070793 0.16673376 0.17634386
0001c0 8d 98 7b 3e 15 26 8b 3e b6 a7 03 3e c6 59 a2 3d
       0.24569912 0.27177492 0.12856945 0.07927279
0001d0 22 98 72 3e 7a c7 c4 bc d6 f6 63 3e 2d 95 8f be
       0.23690847 -0.0240209 0.22262129 -0.280435
0001e0 4f 97 18 be 93 e3 4a 3e e5 4a 40 bd 3e 8c 0f 3e
       -0.1490147 0.19813375 -0.046946425 0.14018342
0001f0 d5 74 71 3e be 61 0e be 14 d9 73 3e ad fc 4d be
       0.23579724 -0.13904473 0.23813277 -0.2011592
000200 f0 fa 59 3e 34 70 82 3e e4 a0 36 bd af 36 5e 3e
       0.21287131 0.2547623 -0.04458703 0.21700548
000210 44 21 7d 3e e4 eb 81 be ce c1 27 be 10 26 37 3e
       0.24719721 -0.25375283 -0.16382524 0.17885613
000220 ec ff 7e 3d 2c 22 ae be 72 41 26 3e 28 76 4f 3e
       0.062255785 -0.34010446 0.16235903 0.20259917
000230 e2 18 a5 be 20 a6 6e bc 50 85 8a 3c a8 14 89 3e
       -0.32245547 -0.0145659745 0.016909271 0.26773572
000240 c8 e9 15 3e d5 19 71 3e 0e e8 62 3e 9b 17 24 3e
       0.14639962 0.2354501 0.22158834 0.1602463
000250 42 9c 0d 3e 19 11 79 3e a6 ee 4b 3e 03 41 10 3e
       0.13829139 0.24322928 0.19915256 0.140873
000260 34 74 21 bc 28 0b 41 3d 04 3e 40 bd b1 2c da 3d
       -0.009854365 0.04712978 -0.046934143 0.106530555
000270 79 38 59 3e 84 0a 58 3e fe ac 65 3e 43 b8 26 bd
       0.21212949 0.21097761 0.22429273 -0.04070307
000280 eb 67 1e 3e 0b a6 30 3e ad 98 68 3e cf d8 a6 39
       0.15469329 0.1725084 0.22714491 0.00031823522
000290 84 94 35 3e 90 fe 69 3e a6 d4 a3 be 5a bf 1f 3d
       0.17732435 0.22851014 -0.31998175 0.039000846
0002a0 db 83 92 be ae 33 86 3e 98 0e f7 3c 0c 18 9a 3d
       -0.28616223 0.26211303 0.030158326 0.07524118
0002b0 eb 03 7b 3e e9 6b a1 be ef ab ff 3d 88 a9 18 3e
       0.24513213 -0.3152764 0.124839656 0.14908421
0002c0 5c 39 6f 3e d5 73 e8 bd c8 fd 11 3d c6 90 59 3e
       0.23361725 -0.11350218 0.035642415 0.21246633
0002d0 96 0f d3 3d b8 85 1f 3c ab 4f 00 3d ea 4b 9d bc
       0.10305707 0.009736471 0.031325977 -0.019201238
0002e0 f7 37 54 3e 6a 5c 5f 3e c2 72 06 3d 49 34 5e 3e
       0.20724474 0.21812597 0.032824285 0.21699633
0002f0 40 57 03 3e a4 bb 6e 3e 86 49 53 bd 6e 30 41 3e
       0.12826252 0.23313767 -0.05158379 0.1886613
000300 04 b8 63 3e c8 9a 08 bd d9 c2 56 3e 12 f8 25 3e
       0.22238165 -0.033350736 0.20972766 0.16207913
000310 1f d0 07 3e 31 c8 5d 3e 96 dd 16 3e 88 45 a6 be
       0.13262986 0.21658398 0.14732966 -0.32474923
000320 38 cd 5f 3e da a5 8f 3d 37 45 bf be ea 7d 26 be
       0.21855628 0.070140556 -0.37357494 -0.1625897
000330 5f 5c 2f 3c 03 35 47 3b 68 57 d8 be e8 a1 60 3e
       0.010703175 0.0030396588 -0.42254186 0.21936762
000340 03 3d 6f 3e d6 76 da be 90 03 08 3e 93 1e 40 3e
       0.23363118 -0.4266879 0.13282609 0.18761663
000350 b0 b1 2b be 9a dc 4b 3e 85 38 f5 3d b4 90 2c bd
       -0.16767001 0.19908372 0.11973671 -0.042130187
000360 de 7d c5 bc 7f 92 73 3e 6d de 22 be f5 47 35 bd
       -0.02410787 0.23786353 -0.15905161 -0.044258077
000370 c4 fc 66 3d 58 7b 8a 3c d2 28 ad 3c 50 34 3c 3e
       0.0563934 0.016904518 0.021137629 0.1837933
000380 da 5f 67 3e fe 84 29 bc b9 83 4d be dd d2 73 be
       0.22595158 -0.010346649 -0.2006978 -0.23810907
000390 f4 e8 74 3e e4 06 4f 3e 53 57 bd 3e 68 a1 5c 3e
       0.2391699 0.20217472 0.36980686 0.21545947
0003a0 8a 19 45 3e 97 df 0e 3e b8 32 b6 3d b5 4b 48 be
       0.19248024 0.1395248 0.088963926 -0.1956013
0003b0 c5 a4 63 3d 1a 64 83 3e 2c 5a 6c 3e 4d 53 c3 3d
       0.05557706 0.2566231 0.23081273 0.09537373
0003c0 54 7c 58 3e c6 a8 03 3e 42 d5 19 3e 81 dc 33 3e
       0.21141177 0.1285735 0.15022758 0.17564584
0003d0 c7 aa 5a 3e 73 8d 62 bd 34 88 03 3d fa 96 9c bb
       0.21354209 -0.055310678 0.032112315 -0.00477874
0003e0 24 45 2a 3d 08 21 6d 3e e6 66 00 3d 5a 35 4c 3d
       0.041569844 0.23157132 0.03134813 0.049855568
0003f0 44 f9 0c 3e e9 90 5e 3e f1 f8 28 3e 82 57 5e 3e
       0.13766962 0.21734966 0.16501214 0.21713069

fc3.bias f4 [2]
000000 b5 35 c6 3d a1 79 23 3d
       0.096782126 0.039910916
