projects/codes/DQN/outputs/CartPole-v1/20220828-214702/models/checkpoint.pt (torch, 272215 bytes, 6 tensors)

fc1.weight f4 [256, 4]
-0.08179758 0.035679206 0.18482631 0.08855455 -0.25950173 -0.07138517 0.196082 0.30924302
0.30581376 -0.062001027 0.058148082 0.12968692 0.2532302 0.20469245 0.09176897 0.47796956
-0.58076376 -0.19002223 -0.14792067 -0.11964136 0.37183937 -0.40297118 -1.0011485 -0.37355772
-1.1401745 -0.83265626 -0.37078056 -0.14684515 -0.46248963 0.2899229 0.1447773 0.34584975
0.4486076 0.059626095 0.25767696 -0.17402643 0.09121917 -0.03810844 0.92446566 0.16034743
0.5294858 0.46556818 -0.23360896 -0.20803012 -0.1331204 0.07449272 0.58117306 0.20134257
-0.3746323 0.014832589 -0.40279248 0.45217407 -0.1857742 0.24937086 -0.1422346 0.18356386
0.033782553 0.014902137 0.283122 0.40507883 -0.18454206 -0.2988663 -0.04773973 -0.17816903
0.088845335 0.56351215 0.61837494 -0.06863418 -0.36945257 0.47868663 0.54098004 -0.17954712
-0.0028552283 0.04277095 -1.0037582 0.007503281 -1.2259133 -0.2811024 -0.2855382 -0.06395668
-0.19213109 -0.14004064 0.1955407 -0.058779385 0.19517867 0.10269344 0.31086883 0.41267508
-0.46642718 0.068083294 -0.10319915 0.16627459 0.12589623 -0.47213164 -0.42935953 0.37037903
-0.20392762 -0.08896263 -0.72240853 -0.31544113 -0.16625912 0.18279181 0.73959434 0.16487062
-0.86930716 0.026312042 -0.12026104 0.012550957 -0.046736173 0.025420764 0.20979992 0.14239083
0.31600127 -0.18853568 0.4786863 -0.118912034 -0.092202514 -0.11949869 0.013315517 0.06440907
0.31631193 0.017978778 -0.537001 -0.0044571287 0.09888816 -0.46873024 -0.22090818 0.48918098
-0.8391125 -0.12380799 -0.14773595 0.0982646 -0.2663557 -0.063409425 -0.3912248 -0.13732186
0.26239508 0.29007134 -0.6691203 -0.23125547 -0.21648027 0.61184233 0.33659688 -0.6693333
0.21325687 -0.022920713 0.35619444 0.010322841 0.13143975 -0.2823877 -0.7557706 0.22036852
-0.6098457 -0.29152763 -0.38174582 -0.3344423 -0.06650338 0.0761285 0.6282067 0.14908311
-1.0891157 -0.6720362 -0.14526303 0.16692509 -0.5594015 0.31015262 -0.5264608 0.06283711
-0.30662242 0.2692362 0.06744776 0.18080729 0.19513403 -0.5321663 -0.22583243 -0.4038576
0.0308673 -0.24697217 0.71625435 0.068936415 0.06464827 -0.06318471 0.70687044 0.351333
-0.06957337 0.01674133 0.5889341 0.26677418 0.2748543 0.19402508 0.6168251 0.17890385
-0.08085404 -0.466357 -0.18236296 -0.52940905 -0.012018908 0.24076119 -0.7046217 -0.40530014
-0.41754973 0.35820183 0.0057935445 0.36232167 0.22931941 -0.1309864 0.07072704 -0.34662497
-0.34359336 0.45441794 0.4372851 -0.24226551 -0.2880448 0.29166234 0.24823356 0.19940342
0.6839725 0.19434647 -0.38442546 0.16440459 0.15654674 -0.062913835 -0.70884645 -0.021206401
-0.028354552 -0.14610244 0.2512827 0.11937071 0.40479597 0.32430497 -0.16054422 -0.40690866
0.2322344 0.36493245 0.30706203 0.52959245 0.53702027 0.27835795 -0.11518486 0.34104937
-0.7705155 0.10608966 0.12447229 0.20370421 -0.17220709 0.02017557 -0.16058852 -0.52669954
-0.3141744 0.15929057 -0.5067427 -0.08051244 0.6023378 0.4514857 -0.25371724 0.24454328
00000000: 7d85 a7bd 5c24 123d 1c43 3d3e 175c b53d
00000010: 69dd 84be 6332 92bd b8c9 483e 1a55 9e3e
00000020: 9f93 9c3e caf4 7dbd af2c 6e3d a6cc 043e
00000030: 64a7 813e e69a 513e 5ff1 bb3d 6db8 f43e
00000040: efac 14bf 3095 42be 8478 17be 8806 f5bd
00000050: bb61 be3e 3d52 cebe a225 80bf f542 bfbe
00000060: 3df1 91bf f628 55bf f3d6 bdbe 935e 16be
00000070: 71cb ecbe c670 943e 8040 143e 3813 b13e
00000080: e5af e53e 7e3a 743d 3cee 833e fc33 32be
00000090: 1ed1 ba3d 9817 1cbd c8a9 6c3f 1e32 243e
000000a0: 628c 073f f45e ee3e 3037 6fbe d905 55be
000000b0: b750 08be a48f 983d c2c7 143f bf2c 4e3e
000000c0: cecf bfbe 6304 733c d13a cebe 5c83 e73e
000000d0: 983b 3ebe 135b 7f3e f2a5 11be 2af8 3b3e
000000e0: 935f 0a3d 1828 743c 5ef5 903e 7e66 cf3e
000000f0: 98f8 3cbe 0105 99be bc8a 43bd f171 36be
00000100: 8bf4 b53d 5542 103f d24d 1e3f 1490 8cbd
00000110: e328 bdbe 6a16 f53e ab7d 0a3f 33db 37be
00000120: c81e 3bbb 9730 2f3d 267b 80bf 15de f53b
00000130: baea 9cbf a7ec 8fbe 1032 92be b8fb 82bd
00000140: 03be 44be d066 0fbe d23b 483e a7c2 70bd
00000150: ebdc 473e f050 d23d 332a 9f3e 264a d33e
00000160: 8bcf eebe 416f 8b3d 135a d3bd e343 2a3e
00000170: f1ea 003e 3dbb f1be 03d5 dbbe 52a2 bd3e
00000180: 67d2 50be 0a32 b6bd c4ef 38bf 8081 a1be
00000190: d53f 2abe c72d 3b3e 0e56 3d3f d8d3 283e
000001a0: ea8a 5ebf 5a8c d73c 6c4b f6bd 87a2 4d3c
000001b0: 6e6e 3fbd 353f d03c cad5 563e e7ce 113e
000001c0: ebca a13e 7f0f 41be 5f16 f53e 2788 f3bd
000001d0: acd4 bcbd bbbb f4bd 5429 5a3c e7e8 833d
000001e0: a3f3 a13e 3b48 933c e678 09bf 1b0d 92bb
000001f0: e085 ca3d 69fd efbe c135 62be ee75 fa3e
00000200: 14d0 56bf 0b8f fdbd 1848 17be f33e c93d
00000210: c65f 88be cddc 81bd 9e4e c8be 1a9e 0cbe
00000220: a658 863e 3b84 943e 784b 2bbf 3cce 6cbe
00000230: 01ad 5dbe b3a1 1c3f 6d56 ac3e 6d59 2bbf
00000240: 0260 5a3e 38c4 bbbc 1e5f b63e 2221 293c
00000250: 2498 063e 1f95 90be 2f7a 41bf 49a8 613e
00000260: d91e 1cbf 1c43 95be 3074 c3be 053c abbe
00000270: ed32 88bd 42e9 9b3d 27d2 203f 3ea9 183e
00000280: 2568 8bbf 900a 2cbf d5bf 14be 69ee 2a3e
00000290: f034 0fbf 53cc 9e3e 23c6 06bf beb0 803d
000002a0: 9dfd 9cbe 54d9 893e 0d22 8a3d 8c25 393e
000002b0: 37d1 473e 0d3c 08bf 9e40 67be 6cc6 cebe
000002c0: 6cdd fc3c 46e6 7cbe 725c 373f 892e 8d3d
000002d0: 5066 843d fc66 81bd 76f5 343f ebe1 b33e
000002e0: 7c7c 8ebd 1d25 893c 63c4 163f a096 883e
000002f0: b4b9 8c3e 83ae 463e 40e8 1d3f 9232 373e
00000300: ce96 a5bd 58c6 eebe 5bbd 3abe 5a87 07bf
00000310: f4ea 44bc 1a8a 763e 1662 34bf 8083 cfbe
00000320: 14c9 d5be 3b66 b73e c6d7 bd3b 3a82 b93e
00000330: b5d2 6a3e 4d21 06be 57d9 903d d478 b1be
00000340: 78eb afbe 78a9 e83e d5e3 df3e 7314 78be
00000350: 9c7a 93be c454 953e f030 7e3e 6930 4c3e
00000360: d218 2f3f c302 473e 6ad3 c4be ad59 283e
00000370: ca4d 203e f8d8 80bd f676 35bf 0cb9 adbc
00000380: ce47 e8bc e19b 15be 20a8 803e a178 f43d
00000390: 6b41 cf3e 4d0b a63e b465 24be 5556 d0be
000003a0: dbce 6d3e 6dd8 ba3e 3c37 9d3e 5f93 073f
000003b0: 297a 093f ef84 8e3e 0ae6 ebbd 069e ae3e
000003c0: 8140 45bf 8945 d93d 54eb fe3d d697 503e
000003d0: 0e57 30be 3d47 a53c 5171 24be c8d5 06bf
000003e0: 78db a0be 111d 233e e4b9 01bf b5e3 a4bd
000003f0: cf32 1a3f 2229 e73e 3ae7 81be 8e69 7a3e

fc1.bias f4 [256]
-0.20559536 0.18934353 0.082432225 0.7542365 -0.054285634 -0.310232 1.0835502 0.85086685
-0.14411594 -0.3383488 0.80617577 -0.3647269 0.29659662 -0.012156196 0.4330001 -0.5064304
-0.16484556 0.2914415 -0.11973642 1.1117089 -0.43343046 -0.12095196 -0.47358194 0.15592471
0.3571248 -0.30093098 -0.07429666 0.103836715 -0.19755945 -0.29900977 -0.5146569 -0.09082712
0.7032321 1.0671908 -0.4703118 -0.111666314 -0.21201822 0.6210126 0.7559576 -0.21540636
1.3294811 0.94961447 -0.17586672 -0.02802076 -0.48092213 0.08341775 -0.45474544 -0.044082895
-0.5097626 0.38751596 0.48007762 -0.30334777 0.37886524 -0.31081548 0.51557285 -0.16964607
0.15439881 0.59535027 1.4406952 1.1914202 0.07258205 0.5807502 0.61463577 -0.33886814
0.5315319 -0.34034213 -0.4329467 -0.1387487 -0.40497416 -0.18150659 -0.41867977 0.6706403
-0.5314974 -0.23840624 -0.33531535 0.67068595 -0.22532654 -0.27540553 -0.442228 0.38343653
-0.37507394 0.7721589 1.3930458 -0.1818224 0.56450295 0.5308186 -0.23213015 1.322787
0.58873606 -0.2432289 0.51386297 -0.05304 0.6774923 0.2521649 0.5010446 1.1843466
1.31095 1.1214213 -0.024738383 -0.39427713 -0.50193566 -0.2580221 0.7223164 -0.03456068
0.5642681 0.6459759 -0.42137107 0.94570076 0.42615664 0.2793464 0.17825001 -0.5281915
-0.023051063 1.2929105 -0.039058767 -0.34527504 0.48786035 0.12689121 -0.37667277 -0.0683979
1.2483289 0.25946334 -0.2973266 0.09954476 -0.24975298 -0.4948156 0.15212911 -0.044683997
-0.343515 0.11148361 -0.29130664 1.338384 -0.21645935 -0.04654778 1.1290195 -0.004804725
-0.2135464 -0.21892248 -0.50869244 -0.38266683 -0.032187935 -0.35056505 -0.13410617 -0.39118382
0.06961167 -0.29824153 -0.41661263 -0.48720926 0.97648007 0.9229225 -0.5758581 0.2848795
-0.10545938 -0.3717701 1.1481819 -0.38894776 1.1874979 -0.25889498 -0.3442446 -0.29764587
0.5923727 -0.013748664 0.55478966 1.1924756 -0.13631277 0.087117665 0.6542194 0.26549757
1.1029774 0.1466179 -0.29658875 -0.3018645 -0.42727026 0.5891044 0.0218963 -0.36216566
0.940348 0.04605351 0.76550984 -0.34684068 0.17560804 0.5634794 0.061845172 0.7291769
-0.18939108 -0.26959282 0.3077479 -0.08289666 -0.36877713 1.0661181 -0.2418004 -0.20027855
-0.5599755 1.075608 -0.23429598 -0.2802174 -0.40437782 0.42988867 0.35278532 0.5288437
0.40648162 -0.19305463 -0.33867267 -0.30414626 -0.011180003 0.31767005 0.36162543 -0.5479649
-0.17209437 0.70236766 -0.27227235 -0.017166106 0.40851423 1.20391 0.6689509 1.0382
-0.239184 -0.14344665 1.2227186 -0.39014253 0.5254733 -0.31126797 0.5454338 -0.017723799
1.1163424 0.9168554 -0.4417759 1.30507 -0.37967542 0.76900977 -0.094121054 -0.09717254
-0.15087593 0.084917225 -0.2376585 0.0071101743 0.70779485 -0.65906006 -0.2804651 0.86878407
-0.0051908884 -0.18719007 -0.43737072 0.27064785 -0.2601959 0.10475553 -0.6422568 -0.3026159
-0.3010236 1.3164836 -0.04229266 -0.118476145 -0.030351818 -0.35104942 -0.0152992 -0.5364841
00000000: 9787 52be 45e3 413e 3ad2 a83d a515 413f
00000010: 9d5a 5ebd bbd6 9ebe c6b1 8a3f 69d2 593f
00000020: 2193 13be 0e3c adbe 8961 4e3f 7cbd babe
00000030: 83db 973e c82a 47bc 30b2 dd3e 6ca5 01bf
00000040: 46cd 28be d237 953e 5e38 f5bd 7a4c 8e3f
00000050: 99ea ddbe a9b5 f7bd 5579 f2be baaa 1f3e
00000060: 10d9 b63e a013 9abe d928 98bd 58a8 d43d
00000070: 064d 4abe cf17 99be 8ec0 03bf 9203 babd
00000080: 0507 343f b599 883f b5cc f0be 4fb1 e4bd
00000090: 4e1b 59be affa 1e3f 7086 413f 7c93 5cbe
000000a0: 702c aa3f ef19 733f 6816 34be cb8b e5bc
000000b0: 6d3b f6be edd6 aa3d 65d4 e8be 4490 34bd
000000c0: cd7f 02bf 7e68 c63e bccc f53e 6650 9bbe
000000d0: a0fa c13e 3523 9fbe 95fc 033f b3b7 2dbe
000000e0: b91a 1e3e e068 183f b368 b83f 7580 983f
000000f0: e6a5 943d 0cac 143f c558 1d3f 2080 adbe
00000100: 7912 083f 5341 aebe 31ab ddbe 2414 0ebe
00000110: c658 cfbe dddc 39be 325d d6be 15af 2b3f
00000120: 3710 08bf c420 74be 74ae abbe 13b2 2b3f
00000130: 00bc 66be f401 8dbe b56b e2be cb51 c43e
00000140: b109 c0be 35ac 453f 534f b23f a72f 3abe
00000150: 4483 103f bae3 073f 87b3 6dbe 1651 a93f
00000160: 68b7 163f ff10 79be 868c 033f 7940 59bd
00000170: 2370 2d3f c21b 813e 7544 003f ab98 973f
00000180: 36cd a73f bc8a 8f3f 26a8 cabc b1de c9be
00000190: db7e 00bf 791b 84be bae9 383f 808f 0dbd
000001a0: e073 103f ad5e 253f f3bd d7be 7219 723f
000001b0: 3431 da3e 7e06 8f3e 2c87 363e 8f37 07bf
000001c0: 95d5 bcbc 177e a53f 16fc 1fbd e4c7 b0be
000001d0: d5c8 f93e c5ef 013e 41db c0be 3314 8cbd
000001e0: 3ec9 9f3f 61d8 843e 313b 98be 20de cb3d
000001f0: 3fbf 7fbe 7858 fdbe bcc7 1b3e 9106 37bd
00000200: 33e1 afbe 8551 e43d 2526 95be 2b50 ab3f
00000210: 85a7 5dbe e3a8 3ebd b683 903f f470 9dbb
00000220: e8ab 5abe 372d 60be ab39 02bf e8ec c3be
00000230: 7fd7 03bd 437d b3be 2153 09be 3f49 c8be
00000240: 9090 8e3d 1db3 98be 404e d5be 7e73 f9be
00000250: 99fa 793f a644 6c3f 706b 13bf badb 913e
00000260: 16fb d7bd a758 bebe a0f7 923f 2924 c7be
00000270: eeff 973f e28d 84be d440 b0be 0a65 98be
00000280: bda5 173f 1442 61bc b206 0e3f 0aa3 983f
00000290: 9395 0bbe bf6a b23d ec7a 273f 4cef 873e
000002a0: 5d2e 8d3f 0123 163e 7bda 97be fc8d 9abe
000002b0: 2bc3 dabe 8ccf 163f df5f b33c c76d b9be
000002c0: a6ba 703f 9ba2 3c3d 74f8 433f 1a95 b1be
000002d0: 98d2 333e 3040 103f 5d51 7d3d 56ab 3a3f
000002e0: bcef 41be 1208 8abe 2291 9d3e b9c5 a9bd
000002f0: 5bd0 bcbe 8f76 883f 869a 77be d215 4dbe
00000300: 8e5a 0fbf 86ad 893f 49eb 6fbe a878 8fbe
00000310: 9c0a cfbe 5e1a dc3e 47a0 b43e 4d62 073f
00000320: 5c1e d03e 1db0 45be 8166 adbe 0fb9 9bbe
00000330: 552c 37bc a6a5 a23e f826 b93e 6d47 0cbf
00000340: 8239 30be 5ece 333f 4867 8bbe ef9f 8cbc
00000350: c728 d13e b919 9a3f 5e40 2b3f bde3 843f
00000360: a7ec 74be aee3 12be 0b82 9c3f c3c0 c7be
00000370: 6b85 063f 845e 9fbe 8da1 0b3f 8031 91bc
00000380: 4fe4 8e3f 09b7 6a3f 7330 e2be 890c a73f
00000390: d164 c2be d3dd 443f 8ac2 c0bd 6602 c7bd
000003a0: 387f 1abe 15e9 ad3d c05c 73be 77fc e83b
000003b0: 0b32 353f 29b8 28bf 1f99 8fbe a268 5e3f
000003c0: 5418 aabb c1ae 3fbe 0eef dfbe 5b92 8a3e
000003d0: 6638 85be 118a d63d f16a 24bf 79f0 9abe
000003e0: c41f 9abe 8982 a83f 113b 2dbd 9fa3 f2bd
000003f0: 60a4 f8bc c0bc b3be 7fa9 7abc 0657 09bf

fc2.weight f4 [256, 256]
0.029346049 -0.07848267 0.04572905 0.01954792 0.01984918 0.009042374 0.08082201 -0.0832905
-0.03904011 -0.148125 -0.056971706 -0.17360377 -0.004533628 -0.0015267165 -0.017025664 -0.033193506
-0.12462012 -0.09236605 -0.03958727 0.047628976 -0.04383055 -0.043035034 -0.01611255 -0.15412846
-0.04350029 -0.23602016 0.03639228 -0.11168512 -0.018348737 -0.066054285 -0.04781255 -0.015646478
0.073402345 -0.014962407 -0.15515591 -0.0047681453 -0.050929118 -0.012603878 -0.027997432 -0.2195734
0.057382792 -0.085891046 0.011690555 -0.017341277 -0.050990015 -0.012354335 -0.13718605 -0.13149612
-0.048586033 -0.16175507 -0.026147803 -0.07130752 -0.06305987 0.03597845 0.01219717 -0.24715161
0.013498148 -0.10478882 0.0046682814 -0.09718853 0.018014073 -0.09199653 -0.10287123 -0.039404925
-0.07623443 -0.04127122 -0.08942151 -0.023761636 -0.07400766 -0.20783189 -0.08937189 -0.05292783
-0.08426287 0.06854794 -0.26005116 0.033379145 -0.24702281 0.028981479 -0.12035827 -0.029752191
-0.08743495 -0.03698642 -0.012416477 -0.07386333 -0.016071456 -0.06901674 -0.19135806 -0.019124843
-0.036781523 0.04208039 -0.16643605 -0.0078104427 -0.06527879 -0.06618954 -0.10954149 -0.0013061395
-0.066102795 -0.001691189 -0.09025019 -0.22158054 -0.015356715 0.0334586 -0.09172243 -0.020812824
0.03677753 -0.08746172 -0.09626308 -0.05770507 0.0210763 -0.04632678 -0.087941475 -0.044354916
-0.040782478 0.030852646 -0.04371104 -0.0716461 -0.052765697 0.021424199 -0.19483212 -0.14670126
-0.08483533 0.0951257 -0.07955017 -0.07835298 0.035978448 -0.0005136861 -0.022356015 -0.0253676
-0.29083362 0.07661881 0.026186505 -0.042241544 -0.0017742862 -0.08745816 -0.09213447 -0.13591185
0.05767517 -0.05336761 -0.23047838 -0.012937899 -0.010960171 0.06200543 -0.016990216 -0.12928985
-0.03422242 -0.14386082 -0.04915709 -0.064694576 -0.044895224 -0.053511273 -0.14365925 -0.09187716
-0.10824955 -0.02898384 -0.095982835 -0.29793608 0.08079143 -0.22182798 -0.08083079 -0.26803908
0.009179683 -0.027936144 -0.108696945 -0.12155064 -0.033757813 -0.055905364 -0.05796996 0.02232336
-0.037661742 -0.07173568 -0.061288424 -0.18060416 -0.14585099 -0.056196965 -0.07812146 -0.0070753763
-0.059812747 -0.04411899 -0.005259246 -0.008743196 -0.16477853 -0.043933548 -0.06288446 -0.10130177
5.625823e-05 -0.14411409 -0.036980458 -0.123046584 -0.04641364 -0.10043548 -0.037074182 0.010845909
-0.09799164 -0.07110822 -0.005716409 -0.09807053 -0.12603478 -0.025792712 0.030233363 -0.059863783
-0.09244421 -0.26612094 -0.054872397 -0.12279534 -0.13290378 -0.07487157 0.005869353 -0.056538768
-0.14073479 -0.09826466 -0.02855896 -0.053133536 -0.07573397 -0.076552086 -0.0439542 0.015801229
-0.19531122 -0.04013141 0.13281357 -0.11135005 -0.07854794 -0.04240413 -0.012704261 -0.023000266
0.06197187 -0.018941754 -0.14513592 -0.0051869513 -0.20289198 -0.062415857 -0.012003046 -0.053302262
-0.07737586 -0.047464103 -0.11259735 -0.04215555 -0.09030308 0.0007825394 -0.10846852 -0.04242554
-0.075567484 -0.2527047 -0.2439264 0.014848061 -0.11189365 -0.0779319 -0.0068322862 0.058652803
-0.06930163 -0.03401024 -0.012339212 -0.09874307 -0.08524777 -0.022262132 -0.061168447 -0.18330416
00000000: 2067 f03c 86bb a0bd 624e 3b3d f622 a03c
00000010: bf9a a23c 7726 143c 0386 a53d 3694 aabd
00000020: 86e8 1fbd 14ae 17be 2a5b 69bd 30c5 31be
00000030: d48e 94bb 1b1c c8ba 6879 8bbc eaf5 07bd
00000040: d538 ffbd 692a bdbd 4326 22bd 9a16 433d
00000050: aa87 33bd 8145 30bd 77fe 83bc dad3 1dbe
00000060: 5c2d 32bd 45af 71be 1210 153d 2bbb e4bd
00000070: 1750 96bc 7847 87bd 18d7 43bd 0b2d 80bc
00000080: f853 963d e224 75bc 31e1 1ebe 1a3e 9cbb
00000090: 0d9b 50bd 7f80 4ebc df5a e5bc d9d7 60be
000000a0: 380a 6b3d a5e7 afbd be89 3f3c 4b0f 8ebc
000000b0: e8da 50bd d669 4abc 807a 0cbe eba6 06be
000000c0: 2602 47bd 1fa3 25be eb33 d6bc ad09 92bd
000000d0: 8825 81bd 245e 133d a4d6 473c 5015 7dbe
000000e0: 5627 5d3c 859b d6bd 62f8 983b c80a c7bd
000000f0: 4092 933c ad68 bcbd 27ae d2bd 0f67 21bd
00000100: cc20 9cbd 030c 29bd a022 b7bd c3a7 c2bc
00000110: 5491 97bd e2d1 54be 9c08 b7bd daca 58bd
00000120: 0392 acbd dd62 8c3d 6d25 85be 92b8 083d
00000130: 8cf3 7cbe 916a ed3c 667e f6bd deba f3bc
00000140: 1811 b3bd 137f 17bd 7b6e 4bbc a845 97bd
00000150: 49a8 83bc a658 8dbd 5ef3 43be b4ab 9cbc
00000160: 39a8 16bd 7d5c 2c3d 366e 2abe beee ffbb
00000170: e3b0 85bd 628e 87bd 4a57 e0bd c532 abba
00000180: e760 87bd e3aa ddba 17d5 b8bd 02e6 62be
00000190: bb9a 7bbc e30b 093d f8d8 bbbd a87f aabc
000001a0: 09a4 163d 211f b3bd 9425 c5bd 275c 6cbd
000001b0: 34a8 ac3c 26c1 3dbd a91a b4bd 80ad 35bd
000001c0: 870b 27bd b0be fc3c 590a 33bd 31bb 92bd
000001d0: d820 58bd cd81 af3c 1282 47be db38 16be
000001e0: 25be adbd 43d1 c23d 33eb a2bd 8777 a0bd
000001f0: 235e 133d e4a8 06ba f623 b7bc b7cf cfbc
00000200: 25e8 94be 53ea 9c3d 1585 d63c 7805 2dbd
00000210: 2a8f e8ba 441d b3bd ffb0 bcbd 7a2c 0bbe
00000220: cd3c 6c3d ff97 5abd 8602 6cbe 7bf9 53bc
00000230: 4a92 33bc 68f9 7d3d 112f 8bbc 8f64 04be
00000240: cf2c 0cbd 4050 13be f258 49bd 977e 84bd
00000250: 0ee4 37bd a32e 5bbd 691b 13be 182a bcbd
00000260: f1b1 ddbd 856f edbc a692 c4bd 148b 98be
00000270: fa75 a53d e026 63be 9d8a a5bd 6b3c 89be
00000280: 6266 163c 57da e4bc 819c debd 8bef f8bd
00000290: a245 0abd 06fd 64bd e971 6dbd 7bdf b63c
000002a0: 3343 1abd 28ea 92bd 9209 7bbd 4cf0 38be
000002b0: f659 15be ca2e 66bd 25fe 9fbd 8fd8 e7bb
000002c0: 36fe 74bd 1db6 34bd c155 acbb 9f3f 0fbc
000002d0: b4bb 28be aaf3 33bd 91c9 80bd 4d77 cfbd
000002e0: d1f6 6b38 a592 13be d278 17bd d9ff fbbd
000002f0: 3b1c 3ebd 1eb1 cdbd 19db 17bd 0ab3 313c
00000300: d7af c8bd 30a1 91bd b750 bbbb 34d9 c8bd
00000310: 430f 01be 3d4b d3bc f5ab f73c ba33 75bd
00000320: 6453 bdbd 0141 88be e1c1 60bd 207c fbbd
00000330: ee17 08be 4456 99bd b453 c03b 3295 67bd
00000340: c81c 10be fb3e c9bd 7bf4 e9bc 8da2 59bd
00000350: 691a 9bbd 57c7 9cbd 5209 34bd 9471 813c
00000360: aaff 47be d560 24bd 4800 083e 7f0b e4bd
00000370: bedd a0bd f4af 2dbd 8825 50bc 0e6b bcbc
00000380: 37d6 7d3d bd2b 9bbc 839e 14be 4df7 a9bb
00000390: eac2 4fbe c5a7 7fbd 6da8 44bc 7953 5abd
000003a0: 3c77 9ebd b869 42bd 7099 e6bd 4cab 2cbd
000003b0: d2f0 b8bd 5523 4d3a be24 debd 67c6 2dbd
000003c0: 20c3 9abd 8362 81be d8c7 79be 4845 733c
000003d0: 7f28 e5bd c39a 9fbd 5fe1 dfbb ec3d 703d
000003e0: 03ee 8dbd 524e 0bbd 682a 4abc cf39 cabd
000003f0: 6296 aebd 135f b6bc c48b 7abd 16b4 3bbe

fc2.bias f4 [256]
0.023620589 0.06576788 0.016455654 0.078680314 0.025702024 -0.018286195 0.0049728486 0.0985874
0.01502289 0.09720661 -0.017711712 -0.059660655 0.050118517 -0.009185513 0.006809926 -0.031867288
-0.034140065 0.0029793663 -0.018208686 -0.07501319 0.008733218 0.018548397 -0.044411186 0.036817905
-0.053283274 -0.068878055 0.046897627 -0.053488262 0.0714556 0.010482871 0.096866205 -0.029265286
-0.0029472506 0.054813676 -0.049490657 -0.048225984 0.066065475 0.03876971 0.055968933 -0.016538154
-0.031128852 0.058422167 -0.057213787 0.04153901 0.05851215 -0.006118769 0.025825074 0.0644596
0.02677171 0.05237776 -0.0051507344 0.0070652463 -0.023982106 -0.0043606805 0.018945914 0.050410748
-0.025512006 -0.030659702 0.020242598 0.027920423 0.09886939 0.018143905 -0.0569586 0.022426656
0.03910349 0.009079235 0.02095221 0.03860074 -0.014160719 0.08478471 -0.013439574 -0.0146101285
0.028815096 0.062981874 -0.0018340502 0.05281723 -0.057964247 0.0390844 -0.0486293 0.04168707
-0.009441446 0.010808204 0.046057016 0.05921651 0.01391619 0.07169117 -0.031059735 0.05343212
0.015145158 0.042332936 0.075733535 0.017396158 0.062567994 0.013504538 -0.018193675 0.022484832
0.0132197365 -0.065946646 0.004515413 0.08345299 0.027088502 0.01887153 -0.0031937931 -0.04528367
0.048363063 0.08251397 -0.0014451465 0.058701847 0.08600966 -0.05175551 0.01868003 0.05731403
0.09094354 0.09448357 0.033787567 0.10329068 0.0149893435 -0.033642635 0.050014652 0.039785016
-0.024138007 0.11734292 0.14166172 0.07993564 0.08196184 0.04374091 0.046200655 0.057093926
0.00804868 -0.03575895 0.030698573 0.06730607 -0.048502147 0.08784687 0.048734516 -0.058186937
0.03760876 -0.09838536 0.010878812 0.04505068 0.054830454 0.03328533 -0.0104759475 -0.031266246
-0.0054756035 0.034960672 0.047569882 0.0925693 0.074677646 -0.024412906 -0.06422446 -0.057793893
0.040288832 0.062112853 -0.029148653 0.019737454 0.03995207 -0.040967118 0.040105525 0.003939849
0.061751846 -0.014532582 0.017380817 -0.0013711862 0.031973198 -0.05595539 0.05105456 0.073979795
0.0006953572 -0.010828135 0.07183769 0.028962614 -0.063450634 0.05760825 -0.004003701 0.050241847
0.056615595 0.069504425 0.03467283 0.036779273 0.07273215 0.08040415 -0.0019882207 -0.008767866
-0.015037808 0.040845558 0.049886778 0.04532299 0.064457074 0.054216694 -0.053117942 0.07384382
0.06388733 -0.013032299 0.06805564 -0.019349506 0.024532085 -0.03305259 0.036229096 0.09664023
-0.059239186 -0.060125384 0.0960739 0.04010231 0.0381429 0.11175809 -0.045904096 0.012646295
0.006832018 0.0049045165 -0.11128101 -0.00087245693 0.06190868 -0.05858633 0.0010647041 0.07008008
-0.0040271673 0.080233745 0.01794052 -0.028142944 0.06580414 0.07185608 -0.0616164 -0.020679044
-0.036746845 -0.004968093 0.07638517 -0.06574525 -0.020125996 -0.04194627 0.048571847 0.031353436
0.013046122 0.05511658 0.011753877 -0.03115225 -0.014928321 -0.024659298 0.053917136 0.029458957
0.053301163 0.111879244 -0.031541448 -0.007335214 0.025692964 -0.015954858 0.12940182 0.037764583
0.028692406 0.06003237 0.07614746 -0.0077542514 -0.002532859 0.015600286 0.022130579 0.08145131
00000000: f77f c13c 4fb1 863d 02ce 863c 2523 a13d
00000010: 0d8d d23c eecc 95bc 47f3 a23b 31e8 c93d
00000020: 9122 763c 4214 c73d 2718 91bc bb5e 74bd
00000030: 1349 4d3d d57e 16bc cd25 df3b 4687 02bd
00000040: 74d6 0bbd 7941 433b 622a 95bc 84a0 99bd
00000050: c515 0f3c cff2 973c 81e8 35bd 5fce 163d
00000060: 903f 5abd f00f 8dbd ba17 403d 8216 5bbd
00000070: 5057 923d 59c0 2b3c ca61 c63d c1bd efbc
00000080: a926 41bb 4e84 603d b7b6 4abd 9c88 45bd
00000090: 564d 873d fdcc 1e3d ae3f 653d 067b 87bc
000000a0: ef01 ffbc 154c 6f3d 0159 6abd cf24 2a3d
000000b0: 70aa 6f3d f47f c8bb 1b8f d33c 6503 843d
000000c0: 5850 db3c 108a 563d 7ec7 a8bb 9583 e73b
000000d0: 1f76 c4bc 0ae4 8ebb 7634 9b3c 807b 4e3d
000000e0: 8efe d0bc 0e2a fbbc ced3 a53c 5fb9 e43c
000000f0: 097c ca3d 87a2 943c 6c4d 69bd 1bb8 b73c
00000100: fb2a 203d 12c1 143c f8a3 ab3c cf1b 1e3d
00000110: 5c02 68bc 9ba3 ad3d a931 5cbc 525f 6fbc
00000120: a30d ec3c a4fc 803d 8364 f0ba e156 583d
00000130: eb6b 6dbd f716 203d 842f 47bd 10c0 2a3d
00000140: 4bb0 1abc e514 313c 48a6 3c3d 038d 723d
00000150: bb00 643c d2d2 923d fc70 febc a3db 5a3d
00000160: 6623 783c 4d65 2d3d 2f1a 9b3d 6382 8e3c
00000170: a623 803d 2342 5d3c e70a 95bc 1c32 b83c
00000180: 9897 583c 090f 87bd 08f6 933b 67e9 aa3d
00000190: b5e8 dd3c 7898 9a3c f54e 51bb 5f7b 39bd
000001a0: 5918 463d 16fd a83d 126b bdba 5971 703d
000001b0: d525 b03d 96fd 53bd dd06 993c 1ec2 6a3d
000001c0: 9b40 ba3d 9a80 c13d d564 0a3d 108a d33d
000001d0: dd95 753c dccc 09bd 2adc 4c3d 9df5 223d
000001e0: 12bd c5bc 7c51 f03d c50f 113e 4cb5 a33d
000001f0: 9cdb a73d ab29 333d e63c 3d3d 52db 693d
00000200: 9cde 033c fa77 12bd 937b fb3c c4d7 893d
00000210: 30aa 46bd 0fe9 b33d d89d 473d 6d55 6ebd
00000220: a50b 1a3d 437e c9bd 0b3d 323c 1087 383d
00000230: e695 603d 3356 083d 4fa3 2bbc 0911 00bd
00000240: b16c b3bb ec32 0f3d a3d8 423d f994 bd3d
00000250: 98f0 983d 93fd c7bc 1d88 83bd 4ab9 6cbd
00000260: e705 253d 0c6a 7e3d 28c9 eebc 71b0 a13c
00000270: c8a4 233d 23cd 27bd b145 243d d919 813b
00000280: 81ef 7c3d 111a 6ebc 3762 8e3c 60b9 b3ba
00000290: 54f6 023d 7b31 65bd 961e 513d b882 973d
000002a0: a248 363a 7d68 31bc a41f 933d 0143 ed3c
000002b0: 68f2 81bd a1f6 6b3d 7a31 83bb 65ca 4d3d
000002c0: c1e5 673d 5658 8e3d 1905 0e3d dda5 163d
000002d0: 98f4 943d eeaa a43d cf4c 02bb 18a7 0fbc
000002e0: 2361 76bc ac4d 273d 1456 4c3d 99a4 393d
000002f0: 1202 843d 5312 5e3d 3392 59bd 6e3b 973d
00000300: 5cd7 823d 6c85 55bc c160 8b3d db82 9ebc
00000310: 83f7 c83c 2762 07bd f664 143d 50eb c53d
00000320: caa4 72bd 0946 76bd 65c2 c43d 5242 243d
00000330: bb3b 1c3d 6de1 e43d ef05 3cbd 6832 4f3c
00000340: 1fdf df3b 11b6 a03b 4ce7 e3bd 98b5 64ba
00000350: f593 7d3d 38f8 6fbd 8b8d 8b3a 2586 8f3d
00000360: 54f6 83bb 9751 a43d fff7 923c 088c e6bc
00000370: 52c4 863d 4829 933d 7a61 7cbd 1967 a9bc
00000380: dc83 16bd 62cb a2bb d46f 9c3d 72a5 86bd
00000390: 46df a4bc dacf 2bbd 46f3 463d 766c 003d
000003a0: 67bf 553c ecc1 613d 5593 403c 0133 ffbc
000003b0: eb95 74bc 4c02 cabc 37d8 5c3d e953 f13c
000003c0: 5252 5a3d f220 e53d 9b31 01bd 3c5c f0bb
000003d0: 0d7a d23c c3b3 82bc e981 043e 09af 1a3d
000003e0: 560c eb3c 81e4 753d 33f3 9b3d 6017 febb
000003f0: 53fe 25bb 5898 7f3c 304b b53c f2cf a63d

fc3.weight f4 [2, 256]
0.5399454 0.7332902 0.17620023 0.10356891 0.17221949 0.724978 0.4848056 0.7934225
0.8107953 0.37788215 0.25570643 0.33501765 0.5774566 0.24831949 0.49550354 0.6927403
0.7211706 0.8079863 0.7768171 0.5283687 0.663794 0.7214201 0.1927167 -0.080943905
0.044087447 0.3517434 0.71432596 0.05218108 0.4622337 0.016661081 0.5167264 0.73357016
-0.23989591 0.14203545 -0.01539786 0.7734584 0.87319535 0.66783065 0.7945135 0.45647892
0.6517067 0.10799101 -0.0557827 0.75964963 0.6837072 0.75093555 0.8180851 0.1677534
0.16683713 -0.037407707 0.73972297 0.0131253 0.69838935 0.6030869 0.7864268 0.48387578
0.8314878 -0.25534585 -0.022461481 0.09527254 0.10491228 0.40744278 0.3852406 0.012695234
0.60886776 0.06816229 0.81799567 0.59157693 -0.11822599 0.4683621 0.11620709 0.048307773
-0.09589747 -0.38296288 0.011392491 0.8588845 0.6691823 0.75260895 0.061167203 0.25901014
0.8236246 0.8258866 0.25507617 0.28476763 0.4884864 0.7712458 -0.0129264295 0.25771827
0.14766626 0.7483415 0.9442185 0.8056268 0.6922229 -0.015044653 0.7328496 0.5778613
-0.050454706 -0.26275715 0.6199133 0.74183136 0.80546224 0.18317084 0.41259652 0.70972615
0.4209672 0.7171903 0.7130138 0.06725895 0.64670897 -0.31510997 -0.055406988 0.09388068
0.4449901 0.87307876 -0.025029158 0.021082817 0.47649866 0.8218297 0.72465223 0.4699762
0.34332797 0.05130938 0.0744386 -0.1313193 0.8080423 0.6069557 0.87972516 0.48274615
0.6383692 0.36460605 -0.029589746 0.8514264 0.15438001 0.8105313 0.6865626 0.18967238
0.15462531 -0.10479099 0.74955523 0.7514764 0.7696011 0.786676 0.50330216 0.48015657
0.59010506 -0.44333085 0.8787818 -0.08926667 0.62635964 0.76086813 -0.03921767 -0.06079842
0.43185255 0.4458519 0.67596185 0.1644773 0.787437 -0.052013442 0.74047464 -0.080080286
0.82170004 0.72545207 0.786474 -0.05744421 0.8423129 0.20585917 0.80853325 -0.049809877
-0.023528518 0.42227829 0.8798516 0.7027763 0.64976823 -0.09897433 0.1805428 0.78107977
0.5028226 0.07085299 0.4790395 0.29482764 0.5972396 0.055552498 0.6643055 -0.0023552328
0.41852477 0.14875907 0.7519004 0.08567226 -0.43145272 0.737964 0.9051621 0.8740819
-0.23005295 0.82302225 0.23193395 0.6898427 0.10729588 0.55412334 0.5463646 0.1215788
-0.04848049 0.635282 0.5175076 0.80221575 0.3615356 0.0038902266 0.7469632 0.74651474
0.7612434 0.21031776 0.56058747 0.46087402 0.7979628 0.003720671 -0.0010260971 0.729624
0.49097463 0.52988905 0.844299 0.7827653 -0.35264254 0.500089 0.2672489 0.48295406
0.7884454 0.7759511 0.011122961 0.52708036 0.7545868 0.6869088 0.5784913 -0.0017748069
0.7798752 0.03220606 -0.026438555 0.7412936 -0.009338835 0.7820262 -0.45268795 0.48154917
0.0038136 0.07240348 0.60771316 0.1373716 0.75108755 -0.070395015 -0.4969352 0.80373263
0.44002292 0.03929575 0.39771873 0.79821014 0.4003986 0.7176043 0.80098367 0.4920869
00000000: dd39 0a3f e8b8 3b3f d56d 343e f01b d43d
00000010: 4e5a 303e 2998 393f 7138 f83e bd1d 4b3f
00000020: 4890 4f3f c579 c13e f4eb 823e 6f87 ab3e
00000030: 32d4 133f 7747 7e3e a4b2 fd3e 6e57 313f
00000040: a39e 383f 31d8 4e3f 7cdd 463f 2c43 073f
00000050: 67ee 293f fdae 383f 8757 453e ebc5 a5bd
00000060: 0a95 343d b617 b43e 11de 363f d4bb 553d
00000070: e5a9 ec3e d27c 883c 2e48 043f 41cb 3b3f
00000080: 46a7 75be be71 113e 4e47 7cbc 5f01 463f
00000090: bb89 5f3f f3f6 2a3f 3d65 4b3f 9bb7 e93e
000000a0: 40d6 263f 642a dd3d 677c 64bd 6678 423f
000000b0: 6f07 2f3f 503d 403f 066e 513f 8cc7 2b3e
000000c0: 5ad7 2a3e d338 19bd 7c5e 3d3f 800b 573c
000000d0: a5c9 323f e763 1a3f 4453 493f 91be f73e
000000e0: 62dc 543f b1bc 82be 2401 b8bc 401e c33d
000000f0: 40dc d63d 579c d03e 423e c53e acff 4f3c
00000100: c2de 1b3f ac98 8b3d 2a68 513f 9671 173f
00000110: 7820 f2bd 28cd ef3e fcfd ed3d 5fde 453d
00000120: e565 c4bd b613 c4be 92a7 3a3c dbdf 5b3f
00000130: 884f 2b3f fbaa 403f 768a 7a3d fa9c 843e
00000140: 10d9 523f 4e6d 533f 5899 823e 10cd 913e
00000150: e41a fa3e 5d70 453f 60c9 53bc a6f3 833e
00000160: d335 173e 4f93 3f3f 4eb8 713f 8f3d 4e3f
00000170: 8535 313f d97d 76bc 089c 3b3f b8ee 133f
00000180: 98a9 4ebd 1b88 86be a3b2 1e3f a9e8 3d3f
00000190: c632 4e3f 2391 3b3e da3f d33e 9db0 353f
000001a0: 0389 d73e c999 373f 1388 363f 0fbf 893d
000001b0: b88e 253f 1856 a1be 70f2 62bd 8444 c03d
000001c0: bed5 e33e 1782 5f3f f309 cdbc dfb5 ac3c
000001d0: a2f7 f33e 6e63 523f cf82 393f b8a0 f03e
000001e0: afc8 af3e c929 523d 4473 983d 9178 06be
000001f0: dcdb 4e3f 7361 1b3f ab35 613f 812a f73e
00000200: 2a6c 233f a5ad ba3e 3266 f2bc 15f7 593f
00000210: cb15 1e3e fb7e 4f3f 91c2 2f3f 7a39 423e
00000220: 1956 1e3e a99c d6bd dae2 3f3f c260 403f
00000230: 9404 453f 9963 493f 69d8 003f 15d7 f53e
00000240: 2011 173f 43fc e2be d8f7 603f 72d1 b6bd
00000250: 1b59 203f 41c8 423f b5a2 20bd c407 79bd
00000260: c71b dd3e b346 e43e d60b 2d3f bd6c 283e
00000270: 7995 493f 0c0c 55bd bf8f 3d3f 2201 a4bd
00000280: ef5a 523f 3ab7 393f 5c56 493f 9f4a 6bbd
00000290: d1a1 573f bfcc 523e 09fc 4e3f 7105 4cbd
000002a0: e1be c0bc dc34 d83e f43d 613f 26e9 333f
000002b0: 3657 263f 0eb3 cabd 36e0 383e d8f4 473f
000002c0: fbb8 003f 5f1b 913d aa44 f53e a6f3 963e
000002d0: b2e4 183f 048b 633d ed0f 2a3f 405a 1abb
000002e0: e148 d63e 4c54 183e 8b7c 403f f074 af3d
000002f0: 5fe7 dcbe 35eb 3c3f b4b8 673f d5c3 5f3f
00000300: 0093 6bbe 96b1 523f 1880 6d3e 8899 303f
00000310: f1bd db3d 07db 0d3f 8dde 0b3f 4efe f83d
00000320: 7a93 46bd d7a1 223f 617b 043f 035e 4d3f
00000330: 321b b93e 2cf3 7e3b fb38 3f3f 971b 3f3f
00000340: d9e0 423f 8a5d 573e a982 0f3f aef7 eb3e
00000350: 4a47 4c3f 80d6 733b 1b7e 86ba a3c8 3a3f
00000360: 0761 fb3e cfa6 073f fb23 583f 4f63 483f
00000370: 908d b4be d505 003f d9d4 883e c145 f73e
00000380: 8fd7 493f bba4 463f 143d 363c bdee 063f
00000390: 9a2c 413f 41d9 2f3f 0118 143f a3a0 e8ba
000003a0: e7a5 473f 80ea 033d ab95 d8bc 6bc5 3d3f
000003b0: ea01 19bc de32 483f b7c6 e7be 9d8d f63e
000003c0: 97ed 793b 4748 943d 1793 1b3f 24ab 0c3e
000003d0: 4647 403f 432b 90bd 4a6e febe 6cc1 4d3f
000003e0: af4a e13e 95f4 203d caa1 cb3e 8057 4c3f
000003f0: 0c01 cd3e eab4 373f 440d 4d3f d0f2 fb3e

fc3.bias f4 [2]
0.2616028 0.1555029
00000000: cdf0 853e 273c 1f3e
