projects/codes/DoubleDQN/outputs/CartPole-v0/20220829-233635/models/checkpoint.pth (torch, 272215 bytes, 6 tensors)

fc1.weight f4 [256, 4]
000000 2c 56 ad 3e b9 36 50 be 1a c9 c7 be 9b be 8c 3e
       0.33854806 -0.20333375 -0.39020616 0.2748917
000010 90 4b 34 bf 94 42 bb 3e bb e2 e2 3e 10 3d 7c 3e
       -0.704278 0.36574233 0.44313607 0.24632668
000020 7d c9 31 3d bd 43 16 bd 16 1e 7a 3e a9 97 00 3d
       0.043405045 -0.036685694 0.2442554 0.031394634
000030 30 ff 3a 3e e4 86 47 be 30 51 15 bd 40 60 38 bd
       0.18261409 -0.1948505 -0.03645438 -0.045013666
000040 30 6c 94 3d 00 e7 02 bb 64 c9 df 3e 50 54 1f 3e
       0.07247198 -0.0019974113 0.43708336 0.15559506
000050 e6 90 1f be d3 6e c4 be 06 e9 1a bf d8 df 4e be
       -0.15582618 -0.38365802 -0.60511816 -0.20202577
000060 0b 9e 6e be 36 f1 23 3d 3d d0 38 3f f1 fb 87 3e
       -0.23302476 0.04002496 0.72192746 0.26559404
000070 75 a7 27 bf 98 29 d5 3e 50 c5 2e 3f 59 9d cc 3e
       -0.65489894 0.41633296 0.68269825 0.39963797
000080 2e 23 a1 3e f9 00 02 bf dc 9b 65 bf fa ec 9c be
       0.31472152 -0.50782734 -0.8969095 -0.3064955
000090 f7 f8 d4 3e e7 7d 94 bd b4 5e 30 3e 1d f8 8e be
       0.41596195 -0.072505765 0.17223626 -0.2792367
0000a0 76 c5 ee 3e bb 2e 30 be 9f 63 a9 3e a5 e7 fb bc
       0.46635026 -0.17205326 0.33083817 -0.030750105
0000b0 2d 0c 99 be bd df 9b 3e b2 d8 ce be 06 3c 16 3d
       -0.29892102 0.30444136 -0.403997 0.036678337
0000c0 c5 e7 10 bb 9a 82 4a bd 27 9b 58 bf 0e f1 a2 be
       -0.0022110802 -0.049440958 -0.84611744 -0.31824535
0000d0 37 49 ac 3d 44 4a 80 bd 30 c4 86 3f 23 95 ca 3e
       0.08412402 -0.06264165 1.0528622 0.39566907
0000e0 a3 ab 15 bc c2 b4 ad be d4 34 17 3f 3d 47 2d 3e
       -0.00913516 -0.3392697 0.59064984 0.16921706
0000f0 b2 76 fa be cf 8e e8 3e 30 96 5c 3f fc 80 b8 3e
       -0.48918682 0.45421454 0.8616667 0.36035907
000100 8f 99 bf be d7 3e 04 be 4f 5a 3f 3e f5 38 a1 3d
       -0.37421843 -0.12914596 0.18686794 0.07872192
000110 c8 36 e0 be 8a 99 a3 be c9 ac 9b 3e 32 c4 0e be
       -0.43791795 -0.31953079 0.30405262 -0.1394203
000120 f4 4f 9c 3e 6e e4 c8 3d 94 46 32 3e 76 54 1b 3e
       0.3052975 0.098091945 0.17409736 0.15168938
000130 28 ba 29 3e 34 c0 89 3e 75 b5 15 bf 1c eb 79 3e
       0.16574919 0.26904452 -0.58480006 0.24406093
000140 39 ce cc be b7 46 a8 be 2a c3 f1 3c bf 2f e5 bd
       -0.40001085 -0.3286645 0.029512007 -0.111907475
000150 b6 a3 9b 3e 77 64 94 be ee 0e 23 bf ee d1 cc 3e
       0.3039834 -0.289829 -0.63694656 0.40003914
000160 63 77 09 be 5f eb 9c 3e 98 01 a9 3e 6c 0f d5 be
       -0.13424449 0.30648324 0.33009028 -0.41613328
000170 65 54 22 3e 41 86 eb 3d 31 de 01 bf 0c 3f 49 be
       0.15852506 0.11500216 -0.5072966 -0.19652957
000180 44 78 32 3f 92 85 90 bd a0 24 33 bf 6b 7f 21 bd
       0.6971476 -0.070567265 -0.6997776 -0.039428156
000190 75 e5 bc 3e f4 0f 61 bd ae 43 3e 3f a9 99 3a 3e
       0.36893812 -0.054946855 0.7432202 0.18222679
0001a0 5f 41 bf be 82 70 d3 be 70 36 63 3f 04 3b d6 3c
       -0.37354562 -0.41296774 0.8875494 0.026151188
0001b0 19 11 2a 3e 4e 84 97 3b 83 20 eb 3e a0 80 d3 3e
       0.16608085 0.0046239262 0.45923242 0.4130907
0001c0 9a 1f f3 3e 7f 33 ab be 98 e8 46 bd 78 66 ca 3e
       0.47485048 -0.33437726 -0.048561662 0.39531302
0001d0 9a 61 23 3f c9 ae 37 3e d4 58 51 bf ea 3e b0 be
       0.63820803 0.17937769 -0.81776166 -0.34423
0001e0 50 48 ae be 36 75 9d 3d 70 31 2f 3f 8d 92 aa be
       -0.34039545 0.07688372 0.6843481 -0.33314934
0001f0 4d 6d 8d 3e d7 bb a8 be 3e 52 66 bf b0 35 c2 bd
       0.27622452 -0.3295581 -0.8996924 -0.09482896
000200 46 0c 5b 3e e3 07 e2 3e d2 25 35 be 2c b2 2e 3e
       0.213914 0.44146642 -0.17690209 0.17060155
000210 61 90 38 3e eb 55 e8 3e 0d 26 57 3f 52 1b b7 3e
       0.18023826 0.4537805 0.84042436 0.3576303
000220 48 a1 16 3f ac c2 cc 3d b6 6b 2f bf 8d bf e8 be
       0.58839846 0.09998068 -0.6852373 -0.45458642
000230 42 dd 63 be e8 ef 30 bd 42 70 ef be b0 24 2d 3e
       -0.22252372 -0.043197542 -0.46765333 0.16908526
000240 93 46 97 3d 2e 6e c5 bd 17 1e a2 3e 34 eb 19 3e
       0.07386508 -0.09640156 0.31663582 0.15031129
000250 05 a2 9c 3e 40 b6 e0 3e d2 c5 73 be 68 eb ce 3e
       0.3059236 0.43889046 -0.23805931 0.40413976
000260 7b 7c 9a 3d be 30 c5 bc 36 8b 48 bf 0c df c1 be
       0.07543274 -0.024071094 -0.7833742 -0.37865484
000270 32 ec a3 be 53 d3 29 be 89 3c 27 3f aa c0 3a be
       -0.3201614 -0.1658452 0.65326744 -0.18237558
000280 22 f0 d0 be 31 99 f9 3d cb 31 09 3f 53 68 dd 3e
       -0.40808207 0.12187422 0.53591603 0.43243656
000290 f3 64 a6 bd 4d 47 ce bd af 20 41 bf 81 43 b1 bd
       -0.08124723 -0.10072193 -0.75440496 -0.086554535
0002a0 72 f1 13 bf 34 dc 50 be 31 99 70 3e 08 80 30 3e
       -0.5779029 -0.20396501 0.23495938 0.1723634
0002b0 f0 14 e3 bb 61 fd b8 3d a8 c6 73 3f b6 88 03 3f
       -0.006929986 0.09032703 0.95225 0.5138048
0002c0 dd a0 9f 3e 69 78 cf 3c 44 23 90 be b8 fe e1 3e
       0.31177416 0.02532597 -0.28151906 0.44139647
0002d0 b5 9d 4e bb ff fa 38 be b0 3b 75 bf 0d 1e 0d be
       -0.0031527106 -0.18064497 -0.957942 -0.13780995
0002e0 59 df d0 be ae fd ec 3e 27 8a 8f be 5e 4a c6 be
       -0.407954 0.46287292 -0.2803509 -0.38728613
0002f0 89 2d b5 bd 8a 94 93 be e7 df e1 3d b0 b0 53 be
       -0.08846576 -0.28824264 0.11029034 -0.2067287
000300 1f 28 53 be 4a de 21 3d 0a 51 be 3e 08 39 d8 be
       -0.20620774 0.039518632 0.37171203 -0.4223101
000310 c9 84 45 3e 86 fe c4 3e f7 72 20 3f 11 5d cd be
       0.19288935 0.38475436 0.6267542 -0.40110067
000320 a0 00 f8 3d 14 4b bd be 60 8f da 3e a8 9b 46 be
       0.12109494 -0.36971343 0.4268751 -0.19395316
000330 ef ee 98 3e 19 db 13 3c de 0a 2f bd b3 ff 8e bb
       0.29869792 0.009024405 -0.042734973 -0.004363978
000340 af 94 3a bd 10 c6 a6 3e 20 1c 1d 3f de 5e 73 3e
       -0.045551952 0.32572985 0.6137104 0.23766658
000350 77 07 03 bf cc 2b da 3e ec 61 37 3f b0 a5 d6 3e
       -0.51183265 0.4261154 0.7163379 0.41923285
000360 51 ff 8f 3e 00 00 b0 be dc 30 f0 bd 1f 97 e7 3e
       0.28124478 -0.34375 -0.11728069 0.45232484
000370 45 a7 76 be 4a 14 03 3f 0d 1b fb be 8b c1 99 be
       -0.24087246 0.51202834 -0.49044076 -0.30030474
000380 cd 9c 3f 3e ea 6b a4 be bc 54 1d be ef 6b bd 3e
       0.18712159 -0.32113582 -0.15364355 0.3699641
000390 7e a0 11 3f 8f 4e d4 3e 08 72 a2 be 43 c5 bb be
       0.56885517 0.41466185 -0.31727624 -0.36673936
0003a0 a3 7a f8 3e 4c 24 95 bd d9 74 bf be e3 db b9 3d
       0.48531064 -0.07282314 -0.37393835 0.09075143
0003b0 e5 c5 de be 69 21 b4 3e a8 2d 14 3f 57 be ce be
       -0.43510357 0.3518174 0.57882166 -0.40379593
0003c0 b1 a1 f4 be e3 7b 15 bc d0 a3 ad 3e 92 71 80 bc
       -0.4777961 -0.009123775 0.33914042 -0.015679155
0003d0 b1 53 bd be 24 5c ea bd 8d d6 2f bf 05 cd a3 be
       -0.36977914 -0.11443356 -0.68686754 -0.31992355
0003e0 49 0c a5 be a1 53 ff 3e 48 44 ff 3e 8e fa 82 be
       -0.32235935 0.4986849 0.49856782 -0.25581783
0003f0 27 52 47 3d 70 4a 84 3e 75 7e 90 3d 02 51 8a be
       0.04866233 0.2583804 0.0705537 -0.2701493

fc1.bias f4 [256]
000000 c5 49 17 3e 90 48 af 3c 8d 99 3b 3e b2 47 8f be
       0.14774235 0.021396905 0.18320294 -0.27984387
000010 c2 bf fa be 1a 52 3b 3e d0 b7 17 be 7b 75 26 bd
       -0.48974425 0.18293038 -0.14816213 -0.04063938
000020 99 5b f6 3e 0c a8 2f 3e c2 75 c2 3e 32 a3 e6 bd
       0.48116758 0.17153949 0.37980467 -0.11261596
000030 b5 ac 82 be 72 1e 8d 3d f6 f4 af be 61 c2 4c 3d
       -0.2552239 0.068905726 -0.34366578 0.04999006
000040 de 87 b3 be 66 55 f4 3e 23 4e a7 be 80 73 1b 3f
       -0.35064596 0.47721404 -0.326768 0.60723114
000050 e7 6b e9 3e 6a db e8 3e 6a 31 b6 3e 95 21 55 3e
       0.45590135 0.454799 0.35584575 0.20813592
000060 4d 95 3a bc c3 dd 07 bc d6 ee 1e be 88 c1 dd be
       -0.011388135 -0.008292618 -0.15520796 -0.43311715
000070 5e 82 07 3f 50 e1 6f bb ee 85 99 3e c2 1c 61 3e
       0.529333 -0.0036602803 0.29984993 0.21983626
000080 ce 11 b5 3e c6 2f 83 bd b2 51 9f be 0a 5d 09 3f
       0.35365146 -0.064055964 -0.31117016 0.5365759
000090 43 92 9e 3e b9 56 db 3e 99 67 d3 be 77 04 0d 3e
       0.30970964 0.42839602 -0.41289976 0.13771234
0000a0 8b 87 b8 be f9 f6 5c 3c 4f ff 03 bd fd 87 96 be
       -0.3604091 0.013486617 -0.032225903 -0.29400626
0000b0 f6 1c f0 be 09 04 35 bc b4 17 0e 3f 5b ec 03 3f
       -0.46897095 -0.011048325 0.5550492 0.51532525
0000c0 b0 08 71 be d4 a4 ec bc 0c 14 d6 be f7 f4 c9 be
       -0.2353847 -0.02888719 -0.4181217 -0.39444706
0000d0 11 7f b7 bc 18 f0 0d 3f 76 e7 09 be cd 63 e1 3d
       -0.022399457 0.5544448 -0.13467202 0.110053636
0000e0 34 c8 05 3f 24 c7 eb 3d 6c a7 0d 3f 6e 23 d8 3e
       0.5225861 0.115125924 0.5533359 0.4221453
0000f0 80 3a 11 3f 0b 76 6b 3e 35 d6 a3 be a6 77 d2 be
       0.5672989 0.22994249 -0.31999364 -0.4110691
000100 2c 22 69 be f6 8b 1b 3f 35 08 b3 3e 19 b8 45 3e
       -0.22766942 0.6076044 0.349672 0.19308509
000110 71 e0 be be 98 c4 aa be ef 6c 03 3f 75 63 53 bd
       -0.3728061 -0.33353114 0.51338094 -0.05160852
000120 9c 6d 00 bf f5 20 c0 bc 40 c3 8b bd 03 55 f0 3d
       -0.5016725 -0.023453215 -0.0682435 0.11734965
000130 79 33 88 3e a2 9b 87 3e 1e 94 d7 be 9c 5a 6f 3c
       0.2660177 0.26485926 -0.42105192 0.014609005
000140 df 6f ec bd 49 4d de 3e 36 3c bc 3e b1 df a8 3e
       -0.11544775 0.4341834 0.36764687 0.32983163
000150 a9 88 07 3f b7 ed 90 3e 25 96 ff be e6 dd 4c 3e
       0.529429 0.28306362 -0.4991924 0.20006523
000160 5c 1c ac be e4 a5 0f 3e ff 0f 00 3d 71 ad 19 3f
       -0.33615386 0.14028126 0.031265255 0.60030276
000170 8e c4 a0 be 6b 0b d2 be 7d 0e da bd c4 1c 34 3e
       -0.3139996 -0.41024336 -0.10647295 0.17589098
000180 7f 73 eb 3e 69 47 06 3f e5 d4 0f 3f ef b1 75 3e
       0.45986554 0.52452713 0.56184226 0.23993658
000190 cd 69 7b bd c7 6a 8d bc ea 59 a0 be cb df f8 3d
       -0.061380196 -0.01726283 -0.313186 0.1215206
0001a0 fe be b5 be d4 87 8d 3e f0 59 e3 3e 15 e5 04 3f
       -0.35497278 0.2764269 0.44404554 0.5191205
0001b0 94 a1 ec be 0c bd 13 3f e8 32 ad be 79 95 55 bc
       -0.46217024 0.5771034 -0.338279 -0.013036125
0001c0 1f d5 fb 3e ff 3a cc 3e 4e 66 54 bd 62 76 c3 3e
       0.49186036 0.3988876 -0.051855378 0.38176256
0001d0 a3 ac f2 be 5e f3 fa 3e fd ed 25 3f f8 c8 85 bd
       -0.47397336 0.490138 0.64816266 -0.06532472
0001e0 fd 28 2d 3e 11 09 a2 bd 65 ca 89 be 6a 8e 6b be
       0.16910167 -0.079118855 -0.26912227 -0.23003545
0001f0 f0 1c c9 3c 24 d2 a3 be 53 4e ac be e2 0e 3d 3e
       0.024549931 -0.31996262 -0.33653507 0.18462709
000200 10 26 89 be 0e 61 83 be 90 9f 2f 3c 30 3b 75 be
       -0.26786852 -0.25659984 0.010719195 -0.2394836
000210 c7 c1 11 3f 4e d3 12 be 6a a8 83 be f3 b4 a5 bd
       0.56936306 -0.14338419 -0.25714427 -0.08091154
000220 a7 7d da be 63 ce db 3e 0a 5f 11 3f 39 02 c7 bd
       -0.4267399 0.42930898 0.56785643 -0.09717221
000230 41 94 33 bd ec 0d 16 3f 5c 30 b9 be 31 d0 1b 3e
       -0.043842558 0.58614993 -0.36169708 0.15216137
000240 72 94 d0 be b0 9a f7 be 0c 3c 65 bd 39 3e 9c bd
       -0.40738255 -0.48360205 -0.05596547 -0.076290555
000250 0b 0f ad 3e cd af 14 be ca b0 a8 3b 13 04 80 be
       0.3380054 -0.14520188 0.005148028 -0.25003108
000260 52 e2 c0 3e d3 8e 18 3f 78 60 29 bd 65 b1 80 be
       0.3767267 0.5959293 -0.041351765 -0.2513534
000270 40 53 ee be 85 e9 2a 3f 74 8c 99 3e 85 0b 9c 3e
       -0.4654789 0.6676257 0.2998997 0.3047754
000280 7d 4a c8 3d 63 d4 92 3e 9f e2 8b 3e 20 40 c0 3e
       0.097798325 0.28677663 0.27321336 0.37548923
000290 36 79 fa 3e 17 92 f3 3d 10 3e f9 3e f1 57 f4 3e
       0.48920602 0.11893099 0.48680162 0.47723344
0002a0 8b 30 32 3b 27 70 b8 bd f3 b7 49 3e c8 c9 00 3f
       0.0027189578 -0.09005766 0.19699077 0.50307894
0002b0 3b 27 d5 3e 37 1b ec bd 65 7f bf bd 5b c9 55 3e
       0.41631493 -0.11528628 -0.093504705 0.20877592
0002c0 6b cb 61 3e 5d 26 18 3f 53 56 b8 3e db 78 74 3e
       0.22050254 0.5943354 0.3600336 0.23874228
0002d0 48 18 31 3e c7 2d c3 be f8 09 f8 bd 45 93 a0 bc
       0.17294419 -0.38120863 -0.121112764 -0.019601474
0002e0 f0 16 b2 be d4 f6 d0 be 4a 43 e3 3e b0 8f 85 3e
       -0.34783125 -0.40813315 0.44387275 0.26086187
0002f0 8d fa ed be e8 eb 27 3c 8e 1b ec 3e 17 6e ac 3e
       -0.46480218 0.0102491155 0.46114773 0.33677742
000300 ae a6 08 3f 06 64 90 bd 72 a2 92 3e a4 a9 cf be
       0.53379333 -0.07050328 0.2863956 -0.40559113
000310 3c c4 01 bc 0e dc 0d be e7 14 96 3c b3 ce c9 3e
       -0.007920321 -0.13853475 0.018320514 0.3941551
000320 58 b1 9e 3e d7 9f 80 be d0 b0 21 bd e0 4e b4 bd
       0.30994678 -0.25121948 -0.039475262 -0.08804107
000330 b4 2c 39 be f5 76 81 be 71 94 ec 3e 8a 98 f7 3e
       -0.18083459 -0.2528607 0.46207002 0.48358566
000340 5d 03 05 3f 32 95 94 be 65 53 de 3e 60 16 97 bd
       0.51958257 -0.29020077 0.43423 -0.073773146
000350 39 a5 60 bd 25 44 ab bd 68 c7 98 3c 8b 5b 4d be
       -0.05484507 -0.08362607 0.018649772 -0.20054452
000360 f5 27 aa 3c 32 a9 a4 be cb 7b b1 3e 9a 78 b9 be
       0.020771006 -0.32160336 0.3466476 -0.36224824
000370 78 35 2e be 8b 66 88 be 86 13 ed 3e 20 b3 e7 3e
       -0.17012584 -0.26640734 0.46303958 0.4525385
000380 08 8b bb be ae 89 54 be 34 c4 1e 3f ca 01 42 3e
       -0.3662951 -0.20755646 0.6201813 0.18945995
000390 31 fd e8 3e 86 09 c7 be e1 04 a3 3e 9e 95 ee 3e
       0.4550567 -0.38874453 0.3183966 0.46598524
0003a0 cb 73 f5 bd 7f 8a 9c bc 73 88 d0 3e 86 2b 8e 3e
       -0.119849764 -0.019109009 0.40729102 0.2776758
0003b0 39 36 96 3e f4 bc f4 3d 92 b1 35 be f3 26 88 be
       0.29338244 0.119501024 -0.17743519 -0.26592216
0003c0 d6 a1 14 3f c8 1b 65 3c 41 f9 0c 3f cd de 0c 3f
       0.5805944 0.013983674 0.5506783 0.55027467
0003d0 12 da 71 be b1 23 f7 3c 2f 84 ab bd 76 20 6f bd
       -0.23618343 0.030168386 -0.083748214 -0.058380567
0003e0 7b 70 c0 3e 31 10 b3 3e 83 a1 a2 be d5 db 74 be
       0.37585816 0.3497329 -0.3176385 -0.23911984
0003f0 18 51 d5 be af ad e8 be 2c d3 ac 3e 3e 53 84 be
       -0.41663432 -0.4544501 0.3375486 -0.2584476

fc2.weight f4 [256, 256]
000000 4b 8d 9d bb e1 ca 43 bc 8e 38 e3 3b e0 a5 6f bb
       -0.004808103 -0.011950226 0.006934232 -0.0036567375
000010 10 d9 04 3d 2a 2d 7b 3c c7 66 01 3d 4e 3b 8d 3a
       0.03243357 0.015330592 0.031592157 0.001077512
000020 98 a4 cc 3a da c5 05 3c e8 59 17 3d 0c 54 13 3c
       0.0015613018 0.008164847 0.036950976 0.008992206
000030 78 30 35 3d a0 b0 60 bc 51 a8 fe bb 1e b2 30 3d
       0.044235677 -0.013713986 -0.0077715297 0.043138616
000040 61 6e 93 bd 17 8c 81 3b 84 d2 69 3d 3d e7 09 bd
       -0.071987875 0.0039534676 0.05708553 -0.03366779
000050 2e 61 5c bc 85 fe 14 bc 47 f0 92 3c 22 ec c7 3c
       -0.013450904 -0.009093885 0.017936839 0.02440459
000060 8b 08 3e 3c 3d 82 a6 3c 14 02 09 bd 58 5d 41 3c
       0.0115987165 0.020325774 -0.033449247 0.01180204
000070 3d e8 d1 bc 82 08 02 3d 7a 4d a6 bc 10 61 3e bd
       -0.025623435 0.031746395 -0.020300616 -0.046479285
000080 60 be 69 bb de 28 c3 3b 0a 11 b6 bb 83 33 e2 ba
       -0.003566645 0.0059557995 -0.0055562304 -0.0017257783
000090 28 4d a5 bb ef f0 fb 3c a7 19 27 3b 70 6f 6f bd
       -0.005044598 0.030754535 0.0025497468 -0.058455884
0000a0 f3 2a ae bd 70 6d 85 3a 23 17 19 bc c0 4f 58 3d
       -0.08504286 0.001017971 -0.009343895 0.05281043
0000b0 3c 72 ba bc 71 64 63 3d 13 31 5c bd 30 6e 77 bd
       -0.02275955 0.05551571 -0.05375774 -0.060407817
0000c0 30 08 13 bc d5 58 35 bd bc 4f 95 bc 20 af e6 3b
       -0.00897412 -0.04427417 -0.018226497 0.0070399195
0000d0 54 0f 5e bd f5 cc 19 3d aa e5 34 bd af 85 3c 3d
       -0.054213837 0.037548978 -0.044164337 0.046025928
0000e0 26 f5 7c 3c 1d 7d 83 bc d5 9f 70 bd 8e 51 e2 3b
       0.015439307 -0.01605087 -0.058746178 0.0069066947
0000f0 a9 78 1a bd 72 a2 6c 3d 00 ef 57 bd 26 3e a1 bc
       -0.037712727 0.057772107 -0.052718163 -0.019682955
000100 30 16 0d bd a1 fb 39 bd 28 e2 ee bc 14 80 38 bc
       -0.034444988 -0.045405988 -0.029160574 -0.011261005
000110 d8 55 8a 3a 25 1d 1f 3c 15 6b e0 3c 88 ae 00 bd
       0.0010554148 0.009711538 0.02739481 -0.031416446
000120 de d6 2b bd d9 de 9a bc 80 84 70 3d 5b 8f 47 bb
       -0.04195296 -0.01890509 0.05872011 -0.0030450437
000130 0c 54 6b bd ca 8d 33 3d 1c bc 49 3c 78 33 35 bc
       -0.0574532 0.043836392 0.012312915 -0.011059634
000140 8a 05 10 3c ef db 29 3d ed 5e 05 bd 34 62 46 3d
       0.008790383 0.04146951 -0.03256123 0.048433498
000150 06 14 6b 3d 90 3b a6 bc 44 99 14 3d 30 fa f7 3c
       0.057392143 -0.020292073 0.036278978 0.030270666
000160 3f 9b 48 3d 6c 15 db bc a0 be 24 bd 9d 20 a5 bc
       0.04897618 -0.026743613 -0.040220857 -0.020157153
000170 01 54 2d bd 1e 7a 50 bc 23 87 24 3d 55 ce 6e 3d
       -0.04231644 -0.0127244275 0.04016794 0.058302242
000180 06 a6 2e 3d 27 4f 08 3b da 37 e6 ba ca ae 1b 3d
       0.0426388 0.0020799132 -0.0017564252 0.03800849
000190 b0 64 0b 3d 60 a0 60 bb 40 6d ae bc 58 47 96 3c
       0.03403157 -0.0034275278 -0.021292329 0.018344566
0001a0 0c 45 98 bb bf f5 54 bd da 9b f4 bc e2 46 58 3d
       -0.004646903 -0.051992174 -0.029859472 0.052801974
0001b0 92 31 48 3d a5 50 fa bc fa 15 60 bc 13 4b 1d bd
       0.0488754 -0.030556032 -0.013677115 -0.038401674
0001c0 c6 56 c3 bc d3 62 55 3d 18 3e 67 bd c3 c2 cb 3c
       -0.023845088 0.0520962 -0.0564557 0.024873143
0001d0 57 13 73 bd 70 f9 ee bc 3e 2a 9c bc 13 aa 32 3b
       -0.059344616 -0.029171675 -0.019063111 0.0027262017
0001e0 33 0b 84 bc c5 38 04 bd 4b 5b fe bc d7 04 25 bd
       -0.016118621 -0.032280702 -0.031049391 -0.04028782
0001f0 74 a7 45 bd 13 f8 09 bd f3 2f 6e 3d 1b 3e e3 bc
       -0.0482554 -0.033683848 0.058151197 -0.027739575
000200 7c 9b 61 bd 94 85 1b 3d 74 16 b5 3c f8 a8 12 3d
       -0.055079922 0.037969187 0.022105433 0.035805672
000210 36 41 85 bd 5f 96 85 bd 4a 41 4b bd 8f de d2 bc
       -0.065065786 -0.06522822 -0.04962281 -0.02574089
000220 84 34 83 bc 88 5d c6 3c 2a 95 0d 3d d6 2f 5c bd
       -0.016016252 0.024214521 0.034566082 -0.053756557
000230 bb c1 b6 3c b7 57 0a bd 70 60 6b 3c 04 7c 99 3c
       0.022309175 -0.033775058 0.014366254 0.018735893
000240 58 df 23 3c 34 6f 60 3c c7 e8 15 bc 12 02 29 3d
       0.01000198 0.013698388 -0.009149737 0.04126174
000250 fc 8a cb 3b ba 29 41 3d d7 0a 02 3c 35 d2 2a bd
       0.0062116366 0.047158934 0.007937155 -0.041704375
000260 c2 3a 19 3d a6 88 41 ba 8e b8 fc 3c 92 ff 8f bc
       0.03740955 -0.0007382728 0.030849721 -0.01757792
000270 46 4a 7d 3d 8f 48 24 bd cf 19 03 3d 04 3c 29 bd
       0.06183841 -0.04010826 0.032007035 -0.041317
000280 ec 48 0f 3d 8c 5f a7 3b 12 d7 05 3d a7 c1 4c bd
       0.034981653 0.0051078256 0.03267581 -0.04998937
000290 9e 3f 8a bd ed 25 e5 3c a4 35 c7 bc 25 87 b4 3c
       -0.06750415 0.027972186 -0.02431757 0.022037098
0002a0 87 e9 39 bd 1b 0e ae bc 58 ec 5c bb d4 e9 16 3d
       -0.045388725 -0.02124696 -0.0033710208 0.03684409
0002b0 38 69 11 3d ba 0b 0d bc ab 1e be bc 2e 0b 9f bb
       0.035500735 -0.008608753 -0.023207983 -0.0048536276
0002c0 83 f7 ca 3c 91 bd 5b bd 34 f2 aa bc 44 0f 81 bd
       0.024776226 -0.05364758 -0.020867445 -0.0630174
0002d0 f6 7b f9 3b e6 11 2d bc 17 ee d5 3c 31 b0 2e 3d
       0.0076136542 -0.010563349 0.026114507 0.042648498
0002e0 76 e3 5a bd a5 b6 1a bd 7c 8e 81 bc 0f 02 fe bb
       -0.05343958 -0.03777184 -0.015815012 -0.0077517102
0002f0 5e d2 8c bc 1d 82 1a bd 30 06 bd bc 22 23 76 bb
       -0.017190155 -0.037721742 -0.02307424 -0.0037557562
000300 80 43 49 3d 18 4d 9e bc c9 36 42 3d 08 f0 4e bd
       0.04913664 -0.01932387 0.04741553 -0.05052188
000310 05 0a d3 3b 70 c6 47 bd 4a e5 c3 bd 89 62 39 3c
       0.0064404034 -0.04877323 -0.09565218 0.0113149965
000320 45 6d 0a bd aa 06 11 3d 14 29 50 3d e7 3c 89 bd
       -0.033795614 0.035406746 0.050820425 -0.06701069
000330 f0 b9 8e bb 50 f0 2e bc a7 1e 13 bd 64 4d 43 bd
       -0.0043556616 -0.010677412 -0.035917904 -0.047681227
000340 2f fb e5 bc 67 54 e4 3c ef c2 71 3c eb 75 0a 3d
       -0.028073875 0.027872277 0.014755948 0.03380386
000350 76 17 0b bc 7f 79 db 3c 70 fc 74 3c 77 3e 98 bc
       -0.00848948 0.026791332 0.014952764 -0.018584473
000360 fa b2 a0 bb 90 d4 68 bd d5 67 13 ba 8d b1 be bc
       -0.004904148 -0.05684334 -0.0005623077 -0.023278022
000370 93 53 f0 bc fc 56 fb bc ce 91 9c bc 2a 31 33 bd
       -0.029336726 -0.030681126 -0.019112494 -0.04374806
000380 27 74 55 3b 65 5b b8 bb a9 d7 93 bc 6b b2 42 3d
       0.0032570453 -0.0056261295 -0.01804717 0.047533434
000390 67 2c 11 3d 4c 99 90 3c 1a 35 e6 bc 99 8e 69 3b
       0.035442736 0.017651223 -0.028101493 0.0035637973
0003a0 5f ab 47 bd ee a1 65 3c 53 26 5e 3d 98 4b 91 bc
       -0.048747417 0.014015658 0.054235768 -0.017736241
0003b0 75 ab 54 3d e2 1c 5c 3d 27 0d e3 bb 74 1e be bc
       0.051921327 0.053738482 -0.006929058 -0.02320788
0003c0 8a b1 ed 3b 30 39 29 3c 64 be 7e bd 78 a7 8a ba
       0.0072538303 0.010328576 -0.06219329 -0.0010578474
0003d0 83 bd ec bc 7d 12 f5 3c f7 7c 20 bc 3b 4f 10 3d
       -0.02889896 0.029916042 -0.009795419 0.03523181
0003e0 f5 1e 4c 3d d5 65 bf bc 1a 40 c2 3c 23 97 0b bc
       0.04983421 -0.023363987 0.023712207 -0.0085199205
0003f0 c9 e2 11 bd d4 02 0e bd 3a c3 c0 3b a9 f5 83 3c
       -0.03561667 -0.034670666 0.005882648 0.01610835

fc2.bias f4 [256]
000000 cf 99 4a 3d d8 c3 ef bc 2e 80 ab 3b ee 1b a4 3d
       0.04946309 -0.02926819 0.005233786 0.0801314
000010 0f 90 1a 3d 20 fa ce ba 50 91 25 bd 57 1e 5a bd
       0.03773504 -0.0015791096 -0.040421784 -0.05325159
000020 18 ba f2 bb 18 69 69 3d cb d4 28 3c 7a b2 13 bd
       -0.007407438 0.05698499 0.01030464 -0.03605888
000030 14 e6 51 3c 90 8b 1f 3d 9f c8 aa 3c 6a be 2c 3d
       0.012811203 0.038951457 0.020847617 0.04217378
000040 23 d1 c8 3d 14 32 1e bc d4 9e 0c 3d 07 87 a0 3d
       0.09805515 -0.009655494 0.034331158 0.078382544
000050 31 60 05 3e 82 e3 04 3d 18 9a a1 bd 0b 7f 0e 3d
       0.13024975 0.03244353 -0.07890719 0.034789126
000060 00 1f 47 bb 2e e1 93 3d 20 6a b3 3c e6 81 ac 3d
       -0.0030383468 0.07220684 0.02190119 0.08423214
000070 26 3b 5e 3d c5 aa 88 3d 92 3f 05 3d 3d 3d f3 3c
       0.054255627 0.06673197 0.03253133 0.029692287
000080 77 6e 46 3d ec 0a f1 3c f6 75 4b bd f0 df 09 3d
       0.04844519 0.029424153 -0.049673043 0.03366083
000090 9f 09 4e bc a9 61 73 bc ae e8 a0 3c 4e 0d f8 3c
       -0.012575536 -0.014854827 0.0196422 0.030279782
0000a0 69 40 97 3c a6 68 47 3c a5 ca 0a bd e4 6c 2e 3e
       0.01846333 0.012170946 -0.033884663 0.17033726
0000b0 73 16 44 3e 7c 4e 87 3d a9 88 17 3c fb d3 e2 bc
       0.19149189 0.066067666 0.009248891 -0.02768897
0000c0 96 17 98 3d e3 5e 02 3d 73 9e 0e bd 8e e6 32 bd
       0.07426374 0.031828772 -0.034819078 -0.043676905
0000d0 84 7f 38 3b df 6c 7a bc e3 ca f0 bc e8 fb 97 bc
       0.0028152177 -0.015284746 -0.029393619 -0.018552735
0000e0 b9 fc b4 3c 35 ff 43 3d f0 c7 18 bd 2e 31 1b bc
       0.022093164 0.047850806 -0.03730005 -0.009472175
0000f0 b9 01 3d bc 36 3e df bc a7 ca 4d bc c2 94 b1 3d
       -0.011536055 -0.027251344 -0.012560523 0.086709514
000100 ae 44 32 bc ed 0c 87 3c e4 a3 9c 3c d4 d6 ab 3c
       -0.010880632 0.016485656 0.019121118 0.020976461
000110 52 1c f0 3d ac 3b 33 3d 16 49 21 bd 6a 46 25 bd
       0.11724152 0.04375808 -0.03937634 -0.040350355
000120 7d ae b1 bb 4a 88 3a bd 08 27 a0 bb 4e c3 ec bb
       -0.005422412 -0.04554013 -0.0048874654 -0.0072254306
000130 5e 14 c0 3c fd 9d 1a bd 26 75 dd 3c f2 0a c6 3d
       0.023447212 -0.037748326 0.0270334 0.096700564
000140 8a 34 7c bd 14 44 eb 3b 40 28 1e 3c 5d a5 15 bd
       -0.061573543 0.0071797464 0.009653151 -0.036534656
000150 70 f9 e0 3c 24 c1 2c bc e0 cb 78 bc f3 4b ce 3d
       0.027462691 -0.010544095 -0.015185326 0.1007308
000160 28 e5 90 b9 de fa 9e bc d8 ff 78 3d c0 e4 26 3c
       -0.00027636555 -0.019406732 0.060790867 0.010186374
000170 11 fd ef 3c 51 f7 d8 3c 91 c1 3e 3d 11 a8 2d 3d
       0.029295476 0.026485117 0.046571318 0.04239661
000180 3a 50 9a bc 58 63 a8 3c 28 25 69 3d fa cf f3 3b
       -0.018837083 0.020555183 0.0569202 0.007440564
000190 e9 00 e4 3c 68 08 0b bc a5 60 30 bd f0 a0 1d bc
       0.027832465 -0.008485891 -0.043060917 -0.00962089
0001a0 8a 7e 50 bd af 8b 93 3d d3 2b 60 3d 80 e3 31 3a
       -0.050901927 0.07204377 0.054729294 0.00067859143
0001b0 7f af 8c bb d7 60 11 bd 36 f8 1e bc 73 07 c6 bb
       -0.0042933817 -0.035492744 -0.009702733 -0.0060433685
0001c0 a6 7e ab 3a 01 1b 34 3e de 7f 9d 3c 54 96 32 3d
       0.0013084009 0.17588426 0.01922601 0.043600395
0001d0 db 02 a7 3d ec 2d 28 bd 34 2b ed 3c 7a 73 8d 3c
       0.081548415 -0.04105942 0.028951265 0.017266978
0001e0 65 be 4b 3e ce 4b ca bc bf be 3c 3d 0c f6 85 bd
       0.19896848 -0.02469435 0.046080347 -0.0654107
0001f0 0c 91 15 bc 20 af 8a bb 5b 56 7a bd 04 14 b1 bc
       -0.00912882 -0.0042323023 -0.06111751 -0.02161599
000200 ea 03 c7 3b 5a 5f 84 3d 88 9a b5 bc 49 99 16 3d
       0.0060734646 0.06463499 -0.022168413 0.036767278
000210 a6 20 67 3d 68 15 6a 3d df 48 12 3e 9e ad 75 bb
       0.05642762 0.05714932 0.1428561 -0.0037487517
000220 51 fc e0 3d df bd 59 bd 59 37 4d bd 39 d9 36 3c
       0.109856255 -0.05315959 -0.05010161 0.011160188
000230 84 61 1e 3e 0e de 96 ba 64 d0 cb 3c f0 e9 3c 3c
       0.15466887 -0.0011510269 0.024879642 0.011530384
000240 82 55 80 3d 01 59 33 bc 15 33 1d 3e 4b ab d5 3c
       0.06266309 -0.010946513 0.15351517 0.026082655
000250 f8 30 ad ba f1 49 ed 3c 9e 91 29 bd f8 9a 53 bc
       -0.0013213446 0.028965922 -0.041398637 -0.012915365
000260 b9 72 24 3d 5a b5 22 3d 16 8b e6 3c e1 37 dc 3d
       0.04014847 0.03972373 0.028142493 0.107528456
000270 0b 7a 7c 3c 1a 40 76 3b 5a fd 7b bd f4 ee 1b 3e
       0.015409957 0.0037574829 -0.06152091 0.15227872
000280 79 0b 26 bd 46 bc 33 3d 62 09 17 3d 1c e7 ca bb
       -0.040538285 0.043880723 0.036874183 -0.006192101
000290 c2 9c 1b 3b 32 df 87 3b 04 b0 dc 3c c4 31 8a 3d
       0.0023744558 0.00414648 0.0269394 0.06747773
0002a0 c7 46 48 3d 3d 12 10 bd f7 2a 46 3d 89 52 1c 3d
       0.048895624 -0.035173643 0.04838082 0.03816465
0002b0 d0 68 b4 3d aa 05 a4 3c 0d 7a 97 3c b6 3d 08 3e
       0.08809054 0.020022232 0.018490816 0.13304791
0002c0 86 e3 fa bc c5 03 7d 3d 04 4f e3 3d 60 26 4c bd
       -0.03062607 0.061771173 0.110990554 -0.049841285
0002d0 3e 5e c2 3d 74 f3 98 bb d9 e3 a2 bb bf f5 0a 3e
       0.094906315 -0.0046676937 -0.004971009 0.13570307
0002e0 2e cf c3 3c e5 20 ca ba c9 d2 ad 3b 05 a3 82 bd
       0.023902502 -0.001542118 0.0053046686 -0.0637875
0002f0 dc 4e 85 bc 10 b6 19 3d f6 e5 53 3c fd 1b b2 3c
       -0.016272955 0.037527144 0.012933245 0.021741861
000300 e7 4f ab b9 10 b9 2c 3c c2 89 12 3d 6d d4 1c 3d
       -0.00032675194 0.010542169 0.035775907 0.038288523
000310 9d 7a 80 3c 60 27 7a 3d 94 03 de 3d ca 20 66 3d
       0.015683467 0.061072707 0.10840526 0.056183614
000320 db c5 37 3c 1e 06 d6 3d 7c 96 1e 3e 4d 6c 8c bc
       0.011216606 0.104503855 0.15487093 -0.017141486
000330 74 93 c3 bc 15 58 35 bd a7 fa 8b 3c c4 ef b6 3d
       -0.023874022 -0.044273455 0.017087294 0.089324504
000340 24 ee 0d bd 66 b8 27 bd fa 09 da bc 0a 71 a5 bc
       -0.034650937 -0.04094734 -0.026616085 -0.020195503
000350 70 3e 6c 3d 93 e1 35 3d e7 b0 7d 3d a3 10 67 bb
       0.057676733 0.044404577 0.061936285 -0.003525772
000360 bf 58 f1 3c eb d3 c5 bc 8f 01 80 3d 54 26 04 bd
       0.029461263 -0.024148902 0.06250297 -0.032263115
000370 06 82 5c bc 34 62 31 bd ec 7c 10 bd 8d 65 cd bb
       -0.013458734 -0.043306544 -0.035275385 -0.0062682093
000380 1c 3a 31 bd 45 b4 d3 bc eb 86 00 3b e8 f0 2f bd
       -0.043268308 -0.025842795 0.0019611667 -0.042954355
000390 83 81 36 3d 09 7d 02 bd d3 2a cf 3d 9b 21 69 3d
       0.044557106 -0.031857524 0.1011559 0.056916814
0003a0 89 fe 33 3d ac bf 29 3d 0d e2 8c 3c 73 69 f8 3d
       0.043943916 0.04144256 0.017197633 0.12129488
0003b0 55 2e 67 bd fa b3 3f 3e 21 a2 74 3b 10 9d df 3c
       -0.05644067 0.18721 0.0037328082 0.027296573
0003c0 fd 95 18 bd d0 36 88 3c fa ba c0 3c b2 84 6a 3d
       -0.037252415 0.0166277 0.023526657 0.057255454
0003d0 e6 37 6d bd aa 69 b9 3d 54 22 7c 3c 69 89 7e bc
       -0.057914637 0.09053357 0.015389044 -0.015535691
0003e0 36 03 d4 3d 1c 52 85 3d 97 a1 8a 3c 7a 84 00 3e
       0.10352175 0.06509802 0.016922755 0.12550536
0003f0 3f 47 71 3b 9e 5f 60 bd 1a 0b 83 bd 65 17 75 3d
       0.0036816148 -0.054778688 -0.06398602 0.059836764

fc3.weight f4 [2, 256]
000000 62 d2 63 3d fe 64 99 bd 1f 2b 73 be 97 6e d1 3d
       0.05562056 -0.07489966 -0.23746918 0.102261715
000010 b8 01 7c bc 3f b0 c3 bd 14 73 32 3d d3 2e 7a be
       -0.015381269 -0.09555101 0.04356678 -0.24431925
000020 d9 c7 c4 bd 3b 5f 18 be e0 97 49 be 72 b7 21 3d
       -0.096084304 -0.14880078 -0.19686842 0.039481588
000030 c8 ae c0 3d bf e6 1f 3d d2 ed b9 bd 7c 46 40 3d
       0.09408337 0.039038416 -0.09078564 0.04694222
000040 af ec 98 3d 4f be fc bc 4f 9d 1f be 9d 40 99 3d
       0.07467019 -0.030852465 -0.15587352 0.07483027
000050 56 60 ee 3d 5c d1 ab 3d a5 ab 6a be 56 18 6e 3d
       0.11639468 0.083895415 -0.2291704 0.058128677
000060 fa 5d 15 3d 1d 9a a6 3d f8 45 7b 3d 9c 42 5c 3d
       0.036466576 0.081348635 0.061346024 0.05377446
000070 92 bd 18 3b b2 2f ed 3c 8d 91 2d bc 72 e1 8c 3d
       0.0023306352 0.028953407 -0.010593784 0.06878938
000080 1b 4e bf 3d 0d d7 b1 3d 50 0d b0 bd 36 28 b6 bc
       0.09341069 0.08683596 -0.08596289 -0.022235971
000090 74 69 04 be 8f 0f 82 3c 86 34 fd bd e1 bc 9d 3d
       -0.12930852 0.01587656 -0.12363534 0.077020414
0000a0 22 ed d0 bd 0b f9 af bd ec 68 41 3d d9 07 d3 3d
       -0.102014795 -0.08592423 0.047219202 0.10304231
0000b0 ce 9c 02 3e a2 0f d5 3d 84 51 e6 bd fd 2f 45 be
       0.12755129 0.10403372 -0.112460166 -0.19256587
0000c0 e4 66 58 3d 42 33 ea 3c 3c 5f e6 3c 02 10 1b be
       0.0528325 0.028588895 0.028121583 -0.15142825
0000d0 95 38 9f 3d e2 82 f2 bd f6 07 05 be 14 b2 eb bd
       0.07774464 -0.1184137 -0.12991318 -0.11508575
0000e0 0a 76 01 3d 49 3f 12 bd 8e 6b bf 3c bd cb 60 3d
       0.03160671 -0.035704885 0.023366716 0.0548818
0000f0 b7 73 fc bd c9 8a e8 bd d2 d8 e6 bd a4 0a b7 3d
       -0.12326758 -0.11354596 -0.11271824 0.089375764
000100 2f 28 a1 3d 32 f9 9d 3d 58 51 34 3b 22 a8 b8 3c
       0.078689925 0.07713546 0.0027514305 0.02254111
000110 a9 10 d1 3d a8 80 0b 3c a2 3f ff 3d 2b 6b 02 3d
       0.10208256 0.008514561 0.12463309 0.031840485
000120 31 26 12 be 7a 76 12 bd 59 14 42 3d e6 e1 f6 bd
       -0.14272381 -0.03575752 0.047382686 -0.120548055
000130 7f a6 4d 3d 4d c0 10 bd c7 8f af bd b7 cd b7 3d
       0.05020761 -0.035339642 -0.08572345 0.08974784
000140 1e 91 13 3d 30 55 c0 3c 1f 76 bf 3d 98 e4 cd bd
       0.036027066 0.02347812 0.09348702 -0.100533664
000150 39 6a 41 be 01 d8 91 3d ce 07 c8 3d 6b 8c 8d 3d
       -0.18888177 0.071212776 0.097671136 0.06911548
000160 06 35 6b 3c 3e 49 5c be 07 90 f6 bb eb c3 5f 3d
       0.0143559035 -0.21512315 -0.0075244936 0.0546302
000170 99 0d 66 3d 86 da bf 3d 92 82 60 bc ad 6b ae bd
       0.05616531 0.09367852 -0.013703005 -0.08516631
000180 4d f5 fa bd 8f 30 ba bc 17 cf a1 3d 51 3f 01 bc
       -0.12253819 -0.022728233 0.079008274 -0.007888631
000190 dc e8 11 3c 95 c7 84 be 7f 33 af 3d ae d8 62 3d
       0.008905616 -0.2593352 0.08554744 0.055382423
0001a0 1b e4 22 be a4 a2 6e 3c d8 60 15 be c0 41 2c bd
       -0.15907328 0.014565144 -0.14587724 -0.04205489
0001b0 d9 34 7d 3b 6e e7 83 bd e8 65 82 3d a9 a6 cf bc
       0.0038636236 -0.06440626 0.06367093 -0.025348024
0001c0 81 82 de 3c 8e ce 9e 3d 72 d6 4f 3d f7 cf 6f be
       0.027161838 0.07754241 0.05074162 -0.23419176
0001d0 6f fa c0 3d 9d 25 8d bc 2c da 08 3d f8 09 d1 3d
       0.094227664 -0.01722985 0.03341119 0.102069795
0001e0 50 22 dc 3d 92 f4 1d 3d 7f 74 0b 3d 7c 12 65 be
       0.10748732 0.03856332 0.034046646 -0.22370332
0001f0 53 07 ec 3c dc dd 60 3d 7c bf 5e bd 98 79 2c bd
       0.028812086 0.05489908 -0.054381832 -0.04210815
000200 2a ce af 3d 94 8c 93 ba 36 00 5e bc a5 c6 34 3d
       0.085842445 -0.0011257106 -0.013549855 0.044134755
000210 34 01 c4 3c cb 58 01 be 62 36 b7 3d 64 dd 0b be
       0.023926355 -0.12631528 0.089459196 -0.13658673
000220 47 ca f0 3d c3 12 58 be 12 aa 4c 3d f8 ba dc bd
       0.11757331 -0.21100907 0.04996688 -0.10777849
000230 6c 8b bb 3d 6f 1c 07 be ce 2a af bd 42 4c 02 bd
       0.09157452 -0.1319444 -0.08553086 -0.031811006
000240 15 80 a7 3d 9e 5c db bd 23 6c b0 3d 99 a9 43 bd
       0.081787266 -0.10711025 0.086143754 -0.047769163
000250 00 85 50 bd 44 4d e6 bd 17 e1 3f bc 07 cb c7 bc
       -0.05090809 -0.11245206 -0.01171138 -0.024388803
000260 ed d9 05 be 51 cd 57 3d ba 62 cd 3d f7 e2 ba 3d
       -0.13071413 0.05268604 0.10028596 0.09125321
000270 16 cc 0b be c5 3b 10 3d 30 5d 08 3c 00 51 03 3e
       -0.13652071 0.03521325 0.008322999 0.12823868
000280 7d 5d c6 bc c1 22 d1 bd 80 5d 0f bb 34 be d8 3c
       -0.0242145 -0.10211707 -0.0021875799 0.026457883
000290 50 78 63 3d 70 f0 b6 3d 08 10 c3 3c 54 9c a5 3d
       0.05553466 0.089325786 0.023811355 0.08086458
0002a0 f1 89 c8 bd 5f 1b b8 3d 8e 0d fc bc d4 e2 fe bd
       -0.09791935 0.089895956 -0.030768182 -0.12445608
0002b0 27 75 ac be 61 85 16 be e2 c6 a7 bb da 96 8f 3d
       -0.3368313 -0.14699318 -0.005120144 0.070111945
0002c0 18 ea 4f 3d ca 85 99 3d 79 a2 8d 3d 74 37 ee 3c
       0.05076036 0.07496221 0.06915755 0.029079176
0002d0 65 e3 e7 3d 11 10 ba 3d b0 ae 0c be 63 44 85 3d
       0.11322669 0.09085096 -0.13738513 0.06507184
0002e0 95 ba 5f be a3 47 3d be 74 e9 81 bd 31 a5 23 bb
       -0.21848519 -0.18484358 -0.06343356 -0.0024970288
0002f0 da 9c ed bd c3 07 de bc 60 5e bc bd ed 6c a9 3d
       -0.11602183 -0.02710331 -0.09197688 0.08272729
000300 8a 6b 56 3d e0 11 4f 3c 19 2b 00 3e 97 e7 99 3d
       0.05234865 0.012638539 0.1251644 0.075148754
000310 2c 65 b4 bd 48 bb 87 3c af 2f 91 3d fb dc a0 3d
       -0.088083595 0.016568795 0.07089173 0.07854649
000320 64 a3 8b 3c 35 05 c1 3d c2 ae ab 3d 55 23 09 be
       0.017045684 0.09424821 0.08382942 -0.13392384
000330 ef b9 1a bc 72 68 62 3e fd ad 11 bd 8e 19 62 3d
       -0.009443744 0.22110155 -0.03556632 0.055200152
000340 eb 0f 82 3d 46 c2 f9 bc 14 82 c0 bd 46 c5 23 be
       0.06350692 -0.030488145 -0.093998104 -0.15993223
000350 72 07 8d 3c e0 88 45 3d cd 11 c1 3d f7 3d a5 bd
       0.017215464 0.048226237 0.09427223 -0.080684595
000360 8c b6 42 3c dc bc ee bd 08 93 91 3d 39 b1 ce 3c
       0.011884343 -0.11657116 0.07108122 0.02523099
000370 fa 30 32 be 1a cf 9f bd f2 e3 a9 bd 87 7b 4c bd
       -0.17401496 -0.07803173 -0.0829543 -0.049922492
000380 91 83 e3 3d 1a ba 75 3d 08 09 72 3d c7 15 a5 3d
       0.11109079 0.059991933 0.059090644 0.08060794
000390 32 c6 4c be fd 03 2d 3d 3d 2a 3a 3d 23 ae ab 3d
       -0.1999748 0.04224013 0.045450438 0.08382823
0003a0 72 f9 0a be a6 3a b1 3d 09 a0 a3 bd af a0 e8 3d
       -0.13571718 0.086537644 -0.07989509 0.11358773
0003b0 35 d6 51 bd 27 23 ed 3d ed 84 cd bd 77 b1 e2 3c
       -0.051229674 0.115789704 -0.10035119 0.027672512
0003c0 3e fd a3 be 7a e3 99 bd e6 7b b1 bd b4 f8 d1 bc
       -0.32029146 -0.07514091 -0.0866621 -0.025631286
0003d0 36 e6 24 bd 0c 53 0b be ff b7 d8 bd 46 e0 dc bd
       -0.04025861 -0.13605899 -0.105819695 -0.10784964
0003e0 da ad f6 3d 7b 93 1c bc c2 39 9b 3d 63 2b c5 3d
       0.12044878 -0.009556646 0.07579376 0.09627416
0003f0 9a 1d 6b be 09 97 fc 3b 3d c5 6e 3d 23 90 49 bd
       -0.22960511 0.0077084345 0.05829357 -0.049209725

fc3.bias f4 [2]
000000 de 9b 33 3c 7c a2 d3 bb
       0.010962455 -0.0064585786
