projects/codes/DDPG/outputs/Pendulum-v1/20220927-155053/models/actor_checkpoint.pt (torch, 270167 bytes, 5 tensors)

linear1.weight f4 [256, 3]
0	0x3eaa26b7	0.33232662
1	0xbf160356	-0.5859884
2	0xbdf681ec	-0.120364994
3	0x3e1d25d8	0.15346467
4	0xbf0f98ea	-0.56092703
5	0x3ead088b	0.3379558
6	0x3de95d89	0.113947935
7	0x3d083c44	0.0332606
8	0x3e1625e8	0.14662898
9	0xbea627a2	-0.32452112
10	0x3dbefb83	0.09325316
11	0xbd079963	-0.033105265
12	0x3e6ea1b5	0.23303874
13	0xbe5a9bc4	-0.21348482
14	0xbcedf58d	-0.029047752
15	0xbe75ac5b	-0.2399153
16	0xbe50f37b	-0.2040538
17	0xbd292bfb	-0.04130171
18	0x3ea48efd	0.3214034
19	0xbd9cc3fd	-0.07654569
20	0xbe1c1e01	-0.1524582
21	0xbeebc970	-0.46052122
22	0xbe8de078	-0.2771032
23	0xbe3f6399	-0.18690337
24	0xbec9d1ff	-0.39418027
25	0x3e62863d	0.2212152
26	0x3e799cde	0.24376246
27	0x3ec181d1	0.37794355
28	0xbee26527	-0.44217798
29	0x3ed0005d	0.40625277
30	0x3eac0561	0.33597854
31	0x3f5fe9fe	0.8746642
32	0x3eab37f8	0.33441138
33	0xbf052282	-0.5200578
34	0xbf6bb60d	-0.9207466
35	0xbe25ed76	-0.16203865
36	0x3f2e2f52	0.68040955
37	0x3db3d23d	0.08780334
38	0x3e99a502	0.30008703
39	0xbf1583c8	-0.5840421
40	0x3eb9f8a4	0.3632251
41	0xbe82abe0	-0.25521755
42	0x3eb64c5e	0.3560514
43	0xbe399461	-0.18123008
44	0xbea96397	-0.33083794
45	0x3eb7a808	0.35870385
46	0xbe4deaa1	-0.20109035
47	0x3e4fe3f9	0.20301808
48	0xbda3080f	-0.079605214
49	0xbddb10f1	-0.10696591
50	0xbf059570	-0.5218115
51	0xbeef280f	-0.4671025
52	0x3e61af60	0.22039557
53	0xbe3e61be	-0.18591973
54	0x3f47bc27	0.7802147
55	0x3f5d6164	0.8647673
56	0x3d210ecf	0.039320763
57	0xbf0837f7	-0.53210396
58	0x3f31fd00	0.6952667
59	0x3dd0f9ea	0.10203917
60	0xbf2f213d	-0.6841009
61	0x3ebc7521	0.36808112
62	0x3e44c832	0.19216993
63	0x3f133838	0.5750766
64	0xbf20c4a8	-0.62800074
65	0xbddd31b1	-0.108004935
66	0xbb4feec7	-0.0031728016
67	0x3a680cfb	0.0008852032
68	0xbec5a53a	-0.3860262
69	0xbf004ccc	-0.5011718
70	0x3d4427b4	0.047889426
71	0xbe44099c	-0.1914429
72	0x3eb227bc	0.3479594
73	0x3eb56581	0.35429004
74	0x3e3c21b9	0.18372239
75	0xbcd6b67c	-0.026210062
76	0x3f0d0080	0.5507889
77	0x3d252369	0.040316973
78	0xbf258566	-0.64656675
79	0x3dbd1502	0.092325225
80	0xbecf9dc5	-0.40550056
81	0xbee1e908	-0.441231
82	0xbe96514e	-0.29358906
83	0xbe18440b	-0.14869706
84	0x3e7ab427	0.24482785
85	0xbf21b381	-0.63164526
86	0xbed913cf	-0.42397925
87	0x3eee7e06	0.46580523
88	0x3e19c8b1	0.15017964
89	0x3ec37e97	0.38182518
90	0x3e61a801	0.22036745
91	0xbea0f866	-0.31439513
92	0x3e3639ee	0.17795536
93	0x3ec12c78	0.3772924
94	0xbed80241	-0.4218922
95	0xbe95c502	-0.29251868
96	0x3d1af743	0.037833463
97	0x3e48c0ee	0.19604847
98	0xbe233e89	-0.15941824
99	0xbed8e9c5	-0.42365852
100	0x3eadebee	0.33969063
101	0xbe27b3bf	-0.16377161
102	0x3c664532	0.014054583
103	0x3e3ff4bd	0.18745704
104	0xbe81254c	-0.25223768
105	0xbf4929b2	-0.78579247
106	0x3f0453e7	0.51690525
107	0xbd455d99	-0.048184965
108	0x3f159d42	0.5844308
109	0x3e97f49f	0.2967882
110	0x3e6aa054	0.22912723
111	0x3e5bd279	0.21467008
112	0x3f0eb12e	0.55739105
113	0xbed0bae2	-0.4076758
114	0xbd2016a9	-0.03908411
115	0x3f46e82e	0.7769803
116	0x3e0a9226	0.13532314
117	0x3ea59cc8	0.32346177
118	0xbf2fc40e	-0.6865853
119	0xbecb80d0	-0.39746714
120	0xbf203623	-0.62582606
121	0x3ebb1363	0.36538228
122	0x3edbcc8a	0.42929488
123	0xbf00f7f0	-0.5037832
124	0x3e10a02c	0.141236
125	0xbe94f5ff	-0.2909393
126	0xbf53bf0d	-0.82713395
127	0x3d36dcde	0.04464423
128	0x3e84a069	0.25903633
129	0x3f1de3cc	0.61675715
130	0xbe2b9553	-0.16756181
131	0x3e862832	0.26202542
132	0x3f1813e0	0.59405327
133	0x3f4eea54	0.80826306
134	0x3e8fc400	0.28079224
135	0x3f1527c0	0.5826378
136	0x3f18629b	0.5952546
137	0x3e3bf102	0.18353656
138	0xbeee4672	-0.4653812
139	0xbf4b5692	-0.7942897
140	0xbe17d9cb	-0.14829175
141	0xbdbaeded	-0.09127412
142	0xbed93728	-0.42424893
143	0x3e1826e2	0.14858583
144	0x3e8700f7	0.26367924
145	0xbe96bdad	-0.29441586
146	0x3e301e28	0.17199004
147	0x3dcc35c9	0.09971196
148	0x3f4e312c	0.8054378
149	0x3db02f64	0.08602789
150	0xbf212a85	-0.62955505
151	0x3ed3e228	0.4138348
152	0xbdffed6c	-0.124964565
153	0xbdd1b72d	-0.10240016
154	0xbf4b68f9	-0.7945705
155	0xbe4aaa4d	-0.19791527
156	0xbedfc7bb	-0.4370707
157	0xbe5e1409	-0.2168733
158	0x3e97b372	0.29629093
159	0xbe4ea610	-0.20180535
160	0xbf1215e9	-0.5706468
161	0x3e317fd0	0.17333913
162	0xbd9622a9	-0.0733083
163	0x3f091680	0.5354996
164	0xbe86d487	-0.2633402
165	0x3d6f7b8a	0.058467425
166	0xbf18d567	-0.59700626
167	0xbda18b3a	-0.078878835
168	0xbeef0fee	-0.4669184
169	0xbefbb77e	-0.4916343
170	0xbe284238	-0.1643151
171	0x3eee4387	0.46535894
172	0x3e9496d2	0.29021317
173	0x3e3bb03e	0.1832895
174	0x3f4c1125	0.7971366
175	0x3f54030f	0.8281717
176	0x3ebb87d0	0.36627054
177	0xbe2d454b	-0.16920964
178	0xbd334166	-0.04376354
179	0x3e8982a1	0.26857474
180	0xbdc70f25	-0.097196855
181	0xbdfcf8ed	-0.12352166
182	0xbef233ee	-0.47305244
183	0xbebcf90f	-0.36908767
184	0xbd2809de	-0.041025035
185	0x3ebfd311	0.37465718
186	0xbf032589	-0.5122915
187	0xbf3521c5	-0.70754653
188	0xbd1e0a0c	-0.0385838
189	0xbed528b8	-0.41632628
190	0x3d73f24a	0.059557237
191	0xbe87c369	-0.26516274
192	0xbeee1461	-0.46499923
193	0x3e5d4a0a	0.21610275
194	0x3eab8b59	0.3350475
195	0xbf1d8404	-0.61529565
196	0x3f22ec0a	0.6364142
197	0x3e98e244	0.29860127
198	0x3f21680b	0.6304938
199	0xbec447b1	-0.38335946
200	0x3e7b9dfc	0.24571985
201	0xbf0ae150	-0.5425005
202	0x3e8882e4	0.26662362
203	0xbe819248	-0.25306916
204	0x3cdcb9eb	0.026944121
205	0xbebe8f31	-0.3721862
206	0x3bbf68be	0.0058413437
207	0x3c388aa1	0.01126352
208	0x3ea196a5	0.31560245
209	0x3e9a03ee	0.30081123
210	0x3e3b4d72	0.18291262
211	0x3d89d7e5	0.06730632
212	0xbeed22ab	-0.46315512
213	0x3ef3f157	0.47645065
214	0x3f82038d	1.0157334
215	0x3e541db7	0.2071446
216	0x3f006948	0.50160646
217	0xbf46cda8	-0.77657557
218	0xbe26d531	-0.16292264
219	0x3f09951a	0.53743136
220	0xbe37ad7b	-0.17937271
221	0x3f0e8b43	0.55681247
222	0xbf44fc11	-0.7694712
223	0xbe083a69	-0.13303532
224	0x3e427f0f	0.18993782
225	0xbf267c98	-0.65033865
226	0x3d619822	0.055076726
227	0x3eb7161a	0.3575905
228	0x3e3fddad	0.18736906
229	0x3f258d62	0.6466886
230	0xbd13be51	-0.03607017
231	0xbf235be9	-0.6381212
232	0x3ed5624f	0.41676566
233	0xbe665c95	-0.22496255
234	0xbebb96b5	-0.36638418
235	0x3d98587a	0.074387506
236	0xbeafb7aa	-0.34319812
237	0x3e41d891	0.1893027
238	0x3ecda551	0.4016519
239	0xbef1743f	-0.47159
240	0xbf3e104c	-0.7424362
241	0x3e0a86b7	0.13527952
242	0x3e4e99ea	0.20175901
243	0xbe04cdf1	-0.12969185
244	0xbf108617	-0.56454605
245	0x3d82d2e9	0.06387884
246	0xbf3a72f1	-0.72831637
247	0xbf40c915	-0.75306827
248	0xbe750435	-0.23927386
249	0x3e99e473	0.30057105
250	0x3f592316	0.8481916
251	0xbe5127bf	-0.20425318
252	0x3ebe52ef	0.37172648
253	0x3e067c8e	0.13133451
254	0x3e448053	0.19189577
255	0xbef90ce8	-0.4864266

linear1.bias f4 [256]
0	0xbd93a95b	-0.07210036
1	0x3d92fa27	0.07176619
2	0xbf16769a	-0.5877472
3	0x3e350f92	0.17681721
4	0xbf0993ae	-0.53740966
5	0x3eaa4a14	0.33259642
6	0x3ef90dd8	0.48643374
7	0xbd83ea55	-0.0644118
8	0x3de23e0f	0.11046993
9	0xbf0ed27f	-0.5578994
10	0xbe8b363a	-0.2718981
11	0xbe2cbce0	-0.16868925
12	0xbed399ea	-0.41328365
13	0x3e443d6c	0.19164056
14	0xbe3e79ce	-0.18601152
15	0xbe5bed40	-0.21477222
16	0xbf0f0cd8	-0.55878973
17	0xbecb2040	-0.39673042
18	0xbece0fd8	-0.40246463
19	0xbe83a029	-0.2570813
20	0x3ef2273b	0.47295555
21	0x3e4ec1ca	0.20191112
22	0xbf3ed1b8	-0.74538755
23	0x3d4a859e	0.049443834
24	0xbdd6a50c	-0.10480699
25	0x3ed97c6a	0.42477733
26	0x3f2b1fd2	0.6684543
27	0x3e8bcc7d	0.2730445
28	0x3ebedd7c	0.37278354
29	0xbe9e7418	-0.30947948
30	0xbe3a4ff8	-0.18194568
31	0xbec11ffd	-0.37719718
32	0x3d7e5c5a	0.062099792
33	0x3ef96996	0.48713368
34	0x3e1bff2e	0.15234062
35	0x3f273cc1	0.6532708
36	0xbebfd3d9	-0.37466314
37	0xbde54215	-0.11194245
38	0x3dee20f4	0.11627379
39	0x3ee31ef6	0.4435956
40	0xbef48ec0	-0.4776516
41	0xbd59ffa8	-0.05322233
42	0x3e0d73ea	0.13813749
43	0xbebdb58f	-0.3705258
44	0x3e2beb47	0.1678897
45	0xbdcb9527	-0.09940558
46	0xbdb46b35	-0.088095106
47	0x3eb56232	0.3542648
48	0x3eab9805	0.3351442
49	0x3f19bb27	0.60051197
50	0x3ea1383d	0.3148822
51	0xbe05859c	-0.13039249
52	0x3ef288d9	0.4737003
53	0x3f081921	0.53163344
54	0xbe8c447b	-0.27395996
55	0x3e57c113	0.21069746
56	0x3e397786	0.18112001
57	0xbeab481c	-0.33453453
58	0xbe8351df	-0.256484
59	0xbe9ff61b	-0.3124245
60	0xbf050374	-0.51958394
61	0xbe378a1c	-0.17923778
62	0x3e28cfc8	0.16485512
63	0x3ef62827	0.4807751
64	0x3e05a383	0.13050656
65	0xbed4b672	-0.41545445
66	0x3e31515d	0.17316194
67	0x3ce5442b	0.027986607
68	0x3ea73684	0.3265878
69	0xbf08f6f5	-0.53501827
70	0xbe84a5f0	-0.2590785
71	0x3ee6c06b	0.45068678
72	0x3e707531	0.23482205
73	0xbefe91bc	-0.49720562
74	0xbefc01e6	-0.49220198
75	0x3d44cc68	0.0480465
76	0x3e8c79dc	0.2743672
77	0xbf140cbc	-0.5783193
78	0xbf323317	-0.69609207
79	0xbddc2877	-0.107499056
80	0xbd51afb5	-0.051192958
81	0x3e6da32b	0.23206775
82	0xbee4cd6a	-0.44687968
83	0xbb8830e2	-0.004156218
84	0xbef394f6	-0.47574586
85	0x3d8bbfca	0.0682369
86	0xbe784986	-0.24246797
87	0xbe42efd5	-0.19036801
88	0xbf2f42f3	-0.6846153
89	0xbed9e1c9	-0.42555073
90	0xbeb42ab3	-0.35188827
91	0xbf05463a	-0.5206028
92	0x3ece9345	0.40346733
93	0xbd90467f	-0.07044696
94	0xbed2dd35	-0.41184393
95	0x3edac2a9	0.4272664
96	0xbe279b50	-0.16367841
97	0x3eba811d	0.3642663
98	0xbe5612d6	-0.20905623
99	0xbf378739	-0.7169071
100	0x3e358e79	0.1773013
101	0x3ec4b2cb	0.38417658
102	0xbedeb969	-0.43500832
103	0x3d51e133	0.051240157
104	0x3e3713fc	0.17878717
105	0x3e11ed56	0.14250693
106	0x3cff805e	0.03118914
107	0xbe1e305e	-0.15448138
108	0xbee40950	-0.44538355
109	0x3df35145	0.11880735
110	0xbf02a9a0	-0.5104008
111	0xbf178ece	-0.5920228
112	0xbd582d73	-0.05277772
113	0xbee67d0d	-0.4501728
114	0x3e9aa866	0.30206603
115	0x3eca939d	0.39565745
116	0x3ee8db01	0.45479587
117	0xbeb88a5d	-0.36043063
118	0x3e2d0bb7	0.16899
119	0x3ebdf7f2	0.3710323
120	0xbd337dda	-0.043821193
121	0x3ea27974	0.31733286
122	0x3ea8b035	0.32946935
123	0x3f00ded5	0.50340015
124	0x3e5bcf8d	0.21465893
125	0x3dc36c5d	0.09542153
126	0xbe84e528	-0.25956082
127	0xbe0de5d5	-0.13857205
128	0xbe00ead5	-0.12589581
129	0x3eca3e66	0.3950073
130	0xbcd5eeb3	-0.026114797
131	0x3d74d6cb	0.059775155
132	0xbf1dc414	-0.61627316
133	0xbe96d945	-0.29462638
134	0xbe237da6	-0.159659
135	0xbe874be5	-0.2642509
136	0x3ea39b5c	0.31954467
137	0xbf13c1d8	-0.5771766
138	0xbe0c7332	-0.13715819
139	0xbd9f5331	-0.077795394
140	0xbed71be6	-0.42013472
141	0xbd5ad5c1	-0.053426508
142	0xbe59d3a1	-0.21272136
143	0x3ea51ac6	0.3224699
144	0x3edb18ab	0.42792258
145	0x3f0a5a38	0.5404391
146	0xbd90d607	-0.070720725
147	0x3ee8bf9a	0.4545868
148	0x3f0b7574	0.54476094
149	0x3c93e015	0.018051187
150	0xbe00eb6b	-0.12589805
151	0xbda494b6	-0.08036177
152	0x3db4d270	0.088292
153	0x3e93a2ed	0.2883524
154	0xbf13c0a9	-0.5771585
155	0x3ea27e29	0.31736878
156	0x3dae8c4b	0.085228525
157	0xbed487da	-0.41509897
158	0xbd3f7bc0	-0.046748877
159	0x3ee40afc	0.4453963
160	0x3e603da7	0.21898519
161	0x3eefeabd	0.4685878
162	0x3e45baa5	0.1930948
163	0xbf265ddc	-0.6498697
164	0xbe4bd6cf	-0.19906162
165	0x3ed869d9	0.42268255
166	0xbd174e4c	-0.036939904
167	0x3e9b7df2	0.30369526
168	0x3e2a4725	0.16628702
169	0x3d3fa36e	0.046786718
170	0x3e0569a2	0.13028577
171	0xbcba0457	-0.022707148
172	0xbe975ec2	-0.29564482
173	0x3e9859e0	0.2975607
174	0x3ea1ab0f	0.3157582
175	0x3eb07b90	0.3446927
176	0x3f14dbe6	0.5814804
177	0x3cfb268b	0.030658027
178	0xbf09e421	-0.5386372
179	0x3cdf4d98	0.02725868
180	0xbe1bb117	-0.15204273
181	0x3e30cfa7	0.17266713
182	0x3f182210	0.59426975
183	0xbeb8160d	-0.35954323
184	0x3bba839f	0.00569196
185	0x3f182322	0.5942861
186	0xbea71979	-0.32636622
187	0x3df3ab9a	0.11897965
188	0x3f155ba8	0.5834298
189	0x3ee309a6	0.443433
190	0x3d4c55bc	0.04988645
191	0xbe40a2f1	-0.18812157
192	0xbe4ae8dd	-0.19815393
193	0xbe90d6a5	-0.2828876
194	0xbea5e3c2	-0.32400328
195	0xbef8a61c	-0.4856423
196	0x3f06a870	0.52600765
197	0x3efda480	0.49539566
198	0x3eda72e9	0.42665794
199	0xbd9e9b2d	-0.07744441
200	0x3e50252e	0.20326683
201	0xbe8d78f3	-0.2763134
202	0x3e818a62	0.2530089
203	0xbe102925	-0.14078195
204	0xbdc83b0b	-0.097768866
205	0xbe955fac	-0.29174554
206	0xbe1e6e6f	-0.15471815
207	0xbea73f9d	-0.3266572
208	0x3e3bac5c	0.18327469
209	0xbeb6eb49	-0.35726383
210	0x3d17a6f2	0.037024446
211	0x3e9bddac	0.3044256
212	0xbe31f6a0	-0.17379236
213	0x3ea626e9	0.3245156
214	0x3dfef3ff	0.12448882
215	0x3e8e9503	0.27848062
216	0xbe60e6bb	-0.21963017
217	0xbd04f37c	-0.032458767
218	0xbdba8e1a	-0.09109135
219	0x3e459505	0.19295128
220	0xbf0df1f0	-0.5544729
221	0xbe0d5c14	-0.13804656
222	0xbd0d7e0d	-0.03454404
223	0x3f0c6078	0.548347
224	0x3ece4348	0.40285707
225	0xbf17862c	-0.59189105
226	0xbf15c06b	-0.5849673
227	0x3f157df2	0.583953
228	0x3e0b9126	0.13629588
229	0xbf36b2db	-0.7136666
230	0xbe92a986	-0.2864496
231	0x3eb9fe72	0.3632694
232	0xbe8ea55f	-0.27860543
233	0xbef880b8	-0.48535705
234	0xbecf15f7	-0.40446445
235	0xbe3d9110	-0.18512368
236	0x3b4bb04a	0.0031080418
237	0x3eaf8882	0.34283835
238	0x3e96a973	0.29426154
239	0xbea9ac9b	-0.331395
240	0xbe0ff3a5	-0.14057787
241	0xbea8cb71	-0.32967713
242	0x3e239ab8	0.1597699
243	0x3f259827	0.6468529
244	0x3f045ff5	0.5170892
245	0x3db6137f	0.08890437
246	0xbe834a8c	-0.25642812
247	0x3e1a08e3	0.15042453
248	0x3eb60388	0.3554957
249	0xbeee5ea4	-0.4655658
250	0x3ccdf1fc	0.025139801
251	0xbeb7f286	-0.35927218
252	0xbf2976cc	-0.66196895
253	0x3ae6f14d	0.0017619521
254	0xbe1c0b40	-0.15238667
255	0xbf12a071	-0.57276064

linear2.weight f4 [256, 256]
0	0xbdf6022b	-0.12012132
1	0x3ab28dd0	0.0013622586
2	0x3e8d740c	0.276276
3	0xbe2c9ea1	-0.16857387
4	0xbd8a858f	-0.067637555
5	0xbe318fbe	-0.1733999
6	0xbe71a3fa	-0.23597708
7	0x3c905b95	0.017621795
8	0x3d8d59d6	0.069019005
9	0x3e009186	0.12555513
10	0x3db907e2	0.09034707
11	0x3c1099b8	0.008825712
12	0x3d88f116	0.066866085
13	0x3c983bc7	0.018583192
14	0xbddb7146	-0.107149646
15	0x3d0db8cd	0.034600068
16	0xbd87545f	-0.066078894
17	0xbc8d8ad0	-0.017278105
18	0xbcbe3b9f	-0.023221789
19	0xbbc7f461	-0.0061021303
20	0x3d411e34	0.047147945
21	0xbe170973	-0.14749698
22	0x3b7f0b76	0.0038916743
23	0x3d292a54	0.041300133
24	0x3c57f735	0.013181497
25	0xbddd8b7b	-0.108176194
26	0x3c215b1b	0.009848381
27	0xbc577d52	-0.013152437
28	0x3dc964e3	0.09833696
29	0x3da0846a	0.07837756
30	0x3db37cf2	0.08764066
31	0x3cad122a	0.021126825
32	0x3c83b494	0.016077317
33	0xbdf3d1d6	-0.119052574
34	0xbd2f8d51	-0.04285938
35	0xbe01a662	-0.12661126
36	0x3e3ebbac	0.18626279
37	0x3c27fdb5	0.01025336
38	0xbd500c05	-0.050792713
39	0x3d5bea90	0.053690493
40	0xbc4fd998	-0.012686156
41	0xbc8cf18a	-0.017205019
42	0x3b4a8dd1	0.0030907283
43	0x3d947b75	0.0725011
44	0xbda8ded8	-0.08245629
45	0x3d2ec24e	0.042665772
46	0x3a4a1ac7	0.00077096786
47	0x3d1f4362	0.03888262
48	0xbda2cc0b	-0.07949074
49	0xbdd893f7	-0.10575097
50	0xbe149201	-0.14508821
51	0xbd193dc3	-0.037412416
52	0xbc899a74	-0.016797282
53	0x3cd80e6e	0.026374068
54	0xbd9def65	-0.077116765
55	0xbe1a4735	-0.15066226
56	0x3d9ab4ec	0.07554039
57	0x3e4a2131	0.19739224
58	0x3df36d2c	0.11886057
59	0x3dde1f2a	0.10845788
60	0x3d2c0cd5	0.042004425
61	0x3d85780e	0.06517039
62	0xbd84b127	-0.06479102
63	0xbc52b76b	-0.012861113
64	0xbc771c18	-0.015082382
65	0x3d9c3c49	0.07628686
66	0x3c5e1d84	0.013556842
67	0x3be2172d	0.0068997354
68	0xbe0caded	-0.13738222
69	0x3d118dfa	0.03553579
70	0x3cf5aae2	0.02998871
71	0xbd556608	-0.052099258
72	0xbe8f0d51	-0.27939847
73	0x3d9291a4	0.07156685
74	0x3d51da18	0.05123338
75	0x3cdeb3f1	0.027185412
76	0xbe22b314	-0.15888625
77	0xbd7aef80	-0.06126356
78	0xbdad960c	-0.08475885
79	0xbcff12b2	-0.031136844
80	0xbd1bb9ba	-0.03801892
81	0x3d678d4f	0.056531247
82	0x3d829c5d	0.0637748
83	0xbe2464d6	-0.16054091
84	0x3ea53848	0.32269502
85	0x3cb08bb5	0.021550993
86	0xbb974fc8	-0.004617665
87	0x3d1e681d	0.03867351
88	0x3de364da	0.1110322
89	0xbd5d038c	-0.05395846
90	0x3e5cf1db	0.21576636
91	0x3db53eec	0.08849892
92	0x3c7f0e02	0.015567305
93	0x3be0fd8e	0.0068661636
94	0xbd8d222d	-0.06891284
95	0x3cb13036	0.021629434
96	0xbe0bdcce	-0.13658449
97	0x3d4c4b69	0.049876604
98	0x3d04ba5b	0.032404285
99	0x3d040aad	0.032236744
100	0xbcf1e590	-0.02952841
101	0x3d85e07f	0.0653696
102	0xbe056ef0	-0.130306
103	0x3b33caf8	0.0027434211
104	0xbccc8083	-0.024963623
105	0x3d129e32	0.035795398
106	0xbe280f0d	-0.16411991
107	0x3c048a39	0.0080895955
108	0xbd7c3cd4	-0.061581448
109	0xbe166cbe	-0.1468992
110	0x3d376425	0.04477324
111	0xbdbf19a6	-0.09331064
112	0x3ddcae6f	0.10775458
113	0x3d0531ce	0.0325182
114	0xbe1bea8d	-0.15226193
115	0x3dd252a4	0.10269669
116	0xbd6508a5	-0.055916447
117	0x3d714902	0.058907516
118	0x3d73c299	0.059511755
119	0xbe39ee1d	-0.1815724
120	0x3d3b5baa	0.045741715
121	0xbe2993e1	-0.16560318
122	0xbd33c12a	-0.043885387
123	0xbd8da126	-0.06915502
124	0xbc93d104	-0.018044002
125	0xbd19f880	-0.037590504
126	0xbda88e94	-0.082303196
127	0x3b969c3e	0.0045962622
128	0xbda0a5af	-0.07844102
129	0xbe6c3c97	-0.23069988
130	0xbdc49c73	-0.09600153
131	0xbe4dc83f	-0.20095919
132	0x3e217993	0.15769033
133	0x3d0024d9	0.03128514
134	0xbdced101	-0.10098458
135	0x3cb4fe03	0.022093778
136	0xbe0714a7	-0.13191472
137	0xbc6f68f9	-0.01461243
138	0x3d041fdd	0.03225695
139	0xba7155ca	-0.0009206204
140	0xbde2642a	-0.11054261
141	0x3d001d6b	0.031278055
142	0xbc2e276e	-0.010629518
143	0x3d6866c9	0.05673865
144	0xbde583db	-0.1120679
145	0xbe37d70b	-0.17953126
146	0xbce8ef1d	-0.02843433
147	0xbd8e026f	-0.06934058
148	0xbdb55de0	-0.08855796
149	0xbd96c11a	-0.0736105
150	0x3d2b3172	0.0417952
151	0xbd0c139e	-0.034198396
152	0x3d72d741	0.059287313
153	0x3db7d62b	0.08976396
154	0xbe903198	-0.28162837
155	0xbe2915c6	-0.16512212
156	0xbe88f7c8	-0.26751542
157	0x3db68fb6	0.089141294
158	0x3c71d5cf	0.014760449
159	0xbc15cbed	-0.009142858
160	0xbd07aaef	-0.033122
161	0xbdccf8be	-0.10008381
162	0xbb0ce929	-0.002150128
163	0xbdd69bbf	-0.10478925
164	0x3d87e445	0.06635336
165	0xbdebea58	-0.11519307
166	0x3d74fa6a	0.059809126
167	0x3dc8b785	0.098006286
168	0xbe0f9d29	-0.14024796
169	0xbbd6f87a	-0.0065603824
170	0x3d1a879c	0.037726983
171	0x3d433537	0.04765817
172	0x3dcaa6c3	0.098950885
173	0xbe60b647	-0.21944533
174	0xbe319bc1	-0.17344572
175	0xbdd80f15	-0.10549752
176	0xbcb6c481	-0.022310497
177	0x3d6c4aad	0.057688404
178	0x3e037db6	0.12840924
179	0x3d72dcd7	0.05929264
180	0x3c4515fc	0.012029167
181	0xbd2579ca	-0.04039935
182	0xbc9a052e	-0.018801298
183	0xbc79599b	-0.0152191175
184	0xbd0fcd8c	-0.035108134
185	0xbe1d5f07	-0.15368281
186	0x3dcb6961	0.09932209
187	0x3d6d988c	0.05800681
188	0xbd3312dc	-0.043719158
189	0xbdff07e4	-0.12452677
190	0xbced1cd6	-0.028944414
191	0x3d6aff4d	0.05737238
192	0x3e08d209	0.13361372
193	0xbd706247	-0.058687475
194	0xbbd12c37	-0.0063834446
195	0x3b7ae82f	0.0038285365
196	0xbe53394c	-0.20627326
197	0xbe3ac41b	-0.18238871
198	0xbe4d28ca	-0.20035091
199	0x3d982230	0.07428396
200	0x3cc2fb53	0.023801481
201	0xbd01f359	-0.031726215
202	0xbe811bd4	-0.25216544
203	0xbd08df6a	-0.03341619
204	0xbd5f689e	-0.05454313
205	0x3d79d91f	0.06099808
206	0x3ddb01c8	0.10693699
207	0x3bf6670f	0.0075196098
208	0xbe03cf79	-0.12872113
209	0x3ce52aa9	0.027974444
210	0x3c44977c	0.011999007
211	0xbdaf7722	-0.08567645
212	0xbc5a2bff	-0.013316154
213	0x3d786296	0.060640894
214	0xbbded8ef	-0.006800763
215	0xbcd51330	-0.026010126
216	0x3d2ee332	0.04269714
217	0xbd0f5545	-0.03499343
218	0xbce68ab0	-0.028142303
219	0xbe018328	-0.12647688
220	0xbda9d409	-0.082923956
221	0xbcd738c1	-0.02627218
222	0xbc4986df	-0.012300222
223	0xbdb09382	-0.08621885
224	0xbe1d9f38	-0.15392768
225	0xbd00c21f	-0.03143513
226	0x3e2bb1f7	0.16767107
227	0xbe503638	-0.20333183
228	0x3cf52e6d	0.029929364
229	0xbd676aae	-0.056498222
230	0x3d08fbb3	0.033443164
231	0x3db1b2c7	0.08676677
232	0x3d507653	0.050894093
233	0x3c962568	0.018328384
234	0xbd4aace5	-0.04948129
235	0x3d463175	0.04838701
236	0xbe2662ff	-0.16248702
237	0x3c8edb25	0.01743848
238	0x3d2d816d	0.04235976
239	0xbd797ce9	-0.06091014
240	0x3e0c1373	0.13679294
241	0x3bb3f6a3	0.005492048
242	0x3d573080	0.052536488
243	0x3cbb0764	0.022830673
244	0xbd80fa03	-0.06297686
245	0xbcaf851d	-0.021425778
246	0xbc989598	-0.01862602
247	0xbcc7cd7e	-0.024389978
248	0x3d035216	0.032060705
249	0xbe19af34	-0.15008241
250	0xbcfb8ef6	-0.030707818
251	0x3c684c5b	0.014178361
252	0xbe3abe2d	-0.18236609
253	0xbd62481f	-0.05524456
254	0x3b56ab6c	0.0032755984
255	0x3e4cabe3	0.19987445

linear2.bias f4 [256]
0	0xbe09600a	-0.13415542
1	0x3cf923f4	0.030412652
2	0xbd081f4a	-0.033232965
3	0x3d1ef46c	0.038807318
4	0x3cd1dd2c	0.025618158
5	0xbd28f541	-0.041249517
6	0x3de0874e	0.10963307
7	0x3d729f33	0.059233855
8	0x3d801c58	0.06255406
9	0xbc394b9e	-0.011309532
10	0x3d9f3145	0.07773069
11	0xbcde65bf	-0.027148126
12	0x3cbc702c	0.023002706
13	0x3b0910d3	0.002091457
14	0xbd66d9e0	-0.056360126
15	0x3d919612	0.07108702
16	0x3dcbe583	0.09955885
17	0xbd9c559e	-0.07633518
18	0x3c17a354	0.009255249
19	0x3df10c5f	0.11769938
20	0x3d33ca01	0.043893818
21	0x3c341a26	0.010992562
22	0x3a9e92e1	0.0012098217
23	0x3d5cb9b1	0.053888027
24	0xbc9e720a	-0.019341487
25	0x3cde4604	0.027132995
26	0xbd2b3143	-0.041795027
27	0x3c0b924f	0.008518769
28	0x3d197224	0.03746237
29	0x3cc10609	0.023562448
30	0xbc67dea6	-0.014152205
31	0x3d0f1da9	0.034940396
32	0x3d18a087	0.037262466
33	0x3d5e44d2	0.05426485
34	0xbdc0a867	-0.0940712
35	0x3cf2ca8e	0.029637601
36	0xbd652bf3	-0.055950116
37	0x3d87eda3	0.066371225
38	0x3dd3378a	0.103133276
39	0x3d1c8e2f	0.038221534
40	0x3df3a472	0.118966
41	0xbd26069a	-0.04053364
42	0x3db0f95c	0.086413115
43	0x3c62f3fc	0.013852116
44	0x3d8df15c	0.06930801
45	0xbd84cdce	-0.06484567
46	0x3d6fd0bd	0.058548678
47	0x3df11615	0.1177179
48	0xbce1db17	-0.02757029
49	0xbd837eaf	-0.06420647
50	0x3d87e008	0.066345274
51	0xbc944168	-0.018097594
52	0x3d815e00	0.06316757
53	0xbc9be887	-0.019031776
54	0x3d01d02b	0.031692665
55	0xbc7ecc64	-0.01555166
56	0xbd80abbd	-0.062827565
57	0xbdd11bfe	-0.10210417
58	0xbd0eefeb	-0.034896772
59	0x3d638f97	0.05555686
60	0xbca0467b	-0.019564858
61	0x3d1eb375	0.038745362
62	0xbc9bfcf3	-0.019041514
63	0xbc62e26e	-0.01384793
64	0xbd7ddba8	-0.06197706
65	0x3dbf9695	0.09354893
66	0x3df7998d	0.12089834
67	0x3d67734e	0.056506447
68	0x3d6f1d75	0.0583777
69	0xbd756e58	-0.059919685
70	0x3d5a2d81	0.053266052
71	0x3c2a33b9	0.010388308
72	0xbd2c2bb0	-0.04203385
73	0x3b7e5bd0	0.0038812049
74	0xbd13580c	-0.03597264
75	0xbcf8de7b	-0.030379524
76	0xbd94b920	-0.07261872
77	0x3d7f017d	0.06225728
78	0xbdbd43e8	-0.09241468
79	0x3da79b09	0.081838675
80	0x3c324bf6	0.010882368
81	0x3d8cecdd	0.068811156
82	0x3c60de31	0.01372485
83	0xbb7641a4	-0.0037575746
84	0x3c928597	0.017885966
85	0x3d2a8202	0.04162789
86	0xbdcb8236	-0.09936945
87	0xbdb67f4a	-0.08910997
88	0x3da08613	0.07838073
89	0xbdc49f46	-0.096006915
90	0x3cfd7a21	0.030942025
91	0x3d7838c6	0.06060102
92	0x3d2f8be3	0.042858016
93	0x3bf23fa9	0.007392843
94	0xbd829269	-0.06375582
95	0xbc5d629b	-0.013512279
96	0x3a010327	0.0004921429
97	0xbcec62f7	-0.028855784
98	0xbc063199	-0.008190536
99	0x3d58733f	0.052844282
100	0xbd862335	-0.06549684
101	0xbd144c15	-0.03620537
102	0x3b96edc6	0.0046059815
103	0x3c625eb7	0.013816527
104	0x3c7ffb70	0.015623912
105	0x3bf92ab1	0.007603966
106	0x3d819333	0.06326904
107	0x3d0e1dd5	0.03469642
108	0xbd159b44	-0.036525026
109	0xbd724449	-0.059147153
110	0x3d9d1757	0.07670467
111	0xbd3c1aaa	-0.045923866
112	0x3d9b5a13	0.0758554
113	0x3d6a7c2f	0.057247337
114	0x3c9134f5	0.017725447
115	0x3dbd0196	0.09228818
116	0x3e1a54b6	0.15071377
117	0x3bbf6c1e	0.005841746
118	0x3d46ee0b	0.04856686
119	0xbbe9bd02	-0.007133127
120	0xbc163a13	-0.009169119
121	0x3c5dd485	0.013539438
122	0x3d006961	0.031350497
123	0xbde66215	-0.112491764
124	0x3db4b24d	0.08823071
125	0xbc1c8577	-0.009553305
126	0xbd2309e6	-0.03980436
127	0x3e110fb0	0.1416614
128	0x3d3453e5	0.04402532
129	0xbcedfd7c	-0.029051535
130	0xbc411633	-0.011785078
131	0xbd9fa983	-0.07796004
132	0xbcb01784	-0.021495588
133	0x3d5fb598	0.05461654
134	0x3e164d39	0.14677896
135	0x3d5ffc73	0.054684114
136	0x3b896b62	0.004193709
137	0x3dc4f79b	0.096175395
138	0xbc856496	-0.016283315
139	0x3cddcc5a	0.027074981
140	0x3d036f37	0.032088485
141	0xbcce7c2c	-0.025205694
142	0x3cb3aaa0	0.021931946
143	0x3bedfc79	0.007262763
144	0xbd492925	-0.049111504
145	0x3ad3cc9f	0.0016159004
146	0x3d97a81a	0.0740511
147	0x3cb770ca	0.02239265
148	0x3c7389ee	0.014864428
149	0xbd01b7e5	-0.031669516
150	0x3dc3f26c	0.09567723
151	0xbc92ac4f	-0.017904429
152	0x3c814e0a	0.015784282
153	0xbdce2155	-0.10064951
154	0x3d70cccb	0.058789056
155	0x3de0933b	0.10965582
156	0xbd067fb8	-0.032836646
157	0xbbd73363	-0.006567405
158	0xbd1ea0b5	-0.03872748
159	0xbd2f1b8a	-0.042750873
160	0x3ca5a489	0.020220058
161	0x3d675794	0.056480005
162	0x3d1a09e8	0.037607104
163	0x3c1a0fd4	0.009403188
164	0x3d93f868	0.07225114
165	0x3d739bf3	0.059474897
166	0xbd8ee544	-0.06977323
167	0x3ddb00c7	0.10693508
168	0x3d405dee	0.04696458
169	0x3d49c611	0.049261156
170	0xbc4b55ec	-0.012410622
171	0xbc543c91	-0.012953893
172	0xbc854737	-0.01626931
173	0x3dc2ef4a	0.09518297
174	0x3d84594f	0.06462347
175	0x3d15d35f	0.036578532
176	0xbcf913d8	-0.03040497
177	0x3e383393	0.17988424
178	0xb98a746c	-0.00026408152
179	0xbe0d81a8	-0.13818991
180	0x3cd676b4	0.026179649
181	0xbc083929	-0.008314409
182	0xbd0d6bce	-0.03452664
183	0x3caee032	0.021347139
184	0x3c1bc3c4	0.009507123
185	0xbc11d8b7	-0.0089017665
186	0x3df71fe9	0.12066633
187	0xbd47925e	-0.04872357
188	0xbd747779	-0.05968425
189	0xbbac3ee7	-0.005256522
190	0x3d90128e	0.07034789
191	0xbd5fe299	-0.05465946
192	0x3e18a551	0.14906813
193	0xbd92041c	-0.0712969
194	0x3d1afb86	0.037837528
195	0x3da0f9b6	0.078601286
196	0xbd8de4d2	-0.0692841
197	0x3da28141	0.079348095
198	0xbca38d76	-0.019964915
199	0x3e2b1028	0.16705382
200	0x3d55972f	0.052146133
201	0xbc849db3	-0.016188478
202	0x3d0583eb	0.03259651
203	0xbdeb164b	-0.114788614
204	0x3dafc834	0.085831076
205	0x3caebd81	0.021330597
206	0xbbd86172	-0.0066034133
207	0x3ae00b4a	0.0017093208
208	0x3dd3a310	0.10333836
209	0xbe038bbc	-0.12846273
210	0xbe17cd3d	-0.14824386
211	0xbe51f96f	-0.20505308
212	0x3d7a0eab	0.061049145
213	0x3c762b1a	0.015024925
214	0xbcf1c553	-0.029513037
215	0xbd942e9e	-0.07235454
216	0xbd6d80b7	-0.05798408
217	0xbd29a627	-0.04141822
218	0x3c15d656	0.00914534
219	0x3cb3cce9	0.021948295
220	0x3dbf8b63	0.09352758
221	0xbc933a73	-0.017972207
222	0xbd910abf	-0.07082128
223	0xbd1b89a1	-0.03797305
224	0x3c06307a	0.008190269
225	0xbde08652	-0.109631196
226	0x3c08e2a7	0.008354819
227	0xbd22e079	-0.039764855
228	0x3e213417	0.15742527
229	0x3ceaa9ba	0.028645385
230	0xbd11e55d	-0.03561913
231	0x3ca7a6c9	0.020465272
232	0x389fcd0b	7.619903e-05
233	0xbd620006	-0.055175804
234	0x3d195e29	0.037443314
235	0x3cd3cfa7	0.025855852
236	0xbda4e397	-0.08051222
237	0x3bf897b6	0.0075864447
238	0xbd6fc0ac	-0.058533356
239	0xbcb4a34b	-0.02205052
240	0x3db20755	0.08692805
241	0x3cd43090	0.025902063
242	0x3cfa9695	0.030589381
243	0xbd32193b	-0.043481093
244	0x3d301dd4	0.042997196
245	0x3d5f84fa	0.054570176
246	0x3d9c815c	0.07641861
247	0x3d852b5c	0.06502411
248	0x3cbc780c	0.023006462
249	0x3d133319	0.035937402
250	0xbe32b4c1	-0.17451765
251	0xbd6264a7	-0.05527177
252	0xbd9b2b16	-0.07576577
253	0x3d5be29d	0.053682912
254	0x3e008465	0.12550505
255	0x3d2664e5	0.040623564

linear3.weight f4 [1, 256]
0	0xbdee29d3	-0.11629071
1	0x3d638373	0.05554528
2	0x3d83a3f1	0.06427754
3	0xba9fe07e	-0.0012197641
4	0x3c2dca7f	0.010607361
5	0xbca8fd6e	-0.020628657
6	0x3e4c66d9	0.19961108
7	0x3d04cc55	0.03242143
8	0xbe85c386	-0.26125735
9	0x3a89ab97	0.0010503408
10	0x3d8ba438	0.068184316
11	0xbd9b7785	-0.07591156
12	0x3dad223c	0.08453795
13	0x3e0292fd	0.12751384
14	0xbcbbf730	-0.022945017
15	0x3d23f719	0.040030573
16	0x3d34e4d1	0.04416353
17	0xbdd185e3	-0.10230615
18	0xbc063bf9	-0.0081930095
19	0x3e4ff342	0.20307639
20	0x3d55a8d6	0.052162968
21	0x3e01fdc2	0.12694457
22	0x3b3201c6	0.0027161702
23	0x3d61340f	0.054981288
24	0xbe15745f	-0.14595173
25	0x3a305dea	0.00067278615
26	0xbabc6e22	-0.0014376084
27	0xb91e7377	-0.00015111068
28	0x3e21d0ad	0.1580226
29	0xba029229	-0.0004980886
30	0xbb10ba1d	-0.0022083588
31	0x3e7cb401	0.24678041
32	0x3d89bf3e	0.0672593
33	0x3d8862d8	0.06659478
34	0x3dd907b6	0.10597174
35	0xba60251d	-0.0008550452
36	0xba195da3	-0.000585044
37	0x3db0749a	0.0861599
38	0x3d98840e	0.074470624
39	0xba224c97	-0.00061912223
40	0x3e5a0964	0.21292645
41	0xbd06e182	-0.032929905
42	0x3d294080	0.041321278
43	0xbd3cf597	-0.04613265
44	0x3d3b8885	0.045784492
45	0xbb290ff6	-0.0025796867
46	0xbe60d6da	-0.2195696
47	0xbe37192e	-0.17880699
48	0x3d13374a	0.0359414
49	0xbe3ca6a8	-0.1842295
50	0x3dd0e8c6	0.10200648
51	0xbd4a2231	-0.049349014
52	0xbe0ae828	-0.13565123
53	0xbc4d08cd	-0.012514305
54	0xbc0cc369	-0.008591511
55	0x3d515767	0.051108744
56	0xba9edd75	-0.0012120443
57	0xbd90ff12	-0.07079901
58	0xbcba98c4	-0.022777922
59	0xbd360440	-0.044437647
60	0x3e4fd385	0.20295532
61	0xba43239a	-0.0007443965
62	0x3d6ebdb3	0.05828638
63	0x3d8572fc	0.06516072
64	0xbc820a79	-0.015874134
65	0x3d89b4f4	0.06723967
66	0x3de12dde	0.109950766
67	0xbe5b2a19	-0.21402778
68	0x3da1ad63	0.07894399
69	0x3a44ee5d	0.00075123255
70	0xba203e96	-0.00061128417
71	0x3c67b680	0.0141426325
72	0x3ad36060	0.0016126744
73	0xbda5755b	-0.080790244
74	0xbb0c69e0	-0.002142541
75	0x3d0f1e79	0.03494117
76	0xbdcce17d	-0.10003946
77	0xbdb42566	-0.08796196
78	0xbd03e18f	-0.03219753
79	0x3e3074d0	0.1723206
80	0xbca68771	-0.020328255
81	0xbdffee10	-0.12496579
82	0x3d98f0aa	0.07467778
83	0x3c9df224	0.0192805
84	0xbd408f02	-0.047011383
85	0xb8c91ba3	-9.5895746e-05
86	0xbc8a99cb	-0.016919037
87	0xbdc10106	-0.09424023
88	0x3d81a382	0.06330015
89	0x3d9d117c	0.076693505
90	0x3d5dadf4	0.054120973
91	0x3d9e1df5	0.077205576
92	0xbe808b98	-0.25106502
93	0xbc5f0eda	-0.013614381
94	0x3db98ec2	0.09060432
95	0x3e0f568e	0.13997862
96	0x3a6092cb	0.0008566796
97	0x3e03b315	0.12861283
98	0x3d96f74e	0.073713884
99	0x3e4669d2	0.19376305
100	0xb9bbd2e6	-0.0003582455
101	0xbcc52173	-0.024063801
102	0xbd04e718	-0.03244695
103	0xbd1adced	-0.037808347
104	0xba34ed5c	-0.00069018244
105	0xbdbe7e78	-0.09301466
106	0x3dbb7136	0.09152453
107	0x3dcd77c7	0.10032611
108	0x3dbd67ce	0.09248315
109	0xba862850	-0.0010235403
110	0xbe5b7e9a	-0.21435013
111	0x3a6e9ca1	0.0009102319
112	0x3d2852e1	0.041094664
113	0xbe78daa3	-0.24302153
114	0x3ab1ca35	0.0013564291
115	0x3db99a24	0.09062603
116	0xbe8bb218	-0.27284312
117	0xbe964551	-0.2934976
118	0x3d7d2146	0.06179931
119	0xbb9b23be	-0.0047344854
120	0x3d92344a	0.071388796
121	0x3da56b27	0.08077078
122	0xb925c2da	-0.00015808214
123	0x3e0855d2	0.13313988
124	0x3d382991	0.044961516
125	0xbd2e1bf8	-0.04250714
126	0xbb2361ef	-0.00249302
127	0x3e366363	0.1781135
128	0xbe83b367	-0.2572281
129	0x3a85e438	0.0010215109
130	0xbddb8fd4	-0.107207924
131	0xbe51d8c5	-0.20492847
132	0xbd395321	-0.045245294
133	0xbd0fc697	-0.0351015
134	0x3e175cf1	0.14781548
135	0xbc845054	-0.016151585
136	0xbd61fa89	-0.05517057
137	0xbe5bd499	-0.21467818
138	0x3d2eb7b7	0.042655673
139	0x3e0147cb	0.12625043
140	0x3d8ea419	0.06964893
141	0xbd1fb55f	-0.03899133
142	0x3d8b1afc	0.06792256
143	0x3d5b108e	0.053482585
144	0x37705542	1.4324965e-05
145	0x3dd60999	0.10451049
146	0xbdefc3c7	-0.117072634
147	0x3a566533	0.0008178532
148	0x3d472745	0.048621435
149	0x3e28e859	0.16494884
150	0xbe08acc2	-0.13347152
151	0x3a2e5971	0.0006650901
152	0x3e1277a7	0.14303456
153	0xbd901063	-0.070343755
154	0x3cfa1a7e	0.03053021
155	0x3e1780ac	0.14795178
156	0xbcc4bd68	-0.024016097
157	0x3d36a02c	0.044586346
158	0xbcb9a17e	-0.022660013
159	0x3b0ee4a6	0.0021803766
160	0xbd654747	-0.05597618
161	0x3d9bec3b	0.07613417
162	0xbd6bf046	-0.05760219
163	0x3dbc1475	0.09183589
164	0x3e0cd251	0.13752104
165	0xbdb0b6be	-0.08628605
166	0x3d94b81c	0.072616786
167	0x3e4273e7	0.18989526
168	0x3d1ff86a	0.039055265
169	0xbe5614d3	-0.20906381
170	0xbd70c46b	-0.05878107
171	0x3a97367a	0.0011536621
172	0x3c8fdeee	0.017562356
173	0x3d85ca12	0.065326825
174	0x3de281fe	0.1105995
175	0x3ddd5055	0.10806338
176	0x3cb6d7da	0.022319723
177	0x3e19a1bc	0.15003103
178	0xbbe5f81f	-0.0070181037
179	0xbe4261e4	-0.18982655
180	0xbc3ead75	-0.011638035
181	0xbd4690d0	-0.048477948
182	0xbb046e93	-0.002020751
183	0x3d390fb9	0.04518101
184	0xbd8f0be0	-0.06984687
185	0xbdd44c72	-0.10366143
186	0xbdc170d4	-0.094453484
187	0x3ad739c3	0.0016420413
188	0xb9facb62	-0.00047835248
189	0xbd189533	-0.037251662
190	0x3d140d92	0.036145754
191	0x3d8dd46f	0.06925284
192	0xbdd87a5c	-0.10570213
193	0x3d410f83	0.047133934
194	0xbe5a055c	-0.21291107
195	0x3d87e3c3	0.06635239
196	0xbda29052	-0.07937683
197	0xbdd4d05e	-0.103913054
198	0x3ab3656a	0.001368684
199	0xbde15c80	-0.11003971
200	0x3d4a971f	0.049460527
201	0xbcb99b23	-0.022656983
202	0x3a442a87	0.00074831437
203	0xbd9b836b	-0.07593425
204	0x3d5fe608	0.054662734
205	0x3d554318	0.05206594
206	0xbe345948	-0.17612183
207	0x3ce11521	0.027475895
208	0xbc8d89cc	-0.01727762
209	0xbce25f24	-0.027633257
210	0x3dad83e5	0.084724225
211	0xbe2be725	-0.16787393
212	0x3d0e3933	0.03472252
213	0x3d79cbba	0.060985304
214	0x3d909adf	0.07060789
215	0xbe093343	-0.13398461
216	0xbc7abe4a	-0.0153041575
217	0xbe804f35	-0.2506043
218	0x3d80bf53	0.06286492
219	0x3d17bd1c	0.037045583
220	0x3dbfc90f	0.09364521
221	0xbea6c616	-0.32573003
222	0x3cc5abc3	0.024129754
223	0x3d5ad60c	0.053426787
224	0xbac72b4a	-0.0015195396
225	0xbdfc5ae2	-0.12322022
226	0x3d91cb71	0.071188815
227	0xba8c17b5	-0.0010688218
228	0xbe5375a7	-0.2065035
229	0xbce4aaca	-0.02791347
230	0x3d03bbb9	0.03216145
231	0xbd86795f	-0.065661184
232	0x3d5f41ab	0.054505985
233	0xba16d41c	-0.00057536527
234	0x3d8ea780	0.06965542
235	0xbe88d523	-0.2672511
236	0x3d1b069e	0.037848108
237	0xbab7caea	-0.0014022265
238	0xbe9dfc7d	-0.30856696
239	0xba25423e	-0.00063041213
240	0x3d97f91b	0.0742056
241	0xba640e49	-0.00086996384
242	0xbe68e698	-0.22744215
243	0x3a777436	0.0009439619
244	0x3a674bee	0.0008823265
245	0x3dfd84a6	0.12378816
246	0x3e1cf25d	0.15326829
247	0x3d817a2d	0.06322131
248	0x3d977ec9	0.07397229
249	0x3da3adb5	0.07992116
250	0xbe24d2e6	-0.16096076
251	0xb9b995ef	-0.0003539766
252	0xbdf2a1a4	-0.11847237
253	0x3b64b3e9	0.0034897274
254	0xbe10ad9c	-0.14128727
255	0xbd92061a	-0.0713007
