codes/DQN/outputs/CartPole-v0/20211229-144313/models/dqn_checkpoint.pth (torch, 272151 bytes, 6 tensors)

fc1.weight f4 [256, 4]
00000000: abca 4a3e ed82 393e d953 453f 83d0 db3e
00000010: 56bf 10bd af69 c2be 70a4 5bbe 9499 8cbe
00000020: 2e81 013f 1b25 91be 8757 c83d 2e06 9e3e
00000030: 96b8 a13e 6320 c53d b509 1cbf e7d0 eabe
00000040: 4ad0 2bbe d38b b63e 57f4 673e b472 563e
00000050: 16de c9be d092 d5bd b72d f73e 5eee 8abd
00000060: 7a7c d6be 367c 833e 9fc8 fc3e e4eb fd3d
00000070: 69f2 453e 49f5 7abe 6ab6 aabe cc7b 63bb
00000080: f769 73be 9dfe 8f3e 4bb5 46bd 3276 87bd
00000090: bb72 b9be c042 233d 4e9a 3cbf d43f 0cbf
000000a0: ac1d 223e a8d6 e5be 6550 e7bd 534c 13bf
000000b0: 7adc 04be eb97 a5be d95d 38bd b4fe 1ebe
000000c0: 0687 7e3d f153 bc3e 1d8f 313e eecb f53d
000000d0: e6de 103f 0069 0d3f 82f2 023f bc29 5abe
000000e0: e5ad a8bc cdd6 93be 5069 87be f2e9 653e
000000f0: 7d5f 103e 80d9 353e c387 07be e767 4b3e
00000100: b1d2 b0be 970a 8cbe 783b f4be f665 dc3e
00000110: 1d65 20bf 6477 52be 7784 ab3e 1a91 ba3e
00000120: 8dd1 513e 01c4 613e dd56 55be 3d8d 03bf
00000130: 1ecb fdbe 6e28 efbe 4578 c73c 4120 b5be
00000140: 4585 98be 1e0b 223e 2cf6 44be b1e5 d2be
00000150: 65cc b6be c98b a2be 1655 103f 0f7e 8cbe
00000160: a711 b13e 87b0 23be 0ad0 013f 5415 d63d
00000170: ee81 2cbe 62be 29be b2e7 f33e d34b 8abe
00000180: d223 e93e 0e6c b33e 2187 eebe 0683 d9be
00000190: 188a c6be 9d4a 9d3e 1bac e13e 3263 bf3e
000001a0: d0e9 073e a397 45bc ae3b 443e ca7a 943e
000001b0: a5bb 7abe 60a9 f63c f15e 9ebe 4c72 693e
000001c0: 4c84 b43e f578 0bbf 6ba9 e2be 0de9 843e
000001d0: 0ccf b8be b78c 053e 7309 f73e 8d59 ed3e
000001e0: dc4d 3e3e 4a17 7c3e e6a2 56bf f9d8 65be
000001f0: 6d8e 793e 9e6a 723e b388 333e eca0 333e
00000200: 8838 95be b29b c6be 5e24 da3e 18db 9fbd
00000210: 1334 c53e 98ef d73e a197 de3e f4b9 de3c
00000220: b678 c53e 8eff 4abe 42e0 cf3e 4fe5 ba3e
00000230: dd5f 463e c70b cdbd ca30 40be 203f 4abc
00000240: 627d 93bd b68b a3be 2039 afbe c947 05bf
00000250: eaae a7bd 14c9 a13e b743 5c3d 2ab0 de3e
00000260: 1985 a13e 294b f43d a033 37bf db3e 9ebe
00000270: 5245 bcbe e41d b73e 6ee9 97bd 1f98 8f3e
00000280: 6bca e53e 092f 60bd 847b 2bbf 81ff fcbe
00000290: 6f0b 62be c23a 983e 9b24 2b3f 26d6 ce3e
000002a0: ea2f 6bbe 7ad1 cf3e 3c6b 603f 4d58 133f
000002b0: cdd0 c63e ac7b 973e 8f76 813e 7009 be3e
000002c0: 7057 85be fb53 8a3e 7779 9fbe 98d0 76be
000002d0: 8d2f 443e 2057 cdbe 48d0 f3be 7f39 b4be
000002e0: 444e 01bf c9f6 4bbe d859 63be bca2 903e
000002f0: db42 fdbe 0593 ae3e 8528 a43e 0932 c93e
00000300: 41b8 edbe 15c5 c6be bf23 07bf 1c13 d8bd
00000310: 7d23 6b3e 09a7 94be f12a d83e 5754 e23e
00000320: c09d 9fbd d6f1 5ebe 17a4 a5be 8990 83bd
00000330: 2296 ba3e eeca 083f 828d c93e b12e 38be
00000340: 2966 033f b431 5dbe b36b 7abe ea92 d7be
00000350: 7e3b fbbe c48a 353e d9d0 823e 9e66 073e
00000360: 3246 7a3d 3c98 92be 8236 60be 7369 d03d
00000370: 9843 d33e 257c 1d3e 569f 16bf 94eb 4dbb
00000380: 31c3 153d 931b 89be e1c6 95be ea9d 15be
00000390: 8e96 9abe 12c8 debe b9d1 1cbf 4bb6 1fbe
000003a0: 1d48 293d d7fc a7be 77d2 29bf 8137 11bf
000003b0: ab46 a8be 715a 733e d6d7 fa3d e9aa 83be
000003c0: b0d8 773d a5ce 673e c8de 97be bc8a e03e
000003d0: bb8d bc3d 1cee eabc c957 4a3f 5b63 823e
000003e0: 6c3a 2c3e c273 93be aebd a73e 626b 8fbe
000003f0: c5af 8e3e 564e 15bf 1e41 83be abb5 87be
0.19803874 0.1811635 0.77081066 0.4293252 -0.035338722 -0.37971255 -0.21449447 -0.2746092
0.5058774 -0.28348622 0.097823195 0.3086409 0.3158614 0.09625318 -0.6095231 -0.45862505
-0.16778675 0.35653552 0.22651802 0.20942193 -0.3942725 -0.10428393 0.48277065 -0.06783746
-0.41891843 0.25680703 0.49371812 0.12398508 0.19330753 -0.24507631 -0.33342296 -0.003471124
-0.23770891 0.28123942 -0.04851274 -0.06614341 -0.36220345 0.03985858 -0.7367295 -0.54784894
0.15831631 -0.44890332 -0.11294631 -0.57538337 -0.1297473 -0.32342467 -0.045011375 -0.15526849
0.062140487 0.36782792 0.1733975 0.12001787 0.56590116 0.5523834 0.5115129 -0.21304983
-0.020590732 -0.28874817 -0.26447535 0.22452524 0.14098926 0.17758751 -0.13235383 0.19863854
-0.34535745 -0.2735183 -0.4770162 0.4304654 -0.62654287 -0.20553356 0.334995 0.3643883
0.20490094 0.22047426 -0.20833917 -0.5138739 -0.4956903 -0.46710533 0.024349341 -0.3537617
-0.29789177 0.15824553 -0.19234532 -0.41190866 -0.35702816 -0.31747273 0.5637983 -0.27439925
0.3458378 -0.15985309 0.5070807 0.10453287 -0.16846439 -0.16576532 0.47637707 -0.27010974
0.4553514 0.35043377 -0.4658747 -0.42482775 -0.38777232 0.30720988 0.4407662 0.37380368
0.13272786 -0.012060079 0.19163391 0.2899993 -0.24485643 0.030110061 -0.3093181 0.22797507
0.35257185 -0.5448144 -0.4426988 0.25959054 -0.36095464 0.1304196 0.48249397 0.46357384
0.18584388 0.24618259 -0.83842313 -0.2244605 0.24370737 0.23673484 0.17532615 0.17541856
-0.29144692 -0.3879066 0.4260587 -0.07805461 0.38516292 0.42174983 0.4347506 0.027188279
0.38568658 -0.19824049 0.40600783 0.36503074 0.19372506 -0.10012012 -0.18768612 -0.012344152
-0.07201649 -0.31942528 -0.3422327 -0.5206266 -0.08187659 0.31598723 0.053775515 0.43493778
0.31546858 0.11928398 -0.7156315 -0.3090733 -0.36771637 0.35764992 -0.0741757 0.28045747
0.44880995 -0.054732356 -0.66985345 -0.49413684 -0.22074674 0.2973233 0.6685273 0.40397757
-0.22967497 0.40589505 0.87663627 0.5755661 0.38831177 0.29586542 0.25285766 0.37116575
-0.26043272 0.27017197 -0.31147358 -0.2410301 0.19158764 -0.40105534 -0.47619843 -0.35200116
-0.5051005 -0.1991836 -0.22202241 0.28249156 -0.4946507 0.34096542 0.32062164 0.39295986
-0.46429637 -0.38822237 -0.5278892 -0.1055052 0.22962756 -0.29033688 0.42220262 0.4420497
-0.0779376 -0.2177194 -0.32351753 -0.06424052 0.36442667 0.53434646 0.39365774 -0.17986561
0.5132776 -0.21600991 -0.24455146 -0.42104274 -0.49068826 0.17728716 0.25549963 0.13222739
0.0611021 -0.2863177 -0.21895793 0.10176363 0.41262507 0.15379389 -0.5883688 -0.0031420933
0.036563102 -0.2677885 -0.29253295 -0.1461102 -0.3019299 -0.43512017 -0.6125751 -0.15596883
0.04132854 -0.3281009 -0.6633677 -0.5672532 -0.32866415 0.2376497 0.12248199 -0.25716332
0.060509384 0.22637422 -0.29662156 0.43855846 0.092067204 -0.028677993 0.790402 0.25466427
0.16819161 -0.28799254 0.32761902 -0.28011614 0.27868477 -0.58322656 -0.25635618 -0.2650579

fc1.bias f4 [256]
00000000: c752 58be a352 b5be d720 b63e 33a6 8dbd
00000010: 1001 123e 4adf af3e 3547 b93e 5c05 913e
00000020: b023 023f c323 c6be c426 e8bd 4990 103f
00000030: 5242 113f 01e8 e4be 4768 64be 77de 95be
00000040: 5106 b63e e943 5cbe 6e84 a4be ffdb fcbe
00000050: b52f 8cbe 6fa6 4f3e 0d5a c7bd 3e75 aa3d
00000060: 1dcd 44be 1541 c13e f4a8 a83e 3eef cb3e
00000070: f362 fc3e 0b0c d7be 3aa1 a0be fe4e d8be
00000080: b9db a1be efc4 733e ce2c eb3e fe53 f43d
00000090: d328 a2be fdc2 7fbe f8b7 abbe 36ff 0c3e
000000a0: 2515 2e3e 4cdd 4d3e d351 cdbe d258 303e
000000b0: f707 0d3f 67d0 f33e 5f81 f73e c1bf b13e
000000c0: b70c 33be ae2d 8a3e bdb4 0c3f 69f6 57be
000000d0: acd2 d8bd 9fe7 093f 9979 0e3e 8f27 0e3f
000000e0: 0113 c93e 84dd 833e 3821 9dbe f1b2 8f3e
000000f0: 70fd cd3e 1e7e 96be 12ec c2be a65d e53b
00000100: 8243 d7be 9f7e a13e d431 a43e 5dab c23d
00000110: 2c60 413e 2c76 513e ddad f1be 30d4 7b3e
00000120: 00c6 043f 915d c13e e859 9c3d 11b9 d73e
00000130: b646 803c 6693 973e 0cb8 f73e b9d3 d7bc
00000140: e7b4 c63e 4ff5 b3be 81e7 8f3e f6b5 35be
00000150: 59e4 39be fe86 083f 29da 993e 5355 40be
00000160: 565b 943e 536d a9bd cd79 ebbe e1d3 94be
00000170: 903b ecbd 9249 b63e a40b adbd 7710 5dbe
00000180: 6730 ab3e 3e74 42be 885e e53d fd10 c43e
00000190: 5403 c13e 6da4 9b3e f099 bd3e fba4 df3e
000001a0: acf5 fdbd 0d9c be3e 4919 c33e c03c 14be
000001b0: 47ca 98be d271 edbd ebb7 c4bd b127 10be
000001c0: bded f33e dcfe c03e d031 93be 6ff7 a1bd
000001d0: 352e 61be 2be4 c53e 666d a8bc 4805 c73e
000001e0: 5a2d a2be c382 373d 0b86 023f f15c 95be
000001f0: 0a70 8f3e 8c83 0b3e d3e2 de3e 5fdd fe3e
00000200: 0488 843e 6693 e1be d8c3 943e 861e b5be
00000210: f7ff 51be 0492 aa3e 4803 b33e e252 dfbe
00000220: 5b46 0f3f 8388 743c 63cf 6c3e 602b 0d3f
00000230: 8a89 f33e 63e0 c53e 3502 7abe b7f0 ec3e
00000240: 6f64 3fbe 5a8a c53e f286 543e 54c8 28be
00000250: 1f31 e43e 5713 903e 840c 65be 7566 c73e
00000260: f1fd 0c3e cb23 513e 677e 563e d883 453e
00000270: 3692 fc3d 367a 953e 683e 593e 3363 903e
00000280: 963f 063f c142 c0bd 7f4e 873e 1d84 f73e
00000290: 40b2 9abe 6b29 8d3e c59e cabe 6249 bbbe
000002a0: 80e8 0cbe 4cb5 fcbe b1cb e23d 2bb6 c53d
000002b0: 0eff 6dbe c1c0 debd e0e2 683d c40a a53e
000002c0: 605b 053f d9ad a7be e6fd b4be 1041 ef3e
000002d0: e8e4 c2bd 1fd0 883e 1b45 b03e 8659 aabe
000002e0: 8ad8 88be 782b 223e ad28 de3d 0e80 92be
000002f0: 965c 84bd e452 20be 21c9 8e3e fd64 89be
00000300: 6052 683e 9a3c cabe a0cb 933e 0d8c 203e
00000310: 1835 6bbe c1b0 56bd 48f5 c83e ae86 673e
00000320: 3d80 42be ad73 073f b816 6f3e 4b2a 023f
00000330: fb87 c6be 67fe 083f c441 35bd bae4 e3be
00000340: d886 9e3e 417f 61be 9eeb 70be 1d96 1bbe
00000350: fa1a 933e 5859 423d 661f a43e 9d1a 1e3e
00000360: 9d4b 2bbe 6956 f33e 2c57 553b e3ec d5be
00000370: 90cf f4bc 5ff9 9a3e d057 94be 8cb2 893e
00000380: 0985 2b3e f159 a1be ecc5 a73e e3b4 f03e
00000390: 46e4 b33e dbca dd3e 86b3 17be df1a 54be
000003a0: 84a4 82be a8f0 e33d 13d1 e9be 1a14 a0bd
000003b0: 6b80 a63e c44d ac3e 6424 9c3c c18f 96be
000003c0: 3d43 e03e 1aa1 ca3e 4e5b 013f 5950 e8be
000003d0: 057b 773e c40d d83e 44fe 95be ac26 243c
000003e0: 5264 fcbe 14f9 a0be ee58 b9be 7537 823e
000003f0: 75b2 f1bb ba49 c43e 5e04 b63e 3140 bbbc
-0.21125327 -0.3541461 0.3557193 -0.069164656 0.14258218 0.34350044 0.3618714 0.283244
0.50835705 -0.3869916 -0.11335519 0.5647016 0.5674182 -0.44708255 -0.22305404 -0.2927129
0.35551694 -0.2151028 -0.32132286 -0.49386594 -0.27380148 0.20278333 -0.09733973 0.083231434
-0.1921887 0.37744966 0.329414 0.39830965 0.49294242 -0.42001376 -0.31373006 -0.42247766
-0.31612948 0.23805593 0.4593262 0.11930083 -0.3167177 -0.24976726 -0.33538795 0.1376923
0.17000253 0.2010395 -0.4010149 0.17221382 0.5509028 0.47619936 0.4834089 0.3471661
-0.17485319 0.26987976 0.54963285 -0.21090092 -0.105870575 0.5386905 0.13913573 0.5552911
0.3927231 0.2575494 -0.30689406 0.2806621 0.4023242 -0.29393095 -0.38070732 0.006999689
-0.42043692 0.31541917 0.32069266 0.09505341 0.18884343 0.20455235 -0.4720296 0.24592662
0.51864624 0.37766698 0.07634336 0.42133382 0.015658718 0.29604644 0.48382604 -0.026346074
0.38809893 -0.35148093 0.2810631 -0.17745194 -0.18153514 0.5333098 0.30049255 -0.18782549
0.28975934 -0.08272805 -0.45991364 -0.290679 -0.11534798 0.35603005 -0.08449486 -0.21588312
0.33435366 -0.18989655 0.11199671 0.3829421 0.37697852 0.30398884 0.37031507 0.43680558
-0.12400374 0.37228432 0.3810523 -0.144763 -0.29841825 -0.11593975 -0.09605392 -0.14077641
0.47642317 0.37694442 -0.2874894 -0.07908522 -0.21990283 0.3865064 -0.020559978 0.38871217
-0.31675225 0.04480244 0.50985783 -0.2917247 0.28015167 0.136244 0.43532428 0.49778268
0.25885022 -0.4405777 0.29055667 -0.3537485 -0.20507799 0.33314526 0.3496344 -0.43617922
0.5596673 0.014925125 0.23125987 0.5514431 0.4756587 0.38647756 -0.24414904 0.462774
-0.18690656 0.38582116 0.20754603 -0.16482669 0.44568726 0.28139755 -0.22368056 0.38945356
0.13768746 0.2042381 0.20946656 0.19288576 0.12332575 0.29194802 0.21215212 0.28200683
0.52440774 -0.09387732 0.26427075 0.48342982 -0.3021412 0.27570662 -0.39574257 -0.36579424
-0.13760567 -0.4935707 0.11074007 0.096538864 -0.23241827 -0.10876609 0.05685699 0.32234776
0.5209255 -0.32749823 -0.3534996 0.46729326 -0.09516317 0.26721284 0.34427723 -0.33271426
-0.26727706 0.15836895 0.10847602 -0.28613323 -0.06462972 -0.1565662 0.27887824 -0.2683486
0.22687674 -0.3949936 0.2886629 0.15678425 -0.22969472 -0.05241466 0.39249635 0.2260997
-0.18994232 0.5291088 0.2334851 0.50845784 -0.3877562 0.5351319 -0.044252172 -0.44510442
0.30962253 -0.220212 -0.23527381 -0.15193982 0.2873152 0.047448486 0.32055205 0.1543984
-0.16728063 0.47526863 0.003255318 -0.41782293 -0.02988413 0.3026838 -0.28973246 0.26894033
0.16749968 -0.31513932 0.3276819 0.47013006 0.35135096 0.4331883 -0.14814577 -0.20713376
-0.2551614 0.11129886 -0.45667323 -0.07816334 0.3251985 0.3365308 0.019060321 -0.2940655
0.438013 0.39576036 0.50529945 -0.453738 0.24168022 0.42198002 -0.29295552 0.010018986
-0.49295288 -0.31440032 -0.3620066 0.25432935 -0.00737601 0.383375 0.35550207 -0.022857757

fc2.weight f4 [256, 256]
00000000: 8b54 2f3d b809 ea3c c37d ccbc 72da 91be
00000010: d15b 163e 79df 303e d7a9 4a3e 234c 97bd
00000020: 1a60 4a3d 8218 eebe 8b10 30bf c1e6 8a3d
00000030: 6eb1 9a3c 9ecc 78bd 34ab 05be 4456 d83d
00000040: 6007 f23c 0ff7 0d3d 298c 66be f69d 21bd
00000050: 4cdb 9dbe f544 453e 26b7 6f3d 57cb 4a3d
00000060: 564a abbd 7ca4 333e ac28 d73d 0bf8 4b3d
00000070: 2a98 6ebd 0260 a438 3f61 d6bd 3863 dc3d
00000080: e5b2 b1bd a563 473d 333f 8a3d 2d69 51bd
00000090: 43ab e2be c68b 113e 472b 80be d6f8 d73d
000000a0: 1099 31be 60ae 0f3d 0709 a23e 9315 bf3d
000000b0: 13e8 6f3d 2f11 2cbd da23 cf3d 3bea 3e3e
000000c0: 06ae 77bd 3ad2 0b3d 2a6d d0bc 433f 66bd
000000d0: 6807 5cbe dd76 203e 8a8e 8bbd a7c1 fabc
000000e0: f362 80bd 621a 4bbd 4520 73bf a937 d13d
000000f0: 32d6 923d 286e df3d f81b ea3c 9a27 13bf
00000100: b8ba 4f3d 63e4 c73d 0fc5 a93d fdaf 8bbe
00000110: ad35 dfbc 5eb5 a33d 4e2b 48bd b68c c23d
00000120: f7d1 acbd bcd6 a63d 882d b1bd 6224 363d
00000130: 0eab 023d be45 5d3d 8df1 f63d 570a 61be
00000140: 17f9 743c 9d5f 08bf e700 fcbc 36ab 96be
00000150: 91fe e4bd f6b1 bebc 832e 953d 8f8b 483d
00000160: 9078 ed3d e506 15be f22b 7bbe 2134 e4bd
00000170: f881 32be 067d 043e bec4 42bd d89b 26be
00000180: e9bb d63c b0ca 543e 0a15 8a3c d4f5 d33c
00000190: aa9f 123e 6b99 1cbc 8bf8 9c3d 7b4e eabc
000001a0: 0aa4 ca3c 9eb1 c93c d8f2 d93d 82d5 25be
000001b0: 4007 63be bd24 163d 060e 833d bee1 a73b
000001c0: abc8 493d b302 8ebc 944c abbd 280e 55be
000001d0: 6431 60bf 2aa6 6cbd 2783 233c 3f2b a83d
000001e0: 78a8 843c 9464 093e 05c3 c7bd 151e fabd
000001f0: b3d1 4e3d c4c2 49bc b7ad 08bd 41fb 3e3d
00000200: 21f4 e93d d7c0 e0bd 64ff 653c f9ca adbd
00000210: 8c99 ce3c 420b f23c 52f4 c53d c722 e33c
00000220: 0c42 de3d a477 cebd 9233 733c d368 673d
00000230: 370e 11bc 00a2 113c d51e 0a3e c260 f53d
00000240: ce1d 8ebd 26a8 073d 37e3 55bd 680e 99be
00000250: fb3d 103e c07d cbbb 539d bd3d bc28 0fbd
00000260: 6904 ba3c 72c0 e23d d05c b13d 96cc c0bd
00000270: a4f3 06bd f4f6 433d a21f d33d fe71 91bd
00000280: 37c1 cd3d d4b2 2abd 3400 e03c 7446 1bbd
00000290: 2113 38be b45b e3bb 8208 45bd 1cd2 07be
000002a0: 5a08 83bc 1e88 133d 381f cf3d 302c 61bd
000002b0: 5a0c 55bd 0d77 d73d acdf fbbe 0e8b 4a3d
000002c0: 8e42 eb3d 04b2 11be 0093 9e3d 2003 833d
000002d0: 0946 a7bd 7cf9 473d 6f53 44bd 0005 713d
000002e0: 5f6e 263c d85d b93d 8a9a 64bd 0077 04be
000002f0: cd9c 8cbb 85f3 833d 0bde 603e 1255 37bb
00000300: 9899 563c 70fd e6bb 7e2d 993c 774b 10bd
00000310: 1262 453d 66b5 aebe e975 d03c 884d 013d
00000320: 02a0 2e3d b974 433d 65aa 503d 6b02 933d
00000330: cbb4 b13c 1497 f8bc d80d 8a3d 9e2b 0abd
00000340: 8402 ea3d edfa 1c3c 9032 23bf bf09 f33c
00000350: f80d 273e af16 be3d 042b 903d 41e4 703d
00000360: 77ad 1b3d b01a 333e 00fb a8be 2872 f6bd
00000370: ae95 96bb 3d7f 0c3d 4439 773d e2f4 a13d
00000380: 101d bbbd 94ed 49be a2e3 ca3d d54d d03d
00000390: c2b7 d03d 24f0 503c b926 30be c0ec a2bd
000003a0: 061e f93d ec4d 223d 2b6d 43bd e0b4 c7bc
000003b0: 4789 cd3d a960 89bd 671b c9bb e794 57be
000003c0: 5048 143e 3b0b fb3d 80b4 673d 3eb9 233e
000003d0: f9f3 623d 5385 3d3d c9aa 3fbf 2ae6 8f3d
000003e0: ed9f 6d3e 7c47 95bc 5940 db3c 0336 003e
000003f0: ed5e 563c 26bb d13c 9a08 233d 478e bcbe
0.042805236 0.028569087 -0.024962312 -0.28486973 0.14683463 0.17272748 0.19791351 -0.07387569
0.049408056 -0.46503073 -0.6877524 0.06782294 0.018883433 -0.060742013 -0.1305359 0.10563329
0.029544532 0.03465944 -0.22514404 -0.039457284 -0.30831373 0.19264586 0.058524273 0.049510326
-0.08363788 0.17543215 0.105058044 0.0497971 -0.058250584 7.838012e-05 -0.10467767 0.10761112
-0.086766995 0.048679013 0.067503355 -0.051125694 -0.44271287 0.14213476 -0.25033018 0.105455086
-0.17343545 0.035078406 0.31647512 0.09330287 0.058570933 -0.042008575 0.1011426 0.1864404
-0.060468696 0.034136035 -0.025442678 -0.056212675 -0.214872 0.15670343 -0.068142965 -0.030609919
-0.06268873 -0.049585707 -0.94971114 0.102156945 0.07169761 0.109096825 0.02857779 -0.574823
0.05071518 0.09760358 0.08289539 -0.27282706 -0.027247274 0.079935774 -0.048869424 0.09499495
-0.08438485 0.08146426 -0.086512625 0.04446829 0.03190141 0.05402159 0.12057791 -0.219766
0.014951966 -0.53270894 -0.030762149 -0.294275 -0.11181367 -0.023278218 0.07284262 0.04896122
0.11595261 -0.14553411 -0.24528483 -0.11142755 -0.17432392 0.12938318 -0.04755091 -0.16270387
0.02621265 0.20780444 0.016855735 0.025874056 0.1431872 -0.009558062 0.07664593 -0.028601876
0.024736423 0.024620827 0.10642022 -0.16194728 -0.22170734 0.03665613 0.06399159 0.005123346
0.049263638 -0.017335271 -0.083642155 -0.20806181 -0.87575364 -0.057775654 0.00998 0.082113735
0.016193613 0.13417274 -0.09753994 -0.12212769 0.050492954 -0.012314502 -0.033368792 0.046626333
0.11423517 -0.10974281 0.014037941 -0.084859796 0.025219701 0.029546384 0.09665741 0.027726544
0.10852441 -0.100814134 0.014843838 0.056496453 -0.008853487 0.0088887215 0.13488324 0.11981346
-0.069392785 0.033119343 -0.052218642 -0.29893804 0.14086144 -0.006210059 0.09258523 -0.034950957
0.022707181 0.11071862 0.08660281 -0.09414022 -0.032947198 0.047842935 0.10308768 -0.071018204
0.100466184 -0.04167445 0.027343847 -0.037908986 -0.17976047 -0.006938422 -0.048103817 -0.13263744
-0.015995193 0.036018483 0.101133764 -0.05497378 -0.052013732 0.10520754 -0.49194086 0.04944902
0.11487304 -0.14228064 0.07742882 0.063970804 -0.08167655 0.04882191 -0.04793113 0.05884266
0.01015815 0.090511024 -0.055811442 -0.1293602 -0.004291153 0.06442932 0.21959703 -0.002797429
0.013098143 -0.007049255 0.01869845 -0.03522822 0.04818923 -0.3412277 0.025446849 0.03156808
0.042633064 0.047718737 0.05094375 0.071781956 0.021692654 -0.030345477 0.06740922 -0.033733003
0.11426261 0.00958131 -0.6374903 0.029667733 0.16313922 0.0928167 0.070394546 0.05881143
0.038007226 0.17490649 -0.33003998 -0.12033492 -0.00459548 0.03430103 0.060357347 0.07908036
-0.091364026 -0.19719535 0.09906699 0.10171095 0.10191299 0.0127525665 -0.17202272 -0.07955313
0.1216393 0.039625093 -0.047711533 -0.02437824 0.10035949 -0.067078896 -0.0061373 -0.21052895
0.1448071 0.122580014 0.056568623 0.15988633 0.05540845 0.046269726 -0.7486997 0.07026322
0.23205538 -0.018222563 0.026764082 0.12520604 0.0130841555 0.025601935 0.039803125 -0.368273

fc2.bias f4 [256]
00000000: 68af cc3d aca5 7e3c b0a4 3e3d a6aa 113b
00000010: d882 14bc cd02 103c 2a11 153d c822 42bd
00000020: e0c1 33bc 44f6 e83c 293c 8f3d cb4f 223d
00000030: a8cf 9cbc e802 8a3b a678 8abd 1071 9f3d
00000040: dbf6 efba 7d78 5b3d f8eb d43b 63d6 533d
00000050: 3ae7 6d3b cc6c 043d 47d4 80bd 2e95 7fbd
00000060: d444 7d3b d4c1 c13d fef5 85bd 3301 543d
00000070: ad13 b93d 4ec4 af3d 7c6d 79bd ae62 73bd
00000080: 9aab 193d fb2d c4bd 9cd5 993c a05c 44bd
00000090: 2c43 463d 402e 97bc 863d 8e3d af7a 593d
000000a0: 139b 84bd 0769 be3d 3402 aa3d 18d8 133d
000000b0: 7ef7 4cbd 6324 93bc 01f4 c33d 0edd 32bd
000000c0: 5b47 bcbb 2cbd 4b3d 0b6e 553c 469e 0dbd
000000d0: 00c1 9b3b 3c11 c33d 6951 433d 4c5b 1dbd
000000e0: a40b fcbc f14b 38bd a46f 8c3c 84b1 00bd
000000f0: 7b85 b6bc 09ca 8abc 1829 fbbb a010 3c3d
00000100: c463 673d 27fd 093c 3138 64bc a58d 463d
00000110: 88da 8f3c a0c4 843d a492 51bc f419 683c
00000120: 6638 00bd 21a8 893d f035 a33d 82e9 163d
00000130: 3b33 2bbd d28d 823d eea7 4abd 9be5 b13c
00000140: d5c1 7b3a 6699 96bc 7b21 da3c e4bb 04bc
00000150: a7ec c93a 3443 3a3d b043 bebd 9871 93bc
00000160: e126 313d a302 8bbc 4681 373d c8d5 9e3c
00000170: 4de5 bb3d 1811 3d3d b4c0 913c b242 4dbd
00000180: 4870 c6bc 672a 993d dc48 afbb b55e e1bd
00000190: 7c79 6abd 5c44 c0bb abe6 de3b 8d99 a43d
000001a0: 7ace 0bbd f8c0 76bd 463a c83c 074f 803d
000001b0: dcab 8b3c 96d2 403d 8852 733b 82da 053c
000001c0: 0dc0 c73d 75d7 173d 8f9b 953c 2e36 873d
000001d0: 1049 8b3c 6c4e a93d 9ba5 883c 65cc 963d
000001e0: 4c9a df3d b986 bebc 5bcc 42bd 9059 b53c
000001f0: 3983 4c3d deb0 c13d e2cb 80bd 1d5e 833c
00000200: 923c 893d 665c 353d 27ff b5bc bf4a 4c3d
00000210: f046 363d fcf5 083d e2b7 3a3d eac6 c43d
00000220: 842f 123d 2612 223c f0a0 43bc aa0e 05bd
00000230: 7383 983d 421a e73c 9102 a13c 3e6e 273d
00000240: 5f7a 6a3d 3599 e63a 48e8 0c3d 1eb7 a93d
00000250: 5018 ea3c bebb 44bd 0132 bf3c a4b2 c23a
00000260: 2428 2e3b 5cc1 35bd e1fc bc3a 27cf b53c
00000270: 51d0 a13d 7026 2dbd 0321 c63c a478 523d
00000280: bd29 353d 60bd cc3d 600a c73d c418 1c3b
00000290: 559f 8abd 583c 3d3d c9da 133d c1bb 9b3d
000002a0: f306 4dbd 8471 0f3d dbf5 4a3d 3b8a 55bd
000002b0: f62c b23d 909f 353c 97e4 4e3d 4d2f 803d
000002c0: 124f ee3c baeb a83d c890 52bd bf40 d7bb
000002d0: 82cf 96bc 28e8 cfbc 9837 c83d a003 a03d
000002e0: a75e 83ba 47d6 c3bc 9f49 6e3d 00e5 c8b9
000002f0: c8f5 c53d 417f 863c 68b8 613c 79ae bb3b
00000300: 1156 493d 5666 0dbd 79fd 973d c0c8 a83c
00000310: 5841 4c3d eb1b 8b3d 155c 3f3a 0c94 b03c
00000320: d3ff 62bd dc55 5dbd 5af8 813d ef2f 653d
00000330: d29e 30bd bf77 2f3d 8141 9fbc 71ff 2abc
00000340: e49c 093d 9dfc 1dbd 0c25 8dbd 9e0f 49bd
00000350: 7b3f 6e3b b2dd 263d 7211 a2bc 0a5f 243d
00000360: 3806 83bd 8dc6 2abd 2153 9b3d 13a1 d03b
00000370: 9c9e f83c 0383 8fbd 60bd 8d3d 2d56 413d
00000380: d3be 023d bc79 173b 984d 443c 75c8 8a3d
00000390: cabe 5f3d f510 343d 86aa 063d fc42 40bc
000003a0: 90d1 f33c 1c27 c03d 2d40 40bd bb28 a83c
000003b0: cb78 b2bd 5aed b03d 713d b23d ca10 593d
000003c0: 6d14 803c 914c 33bc fea6 f63b e1a2 0e3c
000003d0: cd99 483d 2625 16bd c74c c23c ad23 bd3d
000003e0: e0f4 e23b 3a80 04bd 2189 9f3d d15c ad3d
000003f0: f0ab 5cbc e875 b23d 3429 c83c 87b8 013d
0.099943936 0.015542429 0.046543777 0.0022226959 -0.009064399 0.00878973 0.036393322 -0.04739645
-0.010971516 0.028437741 0.069938965 0.039626878 -0.019141987 0.0042117722 -0.06761293 0.07785237
-0.0018307822 0.053581703 0.006497856 0.051718127 0.0036301152 0.03233032 -0.06290489 -0.06239813
0.003864576 0.09460798 -0.0654106 0.051758956 0.09036956 0.08582364 -0.060895428 -0.05942028
0.037517168 -0.095790826 0.018778615 -0.047939897 0.048403904 -0.01845467 0.069453284 0.053095516
-0.064748906 0.09297376 0.083012015 0.036094755 -0.050040714 -0.017961686 0.095680244 -0.043667845
-0.005745811 0.049740955 0.013026725 -0.03457477 0.004753232 0.095247716 0.04768506 -0.038417146
-0.03076727 -0.0449943 0.017143078 -0.031419292 -0.022280445 -0.016942041 -0.007664811 0.045914292
0.05649163 0.008422173 -0.013929413 0.048474927 0.017560259 0.06482816 -0.0127913095 0.014166344
-0.031303786 0.06721521 0.07969272 0.036843784 -0.041796904 0.06374706 -0.049476556 0.02171593
0.00096037734 -0.018383693 0.026627293 -0.008101437 0.0015405611 0.045474246 -0.09290254 -0.017998502
0.04324997 -0.01696903 0.04480102 0.019389048 0.09174595 0.04615888 0.017792083 -0.050112434
-0.024223462 0.07478791 -0.0053492617 -0.11004392 -0.057244763 -0.005867524 0.0068024 0.080371
-0.03413246 -0.060242623 0.02444185 0.06265073 0.017049722 0.04707583 0.003712805 0.008169772
0.09753428 0.03707071 0.018262653 0.06602131 0.017002612 0.08266911 0.01668053 0.07363204
0.10918102 -0.0232576 -0.04755817 0.022137433 0.04992983 0.09457563 -0.062888876 0.016036088
0.06701006 0.04427757 -0.022216393 0.04987597 0.044501245 0.033437714 0.04558552 0.09608252
0.035689846 0.009892022 -0.011940226 -0.032484688 0.07446947 0.028210763 0.019654544 0.04087662
0.05724561 0.0017593267 0.03440121 0.0828688 0.028576046 -0.048030607 0.023339273 0.0014854264
0.0026574219 -0.044373855 0.0014418626 0.022193504 0.07901061 -0.042272985 0.024185663 0.051384583
0.044229258 0.09997058 0.09718776 0.0023818472 -0.067686714 0.046200126 0.03609732 0.076041706
-0.050055455 0.035020366 0.049550872 -0.05213378 0.08699982 0.011085406 0.05051097 0.06259022
0.029090438 0.08248086 -0.051407605 -0.0065689976 -0.018409494 -0.025379255 0.09776229 0.078131914
-0.0010022715 -0.023905886 0.05817568 -0.0003831759 0.0966602 0.016418101 0.013776876 0.005727586
0.049154345 -0.034521423 0.07421393 0.020603538 0.049867004 0.06792434 0.0007299793 0.02155497
-0.055419754 -0.05403696 0.063461974 0.055953916 -0.043120213 0.04283881 -0.019440414 -0.010436879
0.03359689 -0.03857099 -0.06891832 -0.04908716 0.0036353755 0.04073877 -0.01978371 0.0401297
-0.063976705 -0.04169326 0.07584215 0.006366858 0.030349068 -0.070074104 0.06920886 0.047201324
0.031920265 0.002311333 0.01198139 0.067765154 0.05462531 0.043961484 0.032877468 -0.01173472
0.029763013 0.093824595 -0.046936203 0.020527234 -0.08714446 0.08639021 0.08703125 0.052994527
0.01563474 -0.010943548 0.0075272312 0.008705826 0.0489748 -0.03665652 0.02371825 0.0923532
0.006926164 -0.03234885 0.07789827 0.08464969 -0.0134687275 0.08713895 0.02443371 0.03167012

fc3.weight f4 [2, 256]
00000000: 5b12 8dbe ec07 37ba ad3b 1c3e 830b afbb
00000010: f3a0 5bbd 7825 223e e652 79bd e8da 163c
00000020: 0490 5dbd 168c 293e 02da ff3d cd0b a1be
00000030: be08 34bd e613 b4be ce60 05be ad16 083e
00000040: fedf 1d3e 8142 0dbc ed10 263e 9484 003e
00000050: 0d76 5dbd 56f0 c53d 0021 743d c0ae a2ba
00000060: c97f e53d 1023 c43d 7cfa 04be 25bd 073e
00000070: a637 163e d1c1 b83d 8028 7b3d 6e84 973c
00000080: 61f0 0e3e 7aae 413e e027 d93d 0294 11bd
00000090: aeb7 3bbd 0eed 053e 1fce a0bc 0379 ac3d
000000a0: af06 fcbb 4a8d 1a3e cd41 38be 6979 253e
000000b0: 56ea 74bd 29b0 8e3d cc63 f43d 4315 6f3d
000000c0: 5334 20bd 99a7 183e 50dc 5f3d 889b e93c
000000d0: ae0c a7be 5c71 023e 80ab f13d 04ff 55bd
000000e0: ee10 0abd 8a9f aebc 70a4 4d3d 30fc 273d
000000f0: 0338 213d 2ed2 9ebe 8fd0 8fbc 1a20 1f3e
00000100: 33a9 43be 80b6 aa3d b601 103e 8b46 0c3e
00000110: d1eb 0e3e 4fbb 083e eef6 ae3d c229 e8bd
00000120: 7d6c 68ba 438f cc3d fe9d 113e 74a9 f0bc
00000130: c06b b237 7333 f3bd d46b 71bd 2bfa cf3d
00000140: 47ed bbbc 2883 7e3d 28b7 123e 45bf 0d3e
00000150: 3eba b5be f726 193e b4b1 61be e0aa e73d
00000160: bdf5 17bd 549d 7e3c e9b2 243c 10f6 a83c
00000170: 63ea 123e 25d7 db3d 7665 5d3d 3c1d f23c
00000180: 7c0c 523d cad6 f03d a3e7 e43d 3d17 46bd
00000190: 5e15 2d3d 0b5e 273e 5b31 59bd f690 6ebe
000001a0: b3dc 5ebe 2c6f c73c 60b0 003e d3a6 183e
000001b0: 4024 8f3a 70af 3d3c eea9 a9bc c6bc 023e
000001c0: 4aec 3c3e bbd7 6abe 1232 73be c5bd 203e
000001d0: 9046 19bd 56de 083e b9c8 023e 7ea2 dd3d
000001e0: d64e 1c3e cd44 1e3e 1024 cbbc e220 2dbd
000001f0: 63b2 14be afd3 5fbe 505e 65bd cec1 363e
00000200: 06a0 083e 7d9c fb3d f688 003e ef3d 66bd
00000210: c591 e3bc 1811 133e 2cf3 e03c 14c6 0d3e
00000220: f1a2 003e ca68 b23d 5c7b 723d cbe9 56be
00000230: 322a bd3d 0dab 373d 1064 eb3d aced c13d
00000240: d641 47bd 2e51 bdbb d496 b7be 8a43 fd3d
00000250: 219e 28bd 200a f43c 000a d2bc b8c4 08be
00000260: 592e 51be 0886 acbc 9cbd 003e 3485 b93d
00000270: beb2 2a3e 902f b73c 0482 253e 2566 203e
00000280: d3dc 8b3d b046 133e c5a0 083e 63b0 893d
00000290: 927c 06be c2e1 5cbe b71e 153e 1c9b 5dbe
000002a0: 3699 acbe c8a6 033e ef0e 003e 79e1 98be
000002b0: 6fe7 153e 2b27 c23d f010 6ebe 3580 283e
000002c0: d0e1 b53c 9236 fc3d f06a 2cbc 83e0 2bbe
000002d0: 1675 3bbe 6c65 b0bc 980d 833d 527a 053e
000002e0: e40e fe3d 1d5b 2dbd 3bf8 c13d 5031 6fbd
000002f0: 4b1e 053e b7e6 2a3e 0a48 e23d aec4 893c
00000300: 0601 0dbe 2d78 e6bd 47ac 023e 9100 e63d
00000310: d258 2c3e 7dff 8c3d 688a 43bd d4e3 013e
00000320: ce05 4abc 6461 ccbc 4677 083e 840e 1c3e
00000330: fb3e b43b 9a29 4dbd d3dc 05be 7584 dc3d
00000340: 0c33 3dbd 312b 1a3e 33fe 4bbe e00c 7d3b
00000350: 361d 0b3e 3b90 96be b702 1c3d edbb 6dbc
00000360: 950f 2fbc f889 003d 5c75 fd3d 57bf 85bc
00000370: 194b f6bd 0e63 3d3e 42de 0f3e e8f7 1b3e
00000380: 1ab5 4d3e 4c13 c93d cefc 9e3d dde7 9d3d
00000390: 3ae9 11be edec 0bbd 1433 0f3e 34bb 9bbc
000003a0: d519 133e 5f21 9f3d 4ee5 c9bc 1d9a 163e
000003b0: 15bb 83bc a799 2a3e d1eb ea3d 4f44 203e
000003c0: 6212 653c d996 353a 2cdc fc3d e56c 053e
000003d0: d215 2f3e dab5 ac3d 71aa 71bd cdce 203e
000003e0: c01a be3c c26d 7c3d ee92 da3d 6bfa 3a3d
000003f0: 1fd8 173e b5c0 f83d e6d2 24bd 4f3a 483b
-0.27553067 -0.00069820764 0.1525714 -0.0053419485 -0.05362029 0.15834606 -0.060870074 0.009207465
-0.054092422 0.16557345 0.124927536 -0.31454316 -0.04395365 -0.3517143 -0.1302521 0.132899
0.15417477 -0.008621813 0.16217394 0.12550575 -0.05406766 0.09664981 0.059601784 -0.0012411699
0.11206014 0.09577 -0.12986177 0.13255747 0.14669666 0.090213425 0.06131792 0.018495765
0.13958885 0.18914214 0.10603309 -0.035541542 -0.045829467 0.1307871 -0.019629536 0.08421519
-0.0076912264 0.1509296 -0.17993851 0.16159596 -0.059793793 0.06967194 0.11933097 0.058369886
-0.0391124 0.14907683 0.054653466 0.028516546 -0.3262686 0.12738556 0.11800289 -0.052245155
-0.03370755 -0.021316309 0.050205648 0.04101199 0.039360058 -0.3101973 -0.017555503 0.1553959
-0.19107513 0.0833559 0.14063153 0.13698785 0.13957144 0.13352703 0.08543192 -0.1133609
-0.00088662637 0.099882625 0.14220425 -0.029377677 2.1269429e-05 -0.118750475 -0.058940724 0.10155138
-0.022940291 0.0621368 0.14327681 0.13842495 -0.35493654 0.1495627 -0.22040445 0.11311889
-0.03709959 0.01554044 0.010052421 0.020625144 0.14347224 0.10734395 0.05405184 0.029554956
0.051281437 0.11759718 0.11176994 -0.048362006 0.042256705 0.16344468 -0.053025585 -0.23297486
-0.21763878 0.024345003 0.12567282 0.14907388 0.0010920838 0.011577472 -0.020710912 0.12767324
0.18449512 -0.22933857 -0.23749569 0.15697391 -0.03742081 0.13366064 0.12771882 0.108220086
0.15264449 0.15455933 -0.02479747 -0.042267688 -0.14521174 -0.21858095 -0.055998147 0.17847368
0.13342294 0.12285707 0.12552246 -0.05621141 -0.02777947 0.1436199 0.027459703 0.13845092
0.12562157 0.08711393 0.059199676 -0.20987622 0.09236564 0.04484086 0.11493695 0.094691604
-0.04864677 -0.0057774996 -0.3585726 0.12366398 -0.04116643 0.029789984 -0.025639534 -0.13356292
-0.20427836 -0.021060005 0.1257233 0.090586096 0.16669747 0.022361547 0.16162878 0.15663965
0.06829228 0.14382434 0.13342579 0.06723096 -0.13133457 -0.21570495 0.14562498 -0.21641201
-0.3371064 0.12856591 0.12505697 -0.29859522 0.14639066 0.09480127 -0.23248649 0.16455157
0.022202402 0.12315096 -0.010523543 -0.16784863 -0.18306383 -0.021532737 0.06399077 0.13034943
0.12405184 -0.04232322 0.09471174 -0.058396637 0.12999837 0.16689573 0.110488966 0.016817417
-0.13769922 -0.112533905 0.12761031 0.11230577 0.16830757 0.06884668 -0.047739416 0.12684566
-0.0123304855 -0.024948783 0.13326749 0.15239912 0.005500672 -0.050088502 -0.13072519 0.10767452
-0.04619126 0.15055539 -0.19921188 0.003861241 0.13585362 -0.29406914 0.038088527 -0.014510137
-0.010684867 0.031381577 0.123759 -0.01632659 -0.120260425 0.18494818 0.14049628 0.15231287
0.20088616 0.09818134 0.077630624 0.0771024 -0.14249125 -0.034161497 0.13984329 -0.019010164
0.14365323 0.07770037 -0.024645474 0.14707227 -0.016080419 0.16660176 0.1147076 0.15651058
0.013981434 0.000692708 0.12346682 0.13029821 0.17098168 0.08433123 -0.059000436 0.15703888
0.023206115 0.06162811 0.10672556 0.045648973 0.14828537 0.12146131 -0.04024019 0.0030552333

fc3.bias f4 [2]
00000000: 02e9 973c 1216 12bd
0.018543724 -0.03566558
