codes/PolicyGradient/outputs/CartPole-v0/20210505-173524/models/pg_checkpoint.pt (torch, 8485 bytes, 5 tensors)

fc1.weight f4 [36, 4]
000000 78 b5 0b be fa 03 32 3e 90 0d bf be 1a c0 9c 3e
       -0.13643444 0.1738433 -0.37315035 0.30615312
000010 18 43 cc be 42 8c f2 3d 64 6b 4a 3f bc 9e 2e 3f
       -0.39894938 0.11843158 0.79070115 0.6821096
000020 0d 6e 26 3f 77 a3 6e 3e 93 64 8d 3f 95 a7 8c 3f
       0.65011674 0.23304544 1.1046318 1.0988642
000030 f0 7e c5 bd 23 33 ce be 18 80 58 3f 63 bf 08 3f
       -0.09643352 -0.4027339 0.84570456 0.5341703
000040 4c 68 28 3f 27 47 d2 bd 84 e6 d7 3e 86 e8 9f be
       0.65784144 -0.102674775 0.42168057 -0.3123209
000050 28 a5 23 be 00 c2 35 39 4e 60 95 3e c8 4c 3e bd
       -0.15980971 0.00017333776 0.29175037 -0.046459943
000060 71 fe a4 be 2d 18 0e 3e dc 9f 6d 3f c7 61 80 3f
       -0.32225373 0.1387641 0.9282205 1.0029839
000070 fc 7b 52 bd eb 15 84 be c6 22 bf bf e3 01 75 bf
       -0.051387772 -0.25797972 -1.4932487 -0.95706004
000080 9d d7 72 be 96 66 de bc 27 df 95 bf f7 06 07 bf
       -0.23715062 -0.027148526 -1.1708726 -0.52745
000090 b2 a3 72 bd 5e 84 26 bd 97 38 ab 3e a6 12 50 be
       -0.059238143 -0.04065358 0.33441612 -0.20319614
0000a0 76 64 0c 3e 25 2f 75 be 3e f9 6f 3c 21 04 89 3e
       0.13710198 -0.23943765 0.014646826 0.26760963
0000b0 d0 10 6d 3e 74 ba 4e 3d 52 b3 88 be 88 6d 06 3d
       0.23150945 0.050470784 -0.2669931 0.0328193
0000c0 ba 58 13 3d a0 fb ba 3e bf c0 c1 be 2a 30 00 bf
       0.035973288 0.365201 -0.37842366 -0.5007349
0000d0 a7 02 3d 3f 20 e1 c4 bd bd 91 10 3f ce a1 57 3d
       0.7383217 -0.09613252 0.5647238 0.052644543
0000e0 16 70 d7 3e 4a 10 cf 3e 1c dc 11 3f df ce 8a 3f
       0.42077702 0.40442115 0.56976485 1.0844382
0000f0 bc 07 fd 3e 5a 60 8e be 4a fc 4b 3f e0 ae 1a 3e
       0.49419963 -0.27807885 0.7968184 0.15105772
000100 93 73 2a bf 3c 5f 96 be 81 2f f1 3c e1 2a 46 3e
       -0.665826 -0.29369533 0.029441597 0.19352295
000110 63 b5 87 bd 06 29 ad be 50 b1 26 bf 2e ca d3 be
       -0.06626394 -0.3382036 -0.6511431 -0.41365188
000120 f8 f6 ba bd 64 64 77 3e 48 c7 83 bf f5 09 ac be
       -0.09129137 0.2415939 -1.0295191 -0.33601347
000130 86 ec 4c bd cc b6 42 be 01 a0 4f bf e9 6a 3f bf
       -0.050030254 -0.19015044 -0.8110352 -0.74772507
000140 e4 8c a6 bd 17 ff 63 3e 50 50 7f bf 49 66 30 bf
       -0.081323415 0.22265278 -0.9973192 -0.68906075
000150 6d c2 c5 3e 4b 0f b2 bd 12 23 1f bf ab 20 71 3e
       0.38624898 -0.08694323 -0.6216289 0.23547618
000160 26 a7 11 be e4 52 9e be dc 9c c5 be e8 72 b7 be
       -0.14223918 -0.30922616 -0.38596237 -0.35829854
000170 32 fb f9 be 5e b3 25 3e 14 cf 91 3f a9 4b 57 3f
       -0.4882446 0.16181704 1.139132 0.84099823
000180 74 f3 8a be de d7 f8 be 3e 20 31 bf 4e f5 92 bf
       -0.27138865 -0.48602194 -0.6918982 -1.1481111
000190 62 98 13 3e 47 dd 87 3e 99 70 60 bf a4 a0 53 bf
       0.14413598 0.2653601 -0.8767181 -0.82666993
0001a0 50 0e 6f be ae 39 ef bd 60 46 62 3f 27 92 a8 3e
       -0.23345304 -0.116809234 0.88388634 0.32924005
0001b0 26 32 13 bb 98 67 84 be 3c 83 71 bf 09 5a 46 bf
       -0.002246031 -0.25860286 -0.9434087 -0.7748113
0001c0 c9 f7 de be 43 a1 3f 3e 83 06 b6 be b3 e7 01 bf
       -0.4354842 0.1871386 -0.35551843 -0.5074417
0001d0 b2 1b 1e 3f e0 d9 d5 bd c1 96 c1 be 1f 45 c0 bb
       0.6176101 -0.10441947 -0.3781033 -0.005867615
0001e0 60 25 0d 3d 9a ae 9f be 12 fd 86 bf 64 f1 13 bf
       0.03445947 -0.31187898 -1.0545981 -0.5779021
0001f0 b5 d4 7f 3e f4 fa 33 bf 36 6d d0 3e b6 5c 43 be
       0.24983485 -0.703048 0.4070832 -0.19078335
000200 bc e5 55 be c2 a4 b8 3d a4 a5 dd 3d b7 7d 8a 3e
       -0.20888418 0.090158 0.10822609 0.27049038
000210 a4 81 92 bd de bc 37 be 86 9c ee be de 3f 34 bf
       -0.07153633 -0.17943141 -0.46603793 -0.70409954
000220 98 91 1b 3e 8d 6b cb 3e 9e 54 28 3c 9e f4 25 3e
       0.15192258 0.39730492 0.010274081 0.16206595
000230 6b 16 2e be de 4b 09 3e 19 ee 9a 3d 0c 7b 18 be
       -0.1700074 0.13407847 0.07564945 -0.14890689

fc1.bias f4 [36]
000000 df d0 ca be 08 c5 ea 3d 32 35 94 3e 9c 86 92 bd
       -0.3961248 0.11463362 0.28946835 -0.07154581
000010 01 e8 80 be a7 d8 07 bf 3f d8 b3 3d f4 6c af 3e
       -0.25177005 -0.5306496 0.0878148 0.34262812
000020 8c 03 85 3e 64 b7 8c be ac 58 07 bf 0f 7f 45 be
       0.2597927 -0.27483666 -0.5286968 -0.1928675
000030 83 1b 0f 3e 94 93 96 be 2a 5b 8f 3e a2 38 8e bc
       0.13975339 -0.29409468 0.2799924 -0.017360989
000040 d8 73 47 bf 6c 4d 2d be 0e 4f 27 3e 0e 54 9a 3e
       -0.7791114 -0.16924065 0.1633875 0.30142254
000050 de e1 97 be a3 91 cc be a0 29 05 3e 0a 06 20 3e
       -0.2966451 -0.39954862 0.1300416 0.15627304
000060 92 fa 3f 3e dc fb e5 3d 2a ff b9 3d f7 85 3b 3e
       0.18747929 0.11229679 0.09081872 0.18312822
000070 b2 4a 66 be a2 93 88 be a9 c4 48 3e d6 24 66 be
       -0.22489432 -0.26675135 0.1960627 -0.2247499
000080 e3 4b e1 be 0b 69 67 3e e0 54 23 bd 8f 1f a3 be
       -0.4400321 0.22598664 -0.039875865 -0.31860015

fc2.weight f4 [36, 36]
000000 9f cf 04 3e c2 39 a4 3e fe d9 ea 3e 8a f5 d9 3c
       0.12969826 0.32075316 0.4586944 0.02660634
000010 7d 4d 1b 3e 6c af bc bc 68 f4 3f 3f f6 4c 25 be
       0.15166278 -0.023032866 0.7498231 -0.1614264
000020 4b 98 84 be ba 03 21 3e 58 2c 79 be 80 90 5e 3e
       -0.2589744 0.15724078 -0.24333322 0.2173481
000030 a6 67 4a 3e 9f 45 41 3e 7a 7e 6c 3e 4a 69 1e 3e
       0.19766101 0.18874215 0.23095122 0.15469852
000040 db 55 83 3e a8 9f d7 bd a9 14 7f 3e 1d 6f b7 be
       0.2565144 -0.10528499 0.24910225 -0.3582696
000050 df da b8 3d 29 60 b4 3e ac 4c 36 3e c4 f3 5e 3e
       0.09026121 0.35229614 0.17802685 0.21772677
000060 89 3a 77 bd b5 8f 92 3e 53 44 a9 bb d3 06 7c 3d
       -0.060358558 0.28625265 -0.0051656156 0.061529946
000070 4b 1c 34 3e 0e 60 0b 3d 6e ee 58 bd 1e c4 d7 3d
       0.17588918 0.03402715 -0.05296176 0.10535453
000080 66 f7 30 3c cc d0 0d bf e0 11 ca 3e 52 be 61 3e
       0.010801172 -0.55396724 0.39466763 0.22045258
000090 18 76 e3 3d 69 21 c8 bd 70 9e f7 be a5 93 d9 bd
       0.11106509 -0.097719975 -0.48363066 -0.10623864
0000a0 ea aa 00 3e 56 92 f0 bd db ca 3c be 22 d8 0d 3f
       0.12565199 -0.11746661 -0.18436758 0.5540792
0000b0 bb cc c0 3e f4 54 97 be ee b8 d4 3d 9d 31 3b 3e
       0.37656197 -0.29557002 0.10386835 0.18280645
0000c0 b9 f2 4c 3e bc 60 34 be 87 1c 98 be 2f b8 15 3e
       0.20014466 -0.17615026 -0.29709265 0.14621042
0000d0 f1 f9 49 3d c3 50 84 3e 95 a9 3d bd 26 a0 9f 3e
       0.04931063 0.25842866 -0.046304304 0.3117687
0000e0 e2 00 f0 3d 15 e2 42 3e 5d f7 66 3e d2 f8 0a be
       0.117189184 0.19031556 0.22555299 -0.1357148
0000f0 20 78 9d 3e 91 2b f5 3d 0a 1d 73 bd 05 c1 ff 3e
       0.3075571 0.119712 -0.059353866 0.4995195
000100 0d ee 35 bd fd 88 9a 3d b4 d1 a6 3e 7e f3 10 3e
       -0.044416476 0.0754566 0.32581866 0.14155385
000110 6a ca f2 3d 3f 3d c9 3c 88 dc 5a 3e 55 75 d3 3c
       0.11855014 0.024565337 0.21373188 0.025812784
000120 18 aa 17 3d ad 49 48 bd 80 8c ea 3c 48 8b 60 be
       0.03702745 -0.048898388 0.028631449 -0.21928132
000130 9c 02 2a 3e c6 11 56 bd d8 97 6a 3e dc 9c df bd
       0.16602558 -0.052263044 0.22909486 -0.109185904
000140 7c f4 0c 3d b2 d6 1c be 98 2b d2 bc a4 d7 3b 3e
       0.034412846 -0.15316275 -0.025655553 0.18343979
000150 f8 b3 62 bc a4 e6 cd bd af 3a d5 bd bd 64 ad be
       -0.013836853 -0.10053757 -0.10411584 -0.3386592
000160 a8 07 7a be 90 a7 82 bd 8a 5f 05 3d 9e 5f d8 bd
       -0.24416983 -0.06379616 0.032561816 -0.105651125
000170 ba cc 90 3d 07 f3 9b be b0 1b a9 bd a8 a2 62 bc
       0.070702985 -0.30458853 -0.08257234 -0.013832726
000180 f2 c2 50 bd 58 68 76 3c fc c9 4d be 0a 6a 3c bd
       -0.050967164 0.015039526 -0.20096582 -0.045999564
000190 06 89 61 be 2b 77 4c bc 16 57 f2 bd 8c 94 04 be
       -0.22024927 -0.012479584 -0.118330166 -0.12947291
0001a0 12 e8 06 bd ff e0 99 bd 80 78 50 3d a5 73 69 be
       -0.032936163 -0.07513618 0.050896168 -0.22798021
0001b0 d4 6a f6 bc 99 40 0d be a9 54 ac bd 1d f5 f7 3d
       -0.030080236 -0.13794173 -0.08414585 0.121072985
0001c0 b6 33 4e be 90 a7 4d 3c f8 ab 71 be 95 d0 3d be
       -0.20136914 0.012552157 -0.23600757 -0.18536599
0001d0 dc 1c 6a be e8 45 f9 bd 97 fc aa 3d c4 65 8c bd
       -0.22862571 -0.12171537 0.08348959 -0.06855348
0001e0 9a 52 55 be 47 ab af 3d 40 6e 11 3c c0 70 28 3c
       -0.20832291 0.085775904 0.008876383 0.010280788
0001f0 98 bb e0 3c cc 49 ea bd ec fd 48 be 17 af 6b be
       0.027433202 -0.11439857 -0.19628114 -0.2301601
000200 60 82 6d bb 01 35 1e be 80 eb 75 3c 3b 11 84 3d
       -0.003624104 -0.15449907 0.015009761 0.06448599
000210 ee 7d b7 bd 5d 6f 86 bd 1a 86 79 be 0e 41 37 3d
       -0.08959566 -0.065642096 -0.24367562 0.044739775
000220 6a 67 6b 3d 20 cc 84 3c bb 9d 6b be 1e 38 23 be
       0.05747167 0.016210616 -0.23009388 -0.15939376
000230 b8 e8 2f be 01 d6 3c be 3a 53 c5 bc c0 75 ff 3a
       -0.17178619 -0.18441011 -0.024087537 0.0019490048
000240 00 ef 76 bc a5 3c d8 bd 0d ba 18 bf af bf 28 be
       -0.0150716305 -0.10558442 -0.5965889 -0.16479371
000250 11 21 bd bd 3d 3d 78 bd c7 b3 d4 bd 19 c2 2b 3f
       -0.092348225 -0.060605276 -0.10385852 0.67093045
000260 16 da 58 3e 48 9e 48 be f5 ba 63 3d ed d8 67 be
       0.21176943 -0.1959163 0.055598218 -0.22641344
000270 3b e0 07 3e 22 68 41 bc 32 e3 1e be 5e 91 0c 3c
       0.13269131 -0.011804612 -0.15516356 0.00857958
000280 ce 90 66 3e a1 0f 5a 3e b2 17 50 3e 4a 8b 17 3e
       0.22516176 0.21295024 0.20321539 0.14799228
000290 99 c4 cf 3d dd 66 34 be af 41 98 3e f2 b9 ca bd
       0.1014492 -0.17617364 0.29737613 -0.098987475
0002a0 39 9e d9 3e 43 fa b4 3e 77 cf 00 3e 5c 05 9c 3e
       0.42503527 0.35347185 0.12579142 0.3047284
0002b0 18 4e de 3c a7 45 03 be 20 e2 fe 3e ed ce 9b bd
       0.027136847 -0.12819539 0.49781895 -0.07607827
0002c0 12 03 cb 3d 82 6f 35 3e e7 36 18 bd 0a d1 d1 3d
       0.09912695 0.17718318 -0.037161734 0.10244949
0002d0 e0 b4 d0 bb 46 df 74 bd 1c b9 db 3e 7f bb 19 bc
       -0.006369218 -0.059783243 0.42914665 -0.009383081
0002e0 f3 c1 ff 3d da 15 9e bd 68 13 67 be a1 4a 8f be
       0.12488165 -0.077190116 -0.22565997 -0.27986625
0002f0 6d 89 99 be b4 7f 0a 3e 0a f7 da 3d 4f 55 c2 3d
       -0.2998766 0.13525277 0.1069165 0.094889276
000300 38 b7 9e 3d 7c 7c ac 3e 84 a2 47 3e 9f 4b 3f 3e
       0.0774979 0.33688724 0.19495589 0.18681191
000310 78 dd f3 bd ea 11 c3 bd 8e ff ce 3c f8 a9 43 be
       -0.11907476 -0.09524901 0.025268342 -0.19107807
000320 c3 2e 5a 3d b3 36 ad 3e d8 7e 3a bd e1 12 db bd
       0.05326725 0.33830795 -0.045531124 -0.1069696
000330 0b 08 1b be be 92 3a 3e de af 5d be c0 62 4d 39
       -0.15139787 0.1822004 -0.2164912 0.00019587111
000340 cc 1a dd bd b4 47 05 3d fa 61 86 3e d5 91 7a bd
       -0.10796127 0.032539085 0.26246625 -0.061174233
000350 df 82 8e be 43 1c 7f bd 50 af 9c 3d 28 dd ff 3c
       -0.27834222 -0.06228281 0.07650626 0.031233385
000360 c0 92 6e be e6 68 4f be 80 47 1c 3d 33 34 1c be
       -0.23298168 -0.2025486 0.038154125 -0.15254287
000370 88 f1 5b 3c 2e 78 ce bd 5c 98 d6 3c a8 09 f7 bd
       0.013424285 -0.10081516 0.026195697 -0.12062389
000380 06 42 4c bd 16 9f 93 bc 08 b5 95 3d 88 b0 01 3e
       -0.049867652 -0.018020194 0.073099196 0.12664998
000390 54 e8 2f be da a2 4e 3d 6b 1a 31 bd 24 97 68 3d
       -0.1717847 0.050448276 -0.043238085 0.056784764
0003a0 90 23 4d 3e 6f 4a d8 bd c1 1e 78 be 0a aa 5e bd
       0.20033097 -0.10561072 -0.24230482 -0.05436138
0003b0 db 2e e3 3d 84 d3 db 3c aa a6 76 3d 96 be 81 3d
       0.11092921 0.026834257 0.060217537 0.063351795
0003c0 86 45 87 be 33 5f 99 3d 8c 72 51 be 00 4d 09 bd
       -0.2642023 0.07488861 -0.20453852 -0.0335207
0003d0 83 b1 0e be db 31 23 bd 39 55 04 be 7d 90 3b 3e
       -0.13934903 -0.039842468 -0.12923135 0.18316837
0003e0 0f c4 80 be 78 f9 e2 bc 30 58 47 3c 00 ae 99 bc
       -0.2514958 -0.027706847 0.012167022 -0.018759727
0003f0 82 ed aa bd 71 da e8 bc 1a 94 b0 be c0 c1 ae bd
       -0.08346082 -0.028424473 -0.34487993 -0.08533049

fc2.bias f4 [36]
000000 6c fd d9 bd fb 4a e2 3d 6c 86 a7 be 0e 93 fc bc
       -0.106440395 0.11049458 -0.32719743 -0.03083184
000010 cf 48 32 3e 93 e1 50 be aa 70 81 be 05 0d 14 bd
       0.17410587 -0.2039855 -0.25281268 -0.03614523
000020 c6 05 7e 3e a7 ec aa 3e 8e 44 54 be c7 60 99 be
       0.2480689 0.33383676 -0.20729277 -0.29956648
000030 cd 44 28 be 1a b6 72 3d 24 2a 7e be c0 1f 4f be
       -0.16432495 0.059255697 -0.24820763 -0.20226955
000040 99 7b 36 3e 2e 02 b3 3d 11 42 48 3e 43 3d 2f 3e
       0.17820586 0.0874065 0.19556452 0.17113213
000050 30 31 80 bb 9e f6 5a 3e 5a e5 af 3d ad 95 e2 3d
       -0.0039121136 0.2138314 0.08588667 0.11063705
000060 00 1f 8d 39 f7 e3 24 bd 10 b6 8e 3c 50 85 d6 3d
       0.00026916713 -0.040256467 0.017420799 0.10474646
000070 df 74 27 3e 69 51 f7 3d a0 2c a2 bd 57 41 17 be
       0.16353177 0.12076075 -0.07918668 -0.14771019
000080 ea 41 56 3e f5 86 7e bd 6c 44 4d 3e 50 bb ea 3d
       0.20923582 -0.062140424 0.20045632 0.11461508

fc3.weight f4 [1, 36]
000000 8c 70 9f 3e 43 28 8e be 90 ce 5d 3c 80 e7 6b 3d
       0.31140554 -0.27765092 0.013538018 0.057593822
000010 c2 fa a6 be 25 e1 13 3e a4 16 2e 3e 5c 1b 79 be
       -0.32613188 0.14441355 0.17000824 -0.24326843
000020 ff 00 d0 3e ff a9 ca 3e af 1b 1b bd df f5 a5 bd
       0.4062576 0.39582822 -0.037868198 -0.08103537
000030 b9 74 0a be 66 46 56 bc c2 e5 83 be f0 95 10 3d
       -0.13521089 -0.013078308 -0.2576123 0.03529924
000040 ec fb 39 be 8d c0 5d be 72 a7 7b be 31 07 b8 3e
       -0.18162507 -0.21655484 -0.24575594 0.35942987
000050 d2 33 3b 3d f7 e9 d5 be fd 9e f9 bc 2a 0d bf 3e
       0.045703717 -0.41780064 -0.03047132 0.3731473
000060 00 9d ed bb 11 36 89 be 69 d9 14 be 50 82 ab be
       -0.007251382 -0.26799062 -0.1453606 -0.33497858
000070 8c 03 f6 3e 97 bb 7f be 80 df 8d 3d 18 cb 8f 3c
       0.4804958 -0.24973904 0.06927395 0.017552897
000080 c6 ae 3f be 2d b1 6d bd bc 39 d5 be 24 18 80 be
       -0.18719015 -0.058030296 -0.4164561 -0.25018418
