projects/codes/A2C/outputs/CartPole-v0/20220829-135818/models/a2c_checkpoint.pt (torch, 15695 bytes, 7 tensors)

critic_fc1.weight f4 [256, 4]
000000 70 af 2b bd 60 70 8c bc 70 00 40 be 78 90 eb 3d
       -0.041915357 -0.017143428 -0.18750167 0.115021646
000010 80 75 92 be 78 94 b4 bd ec 71 46 3e 38 49 f0 3e
       -0.2860527 -0.08817381 0.19379395 0.4693086
000020 c8 3e f1 3d 8c b4 2d be 00 5f 44 3d 30 86 65 bd
       0.11779553 -0.16963404 0.04794216 -0.056036174
000030 c4 fd 50 3e a0 7f 6a 3d 20 90 48 3e 92 48 f8 3e
       0.20409304 0.05725062 0.1958623 0.48492867
000040 00 9c 54 be c0 c2 90 bc 40 81 eb 3d 00 0a 56 bb
       -0.20762634 -0.017670989 0.11499262 -0.003265977
000050 c0 25 44 bd 1a 8d e2 be e0 d3 dc be 38 5d e6 be
       -0.047887564 -0.44248277 -0.43130398 -0.44992995
000060 22 7e fa be ea 6c ee be 94 ef c1 be 50 e5 e6 be
       -0.48924357 -0.4656747 -0.37878096 -0.45096827
000070 2a 25 f0 be e8 71 60 3e 7c 04 9d 3e 42 fc ac 3e
       -0.46903354 0.21918452 0.30667484 0.33786207
000080 90 e9 89 3e 90 7d 2d 3e 38 8f 61 3e 9e 92 8d be
       0.26936007 0.1694243 0.2202729 -0.27650923
000090 66 7d e6 3e a0 3c 0d bd 9a e0 dc 3e 14 f7 1c 3e
       0.45017546 -0.034481645 0.43140107 0.15328628
0000a0 1a 60 c8 3e e6 35 cc 3e 38 f3 d5 bd 08 ea 14 be
       0.3913582 0.3988487 -0.10446781 -0.14542401
0000b0 68 14 9a 3d 80 14 ae bc b0 2a a0 3d 3c de 81 3e
       0.075234234 -0.02125001 0.07820642 0.25364864
0000c0 c4 0a c8 be e0 f4 bb bc e8 ea c8 be 82 3a f7 3e
       -0.39070714 -0.022943914 -0.3924172 0.48286825
0000d0 c2 0b b4 be c8 d9 c3 3d 70 e3 0b be 36 82 91 3e
       -0.3516522 0.09563023 -0.1366098 0.28419656
0000e0 00 24 dc 3a 30 fa 4d bd 9a 60 bb 3e 2c d3 e9 3e
       0.0016795397 -0.050287426 0.3659714 0.45668924
0000f0 d2 c8 b9 be 44 eb f6 be 80 af 2a 3d 2c 46 21 3e
       -0.36286026 -0.48226368 0.041671276 0.15749425
000100 e0 b4 e9 3d 94 78 ec 3e 60 d3 65 3e dc 89 6b be
       0.11411452 0.46185744 0.22443914 -0.23001808
000110 e2 4f af be 24 9c c6 3e a0 5b f5 3e 28 f6 72 be
       -0.34240633 0.38791 0.47921467 -0.23726714
000120 72 d7 a3 be 60 35 33 3e ea 14 b7 be 78 cb f7 bd
       -0.3200031 0.1750083 -0.35758144 -0.120993555
000130 a4 34 fd be 1c 12 0c 3e d4 94 2e be c8 39 8f be
       -0.49454224 0.13678783 -0.17048961 -0.2797377
000140 be c9 a2 be b0 28 34 be e8 2b 73 3e 00 ec e7 3c
       -0.31794542 -0.17593646 0.23747218 0.028310776
000150 b0 73 dc 3e 50 ff 36 be ec d5 15 be 08 90 fa 3e
       0.43057013 -0.17870831 -0.14632386 0.48938012
000160 72 2f f4 be a0 8a 49 be 50 d1 9e be 64 4e f6 3e
       -0.47692448 -0.19681787 -0.31019068 0.48106682
000170 d8 4a 88 3e 28 8d 2b be 78 5b 59 be a0 05 1d 3e
       0.266196 -0.16753066 -0.21226299 0.15334177
000180 c4 13 2d be 34 f7 1e 3e 50 09 83 be e2 6a 9e be
       -0.16902071 0.15523988 -0.25593042 -0.3094092
000190 c0 00 4d bc 0c 51 96 3e ec 09 da 3e a8 52 e2 3d
       -0.012512386 0.2935871 0.42585695 0.11050922
0001a0 2c 0a 98 be 2c d5 85 3e 2c 98 47 3e c0 69 5a 3e
       -0.2969526 0.261392 0.19491643 0.21329403
0001b0 d0 b3 2a be 20 29 8a bd 80 47 6c 3e f8 80 53 3e
       -0.16670156 -0.06746125 0.2307415 0.20654666
0001c0 ec 0b aa 3e 8e 8e 99 be e2 bf a0 3e c4 26 47 be
       0.3321222 -0.29991573 0.31396395 -0.19448382
0001d0 00 a5 4d bc 60 fc 70 be 58 c7 17 be da 95 ac 3e
       -0.012551546 -0.23533773 -0.14822137 0.33708078
0001e0 72 b2 da 3e ac 4b 32 3e 3e 09 c0 be 38 d3 3c be
       0.42714268 0.17411679 -0.3750705 -0.18439949
0001f0 5a 94 b1 3e 60 21 0a be 4e 20 d1 be 48 d6 ed 3d
       0.34683496 -0.13489294 -0.4084496 0.116131365
000200 b6 42 e3 be 00 80 45 bb e0 c6 7b bd 80 0b 9d 3b
       -0.44386834 -0.0030136108 -0.06146896 0.0047926307
000210 e8 cf f3 bd 18 a7 95 bd e0 c1 9a be 58 05 a9 be
       -0.11904889 -0.07307261 -0.3022604 -0.3301189
000220 48 15 28 3e e0 ec e6 3e e4 83 cc be 9a a7 f1 be
       0.16414368 0.45102596 -0.39944375 -0.47198182
000230 62 77 8a be e6 b9 f5 3e 22 66 e6 3e 9c 1a f9 be
       -0.27044207 0.47993392 0.44999796 -0.48653114
000240 a8 61 f8 3d c8 1c 8a 3d dc 2a e2 3e 40 81 19 be
       0.121280015 0.06743771 0.44173324 -0.14990711
000250 a8 d3 28 3e bc 93 7d be c0 24 ef be 10 d5 65 3d
       0.1648699 -0.24763387 -0.46707726 0.056111395
000260 5c 84 77 be 00 63 00 bd b8 1e e2 bd 4c 0f cf be
       -0.24171585 -0.031344414 -0.110410154 -0.40441358
000270 18 e2 95 3e e4 cb b0 3e 3c c2 c3 3e 88 e6 84 3d
       0.29274058 0.34530556 0.38234127 0.06489283
000280 de bc f1 be 08 b8 cc be 00 37 57 bd 00 78 54 bd
       -0.47214407 -0.39984155 -0.052542686 -0.051872253
000290 c2 5a e8 be ca aa 9e 3e 6e de be be 00 10 66 bc
       -0.45381743 0.30989677 -0.37279075 -0.014041901
0002a0 18 32 f4 be f0 c5 0f 3e 00 a6 19 3b fc 15 b1 3e
       -0.47694468 0.14040351 0.002344489 0.34587085
0002b0 b0 10 ac 3d 40 e3 c9 be 84 5e f1 3e 7a 47 dc be
       0.084016204 -0.3943119 0.47142422 -0.43023282
0002c0 f8 c6 75 3e 42 47 b2 be c6 22 8a 3e d8 9c ff 3d
       0.24001682 -0.3481999 0.26979655 0.124810874
0002d0 48 11 09 3e 10 be f3 bd ec 9d e9 3e 9a 8c f9 3e
       0.13385499 -0.11901486 0.45628297 0.48740083
0002e0 60 e0 53 bd 54 2a 23 be 80 21 9f 3d ea ca a4 3e
       -0.051727653 -0.15934116 0.077700615 0.3218606
0002f0 ba 2f ee 3e da ad e8 3e 2c 07 6e 3e 10 7f 6c 3d
       0.46520787 0.45445138 0.23244923 0.057738364
000300 1a 13 bc be 54 24 c3 be 4a 1b ad 3e ea a1 e6 be
       -0.36733323 -0.38113654 0.33809882 -0.45045406
000310 60 8d b5 bc 42 ef cf 3e 42 2b dd be aa a2 b1 be
       -0.02216214 0.40612227 -0.43197066 -0.34694415
000320 50 80 fe be c0 d5 8a 3e 28 37 db 3d 92 78 9a 3e
       -0.4970727 0.27116203 0.107038796 0.30170113
000330 c0 6a 89 bd 6c ca 25 be 56 fb d6 3e 2a 22 a7 be
       -0.06709814 -0.16190499 0.4198863 -0.32643253
000340 4c 5d a4 be 8e 2c af 3e 10 b5 ec 3e 56 42 83 be
       -0.3210243 0.3421368 0.4623189 -0.25636548
000350 70 ed f4 be 80 33 c8 3c 00 01 7b bb b4 4d 18 3e
       -0.478374 0.02443862 -0.0038300157 0.14873391
000360 3c 3c 89 3e b0 47 63 3d 4e 78 a5 be 70 16 0d bd
       0.26803768 0.05548829 -0.32318348 -0.034445226
000370 38 63 6c 3e 88 ee a7 3d 56 56 af be 40 08 f6 bc
       0.23084724 0.08199793 -0.34245557 -0.03003323
000380 98 5f bd bd 5c c5 5c be 42 d7 81 3e 10 28 49 3e
       -0.09246749 -0.21559662 0.2535954 0.19644189
000390 ae 35 d8 3e bc ca d5 3e 80 bc 9c bc b2 bb ce be
       0.42228454 0.41756237 -0.019132853 -0.40377575
0003a0 6c 45 28 3e ce a0 85 3e 12 26 99 3e 0e 2a 9b 3e
       0.16432732 0.26099247 0.29911858 0.30305523
0003b0 2c 21 8b 3e 00 41 dc 3d 30 f0 08 3d 24 d8 7e 3e
       0.27173746 0.10754585 0.033432186 0.24887139
0003c0 98 76 fd be 30 6f 7c 3e 10 5b 0e 3e 78 62 08 3e
       -0.49504542 0.2465179 0.13901925 0.13318813
0003d0 e8 28 0e be b8 0f 13 3e c0 8b f2 3d 18 41 f9 be
       -0.13882792 0.14361465 0.118430614 -0.48682475
0003e0 d8 9a 70 be 78 7c 7f 3e ee 6e b1 be f8 db 35 be
       -0.23496568 0.24949825 -0.34654945 -0.17759693
0003f0 82 df 94 3e f4 6b 83 3e 1e 30 c6 be 98 6f 63 3e
       0.29076773 0.256683 -0.38708586 0.22210538

critic_fc1.bias f4 [256]
000000 c4 31 2f be 3e ff ff 3e 00 c1 0d bc 7c c5 88 3e
       -0.17108828 0.49999422 -0.008651972 0.2671317
000010 58 1d 54 be a0 7d 4d bd 70 d5 fe 3d 24 74 ca 3e
       -0.20714319 -0.050168633 0.12443054 0.39541733
000020 90 4d 65 bd fa 9d ce be 42 94 a3 3e 92 35 b5 be
       -0.055982172 -0.40354902 0.3194905 -0.35392433
000030 5c 43 ed 3e 40 6e 50 3e 6e 8e fc 3e 20 54 8f be
       0.46340454 0.20354557 0.49327415 -0.2799387
000040 90 a4 7b 3d 00 77 21 bc 00 b7 9c bd 52 a9 90 3e
       0.061436236 -0.009855032 -0.07652092 0.2825418
000050 12 3f b0 be 30 90 3a 3d 64 0c 12 be d0 0f 36 be
       -0.3442312 0.045547664 -0.14262539 -0.1777947
000060 80 dd 1a 3e 48 f6 36 be 9e 7f 97 be ba 89 ab 3e
       0.15123558 -0.17867386 -0.29589552 0.33503515
000070 34 d8 6b be 38 ee a2 bd a0 53 c7 be 32 fc cf be
       -0.23031694 -0.07955593 -0.38930988 -0.40622097
000080 d4 f1 7a 3e b8 53 b5 3e 68 4b 38 be f0 49 f6 bd
       0.24506313 0.35415435 -0.17997515 -0.12025821
000090 64 e0 2a be f4 2f 50 3e f0 46 16 3e a0 d8 10 bd
       -0.1668716 0.20330793 0.14675498 -0.03536284
0000a0 78 0a db 3e c2 92 dd 3e 00 c3 15 3e 80 93 e3 bc
       0.42781425 0.4327603 0.14625168 -0.027780294
0000b0 36 aa f1 be 84 30 b3 3e 1c 28 c9 be 40 40 b1 3d
       -0.47200173 0.34997952 -0.39288414 0.08654833
0000c0 1a e1 e6 be 34 f1 59 3e d8 1a 6b 3e 32 d1 b3 be
       -0.45093614 0.21283418 0.22959459 -0.3512054
0000d0 54 50 10 3e fc a4 27 be 40 dd 49 3d 20 eb 2d be
       0.14093143 -0.1637153 0.049283266 -0.16984224
0000e0 e0 79 ce 3e 3e ee 99 3e 4e f4 dd 3e 54 90 85 3e
       0.40327358 0.30064577 0.43350452 0.26086676
0000f0 d0 a9 02 3e 42 98 97 3e f0 59 b6 3e e4 af ee be
       0.12760091 0.2960835 0.35615492 -0.4661857
000100 d6 b9 89 3e d0 ee 5c be d0 1c 85 be 54 b7 6a 3e
       0.26899594 -0.21575475 -0.25998545 0.22921497
000110 5e 25 cb be 40 c9 0e be dc 1f 15 be 38 79 c9 3e
       -0.39676946 -0.13943958 -0.14562935 0.39350295
000120 08 65 d6 be e0 1d 03 bd a0 69 ef bd 48 16 db 3d
       -0.41873956 -0.032010913 -0.11690068 0.10697609
000130 e8 aa e6 bd 58 6d f8 bd e4 94 42 be 12 11 96 3e
       -0.112630665 -0.12130231 -0.1900211 0.293099
000140 c6 a9 ab be 18 90 a2 3e 0a f8 96 3e c8 04 d1 bd
       -0.33527964 0.3175056 0.29486114 -0.1020599
000150 90 d4 df 3e 70 dd a6 3e 90 fb 9d 3d 4a 54 ff 3e
       0.4371686 0.32590818 0.07713997 0.49868995
000160 94 74 4b 3e 5c 1b 0d be 92 0f be 3e d8 83 53 3e
       0.1986869 -0.13779968 0.37121254 0.20655763
000170 48 82 90 3e 18 e4 48 3e 54 f4 54 3e 62 b0 9e 3e
       0.28224397 0.19618261 0.20796329 0.30993944
000180 82 50 fc 3e 6a f9 df 3e 18 8e 07 3e 8a 05 90 be
       0.49280173 0.43744975 0.13237798 -0.28129226
000190 fc 5c d6 be a6 94 ec be c2 4c a2 3e 90 57 39 3e
       -0.41867816 -0.4620716 0.31699187 0.18099809
0001a0 ba b1 bb 3e e4 48 b4 3e a0 86 9e be b8 14 58 3e
       0.36659032 0.3521186 -0.30962086 0.21101654
0001b0 80 cd 4c 3d 5c 38 9b be 20 79 dd 3d fc 12 ee be
       0.050000668 -0.30316436 0.108141184 -0.4649886
0001c0 70 63 4e bd fe 67 db 3e 30 7a 63 3d 60 ea 50 be
       -0.0503878 0.42852777 0.05553645 -0.20401907
0001d0 a2 73 b8 3e 90 34 29 3e c8 be b6 be 88 6a d0 bd
       0.3602572 0.16523957 -0.3569243 -0.10176569
0001e0 26 2c e2 3e e0 af 78 bd 1a 2b 91 be 80 8c 83 be
       0.44174308 -0.060714602 -0.28353196 -0.2569313
0001f0 42 20 8d be 7a 84 d3 be 94 9d db 3e 16 da 96 be
       -0.27563673 -0.4131201 0.4289366 -0.2946326
000200 e8 1a f6 bd 60 d9 c9 bc e4 fd 37 be 90 c5 dd 3e
       -0.12016851 -0.024639785 -0.17967945 0.4331479
000210 8e 29 b3 be 80 f4 de bc 7c 9c ce 3e 50 3a 36 3d
       -0.3499264 -0.027216196 0.40353763 0.044489205
000220 50 34 3b bd 70 00 43 bd a8 e9 dd be 94 a3 c3 be
       -0.045704186 -0.04760784 -0.43342328 -0.38210738
000230 a4 cf 31 be f4 aa db be 60 f7 0e bd 16 a8 9d be
       -0.17364365 -0.42903864 -0.034903884 -0.30792302
000240 a0 1b ca 3d 50 4c 13 3d d6 1c bb be c6 cd a7 be
       0.0986855 0.03596145 -0.36545438 -0.3277418
000250 72 f0 d4 3e 20 3d 8f 3e e8 e8 dd be 68 17 5d 3e
       0.41589695 0.27976322 -0.43341756 0.2159096
000260 00 c0 79 b9 24 b6 8a be 26 d9 db 3e 28 d6 5d be
       -0.00023818016 -0.27092087 0.4293911 -0.21663725
000270 ce 79 e5 3e 40 c3 69 be da 47 be be e0 8d fe bd
       0.44819492 -0.22828388 -0.37164193 -0.12429404
000280 ee 47 91 3e 90 fd 66 3e 24 ae 5c 3e f0 47 64 3e
       0.2837519 0.22557664 0.21550804 0.22293067
000290 a2 20 db be 1a a1 8c 3e 40 25 62 3c aa aa a5 be
       -0.42798334 0.2746666 0.013802826 -0.3235677
0002a0 e0 17 84 3e 78 f3 fa 3d bc f2 52 be 88 c8 3f be
       0.25799465 0.12253469 -0.20600408 -0.1872884
0002b0 2e 09 d8 be 86 39 85 3e 2c 3f 2f 3e ac 01 de be
       -0.42194504 0.2602045 0.17113942 -0.4336065
0002c0 68 4a dc 3e 60 73 72 3e 6c ff 5f 3e b0 ea cb bd
       0.43025517 0.23676825 0.2187478 -0.099568725
0002d0 10 5d 0e 3e ca 92 83 3e e4 75 07 3e 08 b1 c3 3e
       0.13902688 0.2569793 0.13228565 0.38221002
0002e0 a8 ca 7f be 9a a3 81 be 78 3e 62 3e 50 03 4b 3d
       -0.24979651 -0.2532013 0.22094142 0.049563706
0002f0 08 d3 d8 bd 9c c1 ee 3e e4 8a 23 be 08 ec 9b 3d
       -0.10587126 0.46632087 -0.15970951 0.07613379
000300 26 66 d0 be 38 c8 25 3e 2e 4a a1 be 7a 00 84 be
       -0.40702933 0.16189659 -0.31501907 -0.25781614
000310 72 d2 e4 be b4 10 3a 3e 50 e4 2b bd fc ba e9 3e
       -0.44691807 0.18170434 -0.041965783 0.4565047
000320 64 a3 87 3e 40 87 1e 3d 14 3b c3 be 28 db 54 be
       0.26491845 0.038703203 -0.3813101 -0.20786726
000330 e0 c7 0e 3e 94 84 10 3e 06 f4 fa 3e 7e 0e f9 be
       0.13943434 0.14113075 0.490143 -0.4864387
000340 b0 cb 62 be 14 a8 8e 3e 08 ef 1b be 74 86 6c be
       -0.22148013 0.27862608 -0.15227902 -0.23098165
000350 6c 48 ca 3e 4c 5c 4e 3e 04 8b 83 3e 26 a5 b3 3e
       0.39508379 0.20152396 0.25691998 0.35086936
000360 84 64 42 be 28 ae dd 3d d0 03 a5 3e 1a 96 9c be
       -0.18983656 0.10824233 0.3222947 -0.30583268
000370 92 84 b7 3e 3a 8f ed be d0 87 d6 3d e8 68 a1 3e
       0.3584333 -0.46398336 0.10475123 0.3152535
000380 7c 1f 38 3e 02 0c ac 3e 8c 2a 35 be 1c 66 fc 3e
       0.1798076 0.3360291 -0.17692012 0.49296653
000390 18 a1 9a bd 1c 27 d9 3e 00 ae 01 3d e0 8f 09 be
       -0.075502574 0.4241265 0.03166008 -0.1343379
0003a0 38 8c 0b be b0 20 dc 3e 10 a2 9c bd 40 28 6c 3d
       -0.13627708 0.4299369 -0.076480985 0.057655573
0003b0 80 ba bd 3c ee 4c cb be d4 76 1a be e8 1f 30 3e
       0.02316022 -0.3970713 -0.15084392 0.17199671
0003c0 9a 49 ab 3e 20 ee 00 bd 0e ae da be 40 d6 f8 3c
       0.3345459 -0.031477094 -0.42710918 0.0303756
0003d0 18 38 af bd 5c d2 e8 3e 62 77 93 be cc 4c d1 be
       -0.08555621 0.4547299 -0.2880202 -0.40878904
0003e0 b0 3d 3f 3d ee c5 e9 3e 8c ec a4 3e 90 a3 b0 bd
       0.04668969 0.4565882 0.3221172 -0.08624947
0003f0 1c ee 7f 3e 24 cd 44 be b0 7f 7d 3d e8 ae fd be
       0.24993175 -0.1921888 0.06188935 -0.49547505

critic_fc2.weight f4 [1, 256]
000000 4c 2f da 3c d4 5e 50 bd d8 45 0f 3d ae 21 7c 3d
       0.026633881 -0.050871685 0.034978718 0.061555557
000010 50 46 f7 3b 5c 26 d3 3c 20 aa 02 bb 0e 44 55 bd
       0.0075462237 0.025775127 -0.0019937828 -0.052066855
000020 f4 7c 4d 3d e8 fc e8 bc ba 13 0b 3d f2 a6 67 bd
       0.050167993 -0.028440908 0.03395436 -0.056555696
000030 ec 10 a1 3c 36 11 20 3d 4a 9f 24 3d e8 c2 07 bd
       0.01966139 0.039078914 0.040190972 -0.03314486
000040 28 04 50 bd b8 b2 12 bd 54 64 26 3d 5c 63 9d bc
       -0.050785214 -0.03581497 0.040623024 -0.019212417
000050 1c 29 b6 bc 20 73 22 3b 80 dc 50 bb 42 67 48 bd
       -0.0222364 0.0024787858 -0.003186971 -0.0489266
000060 3c 06 e1 3c 80 e2 0e bb 02 b2 16 3d ce 32 79 bd
       0.027468793 -0.0021802485 0.036790855 -0.060839467
000070 c0 3a 8d 3a 84 9d f6 bc 38 69 ae 3c ec 35 93 bc
       0.0010774955 -0.030104406 0.021290407 -0.017970048
000080 38 d8 ff 3c 70 5f 07 3c 1a 23 30 bd 70 5b dd bc
       0.03123103 0.0082625 -0.043002225 -0.02702114
000090 be 7b 60 3d 68 fd a0 3c 68 83 24 bc 94 3f 17 3d
       0.05480551 0.019652084 -0.010041095 0.036925867
0000a0 80 ab f8 bc 18 48 7b bd 78 e4 a5 3c f4 1b 7a 3d
       -0.030355215 -0.06134805 0.020250544 0.061061814
0000b0 48 ba b0 3c e0 81 3b 3d b6 0b 25 bd 64 2c 88 3c
       0.0215732 0.045778155 -0.04029437 0.01662273
0000c0 60 54 49 bb a0 2f c9 bb 40 f1 b9 3b fe 2b 0f 3d
       -0.0030720457 -0.0061397105 0.005674511 0.034954064
0000d0 20 92 e0 3b 5c 4e 80 3c c0 9b ef 3b 0a 11 71 bd
       0.006853357 0.015662365 0.007312268 -0.05885414
0000e0 de 40 6b 3d a0 3f 1a 3b 78 9a ea 3c 22 ea 4a bd
       0.05743491 0.0023536459 0.02863811 -0.049539693
0000f0 1c ac 96 bc 40 e0 3a bc ae ce 74 bd b8 4c 14 3c
       -0.018392615 -0.011406004 -0.059767418 0.009051494
000100 5c 2b 84 bc 00 0d 7e 3c e0 7d 60 3b 80 ee 30 bb
       -0.016133957 0.015506029 0.0034254715 -0.0026997626
000110 9e ca 09 3d c2 55 1c bd a0 ef 05 3c 20 88 a3 bc
       0.033640496 -0.038167723 0.008174807 -0.01996237
000120 38 e7 24 3c 72 3c 3a 3d 20 fb a2 3b b4 8f 77 3d
       0.0100648925 0.0454678 0.004973784 0.06043978
000130 c8 73 06 bc 40 ef b7 3c a4 57 e1 bc 50 f7 89 3c
       -0.008206315 0.02245295 -0.02750761 0.01684156
000140 ee 8b 08 bd 70 fd 1d bc 30 0e 25 3d a8 b8 1a bd
       -0.033336572 -0.009642944 0.040296733 -0.03777376
000150 a0 85 ed 3c 18 d9 96 bc 94 06 f2 bc 40 cb 44 3b
       0.028994381 -0.018414065 -0.029544152 0.0030028373
000160 50 11 55 bd 42 92 4f 3d 0c a5 5f bd 00 fc 1c ba
       -0.052018464 0.05067659 -0.05460076 -0.00059884787
000170 6a 09 03 bd 60 ca 95 bb 9e d0 58 bd 78 86 2d bd
       -0.0319914 -0.004571244 -0.052933328 -0.042364568
000180 ba 8c 0e bd d4 b6 83 3c a8 d8 4a 3c 50 93 c6 bc
       -0.034802176 0.01607839 0.012380756 -0.024240166
000190 34 d6 c4 3c b6 86 5e 3d d0 30 e4 bc 00 e2 e4 39
       0.024027921 0.05432769 -0.027855307 0.00043655932
0001a0 de ef 56 3d 58 21 fa bc b6 70 0f 3d 02 70 1c bd
       0.05247485 -0.030533478 0.0350196 -0.038192756
0001b0 0c f8 1f 3d 40 d1 4e bb 2e 67 33 bd dc 51 55 3d
       0.039054915 -0.0031557828 -0.04379957 0.05208002
0001c0 a8 b2 0f 3d c0 ba d4 bb 40 15 cd bc 70 66 5a 3c
       0.03508249 -0.006491989 -0.025034547 0.013330087
0001d0 80 68 df bb d8 91 41 3d 60 47 22 3c dc 26 cc bc
       -0.0068178773 0.047258228 0.009904712 -0.024920873
0001e0 58 2e db bc 44 a4 7b 3d d8 ff 50 3c e0 9f 40 3b
       -0.026755497 0.061435953 0.01275631 0.0029392168
0001f0 90 1b 11 3d d6 7e 73 3d 40 23 81 3a ac ec e7 bc
       0.035426676 0.059447132 0.0009852424 -0.028311096
000200 f0 3e 48 bd 1a a4 48 3d e0 13 39 3d 0c 7f 7e bd
       -0.048888147 0.048984624 0.04518497 -0.06213288
000210 ce 10 24 bd b8 26 1b 3c 72 06 64 bd e8 ec e3 3c
       -0.04005509 0.0094696805 -0.05567021 0.027822927
000220 48 73 7b 3d 00 55 04 3c 34 c1 e9 bc 0e 95 0d 3d
       0.061389238 0.008076906 -0.02853451 0.034565978
000230 60 00 6e bc 68 f9 7d 3d 78 21 6d bc e0 14 55 bc
       -0.014526457 0.06200543 -0.014473312 -0.013005465
000240 30 d3 8f 3c 3c 58 6f 3d e8 20 10 3d 98 60 41 3d
       0.017556757 0.058433756 0.03518763 0.04721126
000250 f8 ca 88 bc 80 81 29 bc 98 17 e5 bc 1e 13 5f bd
       -0.016698346 -0.010345817 -0.027965352 -0.05446159
000260 a0 ed ab bb 76 a2 35 bd e8 29 3c bd 40 4e 3b bd
       -0.005246833 -0.044344388 -0.045938402 -0.045728922
000270 84 aa 77 3d 46 26 41 bd 00 84 fb bc 28 e1 0b bd
       0.06046535 -0.04715564 -0.030702591 -0.034150273
000280 78 dc 40 3c 04 29 1b bd ae dc 5b bd f8 54 42 bd
       0.011771314 -0.037880912 -0.053677253 -0.047444314
000290 66 78 0f 3d f0 8d 7f 3d 92 bc 77 bd b4 13 1a bd
       0.03502693 0.06239122 -0.06048257 -0.037616447
0002a0 18 11 8a bc 0e fd 1f bd 00 97 32 3b 4c 2d f0 bc
       -0.016853854 -0.03905969 0.0027250648 -0.029318474
0002b0 e0 bd 10 3b 60 f4 fb 3c 90 c1 a0 bb f0 a5 f2 3c
       0.002208583 0.030756176 -0.004905887 0.02962014
0002c0 e8 16 00 bd d6 18 49 3d 64 9d fa 3c 40 59 94 bb
       -0.031271845 0.04909595 0.030592628 -0.004527241
0002d0 92 8f 60 bd 10 bf fe bb 70 fd a6 bb b2 8e 5d bd
       -0.05482442 -0.0077742413 -0.00509613 -0.054091163
0002e0 8c 9e bb 3c 94 60 f3 bc c0 87 01 bc f8 1a 83 bc
       0.02290275 -0.029709138 -0.0079059005 -0.01600407
0002f0 b4 2b fe 3c ec 71 c5 bc d0 d6 2b bd 4e ae 01 3d
       0.031026699 -0.024102174 -0.041952908 0.03166037
000300 40 c1 e2 3b 5c 20 b5 bc 50 d7 d2 3b f8 ac 23 3c
       0.00692001 -0.022110157 0.0064343587 0.009989969
000310 94 f2 d9 bc 00 89 ad 3b 4c ad 01 3d 94 e9 c1 bc
       -0.026604928 0.0052958727 0.03165941 -0.023670949
000320 80 8b 1f 3b 5a 54 1a bd 80 3d 80 bb 60 46 08 bc
       0.0024344623 -0.0376781 -0.0039135814 -0.00831756
000330 f8 aa 47 bc 00 bd 37 3d c8 8d 5d 3c 80 ec 43 3a
       -0.012186758 0.04485798 0.013522573 0.0007473901
000340 64 16 12 bd 64 12 30 bd 98 7f 64 bd 7c 1a 2d bd
       -0.035665885 -0.04298629 -0.055785745 -0.042261586
000350 9c 77 32 bd 68 3a a6 bc cc 05 27 bd 28 02 19 3d
       -0.0435711 -0.020291522 -0.040777013 0.037355572
000360 88 ff ac bc 50 1b df bc de 4c 4d 3d d8 4a c4 3c
       -0.02111794 -0.027234703 0.050122134 0.02396147
000370 ec 6a a7 3c c8 41 5b bc a2 a4 3f bd 00 50 d0 ba
       0.020436727 -0.013382383 -0.046787865 -0.0015892982
000380 c8 87 e5 3c 58 a7 59 3d ec d0 fc bc 98 f3 2e bc
       0.028018847 0.053138107 -0.03086134 -0.010678194
000390 04 04 8d 3c 5a ea 6e bd 80 2c fd 3b e0 61 9d bb
       0.017213829 -0.058328964 0.007726252 -0.0048029274
0003a0 2c 21 de bc 78 cd 11 bd d0 39 b3 3c 56 4d 78 bd
       -0.027115427 -0.03559634 0.021878153 -0.06062063
0003b0 5c a1 4e bd 68 bb 40 3c fa e3 18 bd 90 0a ed 3c
       -0.050446853 0.011763431 -0.03732679 0.0289357
0003c0 fc 95 f0 bc f6 02 46 bd ac 1b 2f bd 30 5c 38 3d
       -0.029368393 -0.048342668 -0.042751 0.04500979
0003d0 c4 64 a1 bc 40 e0 1a bd d0 70 00 3c 20 42 14 3d
       -0.01970137 -0.037811518 0.007839397 0.036195874
0003e0 48 94 42 3d 8a 71 39 3d 3c cd 88 bc 5c fa 2e bd
       0.047504693 0.045274295 -0.016699426 -0.04271923
0003f0 30 fe 50 bd 00 88 5d bb 54 c6 b7 3c e0 32 c7 bb
       -0.051023662 -0.0033802986 0.022433437 -0.006079063

actor_fc1.weight f4 [256, 4]
000000 87 0a 0a be 5f e0 5a 3d 2b 9c 79 be 72 70 0d bf
       -0.13480578 0.053436633 -0.2437598 -0.552497
000010 7c ed 03 be 39 7a d4 be b1 2d 29 3e f8 5c f7 be
       -0.12883562 -0.41499498 0.16521336 -0.48313117
000020 7c 21 94 3e 82 0d 12 3d 18 c4 b9 be 50 61 ed be
       0.28931797 0.035657413 -0.3628242 -0.46363306
000030 62 b1 32 3e 53 2c 7b 3e 64 7f 00 bc ea f8 e0 3e
       0.17450479 0.24528627 -0.007842872 0.43939906
000040 ec 93 a6 3e ce 8d 9c 3c 08 32 15 bf ab 63 f8 bd
       0.3253473 0.019110586 -0.58279467 -0.12128385
000050 a7 43 8d 3e ed 2e dd be 66 66 a6 3e f8 19 95 be
       0.27590677 -0.43199864 0.325 -0.29121375
000060 1c 26 05 bf 2d 76 b5 3e 79 14 88 be e5 fd ef be
       -0.52011275 0.35441723 -0.2657812 -0.46873394
000070 da 5a a8 be db 55 f6 3e 7e bd 37 3c 85 83 c9 be
       -0.32881814 0.48112378 0.011214612 -0.39358154
000080 f1 f7 7a 3a 78 a5 50 3e 9a d9 8a be 6f f9 05 3f
       0.00095736893 0.20375621 -0.27119142 0.5233373
000090 55 53 e5 be ee c1 8c be ad 69 f2 be f5 6b 83 3e
       -0.4479014 -0.27491707 -0.4734625 0.25668302
0000a0 6e 12 0b 3e f8 94 f7 be 39 59 b7 3e d0 82 d1 3e
       0.13581249 -0.48355842 0.3581026 0.40920115
0000b0 19 c4 43 3e a9 29 54 3e 1e a9 c1 bd d6 92 46 3e
       0.19117774 0.20719017 -0.09456085 0.19391951
0000c0 d1 c9 69 bd 71 ea 5a 3e 5f 8e c8 3d b7 49 d4 3e
       -0.057077233 0.21378495 0.0979278 0.4146249
0000d0 3b 53 8f 3e db 04 44 bd c5 14 c8 be bd 5d f6 be
       0.27993187 -0.047856193 -0.39078346 -0.48118392
0000e0 d7 a1 21 3e 34 6d 9d 3e a2 4b 52 3d 87 57 01 bf
       0.15784393 0.30747378 0.05134166 -0.5052418
0000f0 a1 de 92 3d 4f 42 10 3e ae 71 d4 3d 9b ca 43 be
       0.07171369 0.14087795 0.10373245 -0.19120257
000100 bd c5 ff be c1 06 ad 3d a6 a7 ec 3e 1d 74 64 3e
       -0.4995555 0.08448554 0.46221656 0.22309919
000110 d1 f1 c4 3e 10 89 21 be 13 ac 46 3e 02 d6 c7 be
       0.3846574 -0.15774941 0.19401579 -0.39030463
000120 6e 17 b4 bd fa c7 03 be 24 dd 9d 3e 33 e8 22 be
       -0.08793531 -0.12869254 0.3083278 -0.1590889
000130 13 91 20 be 12 12 d0 3e 69 7f d2 3e bb 41 89 3e
       -0.15680341 0.40638787 0.4111283 0.2680796
000140 fd 57 f5 3d 65 4e 91 3e a2 5b 59 3e b8 3c 8c 3c
       0.11979673 0.28380123 0.21226361 0.017118797
000150 6c 8e eb 3e 59 15 65 3e c6 62 fe 3d 53 29 25 bc
       0.46007097 0.22371425 0.12421183 -0.010080653
000160 47 10 ac 3d 23 a6 7a be 9d f4 bf be 83 c8 0b 3e
       0.08401542 -0.24477439 -0.37491313 0.13650708
000170 11 95 57 be 7c 6e 92 be e3 a4 63 3e ac 26 f0 3e
       -0.21052958 -0.28599918 0.22230868 0.46904504
000180 a4 7a ce 3e 2c 4d 49 be 74 34 bd 3e 9a ad c4 3e
       0.40327942 -0.19658345 0.3695408 0.38413697
000190 f4 da f6 be 1f 24 bc 3e 38 16 a5 be 3a 70 34 3d
       -0.48213923 0.36746308 -0.32243514 0.04405234
0001a0 8e ca a6 ba 21 2d ea 3e 7c 91 06 3f 5e 15 9b 3e
       -0.0012725161 0.45737556 0.5256574 0.3028974
0001b0 f6 77 24 3e 8a b1 bd 3e f2 b7 dd be cc c1 c0 bd
       0.16061386 0.37049514 -0.43304402 -0.09411964
0001c0 b0 86 eb be f0 08 7d bb 0c c9 81 3e e3 1d ae 3e
       -0.46001196 -0.0038610063 0.253487 0.34007177
0001d0 1e 83 6f 3e 1e e5 b3 3e 4b 85 22 bf a2 22 dc bd
       0.23389861 0.3513574 -0.6348464 -0.10748793
0001e0 f4 e0 3c 3e 2a a3 00 3f 24 ab b2 3e 23 82 a2 3e
       0.18445188 0.5024897 0.34896195 0.3173991
0001f0 2f 75 b9 3e 84 ee d7 3c a4 e5 27 3f fa da ff 3e
       0.36222216 0.02635885 0.6558478 0.49971753
000200 76 ae bf 3d bb 41 ce be 38 2d 9d bd fd 18 f5 3e
       0.09359448 -0.40284523 -0.076746404 0.47870627
000210 60 c7 da be 8b 77 88 3d f6 d2 a8 bd ea 66 ce be
       -0.42730236 0.06663426 -0.082433626 -0.40312892
000220 c9 00 51 3d 6c 91 20 be 41 25 eb 3d 3f 12 9e 3e
       0.05102614 -0.15680474 0.11481715 0.30873296
000230 fe 12 e2 3e fa d8 a8 3e fc bd b1 be a8 01 88 be
       0.44155115 0.3297804 -0.3471526 -0.26563764
000240 f4 aa 29 3e cc 98 83 bd 76 0c be 3e b9 00 ee be
       0.1656912 -0.06425628 0.37118882 -0.46484926
000250 0b b0 b1 bd 88 56 0d 3e e5 d4 c1 3e 35 be f8 3e
       -0.08676156 0.1380254 0.37857738 0.48582616
000260 b8 6a 01 bf da 60 8c 3e 8e d9 a5 bd 30 b3 d4 be
       -0.50553465 0.27417642 -0.08098136 -0.4154296
000270 e1 5b b9 bd bb d4 bc be 07 0a 17 3e b2 5f bd 3d
       -0.09050728 -0.3688105 0.14749919 0.09246768
000280 6e 43 3c be 63 8d df be b3 0f 34 bd 44 bd bc 3e
       -0.18385097 -0.43662557 -0.043960284 0.36863148
000290 4c 9d 35 3e b0 9f 95 be 2c 92 10 be 45 14 8f be
       0.17735785 -0.29223394 -0.1411826 -0.27945152
0002a0 98 d0 fd be 49 89 c9 3e 3b 75 e2 3e 51 0f 4d 3e
       -0.49573207 0.39362553 0.44230065 0.20025374
0002b0 43 49 6f be 92 ed 88 be e7 90 ae 3e 08 67 0b bf
       -0.23367791 -0.26743752 0.34094927 -0.5445409
0002c0 8f a1 72 bd 73 94 9a 3e ae f1 dd 3e 7d 1d fa 3e
       -0.059236106 0.30191383 0.4334845 0.48850623
0002d0 74 a7 89 3e 8f 31 02 3f 04 94 ff be 05 13 82 bd
       0.2688557 0.5085687 -0.49917614 -0.06351284
0002e0 ba 4f e5 be 1a 32 cf 3c 2d b0 9c 3e 39 d9 aa 3e
       -0.4478739 0.025292445 0.3060316 0.33368853
0002f0 cf 2d 89 bd fa a8 b0 be 30 6d 96 3e 35 62 c2 3d
       -0.066981904 -0.3450392 0.29380178 0.09491388
000300 b4 55 a9 be 9e 89 d0 3d 69 77 1e be 8c e9 25 bd
       -0.330732 0.101824984 -0.15475239 -0.04050593
000310 88 3c 82 3e 9e e9 fb bd 3e b8 e5 3e 3b 99 c7 3e
       0.25436807 -0.12300418 0.44867128 0.38984093
000320 27 6b 3d 3e d5 68 44 be d1 48 f4 3d d0 7b 87 3e
       0.18497907 -0.19180615 0.11927951 0.2646165
000330 c4 a1 cb 3e b8 28 4f 3c 22 3f a9 bd 5a 2c 0f bf
       0.39771855 0.012643985 -0.08263995 -0.5592705
000340 3e 8f e7 be c3 59 0b bd f1 2c 91 3e 6c 7a a3 3d
       -0.45226473 -0.03402115 0.283546 0.079823345
000350 97 60 fb 3e a7 cf da 3e a5 75 16 3f 45 e0 9a 3e
       0.4909713 0.4273655 0.5877326 0.3024923
000360 a4 3a b8 3b ff 2d 6d be c0 4e 62 3e f5 9b 05 bf
       0.005622225 -0.23162077 0.22100353 -0.52191097
000370 6f 65 0d be 5f 2a a7 be af da 0e bf c4 24 c4 be
       -0.13808225 -0.32649514 -0.55802435 -0.383093
000380 2c 2d 84 3e 88 7e c3 3d 14 3d c1 3e 97 25 a9 3e
       0.25815713 0.09545618 0.3774191 0.3303649
000390 8b ce 83 be da 5e 72 be 56 b6 9b be 75 00 d2 be
       -0.25743517 -0.23668995 -0.3041255 -0.41015974
0003a0 3a 6a 70 be 2a 6c ab be d7 b9 92 3e 7e 81 21 3e
       -0.23478022 -0.3348096 0.2865741 0.15772054
0003b0 41 3f ac 3e 62 0e 04 3f 8c 64 bc 3e 4f 89 03 3f
       0.3364201 0.51584446 0.3679546 0.5138139
0003c0 b0 98 bd 3e 17 56 9d 3e 8a bf 69 be c5 b6 fd be
       0.37030554 0.30729744 -0.22826973 -0.49553505
0003d0 45 bf c7 3e 63 76 d3 be a9 78 27 3e 9a 0b f5 3e
       0.39013115 -0.4130126 0.16354622 0.47860414
0003e0 ea a4 c6 3d 1c 83 87 bd 9f 16 a1 bd 2d 4e db 3e
       0.096994236 -0.06616804 -0.07865643 0.4283308
0003f0 ca 05 d1 be 54 5d a1 bc 14 70 8a be fe e2 51 3e
       -0.4082473 -0.019697823 -0.27038634 0.20496747

actor_fc1.bias f4 [256]
000000 92 15 1c 3e 52 04 47 3e 83 e9 84 be 57 53 1c be
       0.15242603 0.19435242 -0.25959405 -0.15266167
000010 05 dd c1 be 3d 55 76 be cc 38 3c 3b da 5f e9 3e
       -0.37863937 -0.24055953 0.0028720377 0.4558094
000020 23 26 3e 3e 7f 7c fa bd 4f 5e d9 be 18 8a ca 3e
       0.18569236 -0.12230777 -0.42454764 0.39558482
000030 56 02 3e 3e fc 33 85 3e f2 a2 ed 3c d9 44 d8 be
       0.18555579 0.26016223 0.029008362 -0.42240027
000040 23 40 86 3d 71 16 8f be b4 d3 f1 be f0 19 fa 3e
       0.06555202 -0.2794681 -0.4723183 0.48847914
000050 ed d0 a8 be 59 e2 b8 3e 74 fd 99 be a3 98 ed be
       -0.32971898 0.3611019 -0.30076182 -0.46405515
000060 cc cf be 3d 0a cc d8 3e f6 dc f0 3e ee 2e 9c 3c
       0.09316978 0.4234317 0.4704358 0.019065347
000070 28 df 9c 3e f5 5b 81 3e df db 9c 3d d1 5d 9a 3e
       0.30639005 0.2526547 0.076591246 0.301497
000080 5a db 0b be ba 19 9c bd 31 b0 84 3e 30 26 c2 be
       -0.13657895 -0.076220945 0.25915673 -0.3791976
000090 34 8e 1f 3c 38 ea 0b be f6 38 7c 3e c1 b6 e4 3d
       0.009738494 -0.13663566 0.24631104 0.1116767
0000a0 c0 8e bb be 1c 60 c2 3d f4 e0 80 3e 14 0e b5 be
       -0.36632347 0.09490988 0.25171626 -0.35362303
0000b0 f1 40 eb 3e 6e 21 6e 3d fa a3 b8 3e ec 37 cc bd
       0.45947984 0.05813735 0.36062604 -0.09971604
0000c0 e9 78 5a 3e aa 24 f3 be 8c 80 a3 3e 66 df ff 3e
       0.21335186 -0.4748891 0.3193401 0.49975127
0000d0 73 29 94 3d 0a 57 7e bd ca 47 aa 3e 0c 1f 00 be
       0.07234468 -0.062094726 0.33257896 -0.12511843
0000e0 bc 56 d0 3e 53 7e 06 bf fc b8 ec 3d ef 52 e2 be
       0.40691173 -0.52536505 0.115587205 -0.44203898
0000f0 ee 76 61 be fe 98 d9 be c2 c1 43 3e cc 3a 70 3e
       -0.22018024 -0.42499536 0.19116881 0.23459929
000100 e5 14 df be 21 ea ad 3d e2 c7 c6 3e 2b 6c d8 be
       -0.4357063 0.08491922 0.38824373 -0.42270026
000110 04 a2 85 3d f1 66 e0 be b6 61 3c 3e a6 c8 f0 be
       0.06525043 -0.43828538 0.18396649 -0.47028083
000120 ee 07 df 3e 0d 9f e0 3e 28 a8 7c be 89 2a 06 3e
       0.43560737 0.43871346 -0.24673522 0.13102163
000130 b4 46 87 3e 51 66 fa 3e e9 31 0a 3d 46 6f ee be
       0.2642113 0.48906186 0.033739004 -0.4656927
000140 b7 39 93 be ce 5c 90 be 1d 49 32 3e 91 1d b8 3e
       -0.2875497 -0.28195804 0.17410703 0.35960057
000150 e4 d7 ea be 31 96 9c bc b4 cc b4 3e db 91 c5 be
       -0.45867836 -0.019114586 0.35312426 -0.3858784
000160 ec d2 d8 be 1b 19 5d 3e 77 91 9d 3e 0c b1 f8 be
       -0.4234842 0.21591608 0.30775043 -0.48572576
000170 54 4d bc 3e 8d 58 e5 be c1 0f 71 3e fb 49 a0 3e
       0.36777747 -0.4479412 0.23541166 0.31306443
000180 33 d1 8b 3e 9c 93 86 3e 63 0e 83 3e c5 01 8d be
       0.27308044 0.26284492 0.25596914 -0.27540413
000190 9e ea 99 3d a8 e0 a2 3c e6 d0 46 3c 52 f2 e5 3e
       0.07515453 0.019882515 0.012134766 0.44911438
0001a0 c1 d1 94 be 57 22 b2 be 46 40 5a be 1c 7f fa 3e
       -0.2906628 -0.34791824 -0.21313581 0.48925102
0001b0 d6 59 b5 be 01 4f 62 be 0c 13 96 3e 77 66 be 3e
       -0.35420102 -0.2210045 0.29311407 0.3718755
0001c0 54 7d 50 be 1f 49 66 3b 56 28 90 3e 9d a9 de be
       -0.20360309 0.0035138798 0.28155774 -0.4348878
0001d0 59 21 47 3e c4 87 33 3e 15 bc e0 3e 2a d5 ac be
       0.19446315 0.17532259 0.43893495 -0.3375638
0001e0 98 0e df bc 41 19 35 be 43 95 42 3e b7 b0 9a bd
       -0.027228639 -0.17685415 0.19002251 -0.07553237
0001f0 19 e0 e4 3e d3 89 af be 25 b9 17 be f5 c7 eb be
       0.44702223 -0.3428484 -0.14816721 -0.46050993
000200 22 dc ca 3d 7e 14 ec be 5e 90 c0 3e b4 13 ab bd
       0.09905268 -0.46109384 0.37610143 -0.083533674
000210 3b 49 96 3e de 12 e0 be a9 f8 2f be 2b 1e 15 3e
       0.29352745 -0.43764395 -0.171847 0.1456229
000220 af fb 45 bd 4a b3 dc be 33 78 d0 3e 2d 1a e9 3c
       -0.048335727 -0.43105537 0.40716705 0.028454864
000230 24 e3 93 be 97 1c b4 be 79 09 9d be ad 6d 24 be
       -0.28884232 -0.35178062 -0.3067129 -0.16057463
000240 d4 be db 3e 25 44 bb 3e 95 02 f6 3d a8 b3 c5 3d
       0.42919028 0.36575428 0.12012211 0.09653407
000250 93 02 c8 3c 57 64 d4 be 06 f0 af 3e 01 54 48 bd
       0.02441529 -0.41482803 0.3436281 -0.048908237
000260 ed 34 25 be 3b 79 58 3d 26 f3 a8 3e 3f 1a da be
       -0.16133471 0.05284999 0.32998008 -0.4259815
000270 9a 13 20 be 7b 5b 93 be 3b b6 a4 3e 96 49 8c be
       -0.15632477 -0.28780732 0.3217028 -0.27399892
000280 eb f9 8a be a8 c8 1d 3e 91 d4 21 3d 75 31 d3 bd
       -0.27143797 0.15408576 0.03950936 -0.103121676
000290 29 22 01 3f 46 d0 dc be 22 a5 62 be f0 94 3b 3e
       0.5044275 -0.4312765 -0.22133306 0.18318534
0002a0 97 0c 0c 3d 89 5c ae be 32 6a 7a be 68 db cf bd
       0.034191694 -0.34054974 -0.24454573 -0.1014927
0002b0 0e 26 6a be ca 1a 6a bd 21 de 53 be ae 86 b1 bd
       -0.22866079 -0.057154454 -0.20690204 -0.08668266
0002c0 56 10 84 be 14 99 e7 3e c8 16 33 be 4a 12 e4 3d
       -0.25793713 0.45233977 -0.17489159 0.11136301
0002d0 49 5b 04 be e6 d4 17 be c7 28 49 be 2d 45 fe bd
       -0.12925448 -0.14827308 -0.19644462 -0.12415538
0002e0 3f 9e a4 be b8 6a f5 be cf 63 55 3e fd a7 ba 3e
       -0.32151982 -0.47932982 0.20838855 0.3645629
0002f0 b0 ac 4a be 87 a0 c9 3e 9d 24 f9 bd b1 ad 7d be
       -0.19792438 0.39380285 -0.121651866 -0.2477329
000300 8d 48 44 3e 51 3f 8a 3e 6b 3e b2 be 3d 2c c4 bd
       0.19168301 0.27001432 -0.34813246 -0.0957875
000310 e9 f3 d3 3d f8 59 37 3e 44 4b ae bd d8 03 c3 3c
       0.103492565 0.17905414 -0.085104495 0.023805544
000320 0f 8f 34 3d 6e e0 f2 3e 9f 02 b4 be 2c 57 ce 3d
       0.044081744 0.4743685 -0.3515825 0.100752205
000330 a7 1d a7 be de ed 55 be be 00 2a bd 1f 66 d9 be
       -0.3263981 -0.2089152 -0.041504614 -0.42460725
000340 3c 2b 13 3e 7b 30 a2 3e e6 e9 76 be 12 d6 e0 3e
       0.14371961 0.31677613 -0.24112663 0.43913323
000350 91 53 3b 3e 42 e1 aa 3d 2c 34 e8 be 22 d5 36 3d
       0.18293597 0.08343746 -0.45352304 0.044636853
000360 a8 64 e9 be 11 d3 83 bd b3 1e 9b 3e 06 16 b6 3e
       -0.45584607 -0.06436742 0.3029686 0.35563678
000370 11 af f3 3e 8e 75 14 be 5c 22 a4 bd 53 52 b7 be
       0.47594503 -0.14497969 -0.08014366 -0.35804996
000380 e6 8e 88 be 65 f2 99 3e 07 ff bd be 48 57 ae 3e
       -0.26671523 0.30067745 -0.37108633 0.34050965
000390 93 71 f5 3e 99 0d 3e be 08 b8 95 bd ac f0 85 be
       0.47938213 -0.18559875 -0.07310492 -0.2616018
0003a0 8f d3 d3 3e a0 0b a3 3e a2 64 e8 be 2b 47 a8 3e
       0.41372344 0.31844807 -0.45389277 0.32866797
0003b0 69 b9 84 be 87 fb c6 3e 96 56 22 be 53 d4 29 3d
       -0.25922707 0.38863775 -0.15853342 0.041462254
0003c0 e5 72 81 3e 7c 35 15 3e 10 b8 f7 3e 83 e2 a8 3e
       0.2528297 0.14571184 0.48382616 0.32985315
0003d0 09 32 37 3e 72 8d f9 3e 1a 58 a9 be af 1c 03 bb
       0.1789018 0.48740727 -0.3307503 -0.002000611
0003e0 f2 d4 dd 3e df b8 e8 3e e2 4b a0 3e 4c 8b 50 3d
       0.43326527 0.45453545 0.31307894 0.050914094
0003f0 93 57 b6 3e 15 6c 8c be 78 18 81 3e ea b7 d8 be
       0.3561369 -0.2742621 0.2521398 -0.42327815

actor_fc2.weight f4 [2, 256]
000000 90 8b 92 3c 00 d6 03 3e 25 32 87 3d 6d d9 6a bc
       0.017888814 0.12874603 0.06601361 -0.014334065
000010 c8 65 03 3e 78 07 2d 3d 6b 51 ab 3c 79 36 34 bb
       0.12831795 0.04224345 0.020912847 -0.0027498289
000020 0a 1b 8c bd 7b d7 75 bc 26 82 d3 3c 93 a3 ab bc
       -0.06841095 -0.015004988 0.025818896 -0.020952022
000030 52 0f d9 bc f9 1b 03 3d 25 f4 ff 3c 72 30 df 3c
       -0.026496563 0.0320091 0.031244347 0.02724478
000040 85 05 24 be 72 7b 17 3c 8b 4a 49 bd c6 a8 9a bd
       -0.1601773 0.00924574 -0.049143355 -0.07551722
000050 72 30 9c 3c 2d c5 1f bc 45 eb f4 3b 3b 7c 31 bd
       0.01906607 -0.0097516 0.0074743354 -0.043331366
000060 db a9 0d bd 39 b4 64 bd b7 ed 4f bd f2 07 77 3d
       -0.034585815 -0.055835936 -0.050763812 0.06031031
000070 6e 7a 93 bd ed e1 82 b9 63 59 ae bc 72 71 3c bd
       -0.07201086 -0.0002496386 -0.021282857 -0.046006627
000080 68 16 fd 3c 28 0c 0a 3e d0 fd a7 3c d4 3c e1 ba
       0.030894473 0.134812 0.02050677 -0.0017184266
000090 a2 94 17 3c 81 01 c9 bd b3 fb 80 3c 13 f2 be 3c
       0.009251745 -0.0981474 0.01574502 0.02330879
0000a0 a3 04 18 bd 9a ec f2 3d d3 3c 5a bd 82 b7 d6 3d
       -0.037113797 0.118615344 -0.053280663 0.1048422
0000b0 99 ed 59 bd 58 a9 90 3d 03 8d 57 3c 42 00 be 3b
       -0.053205106 0.0706355 0.013156178 0.0057983706
0000c0 35 dc a5 bc f9 ba 33 3d 86 8e 8f bd a5 60 93 3a
       -0.020246604 0.043879483 -0.07009606 0.0011244012
0000d0 29 1f 58 bd 46 7e 1a bd 15 8b 85 3d 54 be 7f 3d
       -0.05276409 -0.03771808 0.065206684 0.06243737
0000e0 ce 33 37 3c 8b 35 d1 bb 54 8a cb bc ed 30 c3 bd
       0.011181785 -0.0063845566 -0.024846233 -0.09530816
0000f0 21 46 9d bb 57 6b 3b bd e4 52 17 3c e6 4b 70 bd
       -0.00479962 -0.045756664 0.009236071 -0.058666132
000100 a3 78 3b bd 98 a8 c2 3d f4 6a 84 bb bb 02 69 3c
       -0.045769345 0.09504813 -0.00404107 0.014221842
000110 23 c2 fe 3d 26 1e 6d 3d 14 b6 bd 3c 35 21 34 bd
       0.124393724 0.05789008 0.02315811 -0.04397698
000120 13 02 9b 3c e4 bd 0c bd 39 2f 73 3d 69 62 f7 3c
       0.018921888 -0.03436078 0.059371207 0.030198293
000130 5e 53 7f bd 53 8e 11 3b 39 06 44 3e a5 cc 2b bd
       -0.062335365 0.0022210076 0.19142999 -0.04194321
000140 73 86 c4 bd 91 aa 2d bd 3c 8d be 3a 0e 02 b8 bb
       -0.09595957 -0.042398993 0.0014537941 -0.0056154793
000150 0c 54 7a bd 3b 09 bc bd ac 19 23 3d 61 65 25 3c
       -0.06111531 -0.09181448 0.039819404 0.010094971
000160 9a 1c a0 bc ab fd 3c bc 54 cc a9 3d 13 4d ef 3c
       -0.019544888 -0.0115350885 0.082909256 0.029211557
000170 d3 a5 64 bd c5 a8 d0 3d 65 78 22 bd 81 49 a4 3c
       -0.055822205 0.1018844 -0.0396656 0.02005458
000180 94 0d 6a 3d 41 96 29 bd 59 1b 82 3d 39 3e c9 bc
       0.057141855 -0.04140306 0.063528724 -0.024565803
000190 db 97 ff 3d 66 0c 2b 3d 5a d5 ef 3d 71 7f 11 3d
       0.12480136 0.04175987 0.117106155 0.03552193
0001a0 5a 5e 31 bc b5 e7 c4 bc 61 55 c6 bc 26 91 50 bd
       -0.010825718 -0.024036268 -0.024210634 -0.050919674
0001b0 aa fd 5e 3d a2 72 24 bd 8b f6 50 3c be 8d d2 3b
       0.05444113 -0.040148385 0.012754093 0.0064255884
0001c0 bb b6 0b 3d 07 c0 24 be 9d ad 6d bd aa 61 e3 3c
       0.034109812 -0.16088878 -0.0580269 0.02775653
0001d0 7d c5 2d bd f9 8a 0a 3e 33 0d db 3c b1 ce 99 3c
       -0.042424668 0.13529576 0.026739692 0.018775316
0001e0 54 e6 7d 3d 65 0d 44 bd 19 e5 0d 3d 70 09 8b bc
       0.061987236 -0.047864337 0.034642313 -0.016972274
0001f0 c1 c9 85 3d 61 91 c6 3c d1 e8 cc 3d 24 24 9f bd
       0.06532622 0.024239244 0.10005344 -0.07770565
000200 56 58 22 bd 81 35 64 bc d5 16 9c bd 6e 7b 95 3d
       -0.039635025 -0.013928772 -0.07621542 0.07298933
000210 74 51 a3 ba 3b 38 31 bd a4 48 89 bc 86 ea aa 3d
       -0.0012460188 -0.043266516 -0.01675827 0.08345513
000220 54 e1 09 bc 96 3d 37 bd e6 71 87 3c 78 84 86 bd
       -0.008415539 -0.044736467 0.016533803 -0.06568235
000230 e0 fb 33 bd 99 93 a5 3c ec 68 63 bd 0f 95 b7 bd
       -0.04394138 0.020211982 -0.055519983 -0.089639775
000240 86 82 f6 bc 0b da 31 bd f7 b6 74 3d ef 18 e3 bc
       -0.030091535 -0.043420833 0.0597448 -0.02772185
000250 3e 97 1e 3d c3 4f 3b 3d 2a 4b 8e 3d fd a8 23 bc
       0.038718455 0.045730364 0.0694793 -0.00998902
000260 88 07 b1 bc ff 71 b8 3c d6 4c 05 3a 82 84 a4 3d
       -0.021610036 0.022515295 0.0005084997 0.08033086
000270 6c 77 27 3d d2 09 1a 3c 1d 7a 6c bb 5e 20 09 bb
       0.040885374 0.009401755 -0.0036083527 -0.0020923833
000280 c4 9f a8 3d 0a 5d 9d 3d 8c e8 d2 bd f0 43 a7 3d
       0.08233598 0.076837614 -0.10298261 0.08167255
000290 c8 41 82 3c 08 5b 6d 3d b9 76 6b 3d 70 73 d2 3b
       0.015900508 0.057948142 0.05748627 0.0064224526
0002a0 fe 07 76 3d cf 04 5c 3c 39 81 a6 3c 23 67 44 3d
       0.060066216 0.013428881 0.02032529 0.04794992
0002b0 a1 6a e6 3c 89 a9 d1 3b 98 96 3e bd a8 c9 1f bb
       0.028127016 0.006398384 -0.046530336 -0.002438167
0002c0 31 2a ea 3c 6c f8 a7 bc 44 5c 96 bc 87 42 ad bd
       0.028584572 -0.020504199 -0.018354543 -0.08459955
0002d0 7c db 49 bd 7e e8 78 3c 86 dc a7 3d c9 cc ea bc
       -0.049281582 0.015192149 0.081963584 -0.028662102
0002e0 68 ef 31 3c 0d c7 85 3d 6f 1a 4c 3d 4d 7b be bc
       0.010860302 0.065321065 0.049829897 -0.023252154
0002f0 93 9c ab 3d 90 f5 8a bd e1 2f d2 3c 6b e6 55 3d
       0.083794735 -0.067851186 0.025657596 0.052221697
000300 cd dc 62 bd 61 69 e0 bc 28 5b 87 3b fd 27 31 bd
       -0.055386353 -0.027393999 0.0041307397 -0.043251026
000310 03 30 bc bd f2 ac da 3d be 1a bc 3d f8 a2 95 bc
       -0.09188845 0.10677518 0.09184788 -0.018266186
000320 62 09 dd 3d 1b 86 fd 3c d0 18 be bc 56 f8 b2 bd
       0.10792805 0.030947736 -0.02320519 -0.087387726
000330 9f a9 f2 3d 1d ca 87 3d c9 71 a2 bc 34 06 84 bd
       0.11848759 0.06630347 -0.019829648 -0.06446496
000340 0a dd e5 3c 10 5f 8f bd 16 95 02 bd 63 3f b9 3d
       0.028059501 -0.070005536 -0.03188046 0.09045293
000350 55 ad 6c bd 89 6f 4b 3d 3e b8 b9 3b 7e 42 05 3e
       -0.05778249 0.049666915 0.0056677153 0.13013646
000360 79 cd 76 bb ae fa f3 3c 67 b3 81 bc ff e0 84 bd
       -0.0037659092 0.02978262 -0.015832616 -0.06488227
000370 0a 6f 85 3c 0e af 12 bd f0 c8 36 bb dd 27 7e 3d
       0.0162883 -0.035811476 -0.0027890764 0.062049735
000380 e6 ff d6 3c eb 4c 96 3d 08 ca 13 bd 79 1e 3f 3c
       0.026245069 0.0733889 -0.036081344 0.01166498
000390 88 c8 9d 3d 8e 13 2a bd 16 93 be 3d 5d 26 c1 bc
       0.07704264 -0.041522555 0.09305398 -0.023577863
0003a0 4d b9 70 bd 13 3a c4 bd 82 d8 eb 3c 88 f7 88 bc
       -0.058770467 -0.09581389 0.028789762 -0.016719595
0003b0 86 0f 79 bd 70 7e c9 3c 8e 8c ea bc b5 b4 8d bd
       -0.06080582 0.024596423 -0.028631475 -0.06919233
0003c0 24 71 b6 3c 11 fb 6b bd 1b 73 98 bd 22 23 ec bc
       0.022270747 -0.057612482 -0.074438296 -0.028825346
0003d0 43 17 53 bd f2 96 70 bb 79 7c 61 3d e7 a2 8d bd
       -0.051535856 -0.0036711064 0.055050347 -0.06915837
0003e0 74 2f 1f bc 48 9c 09 3b 53 94 b1 bc 8f 85 90 bd
       -0.009715904 0.0020997692 -0.021677172 -0.07056724
0003f0 6e ef 3f 3d 97 b7 b1 3d 52 7c c3 bc 5a 77 49 3d
       0.046859197 0.08677595 -0.023862991 0.04918609

actor_fc2.bias f4 [2]
000000 2f 6e bd bc ca bf 59 bd
       -0.023123829 -0.05316142
