codes/HierarchicalDQN/outputs/CartPole-v0/20211221-200119/models/meta_checkpoint.pth (torch, 274789 bytes, 6 tensors)

fc1.weight f4 [256, 4]
0.5608742 1.3343041 1.1708108 1.0113175 0.3845693 0.8523006 0.42500946 0.69511926
-0.06141516 -0.8731347 -1.9585086 -0.42525855 0.19111115 -0.670674 -0.05150259 -1.3495234
-0.21813688 -1.2106614 -0.13388474 -1.0732977 0.25036365 0.03823487 -0.18987273 -0.58398485
0.30068594 -0.28156608 0.63643485 -0.3527753 -0.30477875 0.09656093 0.7913523 -0.35656914
-0.028162217 -0.7356462 0.25573614 -0.16115 0.31803933 0.46594593 0.15753411 -0.063453585
0.5433432 0.25363603 0.40874988 -0.6266228 -0.25798902 0.050047215 0.59602773 0.093736276
0.7117466 0.57332134 -0.59084785 0.82857996 0.25979644 -0.49682638 0.71085125 -0.116953485
0.7305876 0.7376435 0.5818143 0.5329761 0.019534279 -0.19716524 0.4206421 0.60639405
-1.0074226 -0.7857153 0.75616086 -0.2305752 0.05126709 0.8459792 1.2743882 0.61086464
-0.2841546 0.17141408 -0.3917334 0.37970424 0.22648138 -0.37166804 0.17953408 0.27733576
-0.34577197 0.20963472 -0.08977032 -0.1190778 -0.28667438 -0.48596355 0.68429244 -0.15016311
0.29105687 -0.26671737 -0.36040562 0.38491833 -0.0756375 -0.49683824 -0.52223444 -0.47648832
0.29969567 0.28468847 -0.47262493 -0.6931819 0.120104775 0.3316767 0.5542657 0.34376737
-0.49267474 0.47876185 0.21051404 -0.49073294 -0.29163986 -0.23533958 -0.102063596 0.063066244
-0.45069337 0.42732453 0.10291082 0.41836238 0.5335788 0.2666342 -0.28259668 0.5975851
0.91030574 0.59980947 0.6053985 0.16496663 -0.3742945 -0.22002369 0.38448992 -0.6030096
0.07097447 0.0369547 0.09885788 -0.24224025 0.44202548 0.14251325 1.3651496 0.55144435
0.008421297 0.3970112 0.010303338 -0.10158631 0.7165828 0.72718936 -0.40601864 0.050687168
-0.026187833 0.41715425 -0.41876915 0.20472734 -0.3715684 -0.28147697 0.43119928 1.0967317
0.43822324 -0.4828679 0.45185095 0.15346283 -0.33011332 -0.30284643 -0.27326322 0.376998
0.0026684508 -0.21218532 0.63960904 -0.80936915 -0.6060299 0.48603863 0.32994008 -0.2762253
0.009381067 0.6429259 0.06428558 0.15474163 0.08576823 -0.3134208 0.37318727 0.06326118
-0.7472613 0.48704416 -0.2884896 -0.43004912 -0.03536888 -0.6007937 -1.0595407 -0.47087726
0.5788612 0.40654653 0.48781797 -0.4114569 -0.3593533 -0.16337292 -0.14355575 -0.35553825
0.9394986 0.8509177 -0.8604046 0.5210257 0.29915512 -0.269737 -0.18338197 -0.34680504
-0.74295384 -0.891619 0.14350678 -0.6439693 -0.17603128 -0.13239439 -0.40137205 1.6437285
0.25039762 0.50367683 0.7667523 -0.0028107762 0.2697863 -0.5484699 0.061927866 -0.98685354
-0.041184302 0.5413341 -0.036068507 -0.78840274 0.33852527 0.088837504 1.1221724 0.34046003
0.14472835 0.4539067 0.31474042 0.9604529 0.012727659 -0.7233955 -2.4613836 -0.42630246
-0.27464348 0.3700235 0.14521599 -0.04430288 -0.37964052 0.4667611 -0.4419307 0.20886552
0.10000146 0.5590984 -0.34643784 -0.766262 0.073057294 -0.08235639 0.06604093 0.07401866
-0.10692707 -0.27812666 0.4620371 0.49071893 -0.16172934 -0.31309187 0.15651369 0.31926876
00000000: 7495 0f3f 7aca aa3f 21dd 953f da72 813f
00000010: 44e6 c43e 5f30 5a3f d79a d93e 56f3 313f
00000020: 768e 7bbd c185 5fbf 69b0 fabf 7dbb d9be
00000030: a4b2 433e 4bb1 2bbf 61f4 52bd 2fbd acbf
00000040: 465f 5fbe f4f6 9abf 1519 09be d261 89bf
00000050: aa2f 803e 2b9c 1c3d ff6d 42be 0880 15bf
00000060: 82f3 993e 6e29 90be 65ed 223f f79e b4be
00000070: f60b 9cbe bdc1 c53d 1096 4a3f 3b90 b6be
00000080: 73b4 e6bc 4f53 3cbf d9ef 823e 8104 25be
00000090: 0dd6 a23e 7790 ee3e 9f50 213e f4f3 81bd
000000a0: 8a18 0b3f 95dc 813e aa47 d13e 5a6a 20bf
000000b0: 2317 84be 4ffe 4c3d 4695 183f cef8 bf3d
000000c0: 0635 363f 30c5 123f ce41 17bf d11d 543f
000000d0: 0a04 853e 0760 febe 59fa 353f 4f85 efbd
000000e0: ca07 3b3f 34d6 3c3f c8f1 143f 1f71 083f
000000f0: 5a06 a03c afe5 49be 675e d73e a43c 1b3f
00000100: 39f3 80bf a324 49bf c293 413f e81b 6cbe
00000110: 71fd 513d 1892 583f 271f a33f a061 1c3f
00000120: b67c 91be 2c87 2f3e 4891 c8be 9868 c23e
00000130: bcea 673e 464b bebe c8d7 373e f4fe 8d3e
00000140: 0609 b1be 7caa 563e 80d9 b7bd 10df f3bd
00000150: fcc6 92be 37d0 f8be ca2d 2f3f 5cc4 19be
00000160: 6805 953e 2e8f 88be 1687 b8be 0414 c53e
00000170: d5e7 9abd 9561 febe 28b1 05bf 47f6 f3be
00000180: b671 993e b0c2 913e e5fb f1be 5e74 31bf
00000190: 7ef9 f53d 87d1 a93e 5be4 0d3f 4702 b03e
000001a0: dd3f fcbe 4620 f53e fe90 573e 5941 fbbe
000001b0: d251 95be dcfc 70be b806 d1bd e028 813d
000001c0: 48c1 e6be 48ca da3e e8c2 d23d 9833 d63e
000001d0: 9f98 083f 4784 883e 83b0 90be 56fb 183f
000001e0: cc09 693f 1d8d 193f 65fb 1a3f 03ed 283e
000001f0: 87a3 bfbe e44d 61be dddb c43e d65e 1abf
00000200: 105b 913d d05d 173d 0076 ca3d d40d 78be
00000210: 2a51 e23e feee 113e 39bd ae3f 752b 0d3f
00000220: 7bf9 093c 0d45 cb3e 55cf 283c 7c0c d0bd
00000230: f871 373f 1529 3a3f ade1 cfbe 599d 4f3d
00000240: de87 d6bc 3e95 d53e e968 d6be 0ba4 513e
00000250: 373e bebe c01d 90be 27c6 dc3e b461 8c3f
00000260: cc5e e03e 763a f7be 0259 e73e 5c25 1d3e
00000270: 9d04 a9be b00e 9bbe 28e9 8bbe e205 c13e
00000280: 2de1 2e3b 1c47 59be 6bbd 233f d132 4fbf
00000290: c724 1bbf 0eda f83e e8ed a83e 676d 8dbe
000002a0: 0cb3 193c cb96 243f 28a8 833d 9774 1e3e
000002b0: 41a7 af3d b178 a0be 6712 bf3e 148f 813d
000002c0: 844c 3fbf da5d f93e e9b4 93be 662f dcbe
000002d0: f5de 10bd 9ecd 19bf 089f 87bf d316 f1be
000002e0: 3f30 143f de26 d03e 47c3 f93e 7baa d2be
000002f0: 28fd b7be 3b4b 27be 4700 13be 1c09 b6be
00000300: fb82 703f bed5 593f 7a43 5cbf f161 053f
00000310: dc2a 993e f81a 8abe 7cc8 3bbe 6e90 b1be
00000320: 3932 3ebf 2541 64bf 71f3 123e 2cdb 24bf
00000330: 8b41 34be 6592 07be a380 cdbe b265 d23f
00000340: 1e34 803e f7f0 003f e149 443f 0035 38bb
00000350: 6e21 8a3e 8668 0cbf 13a8 7d3d 6fa2 7cbf
00000360: dfb0 28bd df94 0a3f 92bc 13bd c3d4 49bf
00000370: 2f53 ad3e 70f0 b53d 58a3 8f3f c750 ae3e
00000380: ab33 143e 7566 e83e a825 a13e 3ee0 753f
00000390: ac87 503c 7330 39bf 4f87 1dc0 5144 dabe
000003a0: 129e 8cbe b873 bd3e 80b3 143e f076 35bd
000003b0: 3e60 c2be 50fb ee3e be44 e2be d8e0 553e
000003c0: 91cd cc3d 1321 0f3f 4d60 b1be bf29 44bf
000003d0: 109f 953d 78aa a8bd 7840 873d 1897 973d
000003e0: 94fc dabd 9e66 8ebe 2090 ec3e 833f fb3e
000003f0: 609c 25be 944d a0be 2045 203e 3277 a33e

fc1.bias f4 [256]
0.13326766 0.27016574 0.064533755 0.60008186 0.5373711 -0.15736632 0.1784741 0.39812854
0.50839126 -0.2093528 0.4492979 0.29474324 0.4895662 0.50619215 0.31553924 0.26865992
0.08643264 0.085069 -0.19622141 -0.28225636 -0.47873753 0.6193072 -0.32888758 0.585756
-0.07994431 0.49045184 0.26642177 -0.3315727 -0.38472706 0.46109927 0.49239334 0.58654374
-0.44553483 -0.32359642 0.38296837 0.29653892 0.5930949 -0.4343916 -0.38178462 0.5758488
0.51737493 -0.15819372 0.40402162 0.5480406 -0.19558813 0.1588717 -0.23612234 0.5352367
0.5315956 -0.41114676 -0.07494562 0.26656947 0.13959175 0.3573851 0.23461613 -0.22522384
0.3158408 0.025314705 -0.48371994 -0.28450876 -0.13731787 -0.13357675 0.30310676 -0.37459838
0.40057856 0.42999285 0.18450584 0.6029553 -0.13310206 0.55633336 -0.23153882 -0.3633694
-0.34930927 0.03757995 -0.070773825 -0.07303575 -0.40421945 -0.2631276 0.24374901 0.38472778
-0.12610893 -0.4934184 0.028584672 0.57432365 0.10356804 -0.47547752 0.11422715 0.39895085
0.2619099 0.42532843 0.54686636 0.23159173 0.36565796 0.08450454 0.5895731 -0.17879352
0.519496 -0.29671055 0.22907327 0.40980306 -0.45819536 -0.22022444 0.51664525 -0.4864577
0.6192798 0.42873964 0.52400464 -0.41314888 -0.47140187 0.07188654 -0.10531841 0.1331938
0.21632533 -0.49485815 0.089080244 0.4497391 -0.075269416 0.5849344 0.45496163 0.39587218
0.0941229 0.12900192 0.24908134 0.4334566 -0.1594109 -0.3500244 -0.45214444 -0.38103873
0.44110972 0.61536574 0.38264588 0.031544585 0.5011233 0.28302154 -0.062976435 -0.35432118
0.568257 -0.41987962 -0.2391063 0.34655452 -0.2063538 -0.071231626 0.15192758 -0.08518484
0.44142637 0.17288372 -0.21735378 -0.5007861 0.40945673 0.13837713 -0.32777593 -0.02327953
0.18053015 0.21566969 -0.1957753 0.3353754 0.13849387 -0.15254697 0.5892969 -0.30611295
-0.18697341 0.23635566 0.31689054 0.4792617 0.19439036 0.30501506 0.19283804 0.014259934
-0.10917959 0.2784055 -0.085771985 0.2534854 0.13656779 0.25970012 0.32976478 0.22597528
-0.07090288 -0.38044286 0.06518407 0.5902142 0.3219042 0.085332215 0.5593442 0.40306637
0.09102025 -0.4968282 0.52371347 0.4984488 0.45988595 0.24074857 0.5915208 -0.099126466
0.33496794 0.6132489 -0.12618375 -0.49257016 0.19093606 -0.30960637 0.056301586 0.44023645
-0.2914304 -0.1866706 0.2501337 0.42278877 0.35178345 0.20304042 0.28741926 -0.42510736
-0.321953 0.4867732 0.49199796 0.28195074 0.5292829 0.21558014 -0.3784865 0.22483261
0.19196475 0.46706387 -0.3529321 0.41163522 0.15463929 -0.47257084 -0.22530065 0.13866334
0.6015669 0.448381 -0.040112074 -0.14083673 0.40907288 0.41846734 0.50807095 -0.29197836
0.49731153 -0.3764071 0.16330422 -0.33011764 0.23125352 0.58279985 -0.08862335 0.08003645
-0.39001244 0.2357593 -0.06351068 -0.30420655 -0.26012728 0.07207357 -0.28504604 -0.31736094
0.5687799 0.49115762 -0.38670188 0.13647497 0.41792756 -0.24579144 0.2271099 0.031079732
00000000: 5177 083e 2a53 8a3e 462a 843d f79e 193f
00000010: 2791 093f a324 21be eac1 363e 81d7 cb3e
00000020: ee25 023f 9560 56be 600a e63e 96e8 963e
00000030: 6ca8 fa3e cf95 013f 5c8e a13e cb8d 893e
00000040: 9903 b13d a838 ae3d 44ee 48be e883 90be
00000050: 161d f5be eb8a 1e3f f463 a8be 1bf4 153f
00000060: d8b9 a3bd 811c fb3e 6f68 883e e6c3 a9be
00000070: f2fa c4be 3415 ec3e fb1a fc3e bb27 163f
00000080: 241d e4be 6eae a5be 6e14 c43e f3d3 973e
00000090: 11d5 173f 9368 debe 4679 c3be d46a 133f
000000a0: af72 043f 89fd 21be ecdb ce3e 644c 0c3f
000000b0: 4148 48be 43af 223e 0eca 71be 4605 093f
000000c0: a616 083f d481 d2be 177d 99bd cb7b 883e
000000d0: 24f1 0e3e 2efb b63e 363f 703e 14a1 66be
000000e0: e3b5 a13e c960 cf3c 24aa f7be 22ab 91be
000000f0: 0e9d 0cbe 58c8 08be cf30 9b3e 5ccb bfbe
00000100: a218 cd3e 0628 dc3e 19ef 3c3e 475b 1a3f
00000110: e84b 08be dd6b 0e3f 8318 6dbe 8e0b babe
00000120: aad8 b2be 6fed 193d def1 90bd c493 95bd
00000130: daf5 cebe a9b8 86be 5799 793e 0afb c43e
00000140: b322 01be 56a1 fcbe 672a ea3c e006 133f
00000150: 7b1b d43d ca71 f3be edef e93d 4943 cc3e
00000160: 0e19 863e a6c4 d93e 6fff 0b3f 6226 6d3e
00000170: 8537 bb3e b710 ad3d 43ee 163f a615 37be
00000180: b1fd 043f 72ea 97be 2f92 6a3e b5d1 d13e
00000190: 9598 eabe 8482 61be dd42 043f fc10 f9be
000001a0: 1f89 1e3f c383 db3e 2b25 063f 4088 d3be
000001b0: 965b f1be 4039 933d 2eb1 d7bd f563 083e
000001c0: 6384 5d3e 0c5e fdbe b46f b63d 3444 e63e
000001d0: da26 9abd 43be 153f bbf0 e83e c2af ca3e
000001e0: 82c3 c03d 1419 043e 2e0f 7f3e 06ee dd3e
000001f0: 9c3c 23be 6636 b3be 7a7f e7be 8217 c3be
00000200: 22d9 e13e 9c88 1d3f 29ea c33e e534 013d
00000210: 9e49 003f 33e8 903e caf9 80bd 9669 b5be
00000220: 4a79 113f 76fa d6be 48d8 74be 986f b13e
00000230: 694e 53be e3e1 91bd e792 1b3e 6475 aebd
00000240: a302 e23e 6e08 313e fd91 5ebe 8533 00bf
00000250: 50a4 d13e bcb2 0d3e 3fd2 a7be b7b4 bebc
00000260: e5dc 383e 84d8 5c3e 5279 48be 53b6 ab3e
00000270: 56d1 0d3e 4635 1cbe 29dc 163f d6ba 9cbe
00000280: f575 3fbe 3807 723e 7a3f a23e ca61 f53e
00000290: 440e 473e ef2a 9c3e 5677 453e 80a2 693c
000002a0: 8d99 dfbd 2a8b 8e3e 39a9 afbd d7c8 813e
000002b0: 6dd8 0b3e 6af7 843e eed6 a83e 1066 673e
000002c0: 8735 91bd 68c9 c2be 3a7f 853d 4718 173f
000002d0: a1d0 a43e a8c2 ae3d 2e31 0f3f b75e ce3e
000002e0: d368 ba3d 4460 febe 1612 063f ae34 ff3e
000002f0: 2c76 eb3e cb86 763e e86d 173f d102 cbbd
00000300: eb80 ab3e e1fd 1c3f 5036 01be 2832 fcbe
00000310: be84 433e ba84 9ebe 7e9c 663d ac66 e13e
00000320: 5e36 95be 9426 3fbe 8611 803e c577 d83e
00000330: f61c b43e d4e9 4f3e 9e28 933e aca7 d9be
00000340: 06d7 a4be 563a f93e 28e7 fb3e d95b 903e
00000350: 167f 073f 0ac1 5c3e fcc8 c1be 853a 663e
00000360: 6892 443e ff22 ef3e 84b3 b4be dac1 d23e
00000370: c359 1e3e cef4 f1be 37b5 66be c3fd 0d3e
00000380: 4a00 1a3f 3292 e53e 8f4c 24bd 8137 10be
00000390: 0072 d13e 5a41 d63e f010 023f 307e 95be
000003a0: 9e9f fe3e 6eb8 c0be 3939 273e 2e05 a9be
000003b0: b9cd 6c3e 5f32 153f 2980 b5bd 26ea a33d
000003c0: b6af c7be e36a 713e e311 82bd f6c0 9bbe
000003d0: 672f 85be 4f9b 933d 8ef1 91be 227d a2be
000003e0: 8f9b 113f 0379 fb3e cafd c5be 18c0 0b3e
000003f0: 9afa d53e c0b0 7bbe 7f8f 683e ec9a fe3c

fc2.weight f4 [256, 256]
-0.38564104 -0.0048660296 0.8613241 0.004602789 0.054592073 0.25701502 0.080724865 0.014818896
0.09055872 0.60841155 0.023272555 -0.0041689533 0.00087709894 -0.0154765 0.04913657 0.040742557
0.08525044 -0.4185618 0.021373957 -0.049387977 0.015192524 0.09456204 0.05078829 0.03425856
-0.1033521 -0.008438086 0.023323117 0.020294368 -0.05035156 -0.077660404 -0.0022471508 0.014923785
-0.05277548 0.3935489 0.06495191 0.013596682 0.020509114 0.024985021 0.04060097 0.0040223
0.06348051 0.0854821 0.030286873 -0.037087705 0.12870684 -0.012285954 0.55602694 0.0062850667
-0.0119983675 0.034223348 -0.96599936 -0.13028386 0.07456559 0.05720386 -0.03761675 0.46074447
-0.07852739 0.96260244 -0.025164023 0.040377043 0.45609286 -0.050091483 0.036382943 -0.025378436
0.057123277 -0.022252453 0.1545077 0.08293561 0.57727826 0.022041963 0.45932192 0.04560668
0.5546969 0.2799627 0.96582896 1.2369008 0.0068701804 0.5599913 -0.09523246 0.013317421
1.124581 -0.037957244 0.6860089 -0.06055238 0.13012698 -0.6054993 0.21563055 0.031075044
-0.02563978 0.03133059 -0.0017208486 -0.40676835 -0.02021559 -0.5770991 0.011971022 0.48631096
0.06394552 -0.04268276 0.09209588 -0.019669052 0.513811 0.51414275 0.019631805 0.017027758
0.04293146 0.071093775 0.025218466 -0.02875992 -0.021070294 0.7369508 1.0960237 -0.014899166
0.12157997 0.053272456 -0.4007251 0.0028182464 0.7361386 -0.05833548 0.060522527 -0.0016184779
0.120685406 0.025516776 0.08233359 -0.06515443 0.11646985 -0.010233507 0.05383481 -0.0032724366
-0.031972997 0.038575444 0.03843413 0.7865288 0.026680669 0.1441704 0.44725436 0.043913282
0.04389131 0.056619316 0.54116136 0.01721241 0.42470238 0.78061235 -0.48947152 -1.60693
0.06855436 0.017300766 0.39060298 0.046160564 -0.007113666 -0.06862588 0.6701819 0.17532893
-0.349651 0.08054972 0.6452481 0.043874856 -0.010588165 1.0496029 -0.020187503 0.061854176
-1.3478254 0.1406944 0.0019895907 0.09471758 -0.013124834 -0.05217244 0.07400997 0.74052876
-0.03116286 0.059706632 -1.0824262 0.010529197 0.27273747 -0.034731247 -0.059552796 -0.026680818
-1.7822477 0.032925017 0.78224254 -0.0042444225 0.033847544 -0.3460758 -0.0610764 0.026419047
-0.84699047 0.050222434 0.01945923 0.028335458 0.028440744 -0.0005188166 0.12066305 -1.081482
-0.02441758 -0.021413635 0.68091506 0.5175722 -0.034696605 0.060508497 -1.0421928 -0.007475344
0.49355143 0.58917785 0.04007955 -0.017439898 -0.042052682 0.07538979 0.00931445 -0.052774087
-0.01609607 0.036141466 -0.0075638103 0.020079933 -0.07582319 -0.01041497 -0.026468623 0.022037992
0.03207332 -0.034022376 0.021615028 -0.12132424 0.08225094 0.0045185164 1.240915 -0.37636194
-0.0102708535 0.061794955 -1.6546001 -0.47961703 0.045104116 0.0022678056 0.06899911 0.60035473
-0.062293224 -0.061938353 0.20633139 0.033187672 -0.15257631 0.060204886 -0.7660223 0.29749265
0.01579357 0.20676115 0.4325339 0.019433796 -0.1461903 -0.1457919 0.012804687 -0.05900825
0.00882088 -0.02967557 -0.014303848 0.12515123 0.06028846 -0.014116138 0.07353206 -0.25233585
00000000: be72 c5be 3773 9fbb bc7f 5c3f fed2 963b
00000010: f09b 5f3d 7997 833e 1453 a53d f4ca 723c
00000020: da76 b93d dcc0 1b3f 16a6 be3c b79b 88bb
00000030: 1ded 653a 2591 7dbc 6e43 493d abe1 263d
00000040: c897 ae3d bb4d d6be 7018 af3c 0c4b 4abd
00000050: 10ea 783c bea9 c13d 6207 503d b452 0c3d
00000060: 44aa d3bd e63f 0abc 1f10 bf3c 6040 a63c
00000070: 703d 4ebd 6b0c 9fbd ef44 13bb e482 743c
00000080: 1a2b 58bd 3e7f c93e 8205 853d 9ec4 5e3c
00000090: bb02 a83c 63ad cc3c 344d 263d 7fcd 833b
000000a0: 1202 823d 3d11 af3d 2d1c f83c 47e9 17bd
000000b0: bacb 033e 074b 49bc c857 0e3f f6f2 cd3b
000000c0: cd94 44bc c82d 0c3d bc4b 77bf 2269 05be
000000d0: d8b5 983d 984e 6a3d 0514 1abd b3e6 eb3e
000000e0: f8d2 a0bd 1d6d 763f c824 cebc 6662 253d
000000f0: 0185 e93e ba2c 4dbd 4806 153d 70e6 cfbc
00000100: 19fa 693d c74a b6bc 4437 1e3e 25da a93d
00000110: 82c8 133f 5991 b43c 3e2c eb3e 12ce 3a3d
00000120: 9e00 0e3f 4557 8f3e 9140 773f c452 9e3f
00000130: 401f e13b 975b 0f3f 3c09 c3bd 5031 5a3c
00000140: 45f2 8f3f 0e79 1bbd 479e 2f3f c605 78bd
00000150: 0240 053e 0102 1bbf 41ce 5c3e 1791 fe3c
00000160: 840a d2bc 8154 003d 198e e1ba f143 d0be
00000170: 2a9b a5bc c4bc 13bf 1b22 443c c0fd f83e
00000180: def5 823d 1ed4 2ebd c49c bc3d fe20 a1bc
00000190: 1e89 033f dc9e 033f e1d2 a03c cc7d 8b3c
000001a0: e6d8 2f3d 9d99 913d f596 ce3c ec99 ebbc
000001b0: 9c9b acbc cfa8 3c3f 814a 8c3f a21b 74bc
000001c0: ebfe f83d 3834 5a3d d72b cdbe 54b2 383b
000001d0: 9473 3c3f 2ff1 6ebd 78e6 773d 1b23 d4ba
000001e0: e929 f73d 8f08 d13c 839e a83d b06f 85bd
000001f0: bf87 ee3d 70aa 27bc e481 5c3d 6076 56bb
00000200: 1ef6 02bd 4901 1e3d 1b6d 1d3d f459 493f
00000210: 6b91 da3c 68a1 133e 86fe e43e 6ade 333d
00000220: 60c7 333d a8e9 673d 8d89 0a3f 0a01 8d3c
00000230: 9772 d93e 36d6 473f 039c fabe e2af cdbf
00000240: 3a66 8c3d 56ba 8d3c 1dfd c73e dc12 3d3d
00000250: c119 e9bb ba8b 8cbd 0a91 2b3f 6d89 333e
00000260: 7505 b3be 40f7 a43d fb2e 253f 1fb6 333d
00000270: fc79 2dbc 6359 863f 4360 a5bc ce5a 7d3d
00000280: 8b85 acbf 3112 103e cb63 023b 4afb c13d
00000290: 8b09 57bc c5b2 55bd 8a92 973d 4b93 3d3f
000002a0: 4149 ffbc f18e 743d f18c 8abf a782 2c3c
000002b0: 3fa4 8b3e 5a42 0ebd a2ed 73bd bb91 dabc
000002c0: b120 e4bf 62dc 063d 0c41 483f cc14 8bbb
000002d0: b9a3 0a3d d930 b1be 3f2b 7abd c26c d83c
000002e0: 5ed4 58bf 0ab6 4d3d f768 9f3c c31f e83c
000002f0: 90fc e83c 3101 08ba 301e f73d 016e 8abf
00000300: 6007 c8bc a66b afbc 7350 2e3f 9d7f 043f
00000310: 071e 0ebd c2d7 773d 9366 85bf bbf3 f4bb
00000320: c6b2 fc3e 5cd4 163f 742a 243d 1ede 8ebc
00000330: 6f3f 2cbd f665 9a3d a39b 183c a429 58bd
00000340: e8db 83bc 1309 143d d7d9 f7bb ac7e a43c
00000350: 3049 9bbd 8da3 2abc bad4 d8bc 0589 b43c
00000360: 505f 033d 0c5b 0bbd 0012 b13c d878 f8bd
00000370: 2e73 a83d 1010 943b 4dd6 9e3f 83b2 c0be
00000380: 1547 28bc b51c 7d3d f0c9 d3bf 5d90 f5be
00000390: 18bf 383d 779f 143b 684f 8d3d d9b0 193f
000003a0: 2e27 7fbd 12b3 7dbd 8948 533e ccef 073d
000003b0: f73c 1cbe 6699 763d 0a1a 44bf f550 983e
000003c0: 8461 813c 32b9 533e 1575 dd3e a033 9f3c
000003d0: e9b2 15be 794a 15be c0ca 513c a2b2 71bd
000003e0: 7485 103c 2e1a f3bc b05a 6abc a527 003e
000003f0: 08f1 763d 6047 67bc fa97 963d 2a32 81be

fc2.bias f4 [256]
0.038595986 0.09902506 0.17315392 0.142085 0.14430405 -0.033566725 0.0939274 0.07310502
0.05717813 0.093037106 -0.05027789 0.07787721 0.027139954 -0.047432195 0.048523635 0.075494036
0.02182971 0.15396012 0.030308906 0.014101225 0.0526523 0.035349365 0.04352271 0.06992417
-0.032570366 0.034167882 0.084379345 0.13288604 0.08099709 -0.058663636 -0.030538103 0.03276415
0.028879734 0.04137138 -0.021944083 0.14657286 0.041050725 0.07052724 0.023178915 -0.030805744
-0.06439428 0.10958428 0.06333052 0.09691315 -0.09952987 0.1697235 -0.057755325 0.17954333
0.14770319 0.099103205 -0.06724398 -0.008431166 0.0692979 0.07762419 0.1601021 0.028265039
-0.00089471147 0.13879962 0.14368819 0.12066348 0.057543494 0.044634573 -0.0049669733 0.0685805
-0.017149724 0.1621696 0.10370306 0.0665866 -0.1461187 -0.0026006 -0.029443063 0.09157043
0.13408472 -0.047901876 0.02296792 -0.007196208 0.051752046 0.018771365 0.0913978 0.010590844
0.100042015 0.04317458 0.016156092 0.00949708 -0.001519978 0.054973025 -0.006849589 0.024134824
0.104390144 0.064414114 0.11338604 0.06215666 0.101221204 0.05334747 0.056104273 0.038526133
0.072142966 0.009151682 -0.05537349 0.18009052 0.053813066 0.09407828 0.12801498 -0.03129282
-0.038015902 -0.14830695 0.009734922 -0.016319174 0.06981797 0.121873066 0.017121151 0.016249165
0.028348424 0.13402261 0.1546147 0.1754494 0.059123147 0.06378687 0.16278425 -0.044726267
0.05947384 0.16447607 0.010479682 0.0095316395 0.010606052 0.114686124 0.153463 -0.05944754
0.140564 0.013196615 0.07158879 -0.022753641 0.1744392 0.008258386 -0.1367782 -0.05435298
0.09824188 -0.060120545 0.11828499 0.044782482 0.058028974 0.1361816 0.048083488 -0.0014326676
0.0077124876 -0.08107367 0.10970003 0.1480134 0.15157859 0.010361753 0.075316355 0.0935466
0.037913945 -0.059891615 0.07907919 0.11788108 0.16755933 0.0104178535 0.031196313 -0.019885084
0.030496437 0.053356893 0.17529517 0.00286795 0.1110707 0.056335486 -0.037132576 0.080238454
0.02840852 -0.006725818 0.13422371 0.098842315 0.06468634 0.17265011 0.14351016 0.00017373291
-0.041532002 -0.04950109 0.062137634 0.031619046 -0.06151656 -0.05743701 -0.05728925 0.16002242
0.12092051 -0.033758104 0.054899875 0.13082388 0.124323405 0.05669288 0.14550829 0.12559639
0.06373885 0.13389623 0.05988005 -0.040004443 0.061507426 -0.020051794 0.07801481 -0.17368607
0.16785927 0.16591087 0.02150008 0.1128257 0.021825016 0.07171746 0.010542288 0.19619076
0.0007869722 0.016126445 0.10733132 -0.06045425 0.09151091 0.0058484674 -0.011886052 0.0068931803
0.0978465 -0.062920816 0.04296913 0.045717303 0.033969384 0.018693574 0.010681671 -0.02468165
0.08244208 0.09096449 0.06618207 0.16780637 0.07041439 -0.016022604 0.12290329 -0.006516721
0.0020317808 -0.017383566 0.052653242 -0.027801827 -0.0536133 -0.024108127 0.023225961 0.091978006
-0.016124986 0.06836663 0.08197774 0.14024831 0.067331284 -0.05299609 0.0063287634 -0.050100915
0.04789546 0.18794231 0.04455112 0.15249601 -0.058531918 -0.039776012 -0.013954416 0.013389111
00000000: d316 1e3d a7cd ca3d 434f 313e bb7e 113e
00000010: 71c4 133e 437d 09bd 025d c03d 16b8 953d
00000020: 9d33 6a3d 3d8a be3d 30f0 4dbd 167e 9f3d
00000030: 9c54 de3c 4348 42bd b8c0 463d 9e9c 9a3d
00000040: 38d4 b23c b9a7 1d3e 624a f83c d308 673c
00000050: f0a9 573d 7fca 103d df44 323d 6734 8f3d
00000060: 8168 05bd 9ff3 0b3d 14cf ac3d 4713 083e
00000070: cde1 a53d 4849 70bd 0b2b fabc b433 063d
00000080: 3195 ec3c 0975 293d 14c4 b3bc 3217 163e
00000090: ce24 283d 9670 903d b5e1 bd3c 545c fcbc
000000a0: 26e1 83bd b96d e03d 6fb3 813d 677a c63d
000000b0: 51d6 cbbd ffcb 2d3e d990 6cbd 35da 373e
000000c0: 813f 173e 9ff6 ca3d 36b7 89bd e022 0abc
000000d0: 0fec 8d3d 6ef9 9e3d cef1 233e 158c e73c
000000e0: 128b 6aba 7d21 0e3e ff22 133e 6a1e f73d
000000f0: bab2 6b3d bed2 363d fec1 a2bb ef73 8c3d
00000100: 947d 8cbc ca0f 263e 4562 d43d 8e5e 883d
00000110: 24a0 15be d46e 2abb 9432 f1bc 4789 bb3d
00000120: 814d 093e c234 44bd 3827 bc3c 2bce ebbb
00000130: f4f9 533d 68c6 993c c52e bb3d 3885 2d3c
00000140: d4e2 cc3d d4d7 303d c859 843c a499 1b3c
00000150: 003a c7ba 652b 613d 8472 e0bb 65b6 c53c
00000160: 80ca d53d 8ceb 833d f136 e83d fb97 7e3d
00000170: 104d cf3d e082 5a3d 98cd 653d 94cd 1d3d
00000180: b1bf 933d f0f0 153c 50cf 62bd a669 383e
00000190: 176b 5c3d 1dac c03d 5c16 033e e62c 00bd
000001a0: 90b6 1bbd c7dd 17be 397f 1f3c caaf 85bc
000001b0: b9fc 8e3d 9698 f93d a841 8c3c f81c 853c
000001c0: f43a e83c 393d 093e 5153 1e3e 02a9 333e
000001d0: 1d2b 723d b1a2 823d eab0 263e e432 37bd
000001e0: d79a 733d 6a6c 283e f9b2 2b3c 982a 1c3c
000001f0: 02c5 2d3c 8fe0 ea3d 6825 1d3e 447f 73bd
00000200: 02f0 0f3e 9d36 583c 259d 923d d865 babc
00000210: 31a0 323e 2e4e 073c 960f 0cbe 3ba1 5ebd
00000220: 0a33 c93d f640 76bd 673f f23d d66d 373d
00000230: caaf 6d3d 3073 0b3e 31f3 443d 59c8 bbba
00000240: 09b9 fc3b f409 a6bd 69aa e03d d390 173e
00000250: 6b37 1b3e 58c4 293c 763f 9a3d 5c95 bf3d
00000260: a74b 1b3d e950 75bd 45f4 a13d a36b f13d
00000270: ac94 2b3e a5af 2a3c 698f ff3c 0be6 a2bc
00000280: aad3 f93c c28c 5a3d 9480 333e 37f4 3b3b
00000290: 0979 e33d 0ac0 663d 5418 18bd 0f54 a43d
000002a0: fcb8 e83c 4064 dcbb f171 093e d76d ca3d
000002b0: 467a 843d 31cb 303e 54f4 123e 132c 3639
000002c0: 761d 2abd a8c1 4abd 0884 7e3d f982 013d
000002d0: caf8 7bbd 1243 6bbd 22a8 6abd ebdc 233e
000002e0: 2ca5 f73d f045 0abd b1de 603d b2f6 053e
000002f0: 459d fe3d cb36 683d 2000 153e 579c 003e
00000300: 8489 823d 181c 093e c944 753d b3db 23bd
00000310: 36ef 7b3d a943 a4bc 3bc6 9f3d c3da 31be
00000320: 4de3 2b3e 8ae4 293e f020 b03c 2911 e73d
00000330: 60ca b23c 9be0 923d 90b9 2c3c 3be6 483e
00000340: cf4c 4e3a 9b1b 843c 86d0 db3d e09e 77bd
00000350: 126a bb3d 80a4 bf3b b7bd 42bc 30e0 e13b
00000360: bf63 c83d a1dc 80bd 6600 303d 1142 3b3d
00000370: 7b23 0b3d 4423 993c 2d02 2f3c 2c31 cabc
00000380: 65d7 a83d 974b ba3d 778a 873d 6fd5 2b3e
00000390: 6b35 903d d641 83bc b8b4 fb3d 388a d5bb
000003a0: a027 053b fb67 8ebc edaa 573d a8c0 e3bc
000003b0: 9f99 5bbd 687e c5bc 5f44 be3c f75e bc3d
000003c0: 8c18 84bc ce03 8c3d f2e3 a73d 419d 0f3e
000003d0: fce4 893d 6e12 59bd 8461 cf3b 9e36 4dbd
000003e0: 082e 443d f373 403e 3c7b 363d ea27 1c3e
000003f0: 2abf 6fbd 2cec 22bd 10a1 64bc 005e 5b3c

fc3.weight f4 [4, 256]
0.32461447 0.056835633 0.14206788 0.1336429 -1.940512 0.043086868 0.5005758 0.14410202
0.16554137 0.24763973 -0.025268808 -1.2578773 -1.6108042 0.32107064 -1.5462836 0.13682166
0.5615442 0.1610278 0.29546517 0.025459198 0.50005674 0.054625966 -1.5681392 0.58829504
0.009996682 0.046080343 0.4785548 0.20476305 0.35953856 0.12739308 0.46759227 0.40138033
0.36800614 -0.0320485 -0.016465828 0.10059329 0.00091908907 0.2244416 0.48781925 0.05361358
0.01601183 0.25453573 -1.5369939 0.03147848 0.025533207 0.1479603 0.018381767 0.06578815
0.1690467 0.20812437 -0.0130284205 0.009592548 0.25242263 0.058599196 0.15059805 0.011178444
-1.8116381 0.051328804 0.16682418 0.24313512 0.3955602 -0.035320178 1.0094725 -0.083913766
-0.03756848 0.050713852 0.119640514 0.10511404 0.0112618655 0.34145862 0.0025216043 0.16278131
-0.045556046 0.0200231 -0.018523216 -0.051752612 -0.007741277 0.0053734146 0.2052543 -0.049905956
0.10390576 -0.013178952 -0.011416905 -0.42878583 0.039987504 0.2117919 0.9234719 0.0024901822
0.038281046 -1.5525471 0.064834155 0.57412297 -1.5716994 0.016478375 -1.6138647 0.5785324
0.54275614 -1.5262734 -0.002811499 0.015671004 0.24157265 -1.9680649 0.20760778 0.0054184645
0.0009092912 -0.019099355 -1.4756681 -0.045159534 0.19859393 0.45747852 0.33622405 0.00051161286
-1.538502 0.10978627 0.19941388 -0.0017221882 0.33827263 0.4968601 0.19372329 0.054637186
-0.009336434 0.15876302 -0.0041779443 -0.057512056 -1.172471 0.32681355 0.14342979 0.052102372
0.15187526 0.01705996 0.50848997 0.060887933 0.097203314 0.014934878 0.04880198 -0.03233111
-0.011768805 0.040391847 0.18782367 -0.007198604 0.22149813 0.1884869 -6.87765e-05 0.5909534
0.29539987 0.009236872 0.041788355 0.2501053 0.21320422 -0.05672019 0.43189538 -1.5351242
0.01046038 -0.04200405 0.034643978 -0.015966376 0.21171185 -1.5434103 0.4138139 0.34799153
-0.02516137 -1.3263643 0.10958761 -0.14980978 -0.012048471 0.36224633 -0.05694119 0.08198222
0.61663175 0.053656258 0.16310318 0.17185323 0.14544128 0.16219467 0.30893528 0.5921445
0.018160596 -0.028326148 0.091272764 0.040699527 -0.0073035066 0.023144715 0.013105355 0.09798538
0.20261298 0.012571834 0.13260196 -0.3646174 0.05991319 0.5537725 0.031827632 0.14551008
0.7659175 0.22800829 -0.0019817627 0.05912053 0.08468564 0.013236411 0.51372206 -0.03307432
0.22878897 0.106785916 -0.028176496 0.14995846 -1.4238052 0.89350265 0.7607345 0.007444203
-0.02469059 -0.015817784 0.063856326 -1.5529379 0.13302948 -0.006587252 0.59159845 0.04505092
0.06345734 -0.05323071 0.0349032 0.32907912 0.041084766 0.49382 -0.03418665 -0.05603888
0.11052207 0.48699158 -1.5551399 0.07796782 -0.7008191 -1.4979225 0.23363374 0.033365972
0.02623184 0.03296732 -0.05794069 0.059325278 0.047928803 0.054323204 0.45985633 0.6448183
-0.2660546 0.10535321 -0.052079026 0.06483404 -1.5198072 0.008838028 0.05909338 0.05686555
-1.3386267 0.14979379 -0.15398175 0.08652196 0.058164887 -0.027912617 -1.5436615 0.035213202
00000000: de33 a63e 7bcc 683d 3e7a 113e afd9 083e
00000010: b262 f8bf db7b 303d bc25 003f 7b8f 133e
00000020: ad83 293e 4595 7d3e 8800 cfbc 2002 a1bf
00000030: d52e cebf 5f63 a43e 9fec c5bf fa1a 0c3e
00000040: 5cc1 0f3f 79e4 243e 3647 973e cf8f d03c
00000050: b803 003f 7abf 5f3d c9b8 c8bf 819a 163f
00000060: 20c9 233c bebe 3c3d 2205 f53e 68ad 513e
00000070: 7015 b83e 5573 023e 4168 ef3e b981 cd3e
00000080: 4d6b bc3e 4a45 03bd 58e3 86bc db03 ce3d
00000090: 06ef 703a 05d4 653e 72c3 f93e ea99 5b3d
000000a0: 3e2b 833c 8252 823e 37bc c4bf 94ef 003d
000000b0: 042b d13c e882 173e 5c95 963c f0bb 863d
000000c0: 941a 2d3e 8e1e 553e 2875 55bc 102a 1d3c
000000d0: 8a3d 813e b605 703d 6036 1a3e cb25 373c
000000e0: c2e3 e7bf 273e 523d f5d3 2a3e 6af8 783e
000000f0: de86 ca3e e4ab 10bd 6536 813f fbda abbd
00000100: 68e1 19bd 54b9 4f3d 1606 f53d 0846 d73d
00000110: b083 383c aad3 ae3e 8041 253b 25b0 263e
00000120: fa98 3abd 7c07 a43c 00be 97bc 8cfa 53bd
00000130: 8aaa fdbb 7813 b03b 2f2e 523e 306a 4cbd
00000140: 8bcc d43d 88ec 57bc f80d 3bbc d189 dbbe
00000150: f0c9 233d fadf 583e a868 6c3f 5332 233b
00000160: 96cc 1c3d ddb9 c6bf c5c7 843d b9f9 123f
00000170: 722d c9bf a8fd 863c 1e93 cebf b31a 143f
00000180: 11f2 0a3f ed5c c3bf 2041 38bb 7a60 803c
00000190: d25e 773e 8de9 fbbf 2297 543e 608d b13b
000001a0: 805d 6e3a 4076 9cbc b1e2 bcbf 34f9 38bd
000001b0: 355c 4b3e a03a ea3e 8f25 ac3e c21d 063a
000001c0: a2ed c4bf a0d7 e03d 2733 4c3e 0cbb e1ba
000001d0: 1232 ad3e 7264 fe3e 665f 463e 3ecb 5f3d
000001e0: d8f7 18bc c692 223e 23e7 88bb c391 6bbd
000001f0: 8813 96bf 1b54 a73e 42df 123e 4c69 553d
00000200: 3085 1b3e 54c1 8b3c 662c 023f a065 793d
00000210: 8812 c73d 6bb1 743c 96e4 473d a06d 04bd
00000220: f2d1 40bc ec71 253d d954 403e 44e2 ebbb
00000230: 68d0 623e b602 413e 1a3c 90b8 b948 173f
00000240: a73e 973e 4056 173c 442a 2b3d cd0d 803e
00000250: 3552 5a3e 6e53 68bd 6421 dd3e f37e c4bf
00000260: 0462 2b3c 700c 2cbd d8e6 0d3d ebcb 82bc
00000270: feca 583e 788e c5bf 6adf d33e f22b b23e
00000280: 381f cebc 4ec6 a9bf 786f e03d bc67 19be
00000290: f366 45bc 5a78 b93e 2a3b 69bd 4be6 a73d
000002a0: 94db 1d3f aac6 5b3d 8504 273e 4bfa 2f3e
000002b0: 8fee 143e 5c16 263e c42c 9e3e c896 173f
000002c0: 88c5 943c 3d0c e8bc 37ed ba3d 8cb4 263d
000002d0: 4152 efbb fc99 bd3c d8b7 563c 8fac c83d
000002e0: c779 4f3e 18fa 4d3c cfc8 073e 22af babe
000002f0: 8867 753d 09c4 0d3f b15d 023d 9800 153e
00000300: 2b13 443f 017b 693e 76e0 01bb 5e28 723d
00000310: aa6f ad3d 88dd 583c 4a83 033f f078 07bd
00000320: a847 6a3e 93b2 da3d 65d2 e6bc b68e 193e
00000330: 403f b6bf 97bc 643f 7fbf 423f 80ee f33b
00000340: ec43 cabc 4c94 81bc 1bc7 823d abc6 c6bf
00000350: e138 083e e0d9 d7bb ff72 173f 5087 383d
00000360: ecf5 813d 7208 5abd a8f6 0e3d 0f7d a83e
00000370: 8048 283d fad5 fc3e 4d07 0cbd 0689 65bd
00000380: 6559 e23d f656 f93e d30e c7bf 98ad 9f3d
00000390: e168 33bf edbb bfbf af3d 6f3e c2aa 083d
000003a0: 28e4 d63c be08 073d 3853 6dbd 10ff 723d
000003b0: fe50 443d 0282 5e3d 4a72 eb3e d012 253f
000003c0: 4f38 88be 6cc3 d73d d150 55bd b6c7 843d
000003d0: 0b89 c2bf 60cd 103c e60b 723d daeb 683d
000003e0: 1f58 abbf 8b63 193e 64ad 1dbe 6d32 b13d
000003f0: 4e3e 6e3d 00a9 e4bc b396 c5bf b83b 103d

fc3.bias f4 [4]
0.029943846 0.17555702 0.10939512 -0.01594841
00000000: cc4c f53c 38c5 333e 8c0a e03d 3da6 82bc
