codes/DDPG/assets/outputs/Pendulum-v0/20210916-013138/models/checkpoint.pt (torch, 270167 bytes, 5 tensors)

linear1.weight f4 [256, 3]
000000 aa fc b8 be b8 b6 c7 bd 40 44 0a 3f 7b a4 4f 3f
       -0.36130267 -0.09751648 0.5401039 0.8111035
000010 45 48 0a be e2 a7 12 be 88 fc f8 3e 18 1b 07 3f
       -0.13504131 -0.14321855 0.48630166 0.52775717
000020 1e 72 ed 3e ee ca 2a bf 72 4e 10 3e 85 0f df 3e
       0.46376127 -0.66715896 0.14092425 0.43566528
000030 a9 cd 50 be ea 8a 3f bf 86 1d 0d bf 94 15 af be
       -0.20390953 -0.7482134 -0.55123174 -0.3419615
000040 8b 32 12 bf 60 b5 15 3f 22 be 02 3f 24 5a 13 bf
       -0.5710837 0.5847988 0.5107137 -0.5755942
000050 61 54 25 3e c9 e8 92 be 40 8a 3d bf c0 ea 91 bc
       0.16145469 -0.28693226 -0.7403908 -0.017812133
000060 16 96 e4 be ee 8c 36 3e ac 59 2e be 5f b0 9e bd
       -0.44645756 0.17827198 -0.17026395 -0.07748484
000070 7d 84 40 bf 10 a8 b1 be 34 32 6f 3d 64 6c 9e 3e
       -0.7520216 -0.34698534 0.058397487 0.3094207
000080 4a ca fc be f5 2e 38 bd d3 cb 76 3e eb 1b c7 3e
       -0.49373084 -0.044966657 0.2410119 0.38888487
000090 96 56 7d 3e d4 69 d7 be 83 94 dc bd e7 ab 4b 3e
       0.24740061 -0.42072928 -0.10770514 0.19889794
0000a0 e0 97 19 3e 43 a3 12 bf 4c 52 b3 be 32 68 1d bf
       0.14999342 -0.5728037 -0.35023725 -0.61487114
0000b0 55 8f 93 be 6d 67 3f bf d8 f3 ae be 30 d0 f7 3e
       -0.2882029 -0.7476719 -0.34170413 0.48401022
0000c0 56 e2 eb be c5 b5 4f bf 2f ca c6 be 15 d9 20 3f
       -0.46071118 -0.81136733 -0.3882613 0.6283124
0000d0 ad 6e fb 3e 1e d4 6d be 85 ab 74 3e 2c 50 29 3f
       0.49107876 -0.23225448 0.23893555 0.6613796
0000e0 e2 61 aa 3e 1e 58 02 bf 6b e5 84 bd 9a 33 d9 3e
       0.33277804 -0.50915706 -0.064890705 0.4242218
0000f0 18 9a bc be 48 03 61 be 73 bc d9 be 11 6b 9a be
       -0.36836314 -0.21973908 -0.42526588 -0.3015981
000100 71 76 80 3e a8 54 b7 3e 82 4b b5 3e 45 ba 86 3e
       0.25090364 0.35806775 0.3540917 0.26313987
000110 5d 59 ed be d3 9c 57 be 44 18 02 3f 11 3b d5 3e
       -0.4635724 -0.21055917 0.50818276 0.41646627
000120 8f 12 fd bc cb 83 d8 3e 53 e9 4b 3e 35 00 07 3f
       -0.030892638 0.4228805 0.19913225 0.5273469
000130 93 f8 d0 3e 5d 9e 07 3f 49 5a c7 bd f9 ea 29 bf
       0.40814647 0.5297602 -0.097340174 -0.66374165
000140 4c 90 a2 be 11 df 2b be b5 59 fc 3e 34 8a 53 bc
       -0.31750715 -0.16784312 0.4928719 -0.012911368
000150 3a 4d c8 3e f9 33 f9 3e ed 68 8f 3e 22 ca 17 be
       0.3912142 0.48672464 0.2800974 -0.14823201
000160 08 a7 7d 3e 7a c5 85 be 3b f2 2a be 07 46 db be
       0.24770749 -0.26127225 -0.16693966 -0.42826864
000170 8d 86 b4 3e 82 82 c5 3e f1 b2 0a bf 91 bd 14 3f
       0.35258904 0.38576132 -0.5417929 0.58101755
000180 b7 9d 15 3f 74 5a 9d be e6 65 08 bf 89 03 aa 3e
       0.5844378 -0.30733073 -0.53280485 0.33205822
000190 82 4e b9 be 8a c4 f2 3d e8 b6 fd 3e 03 9c 68 3f
       -0.3619271 0.11853893 0.4955361 0.90863055
0001a0 48 6d 6f bd 5c f0 b9 3e bc a5 ec bd 72 1e 11 bf
       -0.058453828 0.36316192 -0.11555049 -0.5668708
0001b0 b6 ae 20 be 13 6e 76 3e a9 78 91 3e f2 37 80 bc
       -0.15691647 0.24065427 0.2841237 -0.015651677
0001c0 db 8a 37 3f f5 83 cf 3e 30 30 2d bf 68 72 83 be
       0.7169625 0.40530363 -0.67651653 -0.25673223
0001d0 3b a1 10 bf 26 d7 1c 3f 03 9e 05 bf 32 ac 09 bf
       -0.5649602 0.6126579 -0.5219423 -0.53778374
0001e0 54 9e 0d bf 88 03 c3 be d2 e2 1b 3f d9 c3 1a bf
       -0.55319715 -0.38088632 0.60892975 -0.6045509
0001f0 d6 46 c1 be 70 eb cf be e0 85 b5 be df 43 d3 3e
       -0.37749356 -0.40609312 -0.354537 0.4126272
000200 44 00 06 bf 97 9e a6 3e f8 c9 6b be 57 fb b7 be
       -0.52344155 0.3254287 -0.23026264 -0.35933945
000210 33 d3 64 3c 98 6c 24 be 29 4d f9 be 8d 56 3e bf
       0.013966369 -0.1605705 -0.4869168 -0.74350816
000220 d1 2c f7 3d be 18 d4 3d 36 14 24 3d 86 14 21 3f
       0.12069095 0.10356282 0.040058337 0.6292194
000230 c1 b6 99 3d 14 6a ae be a1 08 54 bd 71 29 0a be
       0.07505561 -0.34065306 -0.05176604 -0.13492371
000240 3f ec f4 be ae fd c7 bd f4 4b 4f 3e f0 9b 8c 3e
       -0.4783649 -0.097651824 0.20243818 0.2746272
000250 95 73 f8 be 4a cc f0 be 28 f3 44 bc 19 ef 82 bc
       -0.48525682 -0.4703086 -0.012020864 -0.015983151
000260 ad d2 fa 3e d1 2f e6 be 9c 48 3a 3f a5 8b 18 3e
       0.48988858 -0.44958356 0.72767043 0.1489702
000270 39 41 a3 3e 14 18 c0 bd 1f 19 90 be 70 b0 31 bd
       0.31885698 -0.093795925 -0.28144166 -0.043381155
000280 0e 6e 1c bd e6 a2 11 3f 7f f5 0c 3f 25 8a 2d 3d
       -0.038190894 0.5688919 0.550621 0.042368073
000290 59 8e d1 3e 1f 0d 33 bf de ee b3 3d f4 21 5b 3e
       0.40928915 -0.69941896 0.08785795 0.21399671
0002a0 29 cc ec 3d a8 4c b8 be 07 39 bd be 6f 88 71 be
       0.11562378 -0.35995984 -0.3695757 -0.23587202
0002b0 07 51 11 bf d2 05 b4 be a8 f0 36 bc 01 11 29 bf
       -0.5676426 -0.3516069 -0.011165775 -0.6604157
0002c0 4b 89 9f 3e 11 67 d5 be 06 5c 38 bf a9 e9 e2 be
       0.31159434 -0.41680196 -0.72015417 -0.44318894
0002d0 81 b0 42 be 58 36 2d 3f 20 50 77 be 1b f5 aa bd
       -0.19012643 0.67661047 -0.24151659 -0.083475314
0002e0 3c 23 16 bf 1e 0d 14 bf 13 78 32 bf 32 2c 99 be
       -0.58647513 -0.57832515 -0.6971447 -0.2991653
0002f0 4f 1c 9c 3e 4b 5f c7 be 65 bb 08 3f 44 c2 0f 3e
       0.30490348 -0.3893989 0.5341094 0.1403895
000300 10 5a 55 be 23 04 3b be f8 5c 03 3f b8 32 cf be
       -0.20835137 -0.18263297 0.51313734 -0.40468383
000310 37 b5 02 3f c0 47 88 be be 2d 06 bf d2 e2 93 be
       0.5105776 -0.2661724 -0.5241355 -0.28883988
000320 ed ae 61 3e f6 cb 48 be 38 61 d4 be 53 33 95 3e
       0.22039385 -0.19609055 -0.41480422 0.2914072
000330 bc 46 32 3f ff ad 43 3f f8 3e c7 bd ad 6f cb be
       0.6963918 0.7643737 -0.09728807 -0.3973364
000340 93 ef 67 bf da f2 86 be 7e 43 cc 3d aa 7f 90 3e
       -0.90599936 -0.26357156 0.099738106 0.282224
000350 b1 77 ea 3d 08 58 d2 3e 27 86 01 3f 0a bc b2 be
       0.114486106 0.41082788 0.50595325 -0.34909087
000360 72 a4 c2 be 87 04 50 be 8c f4 90 be 91 8d 9e 3e
       -0.38016087 -0.20314227 -0.28311574 0.30967382
000370 fa 3d 05 3e d9 74 e9 be 1a ef 25 bf 5e ca a8 3e
       0.13011923 -0.4559696 -0.64817965 0.32966894
000380 ca 18 16 3e 4f d3 34 bf 24 43 0c 3f 9d dc c8 be
       0.14657894 -0.7063493 0.5478995 -0.39230815
000390 2b 23 05 bf ce 3d 63 be 66 6b bd be c2 e2 be 3d
       -0.5200679 -0.22191545 -0.36996 0.09320594
0003a0 42 44 8a bd 18 9b 19 3e c5 e7 19 3e 91 de ad be
       -0.067513004 0.1500057 0.1502982 -0.33958867
0003b0 dc e3 13 bf ed 06 0d bf 89 82 45 bf 30 7d 04 be
       -0.5776956 -0.5508869 -0.77152306 -0.1293838
0003c0 41 94 b3 3e d8 b8 17 bf 47 c1 05 be 57 45 11 bf
       0.35074046 -0.59266424 -0.1306201 -0.5674643
0003d0 ef e5 ea be 32 be 79 be 17 36 69 3e e8 2c 01 bf
       -0.4587855 -0.2438896 0.2277454 -0.50459146
0003e0 c6 f1 0a bf aa c2 08 3f 7e a8 eb be 80 b2 c7 3e
       -0.54275167 0.53422034 -0.46026987 0.39003372
0003f0 54 7b ab 3e 20 47 90 be f7 08 eb be 95 a0 16 3e
       0.3349253 -0.28179264 -0.45905277 0.14709695

linear1.bias f4 [256]
000000 0a 67 a4 be c6 ad 0b 3f dd 74 5a 3e 6e d9 27 be
       -0.32109863 0.5456203 0.21333642 -0.16391537
000010 b6 11 f1 3e 71 41 b5 3e 29 f3 14 bf d2 93 d9 bd
       0.47083825 0.3540149 -0.5818353 -0.106238976
000020 48 c2 0f 3f f7 32 c7 3e a7 a5 cf 3e 2c 01 29 3f
       0.56155825 0.3890607 0.4055607 0.66017413
000030 2d 2d f0 3e bf 03 ad bd a5 22 ab 3d 22 8b 19 3f
       0.46909466 -0.0844798 0.08356217 0.59977925
000040 a9 32 12 3d 2a b0 23 be fc d5 d3 be 0b 59 db be
       0.035692845 -0.1598517 -0.41374195 -0.42841372
000050 6b 45 06 3d b4 ad 6f 3d 75 a2 b8 bd 7d 7a ad be
       0.032781046 0.058515266 -0.09015361 -0.33882514
000060 23 6d cf be 40 02 b4 be f9 43 b4 3e e5 ef 9c 3e
       -0.40512952 -0.35157967 0.3520811 0.30651775
000070 ba 03 04 be 3e 5b 5b 3d 56 fd e0 be f5 e4 e9 3e
       -0.12892047 0.053553812 -0.4394328 0.45682493
000080 dc 0e b2 bd d1 f3 f4 be a1 4a 4e 3d d6 53 5d be
       -0.086942405 -0.47842267 0.05036414 -0.21614012
000090 70 45 88 3e e9 63 c0 3e 1a 7d 31 be ae e0 35 be
       0.26615477 0.37576225 -0.17332879 -0.1776149
0000a0 26 7e ee be 20 fc 21 be c8 ec 7c 3e 55 dc 67 be
       -0.4658062 -0.15818834 0.246997 -0.22642644
0000b0 8c ad ed 3e 5b 60 f7 3d b9 c4 31 be 8e a3 96 be
       0.46421468 0.12078925 -0.173602 -0.29421657
0000c0 0d 70 00 3f c2 a1 8b be b7 1c 0e bb 2b c7 8a be
       0.50170976 -0.2727185 -0.0021684596 -0.27105078
0000d0 3f e1 75 bb 19 02 84 be 2e 92 dd 3a 8d 9b 61 3e
       -0.003751829 -0.2578285 0.0016904527 0.22031994
0000e0 3f 09 b9 3e 49 fe f8 be 50 f0 00 3f 73 cc 5d 3e
       0.36139867 -0.48631504 0.5036669 0.21660022
0000f0 6f 67 f7 be 99 01 e0 3e d9 a0 c8 bd 24 8e 7e 3e
       -0.483211 0.4375122 -0.09796304 0.2485891
000100 b1 bb a1 be 66 f2 28 3f 47 db bb 3e f2 b5 20 3e
       -0.3158851 0.6599487 0.36690733 0.15694407
000110 f5 a6 c7 be 59 24 a3 3d b0 f4 33 3f 24 bc 16 bf
       -0.38994566 0.07965917 0.7029524 -0.5888083
000120 74 c2 92 bd f3 64 f5 3d 6c 0f 87 3e ef 1e 8c be
       -0.07165995 0.11982145 0.26378953 -0.2736735
000130 7f d4 06 bf 39 e6 39 3f ea c3 cd 3e 38 f7 80 be
       -0.52667993 0.72616917 0.40188533 -0.25188613
000140 fd 87 8b 3d 18 da 61 be 61 53 d9 3e 5c 1d b5 3e
       0.06813047 -0.22055852 0.42446426 0.35373962
000150 c8 ef a6 be 5e 19 4a 3d b5 3b ef 3d a6 90 d5 3d
       -0.32604814 0.0493406 0.1168131 0.1042798
000160 f1 bd 07 3f 67 c3 79 bd 3f 54 f6 be f6 f6 28 be
       0.530242 -0.060977366 -0.4811115 -0.16500458
000170 ed dd 54 3e 38 16 12 3f f5 b3 2d 3f 0d b1 e7 be
       0.20787783 0.57065153 0.6785272 -0.45252267
000180 9e 97 1c 3f f2 fc 16 3f a9 66 5c be bb b3 12 3f
       0.6116885 0.58979714 -0.21523537 0.57305497
000190 77 71 66 bb e6 82 9a 3e 0f 5e 7c be 15 4a 9c 3e
       -0.0035162845 0.30177993 -0.24645256 0.3052527
0001a0 5d c5 32 3e 21 6d 96 be d6 2c 2d be 68 42 06 bf
       0.174581 -0.29380134 -0.16911635 -0.5244508
0001b0 4d 8e 15 3f ac 28 84 3e f0 2d bb be 77 90 a6 3e
       0.5842026 0.2581228 -0.36558485 0.32532093
0001c0 42 9a ee be d1 15 11 bf 3b d9 c1 3e 80 a6 8a 3d
       -0.46602064 -0.56673914 0.37861046 0.067700386
0001d0 18 27 17 be 95 8e cb 3e ce 2b 90 be 00 ee 88 3e
       -0.14761007 0.3975722 -0.2815842 0.2674408
0001e0 a3 eb 8a 3e 77 05 d4 be 71 ab 3c bd d0 21 0d bf
       0.27132902 -0.4141042 -0.046061937 -0.5512972
0001f0 98 e7 bd bd 89 fb d1 be b9 15 65 3e a6 a8 1c bf
       -0.092726886 -0.4101222 0.22371568 -0.6119484
000200 35 af ba 3e f5 30 84 be 4f 6b 62 3e 98 e5 64 3e
       0.36461797 -0.258186 0.22111247 0.22353208
000210 14 56 23 3e a6 63 80 3e 61 7c b9 be fa 6e ec 3e
       0.15950805 0.25076026 -0.36227706 0.46178418
000220 f0 c0 e7 3e 14 59 14 3e 12 f2 cd 3e d0 a3 e9 3e
       0.45264387 0.14487106 0.40223747 0.45632792
000230 b6 9a 5a bc d2 04 55 bd 1b 19 0f 3f 16 60 aa bd
       -0.01334255 -0.05200655 0.5589768 -0.08319108
000240 f2 8f 96 3e df 74 bc 3e b5 ef c7 be 6c 7a 06 3f
       0.29406697 0.36807916 -0.3905007 0.5253055
000250 b7 71 0f be 5b e0 83 3e 20 91 da 3d a5 41 41 bd
       -0.14008223 0.25757107 0.10672212 -0.047181744
000260 0b 9a 0e bf 7e d0 c8 bd 8e 9d bb be 1a 1c 02 3e
       -0.557038 -0.09805392 -0.36643642 0.12706032
000270 11 31 56 bd 69 95 e7 3e a4 31 23 be ac b2 f9 be
       -0.052292887 0.45231178 -0.15936905 -0.48769128
000280 91 8a d3 3e 1c 33 93 be 5c fe 17 3e ac e3 13 3f
       0.41316655 -0.2874993 0.14843124 0.57769275
000290 a3 d5 e5 be 18 fd b6 bd 11 58 d4 3e ac 7e b5 3d
       -0.44889554 -0.089349926 0.4147344 0.08862051
0002a0 12 40 8b 3d ce e6 91 bd 9d 16 82 be 50 29 9a bd
       0.0679933 -0.071241006 -0.25407878 -0.07527411
0002b0 f3 c0 a5 bd 65 c9 e4 be 2f 53 1a be 83 40 dc 3e
       -0.08093443 -0.44684902 -0.15070795 0.4301797
0002c0 ec e3 0e 3e 79 89 01 3f e1 c9 95 be 0a 5e 3b be
       0.13954133 0.5060039 -0.29255584 -0.18297592
0002d0 f7 04 17 3f 44 59 2d bf a9 0d af 3e 47 29 65 3e
       0.5899195 -0.67714334 0.3419011 0.22379027
0002e0 d7 e7 0f 3f 4c 36 59 3d 82 aa 84 be 7c 1c b9 bd
       0.56213135 0.053030297 -0.25911337 -0.09038636
0002f0 6b f4 aa 3e 44 c9 4b 3d f8 0d b5 3e 9e cc d1 3e
       0.333896 0.04975249 0.3536222 0.40976423
000300 0b 72 9d 3e ee df 56 3e ea 68 7c bc c0 90 89 be
       0.3075107 0.2098386 -0.015405873 -0.26868248
000310 a9 a9 42 bd 68 36 1c 3f 0f 36 26 3d bc ae 80 be
       -0.04752508 0.6102052 0.040578898 -0.25133312
000320 37 2d 22 3e 56 e1 1f 3f 4d 45 0c 3f 79 8f f5 3e
       0.1583756 0.6245321 0.54793245 0.47961023
000330 a4 f4 da 3c a7 c3 9b be 02 c2 28 3f 13 4f e2 3e
       0.026727982 -0.30422708 0.6592103 0.44200954
000340 87 bc 63 bc c9 c4 04 3f 1e d6 97 3e 5a 15 52 3e
       -0.013899929 0.5186277 0.29655546 0.20515957
000350 17 05 57 3c 44 8b 94 3e 14 ed fe 3e 30 c4 f9 3e
       0.013123772 0.290125 0.4979025 0.48782492
000360 70 e9 1e be ec cc 4a 3e bb 8f e5 3d 55 e1 03 be
       -0.15518737 0.19804734 0.11209055 -0.12878926
000370 38 6a 1a 3f 18 da 9a be 89 2b 7e 3e 16 96 01 be
       0.60318327 -0.30244517 0.24821295 -0.1265491
000380 29 29 ef be 58 11 27 be e6 92 37 bd 17 92 19 3e
       -0.4671109 -0.1631521 -0.044817828 0.14997135
000390 ff fe 24 be b9 8b 4e be 4e 41 09 bc 7a 7a f1 3e
       -0.16112898 -0.20170487 -0.008377386 0.47163755
0003a0 5e 8e e5 be ee 4e e3 be aa 51 02 3f 32 c4 a4 3e
       -0.4483518 -0.44396156 0.5090586 0.32180935
0003b0 96 a7 ca 3e b2 86 11 3e 1e e6 b1 3e 7e ac da 3e
       0.39580983 0.14211538 0.34745878 0.42709726
0003c0 8f 8a 41 3e 18 1d f3 3d 2a 96 83 3d 53 62 2b 3e
       0.18900512 0.118707836 0.06425126 0.16736726
0003d0 5e 26 df be f5 80 88 3e 60 d9 16 3f 44 55 80 be
       -0.4358396 0.26660886 0.5892544 -0.25065053
0003e0 b8 d6 2a 3e 3c 0f 9e 3d b0 17 be 3c f8 5d a2 3e
       0.16683471 0.077177495 0.023204654 0.31712317
0003f0 e6 a4 d3 be 98 11 c5 3e e3 48 9a be 35 af 8b 3e
       -0.41336745 0.38489985 -0.30133733 0.2728211

linear2.weight f4 [256, 256]
000000 4c 30 a7 bc 20 4b e1 3d ed 5c 34 bf f4 7b 03 bd
       -0.020408772 0.11000657 -0.70454293 -0.032100633
000010 39 50 0e 3c 9b 02 54 3e 3b 19 29 3e 7d cc 10 3e
       0.008686119 0.20704119 0.16513531 0.14140506
000020 bb f1 e7 3c 5c be 05 3e 86 15 9a bd 5f 71 ff 38
       0.028313508 0.13060898 -0.075236365 0.000121804645
000030 31 af 50 3d 4f 11 0c bd 96 ee ad 3c f6 87 05 3e
       0.050948326 -0.034196194 0.02123193 0.13040146
000040 7a ce 1b 3d 81 de 33 bd d3 6f 15 bd e3 c9 ce 3d
       0.03803871 -0.043913368 -0.036483597 0.100971006
000050 0c 31 74 bd 40 66 d2 3b 44 8a 4f bd cb 6c fb bc
       -0.059617087 0.0064208806 -0.05066897 -0.030691525
000060 da 67 e3 bc aa 82 1a bf 24 b6 d9 3d c9 89 2f be
       -0.027759481 -0.6035563 0.10630444 -0.17142405
000070 df 83 21 bf f9 67 93 bd b3 e7 f8 bc b7 5b 1f 3e
       -0.63091844 -0.071975656 -0.03038392 0.1556233
000080 f4 ac 8d 3c e7 43 c7 be 62 b2 b3 be ad a4 ea 3c
       0.017294385 -0.38918993 -0.35097033 0.028642977
000090 16 e0 a3 3d 4c 20 97 bd 9a 6b 6a bc 57 db f6 3a
       0.080017254 -0.07379207 -0.014307881 0.0018833679
0000a0 5f 18 fb 3d a1 cb 01 3d c7 70 3d bc 57 63 82 3d
       0.12260508 0.031688336 -0.011562533 0.06366604
0000b0 d3 f7 58 3c 30 a5 6e 3d b8 80 8e be 33 3b b0 3e
       0.01324268 0.058263004 -0.2783258 0.34420165
0000c0 c3 c9 d4 3d b1 f8 b0 bc 27 d5 fa 3d 62 bd d1 be
       0.103900455 -0.02160296 0.12247687 -0.409648
0000d0 bb 72 cc bc 66 ef bb bd 62 bb bf be 02 40 b2 3d
       -0.024957052 -0.09176521 -0.3744765 0.08703615
0000e0 0a 2f 59 3d 0f 50 db 3d 8b 30 2e 3e a0 b7 1f 3a
       0.053023376 0.10708629 0.17010705 0.0006092731
0000f0 aa ae ba bd e9 5c 0f 3d b6 52 44 3e 35 ca 1a bd
       -0.09115346 0.035000715 0.19172177 -0.037790496
000100 d2 ad b7 bc eb ef db bd 33 25 01 3e 77 9f 8d 3e
       -0.022421751 -0.1073912 0.12611847 0.27660725
000110 27 88 d6 be 43 c3 17 3e 50 c8 6d 3d 7c 10 20 3d
       -0.4190075 0.1482058 0.05805236 0.03907822
000120 68 07 de 3c ad ed 25 bd 14 78 19 3c 0c 6b ea bd
       0.027103141 -0.04050987 0.009367008 -0.11446199
000130 bc 5a 80 bd 60 2a 0b 3e 63 ec 82 3d 9d 83 e8 3d
       -0.06267306 0.13590384 0.063927434 0.11353228
000140 f3 5d 93 3d 14 4f 9b bc ac 29 bb 3c b9 a0 98 3d
       0.07195654 -0.018958606 0.02284702 0.074525304
000150 c4 79 62 3d 7b 59 9f bc e5 d9 2a 3e 9f 1f ab bd
       0.055291906 -0.019451847 0.16684683 -0.083556406
000160 20 9c 6f bc b8 1e 54 bd f3 1f 62 bd 13 ae 93 bf
       -0.014624625 -0.05178711 -0.05520625 -1.1537498
000170 51 e8 1c 3c da f3 c5 bc 1a c1 08 3e d9 32 50 3c
       0.009576873 -0.024164129 0.13354912 0.0127074355
000180 cc c8 f3 bd d8 18 28 bd a8 43 8e be 7d cf ca 3d
       -0.11903533 -0.041039318 -0.27785993 0.099028565
000190 13 e2 b5 bc ad 9a 0a bd e3 90 a3 3c 80 75 58 bd
       -0.022202527 -0.033838917 0.019966548 -0.05284643
0001a0 ff 34 e7 3d 4a 79 80 3d 57 33 9b bd d7 4a 4f be
       0.11289405 0.06273134 -0.07578152 -0.20243393
0001b0 19 b2 01 3d 56 3e b3 3c 36 c8 89 be a3 40 b2 bc
       0.031663988 0.02188031 -0.2691056 -0.021759337
0001c0 b3 32 d7 bd 67 f1 d1 bd ad 9c de bd 92 dd bc bd
       -0.10507717 -0.10251122 -0.10869727 -0.09221949
0001d0 cf f3 aa 3c 91 18 5b be 10 3f 8c 3d 02 a2 9f be
       0.02086821 -0.2139609 0.06847966 -0.3117829
0001e0 8a 97 77 3c d3 9d 5a 3d 98 f2 88 bf 3a c7 e4 3a
       0.015111813 0.05337317 -1.0699034 0.0017454394
0001f0 0a 63 55 bd 31 2e 7f bd 81 10 aa bd b2 d7 c4 bc
       -0.052096404 -0.06229991 -0.08303929 -0.024028633
000200 b7 90 97 bd 5a 70 a8 be 5d 66 33 bf 51 0d a4 3d
       -0.07400649 -0.32898217 -0.7007807 0.080103524
000210 8a 1a 02 bf 14 0e 37 be 4e 60 df 3d 6b b0 21 3d
       -0.50821745 -0.17876464 0.109070405 0.039474886
000220 4f a0 d6 3d e9 cb 11 bd bf e0 b3 bd 4a 10 ab 3d
       0.10479795 -0.035594855 -0.08783101 0.08352716
000230 fb c4 61 3d f9 fe f3 bc bb 9b 05 3e 80 c4 62 be
       0.055119496 -0.029784666 0.13047688 -0.22145271
000240 cb 47 3f 3e eb be 8c 3d 71 f4 5c 3d f6 05 36 3e
       0.1867973 0.06872352 0.053944055 0.17775711
000250 6e bd d7 be 6d ff 49 3e b9 5c 8e 3d 29 98 51 be
       -0.4213671 0.19726343 0.06951279 -0.204682
000260 ab 5c af bd e6 e7 84 3d ed 2e 2e be 61 02 da bd
       -0.08562597 0.064895436 -0.17010088 -0.10644985
000270 90 58 03 3e ab ee 74 3d d6 32 08 be ea 67 77 3c
       0.12826753 0.059797924 -0.13300642 0.015100459
000280 2e 71 29 bf fb d8 1f bd 0a cf 27 be b4 c9 ed bc
       -0.66188323 -0.039025288 -0.16387573 -0.029026844
000290 09 0b e6 bd 01 1e ca 3d ad db 30 3e fe 26 18 be
       -0.112325735 0.09869004 0.172713 -0.14858624
0002a0 6b 29 dd 3c a2 3b 69 3d c3 ed 39 3e 0f 99 99 bf
       0.026997289 0.056941636 0.18157105 -1.1999835
0002b0 b9 80 ff 3d 75 9c 3f be 76 73 e6 3b b2 aa 2e 3e
       0.12475724 -0.18712027 0.007032807 0.17057303
0002c0 87 25 be be ae a9 8b 3d f2 09 9b be 68 48 94 3c
       -0.37138006 0.06819473 -0.30281025 0.018100932
0002d0 f4 84 41 3e a7 ee f3 3c 54 22 26 bd 2c f6 9f 3d
       0.18898374 0.029776884 -0.04056008 0.078106254
0002e0 00 66 20 be b1 b8 18 be a3 6c b3 be 5b f9 c4 be
       -0.1566391 -0.14914204 -0.3504382 -0.38471493
0002f0 7c cc af 3d 90 b9 2a bc f5 eb b2 3d d2 45 35 3d
       0.08583924 -0.010420218 0.087364115 0.04425604
000300 e5 07 2b bd 65 93 16 3c 6f 1b 86 3c 21 5f f8 bc
       -0.041755576 0.009190415 0.016370503 -0.030318798
000310 d0 d8 89 bd cc 84 18 3e 2a 0e 66 bd 7e 52 13 bf
       -0.06730807 0.14894408 -0.05616585 -0.5754775
000320 3a 91 25 3e 6b 69 ec 3c 93 5f 90 bd f6 51 84 bd
       0.16168681 0.028858861 -0.07049479 -0.06460945
000330 36 f5 5c bc b5 79 3b 3d 60 bf 3b 3d f3 55 29 3e
       -0.013486197 0.045770366 0.045836806 0.16536693
000340 75 a3 c6 be 25 d4 64 3d 2b c1 9d bc 9e 1e 94 bc
       -0.38796583 0.05586638 -0.019257149 -0.018081006
000350 b9 e5 32 3d 50 11 a2 3c 59 15 1f bd cf eb 83 3e
       0.04367611 0.019783646 -0.038838718 0.25765845
000360 3d a6 3a 3d c0 60 89 bf d1 bc 2e bd a1 23 86 be
       0.045568693 -1.0732651 -0.042660538 -0.26199058
000370 90 68 10 bc af 93 4c 3d 3a 68 44 3d 4a 16 11 3e
       -0.008813992 0.04994553 0.04795096 0.14168659
000380 7d 89 22 3d d3 13 94 3d f5 7f 0d bf 13 96 1c be
       0.0396819 0.07230344 -0.5527337 -0.15291624
000390 48 c5 12 bf f2 cd 0b bd 9b a4 55 bf 2c c0 be 3c
       -0.5733228 -0.03413195 -0.83454293 0.023284994
0003a0 cc 97 a3 be ad c5 b6 be 7f 03 28 3e bb dc bb 3d
       -0.3195175 -0.3569769 0.16407584 0.0917296
0003b0 45 18 a0 3d 6a 73 92 3c e9 95 9c 3c 2a d5 54 3d
       0.07817129 0.0178773 0.019114451 0.0519611
0003c0 44 b2 c7 bd b6 79 3e 3d 94 c2 10 3c 5f fc 81 3d
       -0.09750798 0.04650279 0.008835454 0.06346964
0003d0 dc 14 d0 bd e6 ad da 3d 46 51 21 bc 4c 87 34 bd
       -0.101602286 0.106777 -0.009846037 -0.04407434
0003e0 da 6c 15 be b1 c7 05 bd af 8e 31 bf 4f 40 0a 3b
       -0.14592305 -0.032661144 -0.6935834 0.002109546
0003f0 93 53 03 3d 49 2b 2a 3e ac 8c f8 3d 9f 6c 3b be
       0.032062124 0.16618074 0.12136206 -0.18303154

linear2.bias f4 [256]
000000 5a cf 71 3d 97 b1 79 3d a3 dd e7 3c f2 26 6f 3c
       0.059035636 0.06096038 0.028303927 0.014596688
000010 86 a2 e2 ba 97 86 a2 bc bf 8b 40 3d 37 a6 a4 3d
       -0.0017290867 -0.019839568 0.047008272 0.080395155
000020 16 bd 34 bd ee 17 7d bd 5d a4 f3 bc 42 7d 84 3c
       -0.04412564 -0.0617904 -0.02974146 0.016173009
000030 f3 74 36 3d 1a e3 02 3d 02 18 77 bd b6 8a 02 3d
       0.044545125 0.031954862 -0.06032563 0.031870566
000040 ee ef 8a 3d ff 36 94 3b bd 8c 50 bd 45 77 ac 3d
       0.06784044 0.0045231576 -0.05091547 0.08421186
000050 09 89 1f 3e d6 2b 94 3b 7e 14 53 bd 0f c8 4b bd
       0.15579619 0.004521827 -0.051533215 -0.049751338
000060 82 70 0a 3d cf e0 32 3c e2 38 8a 3d da 7a ed 3d
       0.033798702 0.010917856 0.06749131 0.11595698
000070 92 56 9a 3d ad 94 b5 3c 70 aa 34 3d 42 bd 08 bd
       0.07536043 0.02216562 0.044107854 -0.033383615
000080 04 9c 2e 3d 30 0d 45 3c 5a f1 1e 3d 5e a6 6a bd
       0.042629257 0.01202707 0.03880439 -0.057287566
000090 dc 68 d7 3a 3e af 82 bb e5 8e 07 3d ad 2b 1e 3d
       0.0016434449 -0.0039881757 0.03309526 0.03861587
0000a0 9f f5 13 3e e8 90 5b 3c d2 be a8 3d 39 d3 8e 3c
       0.14449166 0.013401248 0.08239521 0.017434703
0000b0 c3 8b 1f bc 28 58 25 bd e7 40 be bc c0 66 ed 3d
       -0.009737912 -0.040367275 -0.023224307 0.11591864
0000c0 9d 39 24 3d c7 58 92 3d 33 54 a4 bc d2 0f 1c bc
       0.040094007 0.07145839 -0.02005968 -0.009525256
0000d0 7c ec ed bc f6 5b 81 3b 58 68 1e 3d 40 5d 2e 3e
       -0.029043429 0.00394773 0.03867373 0.1702776
0000e0 b9 a6 c0 3c 13 f2 a0 3d 47 57 b6 bd eb 07 84 bd
       0.023517 0.07858672 -0.089033656 -0.06446823
0000f0 88 b5 9e 3a 2a 97 99 bd 07 b7 ad 3d 8e 0d 2b 3d
       0.0012108544 -0.074995354 0.08482175 0.041760974
000100 17 92 58 3b 70 79 6d 3c 84 65 d0 3b 42 a0 cb 3d
       0.003304606 0.014494285 0.006359758 0.09942676
000110 7a 1f f6 3d b1 53 36 3c 38 9b 45 3d b7 42 56 3d
       0.120177224 0.011128352 0.04824373 0.052309718
000120 4e 58 05 3d cd 46 6c 3d d9 25 d9 bc 58 e9 37 bd
       0.032554917 0.05768471 -0.026507305 -0.04490027
000130 0d bf e6 bb 4b 86 51 3d 36 f5 d6 3d ad bd 74 3d
       -0.007041818 0.051153462 0.10495989 0.0597512
000140 1a f6 4a bd ef 10 f1 3c 2a df 19 bc 5e 41 6d bd
       -0.049551107 0.02942702 -0.009391585 -0.057923667
000150 c8 b4 17 bd 38 7a d9 3d c8 61 a6 3d dd 14 58 3d
       -0.03703764 0.106190145 0.08124119 0.05275427
000160 0e f1 2f bd 22 f2 18 3e 97 21 b3 bd e3 ef 00 3e
       -0.042954497 0.14936116 -0.08746641 0.1259151
000170 2a 00 50 3d 76 82 89 bc 24 0b c0 3c 27 8e ed 3c
       0.050781406 -0.016785841 0.023442812 0.028998448
000180 f9 71 8c 3d 54 15 e0 3d 8e 00 69 3d da ef b1 3d
       0.06857676 0.10941568 0.056885295 0.08688326
000190 cf 07 5b 3c 62 2d 2d 3d d1 2b 67 bd be ea 17 bd
       0.013368561 0.04227961 -0.05643827 -0.037089102
0001a0 21 ba 2c bd 63 e7 02 3c bc 76 36 3d c0 c3 4b bd
       -0.042169694 0.007989737 0.044546828 -0.04974723
0001b0 02 54 1d 3d ab b6 01 3e b0 74 ea bb 48 ee 8e 3d
       0.038410194 0.12667339 -0.0071550235 0.06979042
0001c0 36 70 9a bc 69 7e dd 3d e9 4e 03 bd 98 18 21 3e
       -0.018852334 0.108151264 -0.032057676 0.15732038
0001d0 9d 34 46 3c 6d cb 0f 3c e2 71 ca 3c 62 f1 c2 bc
       0.012097505 0.008776528 0.024712507 -0.02379674
0001e0 05 59 ad bc 75 ad 26 bd 87 b1 24 bc 8d a5 6c 3d
       -0.021160612 -0.040692765 -0.010052091 0.05777507
0001f0 0c 97 30 3a 1f b3 4c bc 9d d7 05 3d 0d 2b 8e 3d
       0.0006736375 -0.012493878 0.032676328 0.06941805
000200 85 b0 04 3c 94 d5 38 3d 50 23 a0 3d c7 71 34 3d
       0.008098726 0.04512556 0.07819235 0.04405382
000210 9f fb f4 3c 9c c1 45 3c a8 c9 9b 3c db 7e 8c bc
       0.029905139 0.012070086 0.019017056 -0.017150333
000220 b3 ee a2 3c fd 55 d6 3d 04 63 fb 3d 5e b6 b2 bc
       0.019889211 0.1046562 0.12274745 -0.021815475
000230 4b 5e 3f bc 77 0d 3d bd 57 02 06 3d cd 27 58 3d
       -0.011680196 -0.04615542 0.032717075 0.052772332
000240 2c 4b 01 3d 32 b9 d5 bc e8 99 cd bc ad 54 fc 3c
       0.03156583 -0.026089285 -0.025097802 0.030802095
000250 d9 19 93 3d 36 20 11 bd f2 2a 8c 3b 74 fc 6d bd
       0.071826644 -0.03543111 0.0042775804 -0.058102086
000260 1f 76 94 3a 84 23 4f 3d 16 2c 03 bd ab 46 4a 3d
       0.0011326707 0.05057098 -0.032024466 0.0493838
000270 94 ce 83 3c a3 61 a7 bd e0 5b 30 3c 99 e6 09 3d
       0.016089715 -0.081729196 0.010764092 0.03366718
000280 2a 70 2f bc de 80 a4 3d 3f 88 94 ba a6 d1 0c bc
       -0.010707894 0.08032392 -0.0011332108 -0.008594906
000290 ad 47 18 bc 24 6f 76 3d 95 b3 36 bd 52 66 f2 ba
       -0.009294433 0.060164586 -0.044604857 -0.0018493629
0002a0 ca 13 bd 3d 92 16 b2 3d 59 30 ab bc 4b 2e 6e bd
       0.0923229 0.08695711 -0.020897077 -0.058149617
0002b0 c6 b5 47 bd e2 e8 b3 3d 54 bd 0c 3c a5 d0 cc bc
       -0.048757337 0.08784653 0.008590061 -0.025001833
0002c0 32 45 37 3d 7c ef 28 bd 34 f1 53 3d 44 f2 99 bd
       0.044743724 -0.041244015 0.0517437 -0.075169116
0002d0 76 3f 5e 3d 4e 92 1a bd 83 3c 0f bd d4 ac 38 3c
       0.05425974 -0.037737183 -0.034969818 0.011271674
0002e0 00 ad 3c 3d 3e 33 8a 3d 87 58 88 3d a7 53 91 3d
       0.046063423 0.06748055 0.0665751 0.070960335
0002f0 3a 85 0b 3d ac 36 c3 3d 1c b9 22 3d 88 d6 72 3c
       0.0340626 0.09531912 0.039727315 0.014821656
000300 f8 7a 40 3d 7d ea c7 bd d3 61 10 3d 11 9d a5 3c
       0.046992272 -0.09761522 0.035249542 0.020216497
000310 54 27 9b 3d 9f 9e a7 3c 50 17 21 3e 4c b5 90 bd
       0.075758606 0.020461379 0.1573155 -0.0706583
000320 a3 18 e8 bb a8 8d 71 3d eb df 1a 3c 11 2f a3 3d
       -0.007083015 0.058972985 0.0094528 0.079679616
000330 e5 73 83 3c 80 50 fb 3a 29 60 f5 3d c3 f3 23 3e
       0.016046474 0.0019173771 0.11981232 0.16010956
000340 5d 4c 59 3d 78 dd 0d 3c db c0 36 3d 38 8f 99 3d
       0.05305134 0.008658759 0.044617515 0.0749802
000350 f6 bd 48 3d 23 8b bc 3d 9d 79 e4 3c ee 34 5b 3b
       0.049009286 0.09206226 0.027890021 0.0033448297
000360 8f 8d 5b 3d 2a 60 32 bd 44 83 b5 bd 3f fb 1f bc
       0.053601798 -0.04354874 -0.088629276 -0.009764492
000370 3d ea dc bc 38 1d 31 bc 0e 5d 89 bd 5d 7e 07 bd
       -0.026967162 -0.010810189 -0.06707202 -0.033079494
000380 dc 4e bd 3b cd ab 85 3d f3 de 94 3d a9 ab 30 bb
       0.005777223 0.06526909 0.07269087 -0.0026957786
000390 f1 4c 76 3d 86 52 ff 3c a8 00 69 3d d8 b4 71 bd
       0.06013197 0.03116728 0.05688539 -0.059010357
0003a0 68 0b be 3d c0 96 db 3c ee 2a c0 3c 80 e5 a0 bd
       0.09279519 0.026805282 0.02345797 -0.07856274
0003b0 e7 b2 83 bd c7 2d 58 3d 23 10 14 bc b3 fa 1b 3e
       -0.06430607 0.05277803 -0.00903705 0.15232353
0003c0 af 8e d8 3d b9 57 b7 3c 72 6a 6c 3b 4a c0 f3 3c
       0.1057409 0.022380697 0.0036074189 0.029754777
0003d0 14 71 27 bd 5e 5b 03 3d a1 e0 86 3c e7 d1 ac 3d
       -0.040879324 0.032069556 0.016464533 0.08438473
0003e0 e1 44 18 3d 62 d8 3f bc bf 59 47 bd 3b fd e6 3d
       0.037175063 -0.0117093045 -0.048669573 0.11278769
0003f0 f3 85 c6 3c 3b 4f 3c bd cd b2 94 3d f7 70 19 3d
       0.024233794 -0.045973998 0.07260666 0.037461247

linear3.weight f4 [1, 256]
000000 73 67 21 be 1a 20 69 3e fc 42 83 bd e4 51 02 3e
       -0.15762119 0.22766152 -0.06409261 0.12726551
000010 f9 24 10 be 52 35 08 bd 7b 9c da 3d e3 96 41 3d
       -0.14076604 -0.033253975 0.106743775 0.047263037
000020 f0 5a 5b 3b 84 1e 08 be 0c 43 ea bd da 32 21 bb
       0.003347095 -0.13292891 -0.114385694 -0.002459696
000030 79 ed 27 3e 6d 69 04 bb 40 a2 74 3a b1 13 eb bd
       0.16399182 -0.002020444 0.00093320385 -0.11478365
000040 89 c9 f1 bd e7 e7 c0 bc b0 86 b2 ba 01 89 bf 3d
       -0.11806018 -0.02354808 -0.0013620462 0.09352303
000050 1b 2f bf 3e 99 e9 c6 3d 6f 86 10 be 1c e0 91 bd
       0.37340626 0.09712524 -0.14113782 -0.071228236
000060 a7 72 de bd 43 c4 59 be 44 c9 40 3d dc 28 e2 3d
       -0.10861712 -0.21266274 0.04706694 0.110429496
000070 b9 d0 8e 3e ab 80 82 3d 2c ec b6 bd c5 2e c5 bc
       0.27893618 0.06372198 -0.08931765 -0.024070153
000080 75 b4 11 3e e7 a4 0d 3d 3f 48 3b bd 4c 48 ce 3a
       0.14228995 0.03458109 -0.045723196 0.0015738099
000090 15 0c 16 3d 26 94 08 3d ed cc 77 be 07 a5 37 3d
       0.036632616 0.03334441 -0.24199267 0.044835117
0000a0 72 5b 36 3e a6 09 d1 3d 55 74 28 3e de a9 ce 3c
       0.17808321 0.102069184 0.16450627 0.025227483
0000b0 c6 4b 14 be 1f 55 b4 bc ed f6 14 bd 85 d5 16 3e
       -0.1448203 -0.022013245 -0.0363683 0.14729889
0000c0 a1 4b e9 3d 85 8c 37 3e 80 7b 66 3d da 12 03 bd
       0.11391378 0.17924698 0.056270123 -0.0320004
0000d0 cd 18 07 bc 5b 36 bc bd a9 6f 3b be da b3 d0 3e
       -0.008245659 -0.09190055 -0.18304314 0.40762216
0000e0 03 1f 0a bb b3 09 e0 be 1d 72 23 3e 5c 71 fc b9
       -0.0021075613 -0.437574 0.159615 -0.00048149645
0000f0 3c 55 0c bf 11 7e 0f be e4 bd cf bd 1d 23 e6 bd
       -0.5481756 -0.14012934 -0.10143641 -0.11237166
000100 ea 56 cd bc 2b 07 f4 bc b4 d0 70 bd 86 d6 04 3e
       -0.025065858 -0.029788574 -0.058792785 0.12972459
000110 46 0d ea 3d 21 d8 14 be 82 61 18 3a 3c 3f 16 3e
       0.11428313 -0.14535572 0.00058128696 0.1467256
000120 c7 34 eb 3d 9b 2d e3 be 4f e8 e6 bd d2 e5 3b 3b
       0.11484676 -0.44370732 -0.11274778 0.002867092
000130 b9 65 c7 3d 05 17 45 3d a5 3c 9a 3e 62 bf 9f b9
       0.09736199 0.048117656 0.30124393 -0.00030469435
000140 c1 4d 1a 3e 3d 3b 0b 3d b9 06 0a 3d 06 9c 00 bd
       0.15068723 0.03399204 0.033697817 -0.031398796
000150 20 d5 64 ba 24 8b 16 3e 31 b4 11 3e 39 d8 2b 39
       -0.0008729268 0.14701515 0.14228894 0.0001638838
000160 fe 4e 38 3e 7a 97 04 3e ff 13 19 bd 32 4e 05 3e
       0.17998883 0.12948409 -0.037372585 0.1301811
000170 d4 ef 2f 3d 35 6c cf bd 36 f2 01 3b d6 76 76 bd
       0.042953327 -0.10128061 0.0019828207 -0.060171925
000180 f7 f4 24 3e e7 90 cb be c2 1a 14 3e 62 52 2f 3e
       0.16109072 -0.3975899 0.14463332 0.1712127
000190 0c 48 c6 3d 88 13 c6 3d ad a5 e9 38 bd c9 bb bd
       0.096817106 0.09671694 0.00011141165 -0.09169338
0001a0 7e 8a 6c bd 35 9e 93 bd 74 1d 0a bb f1 9c 94 3a
       -0.057749264 -0.0720791 -0.0021074684 0.0011338276
0001b0 5b 5b c8 3c bb 9d 9a 3e b0 ea 04 3b bd 8b c5 be
       0.024457624 0.30198464 0.0020281486 -0.38583174
0001c0 2a a3 84 bc 60 bd 16 3e 4b 37 a2 bd be 68 92 3e
       -0.016191084 0.14720678 -0.079207025 0.28595537
0001d0 4a 3d 6f bd c9 8d 3c be 7c d5 b8 3d 0f 06 7b 39
       -0.05840806 -0.18413462 0.09025094 0.00023939482
0001e0 06 e3 41 be b2 bd a5 bd 5a 28 06 bb 83 56 0b be
       -0.18934259 -0.08092822 -0.0020470829 -0.1360722
0001f0 41 2b a9 bd b0 0a a7 3c b8 f9 1c bd 7d 86 e7 3d
       -0.08260203 0.020390838 -0.038324088 0.113049485
000200 8c 2f 1e be df b2 90 3c 4d 70 cb bd 2f d3 b8 bd
       -0.15447825 0.017663417 -0.09933529 -0.09024655
000210 b9 1f b1 bc d5 97 36 3e 26 5f 1f bd ae c8 46 be
       -0.021621572 0.17831357 -0.0389091 -0.1941249
000220 bf 76 bd bc 78 ab 21 3e 9e 3b 3d 3e 14 ba 00 be
       -0.023127912 0.15788066 0.18479773 -0.12570983
000230 8f 7f 14 be dd 08 20 be 91 97 47 3b ae 89 8e bd
       -0.14501785 -0.15628381 0.003045533 -0.06959854
000240 0c 80 eb bd 5d 57 2b ba a0 2c 31 3b 4e 75 13 b9
       -0.114990324 -0.00065361505 0.0027034655 -0.00014062712
000250 2a 97 e4 3d 34 9a 05 bd 41 34 8b 3e 41 be 86 bd
       0.11161645 -0.032617763 0.27188304 -0.06579257
000260 92 52 c3 bd 6a 38 9d be af 4a f1 ba d9 b7 74 bd
       -0.095372334 -0.30707103 -0.0018409098 -0.059745643
000270 29 c0 dc 3d 34 be 6f bd a1 03 d4 ba 68 f3 95 3d
       0.10778839 -0.058531 -0.0016175398 0.07321817
000280 86 d2 a5 bd 56 27 26 be e0 69 e4 3d ff a8 ab 3d
       -0.08096795 -0.16225943 0.111530066 0.08381843
000290 a3 dc 3f 3a 67 90 ad 3d ca 7d 95 bd f6 61 87 bd
       0.0007318949 0.08474808 -0.07299383 -0.066104814
0002a0 a6 00 3a 3d 37 f1 c7 3d fb c7 ae 3c f4 1d 98 bc
       0.045410775 0.09762805 0.021335592 -0.01856897
0002b0 50 74 36 3b 74 19 99 3c 9e 5c 83 3a 07 c1 06 be
       0.0027840324 0.018688895 0.0010022109 -0.13159572
0002c0 cf e7 1a be 66 3c 63 39 34 01 b1 bd e6 36 a8 be
       -0.1512749 0.00021670907 -0.086428076 -0.32854384
0002d0 c7 55 1b 3e eb 23 92 bb ac bb 9c bd b7 19 10 3e
       0.1516944 -0.004459848 -0.07652983 0.1407231
0002e0 7d 24 b7 bd 73 1b dd 3d 4c 96 fd 3d 9e fa 11 3f
       -0.089425065 0.10796251 0.123821825 0.57023036
0002f0 5e cf 14 be e5 54 96 3e c0 a9 f0 3b 8c b3 73 ba
       -0.1453223 0.29361644 0.0073444545 -0.0009296469
000300 2b 20 4f bd 02 7f 1f be 09 38 f0 bd 67 44 8d bd
       -0.050567787 -0.15575793 -0.11729438 -0.06897812
000310 fc d0 12 3e b3 e4 1d 3e 82 0d 9e 3e 6c a5 45 be
       0.14337534 0.15419273 0.3086968 -0.19301385
000320 9a 2d 22 3d bc 13 1d ba c5 67 b1 ba 4d 6b 8c bd
       0.03959427 -0.00059920154 -0.0013534954 -0.068564035
000330 24 60 a0 bd bd 02 84 bd 4e de de 3d ee d5 c0 be
       -0.07830837 -0.06445835 0.10882245 -0.37663215
000340 15 72 37 be 80 b6 65 b8 1b 3d bc bd 73 70 19 3e
       -0.17914613 -5.476782e-05 -0.091913424 0.14984302
000350 68 cb 17 bd c2 93 2c 3e 95 75 99 bd 07 02 8b ba
       -0.037059218 0.1685324 -0.0749313 -0.0010605463
000360 0b e3 8b 3d ca d4 19 bb ea de fe bd eb 42 1b be
       0.068304144 -0.002347278 -0.12444861 -0.15162246
000370 b1 1d 39 be 8d 3a 94 bc 2f 56 f5 ba 61 74 40 3b
       -0.18077733 -0.018094325 -0.0018717701 0.0029366242
000380 86 e2 2d be c7 e2 04 bf f9 20 bc 3d 3d ef 24 bd
       -0.16980943 -0.51908535 0.091859765 -0.040267218
000390 b1 57 8c 3e e9 82 58 3d 99 3d 0e bd 18 d6 87 3a
       0.27410653 0.05285922 -0.034726713 0.0010363488
0003a0 fd da e5 bd 77 d0 1f be 1e 74 ef bd 83 6e 14 be
       -0.11223409 -0.15606867 -0.116920695 -0.14495282
0003b0 84 86 02 be ec 01 e2 bd cc 3d bf bd ae bd c7 be
       -0.12746626 -0.11035523 -0.09337959 -0.39011902
0003c0 64 6b 36 3e 16 d1 33 3d 61 dd cb be ec 6f 91 bd
       0.17814404 0.04390057 -0.39817336 -0.071014255
0003d0 fb ef 55 b9 18 99 9f bc a3 67 ab bd ed e0 2b bf
       -0.00020402663 -0.01948218 -0.083693765 -0.67140085
0003e0 14 ec 8c bd c0 65 e3 3d 6a 0f 5e b9 2c f8 04 3e
       -0.06880966 0.11103392 -0.00021177312 0.12985295
0003f0 28 96 fa 3c 54 af 68 bd b7 22 2e 3d 71 ab 8f bd
       0.030589178 -0.05680783 0.042513575 -0.07015122
