projects/codes/PolicyGradient/outputs/CartPole-v0/20220827-000433/models/checkpoint.pt (torch, 8151 bytes, 5 tensors)

fc1.weight f4 [36, 4]
000000 22 0d 3e 3e e0 db f4 3c e3 ac 41 3f c2 e6 2e 3f
       0.18559697 0.02989 0.7565443 0.6832086
000010 55 42 6d be 74 4a 9a 3e 93 cb 9b be 8c 1d 82 3e
       -0.23169835 0.30134928 -0.30428752 0.25413167
000020 90 d0 ac 3e 2c fb 7d bd 12 78 86 be 0a 02 32 be
       0.3375287 -0.062007114 -0.2626348 -0.1738359
000030 7c 72 bb 3d ec a7 72 bd 6e bd 77 3e 0d 40 27 bd
       0.091526955 -0.059242174 0.24193355 -0.040832568
000040 78 87 2e 3d 24 95 69 3e 1c f2 a5 3f 04 08 06 3f
       0.04260966 0.22810799 1.2964511 0.5235598
000050 ba f4 ae bc 8e 0f e3 be 6d 58 7d bf f8 e4 1b bf
       -0.02135693 -0.44347805 -0.9896305 -0.60896254
000060 d6 67 e8 bd d6 2c ee bd ea 90 35 3f 38 b1 e7 3e
       -0.1134793 -0.116296455 0.70924246 0.45252395
000070 5e 41 f2 be 3c 0b 4e 3f 89 57 55 3f cc 43 26 3f
       -0.47315496 0.8048589 0.83336693 0.649472
000080 f5 0a 3c 3f 07 2e 1a bf be 96 a9 be b3 05 81 3e
       0.7345422 -0.6022648 -0.3312282 0.2519966
000090 b9 a4 2e 3e 7a 61 9d be 48 82 cd 3e 9c 92 a9 bd
       0.17055024 -0.3073843 0.4013846 -0.08279917
0000a0 03 e0 c0 3e 33 23 15 be 52 63 a8 3e 52 b1 12 3e
       0.37670907 -0.14564209 0.32888275 0.14325455
0000b0 c4 f3 80 be f0 1c b3 3e 34 1d 0a be a1 fb 94 3d
       -0.25185978 0.34983015 -0.13487703 0.07274557
0000c0 8b 4c 48 be 30 e9 34 3d b8 9c fa be 52 b9 52 be
       -0.19560449 0.044167697 -0.48947692 -0.20578507
0000d0 60 d4 76 3e 34 ec e7 bd 57 79 db 3e 0d 7f 84 3e
       0.24104452 -0.11324349 0.42866012 0.25878182
0000e0 ac 04 93 3d 70 66 4c 3d 14 42 8e 3f 7d 4b 13 3f
       0.071786255 0.04990238 1.1113915 0.5753706
0000f0 78 23 0a bf 43 b5 57 3f 74 f9 8d 3f 5c 1d 0c 3f
       -0.5396037 0.8426096 1.1091752 0.547323
000100 b0 4d 6e be a8 6b 96 bc fa fa 6c 3e 82 2d 2a 3e
       -0.23271823 -0.018361881 0.23142615 0.16618922
000110 7b dc 88 3e 28 64 9e be cd 5a a1 3d 2d 5c 9f bd
       0.26730713 -0.30935788 0.07878647 -0.07781253
000120 50 08 1e 3e 63 74 70 bc ac 29 15 3e 6d ea c2 3d
       0.15432858 -0.014676186 0.14566678 0.095173694
000130 b6 fb bf bd 83 9d 23 3e 34 38 87 be c9 72 91 3e
       -0.09374182 0.15978055 -0.26410067 0.28407887
000140 d5 b4 05 bf fd 66 53 bf 08 c2 09 bf 66 a2 a6 be
       -0.5222905 -0.8257902 -0.53811693 -0.32545775
000150 bf b5 04 3e 94 bd ee 3b c3 37 d2 3d a3 07 36 3f
       0.12959956 0.007285783 0.10264542 0.711054
000160 b2 c2 c0 be f6 27 2b 3e ea 85 db be cc 18 4b bf
       -0.3764854 0.16714463 -0.42875606 -0.7933471
000170 31 cb 77 3c 63 0d 5e be 13 7e 88 bf a1 f5 0a bf
       0.015124128 -0.21684794 -1.0663475 -0.5428105
000180 90 25 d6 3b 46 3b a8 3d 19 fc 09 be bf fd cb bd
       0.0065352395 0.082144305 -0.13475074 -0.099605076
000190 74 d0 13 3f 80 ad df 3c 21 30 db 3d 82 b9 ed 3d
       0.5773995 0.027304411 0.10702539 0.116076484
0001a0 ae 7d d1 bd e8 a5 02 bf de 3a af 3e c0 f1 26 3e
       -0.102290496 -0.510344 0.342246 0.16303158
0001b0 1d 28 7a 3d f4 0c b3 3e 99 7a 85 3f ca a0 4b 3f
       0.06107341 0.3497082 1.0428039 0.7954222
0001c0 00 31 68 3e 36 48 24 be fa 7e 16 3f ad b5 43 3f
       0.22674942 -0.16043171 0.587875 0.7644909
0001d0 51 83 3f 3e e0 da c5 3d d6 52 9e bf b9 52 4f bf
       0.18702437 0.09660888 -1.236903 -0.809856
0001e0 48 b6 0a bf cf 37 c8 be 2b 88 5e be e3 00 12 bf
       -0.5418439 -0.3910508 -0.21731631 -0.57032603
0001f0 d0 c0 4b 3d 9c 6e 15 bf 5f 1f 91 bf c7 cb 61 be
       0.049744427 -0.583719 -1.1337699 -0.22050391
000200 64 d4 89 3e 3d 4f e5 3e b1 eb 70 bf 61 99 b5 be
       0.26919854 0.44787017 -0.94109637 -0.3546858
000210 6d 9b 82 3e 49 7e 3b 3f d9 12 58 3f 39 fb 0c 3f
       0.25509205 0.7323957 0.8440376 0.55070835
000220 94 0a 88 3e e5 c5 99 3d ec 63 4e bf 59 e8 2f bf
       0.2657057 0.075084485 -0.8062122 -0.6871391
000230 36 81 35 be 71 c0 cb 3e 14 73 03 3f e3 97 0a 3f
       -0.17725071 0.3979526 0.5134747 0.5413801

fc1.bias f4 [36]
000000 92 66 19 3e 36 41 a1 be 03 2f 89 bd 1a 05 3b be
       0.14980534 -0.31495064 -0.0669842 -0.18263665
000010 2c 36 86 3e 91 72 02 3f 3a 73 b5 3c e8 11 ff 3e
       0.26213205 0.50956064 0.02214967 0.4981835
000020 68 5a fc bd 4e fd 90 be 38 d7 0d bf f1 6c d3 be
       -0.12321931 -0.28318256 -0.5540652 -0.41294053
000030 27 59 ca be 5e 01 fa be b0 32 99 3e 8f 32 ae 3e
       -0.39521143 -0.48829168 0.29921484 0.34022948
000040 fd 8a d5 be 64 29 36 3d 83 b7 8b be 7a a9 e8 bd
       -0.41707602 0.044473067 -0.27288446 -0.1136045
000050 cd cb 2b 3e 6c 3c 12 bc 2b 9b b1 3d 00 ad 80 3e
       0.16776963 -0.0089255385 0.08672174 0.2513199
000060 d7 34 d0 be 83 02 c3 be 2c 35 d5 bc ba 6f 67 3e
       -0.40665314 -0.38087854 -0.02602633 0.22601214
000070 2f 93 1f 3d ab 94 92 3e 45 c9 c0 3e 32 e0 ca 3e
       0.038958725 0.2862905 0.37653556 0.39624172
000080 12 8d 0a 3e 2f 42 90 3e 68 01 2d 3b af 66 a3 3e
       0.13530377 0.28175494 0.0026398543 0.3191428

fc2.weight f4 [36, 36]
000000 3c 6e d0 bd 7c 8b 4b bc 15 45 ee 3c 55 ca b2 bd
       -0.101772755 -0.012423392 0.029085675 -0.08729998
000010 be 1a 5a be f7 5f f3 3e 64 c3 a1 be 9e 42 8c be
       -0.21299264 0.47534153 -0.31594384 -0.27394575
000020 d6 21 6c 3e e8 dc 63 bd ca 34 4b 3d de 09 0b 3e
       0.23059782 -0.055630594 0.04961089 0.13577983
000030 11 71 33 bd 5c 98 4a be 1b 51 a9 3d 2c cb b6 be
       -0.043809 -0.19784683 0.08267423 -0.35701883
000040 18 08 20 bc c8 0a 17 3e ff b2 85 3d 7c ac af bc
       -0.009767555 0.14750206 0.065282814 -0.021444552
000050 4c 99 91 3e ac 4d 15 be bb 55 95 3e 12 2d 95 3e
       0.2843727 -0.1458041 0.2916697 0.29135948
000060 f0 4f d1 3a e8 69 4c be b4 77 3b 3e 96 2c 5e be
       0.0015969258 -0.19962275 0.18307382 -0.21696696
000070 2f 05 37 bd 0b 2c ae 3e bd 25 8d 3e 78 6b c3 3e
       -0.044682678 0.34017977 0.27567855 0.3816793
000080 86 3c e4 3c a8 e0 90 be ff 14 b9 3e aa 66 a1 3d
       0.027860891 -0.282964 0.3614883 0.0788091
000090 d8 15 be 3c 1e 51 f6 bd 86 aa 25 be 1c 53 40 3d
       0.023203775 -0.120271906 -0.16178331 0.04695426
0000a0 c4 63 68 be 19 d5 1a 3e 8a 3a 06 be c0 9c 5e be
       -0.22694308 0.15120353 -0.13108268 -0.21739483
0000b0 f0 b7 97 bc 9d 05 61 be f5 7f 0d be 36 51 f8 3d
       -0.018520325 -0.21974798 -0.13818343 0.12124865
0000c0 e5 2e 07 3e 3c 09 6c 3d fd 07 09 be 0b a7 04 be
       0.13201483 0.057625994 -0.13381954 -0.12954347
0000d0 4f 0a 28 3e a6 c1 0a be 46 9e 2c be 02 2f 73 bd
       0.16410182 -0.13550434 -0.16857252 -0.059371002
0000e0 e8 b3 ee bd e8 69 1c 3c be ec d5 3d ba 6b 07 be
       -0.11655408 0.009546734 0.104455456 -0.13224688
0000f0 4f 2e 0c be 15 b3 ea bd 0c b9 f5 bc 89 af d6 bd
       -0.1368954 -0.114599384 -0.029995464 -0.104826994
000100 f4 f0 3c be 0b ff c4 bd 44 6a 20 be 3e 05 5f be
       -0.18451291 -0.09618958 -0.15665537 -0.21779343
000110 d0 02 58 be c6 98 18 3d e8 2c 40 3d a4 5e 20 be
       -0.21094823 0.03725507 0.046917826 -0.15661103
000120 57 43 78 3e 3d 71 93 3d 98 be 97 3c 82 2b d2 bd
       0.24244438 0.07199333 0.0185235 -0.10262205
000130 9c f6 ae 3e 57 f2 82 be ae 50 52 3d 53 8e 79 3e
       0.34172523 -0.25575516 0.051346473 0.24370699
000140 9c 76 a8 3d ce 56 e2 3d b9 1a ec bd a0 33 81 3d
       0.08225748 0.11051713 -0.115285344 0.06308675
000150 f7 66 22 be 77 0f 9e bd 19 30 8d 3e ae 0b aa 3e
       -0.1585959 -0.077177934 0.27575758 0.33212036
000160 c8 2f 07 3e 0c cf 7c bd 98 be 63 3d 3f 7b bd 3d
       0.13201821 -0.061720893 0.055601686 0.09252023
000170 b4 99 a6 be ad 74 bc 3e d8 5e 65 be f4 9e 9f be
       -0.3253914 0.36807767 -0.22399461 -0.3117596
000180 34 26 70 3d e8 07 84 bd a7 bd 42 be 88 a4 06 3f
       0.058630183 -0.064468205 -0.19017659 0.52594805
000190 58 d9 72 3e 83 68 6d be 9e d0 d3 bd ba ce a7 bd
       0.23715723 -0.231844 -0.10342525 -0.08193727
0001a0 4b ff 6d be d5 57 9c 3e fc 60 87 be e8 6b a5 3e
       -0.23241918 0.3053576 -0.2644118 0.32308888
0001b0 28 fb a1 bd 54 53 2a be f4 3b 09 bc 85 8b 40 be
       -0.079092324 -0.1663335 -0.00837611 -0.18803222
0001c0 ba 9e 14 3c 0c db cd 3e 96 16 77 be ac 67 63 be
       0.0090710465 0.40206182 -0.2412971 -0.22207516
0001d0 b4 dd 39 3e ac 94 3c 3d 0c 59 06 be dd 88 45 be
       0.1815098 0.046040222 -0.13119906 -0.1929049
0001e0 f0 8e bb bb b2 bd 86 be 85 f5 86 3c 1f ec 00 bf
       -0.0057238266 -0.263166 0.016474495 -0.5036029
0001f0 49 ae a6 bd 42 4f 86 3c f3 66 82 be 8f ce 64 3e
       -0.08138711 0.016395215 -0.2546917 0.22344421
000200 90 12 51 3e 87 31 b2 3d d3 a4 29 3e 94 1a 9c 3e
       0.20417237 0.08700853 0.16566782 0.30489028
000210 4b 73 84 be 12 bb 3b be c6 de 5f 3e cb 2b 8f be
       -0.25869212 -0.1833308 0.21862325 -0.279631
000220 82 36 29 be 42 c7 bf 3e 4e e0 b2 3e 72 04 bf 3e
       -0.165247 0.3745671 0.34936756 0.3730808
000230 d9 cc 44 3e 42 1e 97 be d9 a0 f9 3d b0 d3 bb bd
       0.19218768 -0.29515272 0.121888824 -0.091712356
000240 48 bc e8 3e 89 66 0d 3e c3 9d 10 be b8 39 f9 bd
       0.45456147 0.13808645 -0.14122681 -0.12169212
000250 a1 8b c7 3e 52 fc 5c be ce 56 4b 3e 2e 2c 1d 3f
       0.38973716 -0.21580628 0.19857332 0.6139554
000260 a6 d2 0a 3e cc 74 1d be 6b f0 81 bd f6 ce 18 be
       0.13556919 -0.15376586 -0.06344684 -0.149227
000270 f0 df 5d be c1 d5 e2 3d 71 ab d9 3e d7 55 42 3f
       -0.21667457 0.110759266 0.42513612 0.7591223
000280 06 40 d7 bd 20 25 52 3d a0 41 25 bc 83 64 6c 3e
       -0.105102584 0.051304936 -0.010086447 0.23085217
000290 62 bd aa be 90 e8 6b 3e 09 b0 37 be eb 25 c3 be
       -0.33347613 0.23037934 -0.17938246 -0.38114867
0002a0 8e 6f 1a be e3 d1 74 be 57 66 24 3e 0f 8a 10 3f
       -0.15081617 -0.2390819 0.16054665 0.5646066
0002b0 86 8d 69 3e b4 12 8c be 3a 70 08 bd 52 25 82 bd
       0.22807893 -0.2735802 -0.033310153 -0.063547745
0002c0 8e 34 56 3d 55 23 cd 3e c2 05 55 be b9 4e d3 3e
       0.052296214 0.4006602 -0.20802978 0.41270998
0002d0 a6 dd c9 bd 35 1c 8c be 6e 0e c8 3d b3 bd b6 bc
       -0.09856729 -0.2736527 0.09768377 -0.022307253
0002e0 8c b4 9b 3c 52 70 51 be a4 17 83 be 44 a9 f7 bd
       0.01900699 -0.20453003 -0.25603974 -0.12092832
0002f0 94 3e 9d bc 66 f1 08 be 70 ce 24 be 30 62 6f 3d
       -0.019194879 -0.13373336 -0.16094375 0.05844325
000300 48 34 f8 bd b0 cd 22 be 5a b4 16 3d b0 a9 94 3b
       -0.12119347 -0.15898776 0.03679309 0.00453683
000310 da d1 1d 3d 2a 45 f0 3d 7f e4 f4 3d 84 fd 2e be
       0.03853021 0.11731942 0.11957645 -0.17088896
000320 7e 49 41 be d1 b8 d2 bd e0 19 73 ba 5f 80 3e be
       -0.18875691 -0.10289157 -0.000927357 -0.18603657
000330 99 81 57 be 14 80 80 3c d0 93 88 bb 40 a3 c1 3d
       -0.21045531 0.015686072 -0.0041680112 0.094549656
000340 0c 4c 81 3c ad f9 46 be 88 ea 07 be 6d 3c c4 bd
       0.015783332 -0.19431181 -0.1327306 -0.09581838
000350 ba 90 05 be e3 79 26 3c fa ff 59 3d d6 ea 54 bd
       -0.1304349 0.010160896 0.053222634 -0.05198177
000360 1b 0c 0a 3d 9e 08 26 3d a2 86 2c 3e b3 aa 83 3d
       0.03370295 0.04053556 0.16848233 0.06429043
000370 72 ab 8c be 56 7c d3 3e 7c 20 38 bd d4 b6 cd be
       -0.27474552 0.41305798 -0.044952855 -0.4017855
000380 74 2a f2 bb b4 57 e6 bd 5c f2 2e bc d2 34 5f be
       -0.0073903147 -0.11247197 -0.0106779 -0.21797493
000390 06 16 05 3e 1c 33 7b bc bd 6e 0b be 38 41 bf be
       0.12996683 -0.01533201 -0.13616462 -0.37354445
0003a0 aa 0a 14 3d 70 c9 ca bd 36 c4 4c 3d fe 41 52 3e
       0.036142983 -0.099017024 0.04999181 0.20532987
0003b0 8c c7 77 3e 02 83 d9 3c 42 0a 9a 3c cf 2a 93 3e
       0.24197215 0.026551727 0.01880372 0.28743598
0003c0 d3 f7 74 be 6f 2f 85 3e f2 e7 de 3d b9 a1 82 bd
       -0.23922662 0.2601275 0.10884084 -0.063785024
0003d0 3b 32 bd bd 66 76 b6 3e 7a 46 38 3e 63 22 03 3e
       -0.09238096 0.35637206 0.17995635 0.12806086
0003e0 cf 06 69 3e d1 70 bb be 60 d5 25 3e c5 58 7a be
       0.22756504 -0.3660951 0.16194677 -0.24447925
0003f0 13 69 93 bd 3c 4d 46 3d b2 a3 20 3e 67 c5 0e bd
       -0.07197776 0.0484135 0.15687445 -0.034856226

fc2.bias f4 [36]
000000 c7 0d 69 3e 5c 95 6b be 5d 38 df bd f7 a0 84 3e
       0.22759162 -0.23006195 -0.10899422 0.25904056
000010 62 54 91 bd 92 6f e7 bd 99 db 8e 3e 12 51 eb bd
       -0.07096173 -0.11300577 0.27901915 -0.11490072
000020 c6 83 21 3d 68 8e 03 be 00 ad 47 be 62 0b 63 bd
       0.03943231 -0.12847292 -0.19499588 -0.055430777
000030 52 f4 af 3d e0 65 d8 bc 25 13 20 3d a8 78 28 be
       0.08591522 -0.026415765 0.039080758 -0.16452277
000040 50 8d 12 3d cd 8f 76 3e 40 03 04 3d d7 ab e3 3d
       0.035779297 0.24078293 0.032229662 0.1111676
000050 27 c1 e0 bd 81 99 34 3d 20 9f 7b bb 9a 00 ff bc
       -0.10974341 0.044091705 -0.0038394406 -0.031128217
000060 9c 25 6e bd 00 04 14 bb 2a aa 04 3c 3b 66 64 be
       -0.058141336 -0.0022585392 0.008097211 -0.22304623
000070 fd f4 be bc a8 90 6b 3d 62 03 c0 3d 7b 49 7c 3e
       -0.023310179 0.057511 0.09375645 0.24637406
000080 d7 db 8e 3e 8b c5 ad 3d 0a f3 1a 3e 0e 44 62 3e
       0.279021 0.08484944 0.15131775 0.22096273

fc3.weight f4 [1, 36]
000000 85 39 ae be 58 25 84 3c c5 8f a7 3e 0d b9 80 be
       -0.3402826 0.016131088 0.32726875 -0.25141183
000010 eb 62 f1 3e 50 92 7d 3b 6f 8b 30 be f1 b9 3f be
       0.4714578 0.0038691945 -0.1724069 -0.18723275
000020 ee 57 5f 3e 4d 63 94 bd d2 55 5e bd 8f e3 b1 bd
       0.21810886 -0.072455026 -0.054281063 -0.086859815
000030 86 7a 8f be a8 c3 37 3c 46 e0 8a bb b4 6a bf bb
       -0.28023165 0.011216082 -0.0042381613 -0.0058415774
000040 00 65 d5 3b b3 c0 77 be 5c f2 12 3d c2 bd 57 be
       0.0065122843 -0.24194603 0.035875663 -0.2106848
000050 c4 c6 30 be 77 d2 b1 be c0 fa 29 bb 83 c5 5a 3e
       -0.17263323 -0.34730884 -0.0025936812 0.21364407
000060 a2 ad dd bc 6a be 75 3e fd b2 91 3e 7c 04 fa bc
       -0.027060334 0.23998418 0.2845687 -0.030519716
000070 73 0f b0 3e 1e 89 6e 3e 9d 9b a6 be e9 f7 55 be
       0.34386787 0.23294494 -0.325406 -0.20895351
000080 8b fd 9e be 12 e2 9f 3e 57 31 bf be 76 e2 b1 be
       -0.31052813 0.31227165 -0.3734233 -0.34743088
