projects/codes/PPO/outputs/CartPole-v0/20220731-233512/models/ppo_actor.pt (torch, 272279 bytes, 6 tensors)

actor.0.weight f4 [256, 4]
0.08156367 0.092417106 -0.25197038 -0.30334842 0.35592553 -0.015432425 -0.4687609 -0.016403357
0.045285985 0.36454874 0.48787984 0.34298664 0.29731378 -0.111617245 -0.36132008 0.36390787
0.33198997 -0.39016303 0.25508094 0.0041689975 -0.04106003 -0.043710083 0.49719474 0.17102283
-0.43309665 0.13231604 0.66250056 0.07241815 0.40776947 0.25895652 -0.43678176 -0.45942476
-0.24985152 -0.18632105 0.6052005 0.48487192 0.35124323 -0.10813616 -0.41402838 -0.17194302
-0.12561677 -0.28507894 -0.08625909 0.44071734 -0.1678817 -0.056310702 0.1061908 0.094086185
-0.48883802 -0.15608563 -0.6875484 -0.26605508 0.07587518 -0.28156716 -0.47693443 0.084372
0.068843044 0.36522344 -0.28139538 0.10528249 0.42467776 0.2068651 0.12152303 0.20915924
0.15751457 -0.29519293 0.116361484 0.52944595 0.014393511 0.13637799 -0.01950371 -0.105808906
-0.34024423 -0.41565332 -0.62376136 0.013124513 -0.49562508 -0.211788 -0.42857885 -0.48898235
0.46550062 0.5601824 0.10242798 0.26885793 -0.28046605 0.41209543 -0.23536052 0.38675225
-0.19234636 -0.115081266 0.38310057 -0.21215087 -0.16534579 0.37734994 -0.0020898052 0.15235102
-0.25338602 0.42750916 -0.4297246 -0.25269926 -0.17077953 0.3372633 -0.25351024 -0.3379417
-0.29954025 0.38509396 -0.31316003 -0.27861014 -0.13172364 0.1643094 0.2640351 -0.18718234
-0.36571297 0.043004937 -0.6209408 -0.263486 0.41102064 0.19495673 0.35137343 0.40617025
0.30021933 0.30504033 0.7093732 0.35563096 -0.18844453 0.40058497 -0.31064516 0.36241287
0.23482084 -0.10748551 0.15874888 0.48306146 -0.14937542 -0.31024444 -0.24094312 0.013370466
-0.31651 0.37147686 0.016126096 -0.41595328 -0.3747455 -0.010154924 -0.03727332 -0.116557695
-0.34851578 -0.17343268 -0.3507754 -0.11729107 0.1685883 -0.33178332 0.0057154708 -0.15567699
-0.0023700304 -0.3997297 0.17915675 -0.28335342 0.25154272 -0.21650906 -0.112289324 0.43575132
-0.32805595 -0.23110169 0.105919264 0.17850465 0.1145835 0.043295592 0.4155511 0.22472133
-0.23994026 -0.2925381 0.62220275 0.2045241 0.15343094 -0.12642796 0.23213375 -0.31201416
-0.07823163 0.15696424 -0.33876175 0.24723941 0.43677652 -0.4034769 -0.12837225 0.3118586
0.29218528 0.29121745 0.65705436 0.008891471 0.03055489 -0.31868744 0.19804211 0.16716371
0.3285741 -0.17938706 0.13828503 -0.01973252 0.23824508 0.17783211 0.61938626 0.2505727
-0.4163923 -0.018776895 0.177596 0.1893465 0.062281966 -0.27714258 -0.3265752 0.33547157
0.2105709 -0.45397043 -0.15302256 -0.2868619 -0.2774301 0.051492617 -0.42337292 -0.575168
0.083160676 -0.28562143 -0.2560946 -0.46928525 0.053060833 0.3544488 0.58664453 0.40009275
-0.45173326 0.4994738 -0.16443272 -0.16888955 0.22103219 -0.34251285 -0.26047966 0.47553927
-0.050336853 -0.16426611 0.1853325 0.15267567 -0.03410727 0.34451056 -0.5919205 -0.35625902
0.14198811 0.32187837 0.6691634 0.30294952 0.0029281105 0.077210486 -0.22934157 -0.38539913
-0.12439304 0.09250782 0.15724349 0.55309737 0.2934408 -0.42192772 0.094813734 -0.43793195
00000000: da0a a73d 2e45 bd3d 4302 81be 7c50 9bbe
00000010: df3b b63e 48d8 7cbc 6e01 f0be 5560 86bc
00000020: cc7d 393d 22a6 ba3e 63cb f93e f29b af3e
00000030: 8339 983e 9597 e4bd f2fe b8be 2252 ba3e
00000040: 97fa a93e 73c3 c7be f899 823e 169c 883b
00000050: 902e 28bd 5809 33bd 4f90 fe3e 9c20 2f3e
00000060: d8be ddbe db7d 073e a399 293f f84f 943d
00000070: 29c7 d03e f395 843e dca1 dfbe b939 ebbe
00000080: 14d9 7fbe f2ca 3ebe 6cee 1a3f 2241 f83e
00000090: 27d6 b33e 7e76 ddbd 87fb d3be d511 30be
000000a0: afa1 00be def5 91be 9ba8 b0bd b4a5 e13e
000000b0: 2ee9 2bbe 0da6 66bd 907a d93d 42b0 c03d
000000c0: fa48 fabe e9d4 1fbe 2c03 30bf 5f38 88be
000000d0: 7264 9b3d 9229 90be c030 f4be 3acb ac3d
000000e0: 95fd 8c3d 91fe ba3e 0e13 90be 599e d73d
000000f0: 5d6f d93e 72d4 533e 11e1 f83d d72d 563e
00000100: 804b 213e 8723 97be ee4e ee3d c589 073f
00000110: c3d2 6b3c aca6 0b3e 3fc6 9fbc 57b2 d8bd
00000120: 7e34 aebe 83d0 d4be d3ae 1fbf 3308 573c
00000130: 92c2 fdbe f4de 58be b06e dbbe e55b fabe
00000140: 1956 ee3e 1d68 0f3f c3c5 d13d bfa7 893e
00000150: 3f99 8fbe 2cfe d23e 5902 71be 6404 c63e
00000160: 72f6 44be baaf ebbd c225 c43e 143e 59be
00000170: 6850 29be 0334 c13e 1df5 08bb e801 1c3e
00000180: d0bb 81be 7be2 da3e dd04 dcbe cc61 81be
00000190: d4e0 2ebe c6ad ac3e 18cc 81be b206 adbe
000001a0: 575d 99be 092b c53e 8356 a0be fda5 8ebe
000001b0: 90e2 06be b940 283e 9c2f 873e baac 3fbe
000001c0: bb3e bbbe f225 303d faf5 1ebf a3e7 86be
000001d0: 4c71 d23e bda2 473e 38e7 b33e 8cf5 cf3e
000001e0: 59b6 993e 3f2e 9c3e 7b99 353f 4315 b63e
000001f0: 9af7 40be 7919 cd3e e20c 9fbe 2e8e b93e
00000200: e074 703e 5d21 dcbd 118f 223e d553 f73e
00000210: dff5 18be 5cd8 9ebe cbb9 76be cd0f 5b3c
00000220: 990d a2be 3732 be3e e01a 843c d4f7 d4be
00000230: a4de bfbe d760 26bc e9ab 18bd cdb5 eebd
00000240: a970 b2be 5698 31be d598 b3be 4d36 f0bd
00000250: 69a2 2c3e 81df a9be d848 bb3b ca69 1fbe
00000260: 8352 1bbb 5fa9 ccbe de74 373e b313 91be
00000270: 35ca 803e 8db4 5dbe f2f7 e5bd cc1a df3e
00000280: f3f6 a7be eca5 6cbe 33ec d83d ecc9 363e
00000290: c1aa ea3d b856 313d 1dc3 d43e 591d 663e
000002a0: e6b2 75be 8ec7 95be ae48 1f3f c46e 513e
000002b0: 001d 1d3e 5576 01be 78b4 6d3e 52c0 9fbe
000002c0: e837 a0bd 3cbb 203e 2e72 adbe 542c 7d3e
000002d0: 2ca1 df3e 8694 cebe 0474 03be eeab 9f3e
000002e0: 4f99 953e 741a 953e b734 283f 88ad 113c
000002f0: 404e fa3c 002b a3be 8dcb 4a3e f72c 2b3e
00000300: dd3a a83e 3eb1 37be 979a 0d3e 18a6 a1bc
00000310: 85f6 733e 9f19 363e 1990 1e3f 114b 803e
00000320: 5f31 d5be 01d2 99bc badb 353e 0de4 413e
00000330: 601b 7f3d a2e5 8dbe dd34 a7be eec2 ab3e
00000340: e69f 573e d06e e8be f2b1 1cbe 90df 92be
00000350: 510b 8ebe ece9 523d 56c4 d8be 363e 13bf
00000360: 2550 aa3d f93c 92be d51e 83be 2846 f0be
00000370: 5156 593d 507a b53e 562e 163f f5d8 cc3e
00000380: 9549 e7be 08bb ff3e 0d61 28be 62f1 2cbe
00000390: 4356 623e d85d afbe 975d 85be e279 f33e
000003a0: 042e 4ebd 6035 28be cec7 3d3e 0357 1c3e
000003b0: 11b4 0bbd b063 b03e 1a88 17bf 9567 b6be
000003c0: 5565 113e 3ecd a43e 4b4e 2b3f 331c 9b3e
000003d0: 8be5 3f3b 8820 9e3d 84d8 6abe 0953 c5be
000003e0: c7c1 febd bd74 bd3d 7004 213e ca97 0d3f
000003f0: df3d 963e e906 d8be b42d c23d 9e38 e0be

actor.0.bias f4 [256]
0.25512782 0.2705822 0.12576479 0.111631125 -0.47406211 0.38767087 0.26083276 -0.0072340067
0.28536314 0.2521905 -0.18504159 -0.355496 0.11576821 0.117506094 -0.32188144 0.064778544
0.29392406 -0.085603856 0.09284226 0.19417678 0.4193287 0.4108339 -0.24794656 -0.072631635
-0.47980794 -0.1338159 0.22339 -0.2165753 0.12301408 -0.32116833 0.14345825 -0.484646
0.117896274 -0.27524382 -0.45515624 -0.31852737 0.21593328 0.07213252 -0.0011491423 -0.2669819
-0.371174 0.2793511 -0.27284577 0.13970213 -0.38623887 -0.39285836 0.2190071 -0.39942437
-0.1644697 0.09585658 0.018186864 -0.26456347 -0.04075149 -0.25070354 0.09547797 0.37570468
-0.37704954 -0.012779585 -0.34082177 -0.30485237 0.20511498 0.074691765 0.44273916 -0.23813905
0.19753075 0.13191158 0.2775017 -0.32073912 0.06380466 0.29693323 0.12985945 -0.11752894
0.042440437 0.13015372 0.2746051 0.36968386 0.1131345 -0.328459 -0.04867163 -0.41878733
0.07205599 0.4019022 0.17500773 0.14905632 0.32099336 0.39018688 -0.2308447 0.21820252
0.086145125 -0.45833424 0.2101664 -0.05756351 -0.060363255 0.13558194 0.14217795 -0.39777753
0.3716851 -0.053169984 -0.30696398 -0.46937782 -0.17268936 0.3674185 0.43044245 -0.41796854
0.1210187 0.08004716 0.3148278 0.40835732 0.20998903 -0.23863705 -0.3662717 -0.4125803
0.44276506 0.31815872 -0.24417666 0.43099937 0.15131387 0.28823632 -0.30515638 -0.2953948
-0.39208877 -0.16169263 0.0029435891 -0.3342788 -0.1918298 -0.23521027 0.3609249 -0.44517103
0.25549772 -0.011909495 0.21311918 0.01254285 -0.2872477 0.07986831 0.16992347 0.33691505
-0.12525775 -0.44395092 -0.23836227 -0.15216565 -0.20357275 0.0809621 0.043075237 -0.20121002
-0.23873158 0.10720189 0.4532163 -0.05043963 0.2973209 -0.24528511 0.21040489 0.3054182
-0.4113776 -0.18659623 0.008928349 -0.437902 0.16248882 -0.008187262 -0.34034187 0.05869466
-0.5049682 0.20633812 0.1048095 0.11172638 -0.37740457 0.29251722 0.12650906 -0.3282799
-0.30471092 -0.11214902 0.13421018 0.33128807 -0.27412558 0.26025915 -0.033952896 -0.041085847
-0.22851776 -0.061799273 0.1674527 0.42349195 -0.26865232 -0.34156796 0.045201927 0.43504736
0.16272688 0.41520813 -0.16377082 -0.42901364 0.13657413 -0.20909539 -0.25092587 -0.4496446
-0.41291544 -0.36437857 -0.21508312 0.29721245 -0.12685548 -0.31261668 0.0053940457 0.24907598
0.045852363 0.13514157 0.43622327 -0.03197544 -0.21992335 0.14121735 -0.3788239 0.17284946
0.330819 -0.1452071 0.27646863 -0.10042993 -0.45003328 -0.070610024 0.2812212 0.2879894
0.18173441 0.09410542 0.0028075383 0.32225046 0.06404456 0.037906818 -0.096032105 0.15155487
-0.16591269 0.35554382 0.09705963 0.17557678 0.06721151 -0.43894216 0.17446758 0.2979437
0.40496507 -0.19905882 -0.20848052 -0.37644735 0.39697158 0.20372957 0.4568045 -0.017909484
0.07666994 0.20949858 0.26059753 -0.4826668 0.08268753 -0.34786344 -0.38697705 0.18938872
-0.12637255 0.38760847 -0.0038430544 0.047208127 0.35212353 0.24895619 0.39654014 0.13157137
00000000: 1da0 823e c089 8a3e 7cc8 003e dc9e e43d
00000010: 45b8 f2be cc7c c63e df8b 853e 3f0b edbb
00000020: 1e1b 923e 1d1f 813e 8b7b 3dbe 9203 b6be
00000030: e217 ed3d 09a7 f03d a5cd a4be 9daa 843d
00000040: 377d 963e 1351 afbd 1524 be3d 47d6 463e
00000050: 40b2 d63e d258 d23e b4e5 7dbe e5bf 94bd
00000060: 63a9 f5be 0907 09be 59c0 643e eac5 5dbe
00000070: ceee fb3d 2d70 a4be b8e6 123e 8523 f8be
00000080: 9a73 f13d c2ec 8cbe 3d0a e9be 0516 a3be
00000090: 9d1d 5d3e 37ba 933d d19e 96ba dab1 88be
000000a0: 850a bebe 1b07 8f3e 71b2 8bbe 130e 0f3e
000000b0: 1ac1 c5be bb24 c9be 6643 603e 5a81 ccbe
000000c0: bf6a 28be 7450 c43d 9efc 943c dd74 87be
000000d0: 09eb 26bd 375c 80be f489 c33d 5d5c c03e
000000e0: a30c c1be 7761 51bc 3180 aebe 9c15 9cbe
000000f0: a909 523e fff7 983d b5ae e23e b9da 73be
00000100: 8045 4a3e d413 073e b414 8e3e eb37 a4be
00000110: 05ac 823d a207 983e e0f9 043e 03b3 f0bd
00000120: 06d6 2d3d 0447 053e 0a99 8c3e 3447 bd3e
00000130: 10b3 e73d c72b a8be e75b 47bd 4b6b d6be
00000140: 1792 933d 20c6 cd3e 3a35 333e 38a2 183e
00000150: 3e59 a43e 93c6 c73e 8e62 6cbe 7b70 5f3e
00000160: db6c b03d c9aa eabe dc35 573e b7c7 6bbd
00000170: 763f 77bd fed5 0a3e 1997 113e 7fa9 cbbe
00000180: 824d be3e c5c8 59bd 622a 9dbe 4a52 f0be
00000190: 7bd5 30be 471e bc3e f462 dc3e f9ff d5be
000001a0: a7d8 f73d c4ef a33d 1c31 a13e 3614 d13e
000001b0: 5d07 573e 455d 74be f787 bbbe ba3d d3be
000001c0: 1ab2 e23e b3e5 a23e 7209 7abe f3ab dc3e
000001d0: 06f2 1a3e b693 933e 753d 9cbe fd3d 97be
000001e0: dcbf c8be c192 25be 3be9 403b 9726 abbe
000001f0: 086f 44be f6da 70be 26cb b83e 75ed e3be
00000200: 99d0 823e 0b20 43bc ea3b 5a3e 8780 4d3c
00000210: 2112 93be ff91 a33d 6b00 2e3e 2180 ac3e
00000220: 9143 00be 894d e3be 3d15 74be 50d1 1bbe
00000230: 6075 50be 75cf a53d a96f 303d 000a 4ebe
00000240: 0d76 74be aa8c db3d f80b e83e c999 4ebd
00000250: 723a 983e 052c 7bbe 6174 573e c65f 9c3e
00000260: 16a0 d2be 1513 3fbe 3648 123c b134 e0be
00000270: 7863 263e de23 06bc 4a41 aebe d069 703d
00000280: 9945 01bf 4d4a 533e 5da6 d63d cdd0 e43d
00000290: 2c3b c1be d1c4 953e 978b 013e 4e14 a8be
000002a0: 1203 9cbe 63ae e5bd 656e 093e 979e a93e
000002b0: 305a 8cbe b040 853e 3112 0bbd a249 28bd
000002c0: 8f00 6abe 3c21 7dbd b878 2b3e f0d3 d83e
000002d0: cc8c 89be ffe1 aebe a825 393d 87be de3e
000002e0: e0a1 263e 2996 d43e 8ab3 27be ada7 dbbe
000002f0: 17da 0b3e 1a1d 56be 5b79 80be d137 e6be
00000300: a769 d3be d48f babe c03e 5cbe 3b2c 983e
00000310: 67e6 01be 4b0f a0be 89c0 b03b c60d 7f3e
00000320: b0cf 3b3d 8d62 0a3e a858 df3e aef8 02bd
00000330: 9633 61be 489b 103e 35f5 c1be 73ff 303e
00000340: 1c61 a93e 2cb1 14be 4c8d 8d3e 35ae cdbd
00000350: c36a e6be fd9b 90bd 3afc 8f3e 5973 933e
00000360: 9618 3a3e 58ba c03d adfe 373b 03fe a43e
00000370: cb29 833d 2e44 1b3d 7bac c4bd 3331 1b3e
00000380: 04e5 29be d709 b63e 33c7 c63d 66ca 333e
00000390: 30a6 893d 07bd e0be a1a7 323e 148c 983e
000003a0: 9557 cf3e 13d6 4bbe eb7b 55be b5bd c0be
000003b0: dc3f cb3e 7c9e 503e 48e2 e93e e9b6 92bc
000003c0: 2105 9d3d cc86 563e 0a6d 853e 1a20 f7be
000003d0: 1458 a93d 281b b2be db21 c6be 1eef 413e
000003e0: ce67 01be 9e74 c63e c1db 7bbb 4f5d 413d
000003f0: 8949 b43e 5fee 7e3e 4f07 cb3e a5ba 063e

actor.2.weight f4 [256, 256]
-0.020346586 0.0113015715 0.08566239 0.012838396 -0.012549981 -0.02044626 0.04012558 -0.09231454
-0.018208953 -0.053018965 0.032244604 -0.0063315006 -0.048785847 0.04314203 0.036343277 0.12054369
-0.01707082 -0.08066522 0.034263834 -0.002930435 0.049923692 0.037195344 -0.070365496 0.06673213
-0.018793255 -0.06965368 0.020361016 -0.037294928 -0.09803339 0.10921197 0.12309168 -0.019140812
-0.0028493693 0.022330463 -0.090845704 -0.03746909 0.030379385 -0.03796435 -0.07254555 0.026426343
-0.00501892 0.02900178 -0.034986075 -0.045597326 0.02739288 0.035596997 0.008877368 0.018867476
0.029081022 0.1575682 0.029606696 0.04526017 -0.07912885 -0.07448893 -0.10042721 0.1308672
-0.09892933 0.021831047 0.014543418 0.0031636208 0.07417831 -0.036547676 0.029982086 0.059783284
0.04704398 0.100722365 0.05458973 0.056916792 -0.07351157 -0.0646037 -0.04497491 0.027043434
-0.123187415 0.115667045 -0.024758281 -0.02304328 -0.05437526 0.06787421 -0.020571005 0.12577826
-0.088736445 0.008065028 -0.025604397 0.10903255 0.04363591 -0.041055586 -0.0145874815 0.04166137
-0.16396457 0.044596378 -0.044415534 -0.038138036 0.031867225 0.09786073 0.015595014 -0.02843413
-0.019041784 -0.052859038 0.00073207135 -0.00119002 -0.01528252 0.09310591 0.05636553 0.011898745
0.046963822 0.015175326 0.033749137 0.075478405 -0.08572816 0.016211191 0.028143583 0.06662719
-0.068495296 0.018055009 -0.05727416 0.0017071116 0.009527239 -0.06218531 0.11345161 0.062393203
0.056326486 -0.022165917 -0.02150498 0.0033418224 0.033002827 0.13423797 0.07333724 0.06450831
-0.052748438 0.09423287 0.07945755 0.03355385 0.12154019 0.0060192123 0.04078419 0.0929069
-0.005808609 0.03807323 -0.071897864 0.02954311 0.07178019 0.046823423 0.055868495 -0.06405966
-0.09314889 0.038465224 -0.023824748 0.054549985 0.019011633 -0.026517404 0.009914124 0.042096186
-0.027027456 -0.016296115 0.014356309 -0.017174125 -0.034840252 0.04568385 -0.014420062 -0.08940435
0.05061565 -0.0814919 -0.17591864 -0.11077223 0.011881164 0.013445119 -0.08175597 -0.07141212
0.0010995746 0.0948856 -0.07394465 -0.03004723 -0.046414774 -0.049676467 0.09867111 0.022961814
0.012610557 0.010993339 0.00012144436 -0.03929088 0.13390696 0.07173748 0.035964575 0.024002954
-0.0053363475 0.015371259 -0.002242349 -0.057941575 0.019269818 -0.056768287 0.046959963 0.026723659
0.059200842 0.09484769 -0.038626608 0.0037483503 0.05666954 -0.078103796 0.027597204 -0.10615949
0.035541307 0.019204311 0.09922104 -0.017100105 -0.085463405 0.020359654 0.06883152 -0.04180714
-0.08276091 0.106186196 -0.0124856 0.042465255 -0.060332906 0.024133902 0.013292977 0.029202798
-0.007979048 -0.0091860695 -0.018753909 -0.034504294 -0.14952648 -0.029009188 -0.027625443 -0.0052653453
-0.06845907 0.06806383 0.096487686 -0.0240121 0.0052692764 -0.02532247 0.0677828 -0.0828904
0.017764619 -0.07791921 -0.01983145 -0.014237861 -0.00079798186 -0.11222938 0.0513626 0.073904835
-0.04194359 -0.068460815 -0.019397281 0.046778437 0.0584482 0.038088247 0.069531254 -0.030745665
0.058025707 -0.016753715 -0.05633181 0.0052348273 -0.029872961 -0.04860835 0.014939478 -0.080087654
00000000: e2ad a6bc 3a2a 393c c36f af3d 2358 523c
00000010: 6f9e 4dbc ea7e a7bc b85a 243d 680f bdbd
00000020: f12a 95bc 6a2a 59bd eb12 043d 7a78 cfbb
00000030: abd3 47bd b2b5 303d b0dc 143d 9cdf f63d
00000040: 1bd8 8bbc cf33 a5bd 3c58 0c3d 8a0c 40bb
00000050: c97c 4c3d 255a 183d c91b 90bd dbaa 883d
00000060: 50f4 99bc 97a6 8ebd 25cc a63c 91c2 18bd
00000070: bbc5 c8bd 86aa df3d 7e17 fc3d 31cd 9cbc
00000080: 7cbc 3abb 60ee b63c 500d babd 3079 19bd
00000090: 30de f83c 8280 1bbd c392 94bd 0f7c d83c
000000a0: c175 a4bb 2495 ed3c 8f4d 0fbd 43c4 3abd
000000b0: 0867 e03c 28ce 113d 6172 113c f78f 9a3c
000000c0: 533b ee3c 8f59 213e be89 f23c ba62 393d
000000d0: 4e0e a2bd a78d 98bd c8ac cdbd 0d02 063e
000000e0: 769b cabd 06d7 b23c 8447 6e3c c054 4f3b
000000f0: ccea 973d 04b3 15bd fe9c f53c 51df 743d
00000100: 30b1 403d 8747 ce3d 7b99 5f3d 9521 693d
00000110: 3c8d 96bd f24e 84bd 9c37 38bd 318a dd3c
00000120: af49 fcbd d8e2 ec3d e1d1 cabc 43c5 bcbc
00000130: 98b8 5ebd a201 8b3d 8684 a8bc 04cc 003e
00000140: 74bb b5bd 2e23 043c 50c0 d1bc 754c df3d
00000150: 91bb 323d e729 28bd 5500 6fbc 1da5 2a3d
00000160: 54e6 27be b1aa 363d 10ed 35bd a136 1cbd
00000170: 3587 023d 356b c83d 3b82 7f3c b1ee e8bc
00000180: 84fd 9bbc b882 58bd 7ae8 3f3a 72fa 9bba
00000190: 8963 7abc 50ae be3d 8bdf 663d f4f2 423c
000001a0: 235d 403d eea1 783c 893c 0a3d 6c94 9a3d
000001b0: 3f92 afbd 55cd 843c 5f8d e63c d673 883d
000001c0: 4347 8cbd 19e8 933c 4f98 6abd 29c1 df3a
000001d0: 2318 1c3c 06b6 7ebd 5159 e83d 0490 7f3d
000001e0: 9ab6 663d 4c95 b5bc 362b b0bc 7a02 5b3b
000001f0: f92d 073d ae75 093e d631 963d ef1c 843d
00000200: bf0e 58bd 2afd c03d a4ba a23d c36f 093d
00000210: 10ea f83d d03c c53b 530d 273d f945 be3d
00000220: 2556 bebb adf2 1b3d 303f 93bd 6404 f23c
00000230: 7e01 933d ebc9 3f3d 5dd6 643d b631 83bd
00000240: d8c4 bebd b68d 1d3d 1e2c c3bc ce6f 5f3d
00000250: 49be 9b3c 073b d9bc da6e 223c 0d6d 2c3d
00000260: af68 ddbc 6e7f 85bc b936 6b3c c0b0 8cbc
00000270: a7b4 0ebd fd1e 3b3d 2042 6cbc a119 b7bd
00000280: 5b52 4f3d 3ae5 a6bd 0424 34be 8ddc e2bd
00000290: 37a9 423c eb48 5c3c ad6f a7bd 8440 92bd
000002a0: 9a1f 903a 6253 c23d 4b70 97bd 9c25 f6bc
000002b0: 6b1d 3ebd 8d79 4bbd 1414 ca3d 6a1a bc3c
000002c0: 829c 4e3c 681d 343c f2af fe38 79ef 20bd
000002d0: e81e 093e 1aeb 923d 974f 133d d8a1 c43c
000002e0: 87dc aebb bcd7 7b3c 60f4 12bb 2554 6dbd
000002f0: bddb 9d3c dd85 68bd 1759 403d 93eb da3c
00000300: 957c 723d 813f c23d ef36 1ebd e2a6 753b
00000310: 521e 683d e2f4 9fbd 8813 e23c 266a d9bd
00000320: c393 113d 5c52 9d3c 6734 cb3d 8515 8cbc
00000330: 7007 afbd 4ac9 a63c 8af7 8c3d f73d 2bbd
00000340: 8d7e a9bd 2678 d93d 6790 4cbc 0cf0 2d3d
00000350: a31f 77bd 76b4 c53c c9ca 593c b53a ef3c
00000360: 8eba 02bc 2b81 16bc cca1 99bc 6054 0dbd
00000370: 781d 19be ada4 edbc c14e e2bc eb88 acbb
00000380: 4534 8cbd 0d65 8b3d 569b c53d 06b5 c4bc
00000390: e5a9 ac3b 1271 cfbc b5d1 8a3d 71c2 a9bd
000003a0: 1b87 913c 1b94 9fbd 9175 a2bc eb45 69bc
000003b0: a82f 51ba 84d8 e5bd 9761 523d 6b5b 973d
000003c0: 0bcd 2bbd 2f35 8cbd 0ce7 9ebc bf9a 3f3d
000003d0: 6167 6f3d 6c02 1c3d 6766 8e3d 55de fbbc
000003e0: 5dac 6d3d 163f 89bc 2fbc 66bd ea88 ab3b
000003f0: 24b8 f4bc 8d19 47bd b6c4 743c ff04 a4bd

actor.2.bias f4 [256]
-0.013164029 0.045129895 -0.01702178 0.07919392 -0.024135742 -0.04149315 -0.06455881 -0.050078798
-0.045463048 -0.051620133 -0.023959212 0.012632461 0.03741317 -0.03458936 0.032017265 -0.0069590877
-0.017542832 -0.06599296 -0.03142818 -0.061536975 0.0011670942 -0.053135846 -0.050337426 -0.054759007
0.06340045 0.03517143 0.02911127 -0.04382807 0.0062368303 0.010106734 -0.069336906 0.026104925
-0.08352893 -0.010102589 0.047357295 -0.0070420727 0.0052873115 0.020332573 -0.06336544 -0.03614286
-0.05440399 0.03919808 -0.024853678 0.02663198 -0.033399988 -0.011198259 0.0307509 -0.028091362
-0.011782577 -0.028049938 0.015408854 -0.05842813 0.01908249 0.012913838 0.03132457 -0.020718165
0.015591593 0.016215902 -0.05675522 -0.022820814 -0.04883484 0.009629238 -0.03838557 0.01967308
0.08213321 0.039846905 0.0029920784 -0.033290602 -0.042281736 0.0011061055 -0.0066210073 -0.011772022
0.009891625 0.03425205 0.02232544 0.024808077 0.020029768 0.030177841 -0.03886968 0.048514407
-0.024893833 -0.011161496 0.021131804 -0.032303173 0.07548533 -0.0124624735 -0.012407221 -0.029898591
0.017340321 -0.022840971 0.0008106985 -0.028537229 -0.007176312 0.03191088 -0.072272345 0.03432826
0.0195059 0.027677191 0.063424416 -0.021131951 -0.028848026 -0.0013975415 0.043411884 0.0007206281
-0.016635263 -0.03600725 -0.015502107 -0.009216862 -0.01891027 0.0547905 -0.059031803 -0.010752909
0.00054911204 0.06600914 0.030834671 0.07480364 0.04796999 -0.01665471 0.038736656 -0.047053266
-0.022304667 -0.027836334 -0.014157317 -0.031004176 -0.0366053 -0.0862392 -0.057704702 -0.05185696
-0.058559313 -0.02143018 -0.0061848215 0.012817492 0.020427756 0.0474275 -0.012649195 -0.02973845
-0.016617693 -0.027994465 0.048092466 0.010724491 0.008149421 -0.01238214 -0.07084643 -0.032585923
-0.010886413 -0.002032782 0.03158382 -0.05841466 0.009646969 0.02577511 0.023179432 -0.08722056
0.009134467 -0.036345687 0.02041525 -0.01542736 0.023858067 -0.030218601 -0.009524666 -0.056767315
0.04277371 -0.05553411 0.015825817 -0.039587904 0.06064968 0.02145217 -0.07338355 0.075958684
-0.06694557 0.032767512 0.043451652 -0.06639906 -0.027448177 -0.03043817 -0.038840648 -0.03606268
0.06671041 0.010239475 -0.05479557 0.04135611 -0.01669328 0.0034320103 0.075747 -0.040945593
-0.036890555 -0.027185494 0.012234725 -0.058114544 -0.06541975 -0.07280637 -0.056065854 -0.069247104
-0.045276858 0.032118823 -0.04970041 -0.009271934 0.0019265413 -0.024228573 -0.034806542 -0.05300616
-0.004199438 -0.0066198856 -0.018217493 -0.048972443 -0.01968444 0.03306953 0.00041672456 -0.0035471746
0.037860416 0.007423737 -0.068461046 -0.022052146 -0.025615955 0.03685046 -0.008549163 0.025315963
0.02865312 -0.060358327 0.043281134 0.00364199 0.05572131 0.010227437 -0.061183285 -0.0369915
-0.020862 0.052954234 0.015795449 -0.062380042 0.0047743577 0.009321799 0.020305313 0.038306862
0.028818129 -0.028181804 0.023175882 0.00892187 -0.03037525 0.0051470096 0.0112723345 -0.034442287
0.020621821 0.04482701 0.041114468 0.01533219 0.004395535 -0.05823588 -0.022802139 -0.045076706
-0.0007709 -0.036888774 -0.039782483 -0.061163098 0.008169361 0.0039625815 -0.068658166 -0.008083337
00000000: f1ad 57bc 20da 383d 4371 8bbc 6c30 a23d
00000010: 52b8 c5bc b9f4 29bd 6937 84bd 6d1f 4dbd
00000020: 7637 3abd a26f 53bd 1c46 c4bc 62f8 4e3c
00000030: 8d3e 193d 93ad 0dbd 8924 033d 0f09 e4bb
00000040: fcb5 8fbc 5127 87bd d6ba 00bd 320e 7cbd
00000050: 2ff9 983a f9a4 59bd 9e2e 4ebd fb4a 60bd
00000060: 18d8 813d eb0f 103d c27a ee3c 1085 33bd
00000070: 535e cc3b b796 253c 8200 8ebd ffd9 d53c
00000080: 3711 abbd 5485 25bc b9f9 413d 30c1 e6bb
00000090: 2f41 ad3b 7f90 a63c bdc5 81bd 890a 14bd
000000a0: b8d6 5ebd 2a8e 203d f199 cbbc 4f2b da3c
000000b0: 6dce 08bd e778 37bc 50e9 fb3c db1f e6bc
000000c0: b60b 41bc fcc8 e5bc 6b75 7c3c 5652 6fbd
000000d0: e252 9c3c 9094 533c 314e 003d 24b9 a9bc
000000e0: e273 7f3c 36d7 843c 2978 68bd b7f2 babc
000000f0: 0b07 48bd f4c3 1d3c 303a 1dbd 7029 a13c
00000100: 7535 a83d 8236 233d bf16 443b ba5b 08bd
00000110: 9d2f 2dbd befa 903a 09f5 d8bb 70df 40bc
00000120: 7b10 223c e14b 0c3d d7e3 b63c 4f3a cb3c
00000130: 7815 a43c 8537 f73c d035 1fbd 0bb7 463d
00000140: 27ee cbbc b5de 36bc 9b1c ad3c 5550 04bd
00000150: 0d98 9a3d 672f 4cbc a847 4bbc e4ed f4bc
00000160: 4a0d 8e3c fd1c bbbc 0e85 543a e8c6 e9bc
00000170: 4527 ebbb fcb4 023d 8603 94bd ca9b 0c3d
00000180: d6ca 9f3c 47bb e23c a9e4 813d ea1c adbc
00000190: b252 ecbc b62d b7ba a9d0 313d 88e8 3c3a
000001a0: ad46 88bc 577c 13bd 8dfc 7dbc 5202 17bc
000001b0: b6e9 9abc 016c 603d 55cb 71bd f82c 30bc
000001c0: 49f2 0f3a cd2f 873d fe98 fc3c a732 993d
000001d0: 2e7c 443d 756f 88bc 54aa 1e3d edba 40bd
000001e0: 47b8 b6bc 0609 e4bc 17f4 67bc 78fc fdbc
000001f0: 70ef 15bd 2d9e b0bd c45b 6cbd f767 54bd
00000200: e4db 6fbd 588e afbc 0baa cabb 7500 523c
00000210: 1c58 a73c 5743 423d 923e 4fbc 0d9e f3bc
00000220: d421 88bc a654 e5bc 9bfc 443d c7b5 2f3c
00000230: 2685 053c 76de 4abc ef17 91bd d178 05bd
00000240: ed5c 32bc 6c38 05bb 095e 013d 3644 6fbd
00000250: 520e 1e3c 5326 d33c cbe2 bd3c b1a0 b2bd
00000260: bba8 153c 37df 14bd e23d a73c 0ac3 7cbc
00000270: fe71 c33c 008d f7bc 580d 1cbc d884 68bd
00000280: 7c33 2f3d bc77 63bd 25a5 813c ed26 22bd
00000290: cd6b 783d 76bc af3c 1d4a 96bd 3a90 9b3d
000002a0: c21a 89bd 3a37 063d 5cfa 313d 3bfc 87bd
000002b0: 00db e0bc 7859 f9bc 5f17 1fbd 76b6 13bd
000002c0: 789f 883d 79c3 273c 5271 60bd 0665 293d
000002d0: 58c0 88bc 94eb 603b 3e21 9b3d 91b6 27bd
000002e0: 8d1a 17bd 1db4 debc 2874 483c 8409 6ebd
000002f0: cafa 85bd 821b 95bd 4fa5 65bd 6dd1 8dbd
00000300: 3a74 39bd 078f 033d a892 4bbd 4fe9 17bc
00000310: 0084 fc3a 007b c6bc 4e91 0ebd fd1c 59bd
00000320: 709b 89bb a0eb d8bb da3c 95bc 5497 48bd
00000330: 4341 a1bc ea73 073d d37b da39 b777 68bb
00000340: 8613 1b3d d242 f33b 4e35 8cbd b4a6 b4bc
00000350: 8dd8 d1bc 82f0 163d ca11 0cbc 6c63 cf3c
00000360: f3b9 ea3c 4b3a 77bd 8f47 313d 74ae 6e3b
00000370: 073c 643d fb90 273c 539b 7abd 6684 17bd
00000380: c9e6 aabc 8ae6 583d 7565 813c 3782 7fbd
00000390: 3772 9c3b 75ba 183c 5457 a63c a8e7 1c3d
000003a0: ff13 ec3c 87dd e6bc 59db bd3c 092d 123c
000003b0: 84d5 f8bc 3fa8 a83b 99af 383c 5b13 0dbd
000003c0: 18ef a83c 879c 373d a567 283d de33 7b3c
000003d0: 6c08 903b bf88 6ebd 8dcb babc 5aa2 38bd
000003e0: 3916 4aba af18 17bd f5f2 22bd 2886 7abd
000003f0: c9d8 053c 8bd8 813b a79c 8cbd f96f 04bc

actor.4.weight f4 [2, 256]
-0.044041894 0.08871586 -0.040324803 0.07381363 -0.028213073 -0.05545104 0.048073467 -0.03293023
-0.054509986 0.043166883 0.098337516 0.023195237 0.046964824 0.039131112 0.039645035 0.09590094
-1.7229282e-06 0.0022060578 0.027837489 -0.02037265 -0.024379961 -0.036022194 -0.01855132 0.048586234
-0.048594877 0.027761012 -0.096331656 0.06403301 -0.026488876 -0.051684782 0.016866557 -0.01888335
-0.04510942 0.027123557 -0.030346183 -0.0005869879 0.030760549 0.011808371 0.009098883 0.029840196
-0.04639089 -0.047084644 -0.034681454 0.068024196 -0.00430736 0.010130779 0.002805657 0.013153478
-0.02666751 -0.04586262 -0.025883917 0.013826694 -0.041248202 0.016304972 -0.054503363 0.01522459
-0.030218758 0.06834695 0.02985261 0.028440258 0.06900339 0.0117725935 -0.022072678 -0.03030399
0.13590069 -0.061085507 0.017624862 -0.037797213 0.08287843 0.089605816 0.015673501 -0.0016819002
-0.048939236 0.03573107 -0.02970076 -0.033342753 0.021552693 -0.054323904 -0.06600032 -0.035391834
-0.013254509 -0.0018053768 0.10077583 0.0039695636 0.009033925 0.038912017 -0.03146571 0.0038933342
-0.02900755 0.047315657 0.070831664 0.058874775 0.0065157074 0.051434934 -0.04564296 -0.05398398
0.007179146 0.025398344 0.029819896 0.057201467 -0.041741833 0.061516613 -0.016919004 0.037908394
-0.07080411 -0.008742844 0.015780281 0.054789137 -0.018879134 -0.0118116755 0.033095375 0.004144378
0.045188304 -0.045686454 -0.037753288 0.09453087 0.11170169 0.028226066 -0.041177522 0.094003886
-0.029800475 0.0260913 -0.03423651 0.1004216 -0.00256563 0.06790549 0.014516489 0.048526827
0.042071216 -0.017974962 -0.03940178 -0.027916027 0.010903377 0.11360405 -0.045521457 0.012011766
-0.014415228 0.024105184 0.05341986 0.014135026 0.006776337 0.05905334 -0.021401746 -0.023317924
0.008222751 -0.035802662 0.084111325 -0.056664623 0.026892103 -0.04734812 -0.026180703 0.025609137
-0.0026649851 0.07608255 0.094190046 -0.07331721 0.02848482 -0.01376719 0.0005564476 -0.0021133495
-0.044939466 0.018600075 0.01145316 -0.0049750656 -0.0043604677 0.001982786 0.03547599 0.05694818
-0.031077554 0.038534362 0.05456267 0.012876676 -0.0033877476 -0.025367131 0.038325485 0.024739683
0.01290767 -0.05639964 0.025976209 0.0317074 0.01947503 0.05807344 0.05395682 -0.033729646
-0.078552224 -0.04693903 -0.0036190394 0.0059393463 -0.051742557 -0.063056536 0.13926597 0.017786674
0.06526646 0.05220387 -0.011123328 -0.03226071 0.05838848 0.04567659 -0.017577598 0.037966367
-0.042941615 -0.0036670242 -0.029756937 0.03187065 0.04073281 0.043852925 -0.036779985 0.1308523
-0.005519507 0.03303016 0.002288774 -0.048828274 0.024446897 -0.032271497 -0.051646136 -0.046625696
0.020996517 -0.016340805 0.008123064 -0.0146179125 -0.028436631 -0.022953426 0.07116431 -0.0021371911
-0.048116606 -0.03731582 0.060140774 0.0031747501 0.037917316 0.1220558 0.044964835 -0.014552295
0.0068895794 0.13040629 -0.071498364 -0.022011114 -0.005539386 0.015509058 -0.036024038 -0.026870364
0.03430252 -0.012809858 -0.029854037 -0.0002524423 -0.0681312 -0.02463373 0.03872476 -0.05051921
0.06398116 -0.06992925 -0.07109648 0.018933386 0.07119406 -0.08710415 0.009195739 0.014378647
00000000: 4665 34bd a9b0 b53d 9f2b 25bd 9a2b 973d
00000010: 1a1f e7bc a120 63bd afe8 443d d9e1 06bd
00000020: dd45 5fbd c2cf 303d 2e65 c93d f003 be3c
00000030: 305e 403d f247 203d d562 223d b667 c43d
00000040: 5d3f e7b5 8293 103b 720b e43c 8be4 a6bc
00000050: 7cb8 c7bc 028c 13bd f0f8 97bc 5c02 473d
00000060: 6c0b 47bd 106b e33c 8849 c5bd bd23 833d
00000070: 33ff d8bc 6cb3 53bd bc2b 8a3c 41b1 9abc
00000080: a8c4 38bd 3932 de3c 8f98 f8bc 17e0 19ba
00000090: 8cfd fb3c e677 413c 7b13 153c 6d73 f43c
000000a0: 6004 3ebd d4db 40bd 240e 0ebd 4550 8b3d
000000b0: c124 8dbb 91fb 253c 1ddf 373b af81 573c
000000c0: d275 dabc 71da 3bbd 820a d4bc 5c89 623c
000000d0: e0f3 28bd 0192 853c eb3e 5fbd 8f70 793c
000000e0: 548d f7bc 7cf9 8b3d 768d f43c 8bfb e83c
000000f0: a651 8d3d d6e1 403c c3d1 b4bc 1340 f8bc
00000100: 8d29 0b3e cc34 7abd 0462 903c 40d1 1abd
00000110: 2bbc a93d 4183 b73d b765 803c 3573 dcba
00000120: 8274 48bd be5a 123d 024f f3bc 6992 08bd
00000130: 468f b03c be82 5ebd 2d2b 87bd 07f7 10bd
00000140: 7129 59bc 65a2 ecba 8f63 ce3d 1d13 823b
00000150: 0703 143c 3562 1f3d 30e2 00bd 4f27 7f3b
00000160: 3ea1 edbc 10ce 413d 3110 913d ad26 713d
00000170: b781 d53b 70ad 523d 1df4 3abd 4e1e 5dbd
00000180: 0b3f eb3b 3010 d03c db48 f43c 164c 6a3d
00000190: 7cf9 2abd d8f8 7b3d b999 8abc d545 1b3d
000001a0: bf01 91bd 253e 0fbc a645 813c 936a 603d
000001b0: 6aa8 9abc c285 41bc 048f 073d 90cd 873b
000001c0: 5f17 393d b821 3bbd 31a3 1abd 6799 c13d
000001d0: dbc3 e43d 5a3a e73c c3a9 28bd 1c85 c03d
000001e0: 2020 f4bc 6cbd d53c 953b 0cbd d7a9 cd3d
000001f0: 2124 28bb 0912 8b3d 91d6 6d3c 11c4 463d
00000200: de52 2c3d 3a40 93bc c363 21bd 27b0 e4bc
00000210: 14a4 323c 3da9 e83d b574 3abd 00cd 443c
00000220: d92d 6cbc 3c78 c53c c8ce 5a3d 9996 673c
00000230: 090c de3b eae1 713d b752 afbc 3b05 bfbc
00000240: b8b8 063c d0a5 12bd 8f42 ac3d 2a19 68bd
00000250: d44c dc3c 1af0 41bd ea78 d6bc 41ca d13c
00000260: 08a7 2ebb 2bd1 9b3d b6e6 c03d 5527 96bd
00000270: ff58 e93c c88f 61bc 91de 113a 1f80 0abb
00000280: 7212 38bd 2f5f 983c 09a6 3b3c e005 a3bb
00000290: 41e2 8ebb a1f1 013b 464f 113d 7f42 693d
000002a0: 5b96 febc 35d6 1d3d 1b7d 5f3d b2f8 523c
000002b0: f904 5ebb bbce cfbc 2ffb 1c3d e0aa ca3c
000002c0: b17a 533c 4f03 67bd 0fcc d43c 9edf 013d
000002d0: 198a 9f3c 6ade 6d3d d401 5d3d 1928 0abd
000002e0: fddf a0bd 2443 40bd 682d 6dbb d99e c23b
000002f0: 01f0 53bd c923 81bd bd9b 0e3e 5cb5 913c
00000300: 6caa 853d bad3 553d 9e3e 36bc ce23 04bd
00000310: c228 6f3d 6017 3b3d e5fe 8fbc 9f82 1b3d
00000320: 8ce3 2fbd 7552 70bb d2c4 f3bc cc8a 023d
00000330: 72d7 263d 209f 333d 9ca6 16bd 25fe 053e
00000340: fbdc b4bb a24a 073d 41ff 153b 2800 48bd
00000350: dc44 c83c 1e2f 04bd e68a 53bd 96fa 3ebd
00000360: e300 ac3c 27dd 85bc 9a16 053c f87f 6fbc
00000370: f0f3 e8bc d308 bcbc 98be 913d 1e10 0cbb
00000380: eb15 45bd 79d8 18bd 2c56 763d 780f 503b
00000390: 304f 1b3d 64f8 f93d 0c2d 383d c06c 6ebc
000003a0: fbc1 e13b 3a89 053e bc6d 92bd a750 b4bc
000003b0: bd83 b5bb b419 7e3c f18d 13bd 3d1f dcbc
000003c0: cd80 0c3d 70e0 51bc 7490 f4bc 3b5a 84b9
000003d0: 5f88 8bbd adcc c9bc db9d 1e3d 3bed 4ebd
000003e0: 8e08 833d 1137 8fbd 089b 91bd 301a 9b3c
000003f0: 31ce 913d a963 b2bd baa9 163c 6b94 6b3c

actor.4.bias f4 [2]
0.0032838804 -0.05103829
00000000: 5f36 573b 870d 51bd
