projects/codes/PPO/outputs/CartPole-v0/20220731-233512/models/ppo_critic.pt (torch, 271255 bytes, 5 tensors)

critic.0.weight f4 [256, 4]
000000 e4 67 26 be cf 33 b0 3e 8e 95 b9 3e 79 d4 d1 3c
       -0.16250569 0.34414527 0.36246914 0.02561401
000010 7c fc 7c 3e f1 24 0b 3f 17 fb 44 3f d8 b0 bc 3e
       0.2470569 0.54353243 0.7694563 0.3685367
000020 c5 5e ff bd 3e 11 37 be 7b 7f f9 be f3 62 14 be
       -0.12469248 -0.17877671 -0.48730072 -0.14490871
000030 b9 a5 36 bf 2b f5 8e 3e bc 85 3b be b8 97 80 3e
       -0.7134662 0.27921423 -0.18312734 0.25115752
000040 de dd 97 3c e6 97 a4 3d 45 18 16 3e 78 e1 2d 3d
       0.018538412 0.08036785 0.14657696 0.042451352
000050 1f d7 db 3d 36 14 d2 3d f5 eb 68 3f c4 b4 ab 3e
       0.107343905 0.10257761 0.9098504 0.3353635
000060 57 d5 91 be 5f 16 44 3c c5 d3 db bc 50 22 e6 be
       -0.28483078 0.011968224 -0.026834378 -0.44948053
000070 ac 05 7b 3e 7f 3a b8 be d1 b3 b7 3d 84 1b 4b bd
       0.24513882 -0.3598213 0.08969844 -0.049586788
000080 39 05 9c be 39 2e ab 3e 87 67 18 3e 0c 35 c2 bd
       -0.30472735 0.33433703 0.14883243 -0.09482774
000090 6b 36 8e be 15 db 55 be 8c b7 96 3e ab db e6 bc
       -0.27775893 -0.20884354 0.2943691 -0.028180918
0000a0 55 b1 c4 3e 98 b1 62 be b2 85 55 be f7 ef 77 be
       0.38416544 -0.22138059 -0.20851782 -0.24212633
0000b0 27 35 47 3f 9c 1c 9c 3e f7 49 d8 3e a0 b0 8a 3e
       0.7781548 0.30490577 0.4224393 0.2708788
0000c0 05 ed 19 3e cb 75 0b bf b7 de e2 3e 7a 1c d6 3e
       0.15031822 -0.5447661 0.44310543 0.418186
0000d0 ca 40 f3 bc 39 f5 6b be ea 70 3c bf 59 81 7e bd
       -0.02969398 -0.23042764 -0.73609793 -0.062135074
0000e0 b4 c9 14 3e 4f 84 a8 3e 9e cd b4 be d1 ea 91 3e
       0.14530069 0.32913443 -0.35313123 0.28499463
0000f0 82 52 05 3f a0 53 1c 3f 65 62 6f 3f d6 0f c5 3e
       0.5207902 0.610651 0.93509513 0.38488644
000100 cf ec b6 3e d0 26 f9 bd 01 72 e9 be 48 2c 81 be
       0.35727546 -0.12165606 -0.4559479 -0.25229096
000110 b5 6d 11 bf 2b a2 71 bd 69 75 84 bf 66 1a f8 bd
       -0.56808025 -0.058992546 -1.0348331 -0.1211441
000120 b6 8c 79 be 60 6e b7 bd 14 d3 b6 be 98 41 63 3e
       -0.24370083 -0.08956599 -0.35707915 0.22192991
000130 63 a0 c3 be c2 c5 b0 bd fa 62 70 3e a3 1f 31 be
       -0.38208303 -0.08631469 0.23475257 -0.17297225
000140 fe 1f b7 be 59 8f d2 3e 79 37 5c 3e bf 52 c7 3e
       -0.35766596 0.4112499 0.21505536 0.38930318
000150 23 fc 9e bd c6 a9 8f be 0e ed 49 3e 4d d6 12 bd
       -0.07762935 -0.28059214 0.19719335 -0.035848904
000160 66 d5 bd be 58 48 c2 3e 28 fd 01 3f 33 a5 13 3e
       -0.37076873 0.3794582 0.5077691 0.14418487
000170 79 14 c3 bd f7 54 45 bd 1b 5e 71 3e bd f6 74 3d
       -0.09525389 -0.048176732 0.23571055 0.05980562
000180 49 64 7a 3e 23 f7 10 be 75 bb 1b 3f a4 60 13 3e
       0.24452318 -0.14156775 0.6083291 0.14392334
000190 1f b6 90 3e 90 08 2f be 0a 79 63 3e fc 8f d6 bc
       0.28263947 -0.1709311 0.22214141 -0.026191704
0001a0 45 5a 54 39 53 f3 af bc e0 89 81 3d 1c 52 33 3d
       0.00020251524 -0.02147833 0.06325126 0.043779477
0001b0 35 ac 28 be 1c 78 8d be cc f0 3e be f1 1d 37 be
       -0.16471942 -0.276307 -0.18646544 -0.17882515
0001c0 03 20 ac 3e 58 73 4f 3e 10 46 7c 3f 27 d3 2e 3e
       0.33618173 0.20258844 0.98544407 0.17072736
0001d0 8c 21 46 bf 5a ab 08 bf 18 c5 45 bf 5f 2f dc be
       -0.7739494 -0.5338646 -0.77253866 -0.4300489
0001e0 ec b4 35 3e 1e e8 b2 3e 5e d6 ab 3e 6b a8 6d 3e
       0.17744797 0.34942716 0.33561987 0.23208778
0001f0 84 a1 14 bf ef 7e 23 3e bc d5 dd 3e f7 a9 a3 3e
       -0.58058953 0.1596639 0.4332713 0.3196561
000200 71 86 2e bf eb 09 29 3e bf f1 42 be a0 b5 41 3d
       -0.6817389 0.1650769 -0.19037531 0.04729235
000210 54 92 32 bf 8f eb 01 bd eb 4c 10 bf 66 a4 65 bc
       -0.6975453 -0.031718787 -0.5636737 -0.014016246
000220 58 20 5a 3e 6e 9f 99 be 01 78 b3 be 52 97 86 be
       0.213014 -0.30004448 -0.35052493 -0.26287323
000230 6c da aa 3d 11 8b 8f bd 21 39 53 bf 06 e1 bb bd
       0.08342442 -0.07008947 -0.82509047 -0.09173779
000240 51 a4 5a be c7 48 11 bf 89 90 36 bf 35 5d d7 be
       -0.21351744 -0.56751674 -0.71314293 -0.420633
000250 cc 4a 73 3e f7 9f ef 3e 50 26 5f 3f 53 06 9e 3e
       0.23759001 0.4680173 0.87167835 0.308642
000260 be bd e5 3d f6 f3 c6 be 88 17 b9 3e 6e a1 cf 3e
       0.11217831 -0.38858002 0.36150765 0.4055285
000270 f4 e1 20 bf de 98 8b be 34 3f 1f be 39 f2 4e 3e
       -0.6284478 -0.27265066 -0.15551454 0.20209588
000280 a0 6d af 3c 8c 5c a9 3e 64 67 7e 3e 13 a8 ba 3c
       0.021414578 0.3307842 0.24844128 0.022785222
000290 ca bc 87 be eb 71 cf be 66 83 0b bf b6 d7 9e bd
       -0.26511222 -0.405166 -0.54497373 -0.07755987
0002a0 89 13 1b 3d 66 c4 df 3b bb cf 0d 3f c8 62 0d bd
       0.037860427 0.0068288324 0.55395097 -0.034518033
0002b0 41 6f ff bd 0a e5 cf 3e f7 64 9c be 4d 57 99 3e
       -0.12472392 0.4060443 -0.3054578 0.29949418
0002c0 db d3 26 3f 8a dc 8d 3e ff 27 d7 be b5 a0 a2 be
       0.65167016 0.2770732 -0.42022702 -0.31763235
0002d0 18 7c b4 3d 52 a1 e0 3d df c2 71 be 00 aa cc 3d
       0.088127315 0.109682694 -0.23609494 0.099933624
0002e0 2e 94 88 3e a6 9c 0b 3f db 0d ce 3e b2 a6 aa 3e
       0.26675552 0.545359 0.40244946 0.33330303
0002f0 1a b4 d1 bd 1c b5 78 be c5 e1 c9 be 5d e5 82 bc
       -0.1023943 -0.24287838 -0.3943006 -0.01597851
000300 98 14 8e 3e 21 ab e4 3d 14 e3 f6 bd bf ba 94 be
       0.27750087 0.11165453 -0.120550305 -0.29048726
000310 04 cd 70 be b5 62 a0 3e af b7 52 3f e2 cb 98 3e
       -0.23515707 0.31325307 0.8231153 0.2984305
000320 d0 b8 c7 be 89 44 bb be 0f 1e fb bd 72 73 fa be
       -0.39008188 -0.36575726 -0.122615926 -0.48916203
000330 8f 58 cd 3d 72 36 27 3f 69 c6 45 3f 79 76 91 3e
       0.10026657 0.6531745 0.77255875 0.284107
000340 e5 be 79 3e 1e 6f ec 3c 4c 90 fd bd cb 17 df 3e
       0.24389227 0.028861579 -0.12381038 0.4357284
000350 72 aa f9 3d cb 4d 04 3e 1a 4a 13 3f 83 29 f0 3e
       0.12190713 0.129203 0.57534945 0.4690667
000360 05 bc cc 3d b3 f4 58 3e a1 a9 3c bd dc 38 bf 3d
       0.099967994 0.21187095 -0.04606021 0.09337017
000370 f3 72 60 3e f5 12 a8 bc 3f c1 ca be 20 8d 34 3e
       0.2191885 -0.020516852 -0.3960056 0.1763196
000380 d8 be a8 3d 6f 9a 71 3d 7d a2 7f 3e 61 90 c1 3e
       0.082395256 0.05898517 0.24964328 0.37805465
000390 38 9d 90 be 92 96 13 be 1f f4 d6 be 9c d8 46 be
       -0.28244948 -0.14412907 -0.41983125 -0.19418567
0003a0 12 15 a8 3e 42 4c e1 bd b5 dd 97 be 6b 58 21 bc
       0.32828575 -0.11000873 -0.29661337 -0.009847741
0003b0 0e 97 17 be 9f 61 e6 3d be 14 4e be ae e2 9e 3e
       -0.14803717 0.112490885 -0.201251 0.31032318
0003c0 2e 1c e5 be 95 4e ab be 7a d7 97 be 55 99 92 be
       -0.44748062 -0.3345839 -0.29656583 -0.28632608
0003d0 8e 20 0f be aa 6f bb 3c cd ae c7 3e c3 1a 4e be
       -0.13977262 0.022880394 0.3900055 -0.20127396
0003e0 65 27 0b bf df 52 69 be de 34 60 3e e7 6c b8 3e
       -0.54356986 -0.22785519 0.21895167 0.36020586
0003f0 1b d7 8e bd ed fe ac be 24 e8 f4 be bf b9 7b be
       -0.06974622 -0.33788243 -0.4783336 -0.24582575

critic.0.bias f4 [256]
000000 15 1b 16 3d 28 5d ee bd c0 21 10 3e 92 5f 43 bd
       0.03664692 -0.11638862 0.14075375 -0.047698565
000010 73 9e e3 3d b5 37 13 be 93 25 b9 be 8b ab a8 3e
       0.11114206 -0.1437672 -0.3616148 0.32943377
000020 0c a6 42 bd b9 b3 9c 3e 8c d3 da be c2 d6 b0 bd
       -0.047521636 0.30605868 -0.42739522 -0.08634712
000030 82 05 a6 be 76 5e 14 3d b9 f5 90 3e 1f b1 1f be
       -0.32426077 0.036222897 0.28312472 -0.1559491
000040 c3 89 17 3f 75 95 90 bd 62 ab ac be 5e b9 bd 3e
       0.5919458 -0.07059757 -0.33724505 0.37055486
000050 df cc be 3e 21 85 0d be 2b e4 05 3f b6 37 ae 3e
       0.3726568 -0.13820316 0.5230128 0.3402688
000060 86 d3 73 be e8 cc 14 3f 70 56 d0 3e e0 32 b4 bb
       -0.23811159 0.5812516 0.40690947 -0.005499229
000070 d0 87 a5 bd ad b4 b8 bc 5e d2 d6 3d b1 f6 92 bd
       -0.08082545 -0.02254709 0.10489343 -0.07175959
000080 31 91 c6 bd a7 8b 04 be 5e af fa be 78 9f d6 bd
       -0.09695662 -0.12943898 -0.4896192 -0.10479635
000090 c9 4d 16 3a ec bb d7 bd 6a 9f a9 be d7 0a 8f be
       0.0005733637 -0.1053389 -0.33129436 -0.27937958
0000a0 6b 12 16 3f 41 29 03 3f 02 e4 55 3d f8 00 b2 3e
       0.58621854 0.51234823 0.0522194 0.34766364
0000b0 df 6d c2 be 7f f3 8b 3e cb 05 0f be 5b ed bd 3d
       -0.3797445 0.2733421 -0.13967054 0.092737876
0000c0 aa d5 a9 be df f4 61 bd fe 7a 0f 3f 1f fb 34 be
       -0.33170825 -0.055165168 0.56047046 -0.1767392
0000d0 40 a1 d9 be a1 77 9a be b8 f4 54 3e db c8 cc 3e
       -0.42505836 -0.30169395 0.20796478 0.3999699
0000e0 c8 3e e6 3e 25 7b 58 3e 00 1b ee be ed 01 cd 3e
       0.44969773 0.21140726 -0.46504974 0.40040532
0000f0 0c 0a b7 bb 52 21 6a be 6d ff 30 be 23 32 0a 3f
       -0.0055859145 -0.22864273 -0.17284937 0.5398275
000100 54 37 57 be f5 1f 1d 3f f6 c6 68 3e 45 27 ec bd
       -0.210172 0.6137689 0.22732148 -0.115309276
000110 9f 6e d0 3e bf b8 78 3e 12 95 a6 be 7e d9 97 3e
       0.40709397 0.24289225 -0.32535607 0.2965812
000120 42 44 98 bd a2 33 66 be d4 10 1e be c0 4f d2 bc
       -0.07434894 -0.22480634 -0.15436107 -0.025672793
000130 5b 6e 0c 3f e8 6a 05 3f 29 8f 0e be b8 1c d9 be
       0.5485589 0.5211625 -0.13921799 -0.42404723
000140 57 51 3a 3d 9d 83 03 3f ac 37 db bd da 9d 06 3f
       0.045487728 0.513727 -0.10703978 0.5258461
000150 df ce 9f be c1 b1 34 be 43 98 0e 3f 6d d9 ad 3e
       -0.31212518 -0.17645933 0.5570108 0.33954945
000160 44 ee 14 be 13 07 01 3f 85 f7 9f 3e f7 08 81 3e
       -0.14544016 0.5040142 0.3124353 0.25202152
000170 c9 b6 10 3e cd 12 c9 3e 7a 47 a9 bd f0 5c 27 bd
       0.14132227 0.39272156 -0.08265586 -0.040860116
000180 33 12 b1 3e c1 97 5f 3e a3 b1 4d 3e bc 07 9a 3e
       0.34584197 0.21835233 0.20087294 0.30084026
000190 80 0d b7 3c 0f f8 e3 3e 21 c4 07 3f b0 35 d3 bc
       0.022345304 0.4452519 0.53033644 -0.025782436
0001a0 86 35 e5 bd eb 51 2b 3e dd 52 d7 3e 3c 3a 6a bc
       -0.111918494 0.16730468 0.42055407 -0.014296111
0001b0 3f 47 7d 3e c6 98 c2 be b7 ad 63 bd 4a 06 5b 3e
       0.2473421 -0.38007182 -0.05558559 0.21389118
0001c0 91 15 dc bd 1f 67 89 be fc 6f 8a 3b 47 8a f2 3e
       -0.10746301 -0.26836488 0.0042247754 0.47371122
0001d0 78 b5 8e 3e fb da 8f 3e 0d 38 0c 3f 53 f2 e3 bc
       0.27872825 0.28096756 0.54773027 -0.02782551
0001e0 2f 9b 85 3e 84 99 ef 3e ba a8 f6 3e 36 d4 e7 3e
       0.26094958 0.4679681 0.48175603 0.45279092
0001f0 4b 33 1a be b7 e7 fc 3e b3 96 76 3e c7 e8 5a bd
       -0.15058629 0.49395534 0.24080925 -0.05344465
000200 10 db f6 3e 6d ea 83 bd e4 27 a0 bd a4 f2 26 bd
       0.48214006 -0.064411975 -0.078201085 -0.040758744
000210 44 f8 80 3e e9 94 fa 3e ba 69 b8 be 67 c4 d1 be
       0.25189412 0.48941734 -0.36018163 -0.40970156
000220 d3 36 d1 bd 32 66 10 3f b8 6e 92 3e ae e0 bf 3e
       -0.10215535 0.5640594 0.28600097 0.37476104
000230 51 0c 80 bd 09 9e 45 3d fc ba 87 be df 90 3a 3e
       -0.06252349 0.048246417 -0.26509845 0.18219326
000240 4b 0a 0f be 7a 9b 9f 3e ec 68 75 be c3 bc f3 3e
       -0.1396877 0.31173307 -0.23965806 0.4760495
000250 f9 c0 3e bd e9 89 35 bd 15 bb 7e 3e 1f ef 5a be
       -0.04657075 -0.044320974 0.24876054 -0.2138028
000260 a2 30 3a 3e a6 65 1a bd a8 78 87 3e 8c c9 07 3f
       0.18182614 -0.037694596 0.2645924 0.5304191
000270 1d 59 d6 3e 63 c1 e9 be 13 90 6e 3e 97 22 63 bd
       0.41864863 -0.45655355 0.23297147 -0.05545291
000280 c7 71 d9 bd 85 3f 20 3e e4 43 72 be 63 e5 98 3e
       -0.106174044 0.15649231 -0.2365871 0.29862508
000290 19 58 cc 3e c5 34 cc be a7 5e de 3e 71 8e 01 bd
       0.39910963 -0.3988401 0.4343159 -0.031629983
0002a0 ab f4 95 be 84 b8 ed bd d1 60 28 bd a8 53 dd bd
       -0.2928823 -0.11607459 -0.041107956 -0.10806972
0002b0 dc d1 06 bc 14 6f 37 be 1f 26 ed 3e d5 dd 8c 3e
       -0.008228745 -0.17913467 0.46318147 0.27512994
0002c0 3f 69 07 bd 14 c5 92 be 29 27 a7 3e 91 92 be 3e
       -0.033059355 -0.28665984 0.32647064 0.37221196
0002d0 ce bd bc 3e 9b ce 98 bd 49 9d 84 be 3e 0a cf 3e
       0.3686356 -0.07461282 -0.2590125 0.40437502
0002e0 e8 61 47 be 43 53 e5 be e9 73 cf 3e 82 e6 4e bd
       -0.19470942 -0.44790086 0.4051812 -0.050512798
0002f0 a3 15 5c bd cc e3 e4 3e 5b 65 64 be 4a a4 1e 3f
       -0.053731572 0.44705045 -0.22304289 0.61969435
000300 ff e9 e3 3e 13 05 d8 3e a8 2b ae 3e 1f 80 e4 be
       0.44514462 0.4219137 0.34017682 -0.44629
000310 3d 8b 09 be 9f 41 08 be 44 fe fd 3e f6 fb 96 bd
       -0.13432021 -0.13306282 0.49608052 -0.073722765
000320 2b 07 1b 3e b1 89 83 3e c7 3c b7 3e 8e cc 48 bd
       0.15139453 0.25690988 0.35788557 -0.049023204
000330 30 1d c3 3e de 61 e4 bc 62 42 8c be 49 f1 82 be
       0.38108206 -0.027878698 -0.27394396 -0.2557471
000340 d4 4b ec be 47 6d 95 3e 38 9b 57 bd e2 54 d0 be
       -0.46151602 0.29184934 -0.052638263 -0.4068976
000350 9d 43 a8 be a3 58 ab 3e fb e2 fb bc e7 72 a0 be
       -0.32864085 0.33466062 -0.030747881 -0.31337664
000360 3c 93 4a 3e f5 ca d7 3e 59 6c c7 be c1 2d bb 3e
       0.19782728 0.4214703 -0.3894985 0.36558345
000370 97 6d d6 3e 35 66 cb 3e 8a 6d fa 3e b0 e2 d4 bd
       0.41880485 0.39726415 0.48911697 -0.103948
000380 2f 9b ac 3e f6 e2 53 3e 2d c4 a7 bc 8e 44 96 3e
       0.33712146 0.20692047 -0.020479286 0.29349178
000390 41 dd 82 be 10 8b e8 3e c7 19 9e 3b fd df 8f 3e
       -0.25559428 0.45418596 0.0048248502 0.28100577
0003a0 80 f2 35 3e b8 b6 4b bd a6 3f 36 3e fa 59 00 3f
       0.17768288 -0.0497348 0.17797717 0.50137293
0003b0 8d 79 94 3e 23 b4 a0 ba 7d 23 48 bd 0b b0 0b 3f
       0.28998986 -0.0012260716 -0.04886197 0.54565495
0003c0 c5 6a bd bd ad 60 d8 bd 3a 9f 1e 3f 76 19 00 3f
       -0.0924888 -0.105653144 0.6196171 0.5003885
0003d0 03 c8 cb be a6 d2 a6 3e b6 f5 da bd 3d 0f 83 bc
       -0.39801034 0.32582587 -0.10691397 -0.015998477
0003e0 9d 15 1c bd 53 1e d5 3e 02 d5 07 3f d6 35 e0 ba
       -0.03810655 0.41624698 0.530594 -0.0017105888
0003f0 8c d3 eb 3e 42 13 e7 3e 2d 2f 1b be 46 7c 6c be
       0.46059835 0.4513188 -0.15154715 -0.23094282

critic.2.weight f4 [256, 256]
000000 97 6c 5b bd fa 7d 7f be e4 c6 87 3d 79 8c a0 be
       -0.053570356 -0.249504 0.06629732 -0.31357172
000010 f2 fc 74 bd eb df 2e be e0 a9 87 bb 2c 99 7d bc
       -0.05981154 -0.17077605 -0.0041401237 -0.015478414
000020 29 c3 5c bd 4b f7 cc bd 88 ee 2f bc f9 63 8b bc
       -0.053897057 -0.10008105 -0.010738023 -0.017015444
000030 82 e2 53 be e9 ca 0f 3d 24 36 ef bd cd b9 7f be
       -0.20691875 0.03510562 -0.116802484 -0.24973221
000040 b2 5a 3e 3d 9b a3 39 bd 2e e7 b2 bd d6 e7 c6 bd
       0.046473213 -0.045322042 -0.087355 -0.09712188
000050 02 cd 98 be 64 1f 89 be 05 a6 ce bd 66 e1 6b 3b
       -0.2984391 -0.26781762 -0.100902595 0.0035992502
000060 f0 bd 5d 3c f4 4e 3f bd ab 7c 66 bd 74 bf 7d bd
       0.013534054 -0.046706155 -0.056271236 -0.061950162
000070 d4 75 5f be a2 7d 24 bd 7d f0 bc bd aa a1 82 be
       -0.21822292 -0.040158875 -0.09225557 -0.25513965
000080 27 0d d2 bc 23 d0 44 be e0 db bb bc b5 ed 04 3e
       -0.025641037 -0.19220023 -0.022931993 0.12981303
000090 c6 3c 7d 3d 64 f5 97 be 9e 75 51 be 0a 29 7c be
       0.061825536 -0.29679406 -0.20455024 -0.2462503
0000a0 a8 a7 59 bb f2 e3 8b bd 29 48 8f bc 22 c3 db bc
       -0.0033211503 -0.068305865 -0.017490463 -0.026826445
0000b0 4f a2 43 bc b2 2f 53 bd 65 3f 5e be 16 a6 49 bd
       -0.011940553 -0.051559158 -0.2170387 -0.049230658
0000c0 29 12 a0 bd 8d 55 82 be 1e 64 24 3d 67 51 e1 bd
       -0.07815964 -0.25455895 0.04013454 -0.110018544
0000d0 99 b4 c8 bc e2 e2 3e bd 07 53 e2 bd b5 dd 9a 3d
       -0.024500178 -0.04660309 -0.110509925 0.075618185
0000e0 28 82 a2 bd ae 5a 81 3d c6 d4 2d 3d 9a cd ad bd
       -0.079349816 0.06316124 0.042439245 -0.08486481
0000f0 18 17 01 be 0f f7 83 3b 02 bb 6a be 2e b7 5a 3d
       -0.12606466 0.0040272544 -0.229229 0.05339735
000100 22 95 df 3d 8a b7 7b bd 93 f1 85 bd fa 90 43 3c
       0.10917117 -0.061454333 -0.06540217 0.011936421
000110 9e d6 06 3d 38 4e 33 3d 22 4a ef bc 3a d8 f7 bc
       0.03291952 0.043775767 -0.029210154 -0.030254472
000120 8e 6a 3c be a3 ea c7 3c f9 bd 81 be e1 b8 ad bd
       -0.18400022 0.024403876 -0.2534025 -0.084825285
000130 19 a2 c2 bd 0c bd a0 3c c9 4f 4a 3c e9 8b d2 bd
       -0.09503574 0.019621395 0.012348124 -0.10280592
000140 12 c7 7d be 3d 60 48 be 0f 13 2b be 2f 91 62 3d
       -0.2478297 -0.19567962 -0.16706489 0.05531424
000150 21 dd e9 bc c5 cb f1 bd 2c c1 c0 3b 91 7c 27 3d
       -0.028547825 -0.11806444 0.005882403 0.04089028
000160 70 1a 45 be c6 3f b1 3b 9a 9a 16 bd 6a d8 59 bd
       -0.19248366 0.0054092137 -0.036768533 -0.053184904
000170 5e b8 1f bd ee b7 87 bd 51 6c 3b bd ab a6 dc be
       -0.038994186 -0.06626879 -0.045757595 -0.43095908
000180 47 42 af bd 9b bd 89 bd cb a5 62 3d ca f9 f7 bd
       -0.08557563 -0.067256175 0.055333894 -0.1210819
000190 18 b0 6c bc 4d b4 6f bc 12 c3 cd bd 13 c5 f0 bd
       -0.014446281 -0.014630389 -0.10046972 -0.11756339
0001a0 6b 81 f1 bd 77 df fc 3c 41 45 5e bd a9 28 94 bd
       -0.11792263 0.030868275 -0.054265264 -0.07234318
0001b0 d3 4e 48 bd d1 61 d1 bd ea 1e 06 3e b6 1e b9 3c
       -0.048903298 -0.10223735 0.1309773 0.022597652
0001c0 68 6c 1d be a1 1a 97 bd 1a 4a 0c be dc fd 6b bd
       -0.15373385 -0.07378126 -0.13700143 -0.057615146
0001d0 03 98 13 3e a9 8b fd bc f5 a8 2d bd a9 34 21 3e
       0.14413457 -0.030950384 -0.042397458 0.15742745
0001e0 32 3d 85 be ba aa 1b be 14 03 ef 3d b3 35 b2 3d
       -0.2602325 -0.15201846 0.11670509 0.087016486
0001f0 38 1b 3e 3c 52 33 d4 bd c9 38 e7 3c 62 7f f4 3d
       0.011603169 -0.10361351 0.02822532 0.11938359
000200 c7 27 8f 3c 6e 31 ab bd 90 69 80 be 5e 07 80 bd
       0.017475022 -0.08359037 -0.25080538 -0.06251405
000210 63 f4 5b 3d 76 1f cf bc c0 e2 3c be e1 85 32 3d
       0.053699862 -0.025283556 -0.18445873 0.043584708
000220 4c 65 27 bc 29 94 01 bd 4f 78 63 3c 13 8c f4 3c
       -0.010217022 -0.031635437 0.013883664 0.029851949
000230 2e 3d 01 3e 08 43 ce bc 0a df 20 be fb b6 ca bd
       0.12620994 -0.025178447 -0.15710083 -0.09898182
000240 a1 4f 5d bd c1 8f 1c be c4 5b 0c be 48 14 82 3d
       -0.05403102 -0.15289213 -0.13706881 0.063515246
000250 8a 97 9a be 99 af 96 3d 0a 6a 0a be 23 d4 dd bc
       -0.3019374 0.07357711 -0.13517013 -0.027078694
000260 03 4d 8b bd 71 4c a3 be 6a 5f ba 3a 12 8e 11 3d
       -0.06801798 -0.31894258 0.001421911 0.03553588
000270 08 1d ad bc 2a c4 35 3d b7 12 0e be 1b 6c 93 3d
       -0.021132007 0.04437653 -0.13874327 0.07198354
000280 23 4e b2 bd 85 1b 58 bd cc 4d e8 bd bf 22 3d be
       -0.0870631 -0.05276062 -0.113429636 -0.18470286
000290 61 30 e9 bd 49 ed 6b bd 2b d8 1a bd 13 b6 55 3c
       -0.11386181 -0.05759934 -0.03780381 0.013043898
0002a0 c2 00 4d be 9c c5 56 be dc e3 56 be a7 fc 88 be
       -0.2001982 -0.2097382 -0.20985359 -0.26755258
0002b0 82 2a 20 be a2 ac ee 3c 56 07 36 3d 3d de ab 3d
       -0.15641215 0.029135052 0.04444059 0.08391998
0002c0 23 2c 82 be 93 0f 0f bd b9 b6 12 be bd 77 03 3c
       -0.254243 -0.034926962 -0.14327516 0.008024153
0002d0 e9 f5 5c 3c 34 d1 ac 3d 88 cc 03 3c fd 2b 96 3d
       0.013486364 0.0843834 0.0080443695 0.07332609
0002e0 3b 28 79 be 70 31 e0 bb 8e 81 f0 3b d7 f3 98 be
       -0.24331753 -0.006841831 0.007339663 -0.29873535
0002f0 ab a4 6c be fb 82 a2 3c 2c 54 80 be 00 84 91 bd
       -0.23109691 0.019837847 -0.25064218 -0.07105255
000300 96 18 07 bd 54 60 8e 3d d8 f2 0b bc 0f 8f f0 3c
       -0.03298243 0.06951967 -0.008541785 0.02936509
000310 60 1b c0 be 1d b4 44 be 18 96 2f 3d 29 d5 a7 3d
       -0.37520885 -0.19209333 0.04286775 0.08194954
000320 25 d2 25 bc db e7 69 be af eb 19 3d 2c 67 87 3c
       -0.010120903 -0.22842352 0.03757828 0.016528688
000330 81 87 af bc 76 3e a3 3d ad 78 34 3b 1c de ba bb
       -0.021426918 0.07970898 0.0027537749 -0.005702747
000340 8b 6d ad bd 7d d3 a1 3c ec 0b 9c be 76 a1 4c 3d
       -0.08468159 0.019754166 -0.30477846 0.04995867
000350 1c 7a 45 be 61 1f 21 be 5c a3 b3 bd 5f 44 ed bd
       -0.19284862 -0.15734626 -0.08771393 -0.115853064
000360 b1 a5 40 3d 20 df 44 bc a1 0b 7b 3c c6 42 3f bd
       0.047033016 -0.012016088 0.015322597 -0.04669454
000370 32 99 3c 3d 18 ec 80 3d 68 13 84 3d e5 62 05 be
       0.046044536 0.06295031 0.06449014 -0.13026007
000380 e7 12 cb bd d9 81 5d 3d 9f fe 86 3d 90 90 26 3d
       -0.09915715 0.05407891 0.06591534 0.04066521
000390 b9 98 d8 bd ff 4d e4 bc 12 6f e7 bd 1e 91 15 3d
       -0.105760045 -0.027869223 -0.11300482 0.036515348
0003a0 d7 80 82 be 49 f3 f7 bc ab 8c 2a 3d 74 17 c6 bc
       -0.25488922 -0.030267375 0.041638058 -0.024181105
0003b0 06 fa 84 bd 1c 48 0c bd 90 c7 5c be 33 57 a0 bc
       -0.06493001 -0.034248456 -0.21560502 -0.01957283
0003c0 df 30 1d 3e 92 95 1b 3d b4 06 b7 bc 82 4a b0 3d
       0.15350674 0.03798444 -0.022342063 0.08607961
0003d0 0d 75 d3 bc 4c 18 9d 3d e5 7a 9e bc 08 c8 ae 3b
       -0.02581265 0.0767065 -0.01934571 0.005333904
0003e0 7b 13 85 bc 87 2b 15 bd 13 b4 30 3c d0 ae ef bd
       -0.01624464 -0.036418464 0.010785121 -0.11703265
0003f0 d7 d7 69 3b 4e c2 41 bc f6 24 47 be 1a 1a 84 be
       0.003568163 -0.011826111 -0.19447693 -0.25801164

critic.2.bias f4 [256]
000000 7b f9 b6 3c bd fa ce 3c 1e 38 1c 3d 0b 56 b7 ba
       0.022335758 0.025266046 0.038139455 -0.0013987435
000010 bf cc 66 bd b1 95 e9 3d ee e1 d4 3c c9 e1 21 3e
       -0.056347605 0.114055045 0.025986638 0.15808786
000020 a4 16 eb 3d 4f 8b 74 bd bc 7b 2d 3c d6 20 ed 3d
       0.11478928 -0.059703168 0.010588583 0.115785286
000030 f5 36 e9 bc a7 13 0d 3e 41 f5 14 3e b7 ff d4 3c
       -0.028468588 0.13777028 0.14546682 0.02600084
000040 63 6e 12 bd e9 db a2 3c 27 97 11 3e 38 ee a2 3d
       -0.035749804 0.019880252 0.14217816 0.07955593
000050 ed c7 77 bb 55 a1 ef 3d 76 1e a4 bc 4f 58 30 3d
       -0.0037808374 0.117006935 -0.020034056 0.043052968
000060 40 63 8e 3d 60 3c f4 3d 55 e2 0d 3d 4c 58 a6 3c
       0.06952524 0.11925578 0.034639675 0.020305775
000070 8e b9 a4 3d ef 3b 0b 3d ee 70 26 3e cb 0e 20 3d
       0.08043204 0.033992704 0.16254017 0.039076608
000080 6a ca 06 3e 31 ce 00 3e 15 e6 45 bd 90 b8 05 3e
       0.13163152 0.12578656 -0.048315126 0.13058686
000090 b5 4a 30 3e 23 63 c2 3d 48 05 41 3d 2a c9 70 bd
       0.17215998 0.09491565 0.047124177 -0.058785595
0000a0 cb 4d d8 3c 70 bb f5 bc cb 89 ca 3d aa 9e 32 3e
       0.026404282 -0.029996604 0.09889563 0.17443338
0000b0 ef ac c0 bd 6e 84 1d 3e f7 8a 0c 3e 33 10 14 3e
       -0.094079845 0.15382549 0.13724886 0.14459305
0000c0 a8 7f 99 39 63 61 57 3d a8 ba d0 3b a9 77 3e 3e
       0.00029277545 0.05258311 0.0063699074 0.18600334
0000d0 17 00 22 3e e1 74 53 bd 75 d2 0b 3e 23 c9 4c 3d
       0.15820347 -0.051625136 0.13654502 0.049996506
0000e0 49 6c 1b 3e a1 c4 13 3d f1 ab 1b 3e b2 5b 0d 3e
       0.15178026 0.03607619 0.15202309 0.1380451
0000f0 40 b0 07 3d db 77 db 3d fb 41 0b 3e 6c 2f 5f bb
       0.03312707 0.1071622 0.13599388 -0.0034055365
000100 52 2f 64 bd f5 a7 5e 3c 4a ea e3 3d 55 f2 d8 bc
       -0.05570919 0.013589849 0.111286715 -0.02648274
000110 6d aa e4 3b 46 d9 0d 3e 64 7e 32 3d 52 7b 2f 3e
       0.006978324 0.13852414 0.043577567 0.17136887
000120 4b 1d 07 bd 98 86 9e bd 24 de 17 3e 62 2f 05 3e
       -0.03298692 -0.077405155 0.14830834 0.13006356
000130 e7 58 47 bc 86 65 46 3e f3 c8 0c 3e f0 a6 9d 3d
       -0.012167192 0.19374666 0.13748531 0.076978564
000140 bf 87 1c 3d f0 d0 2a 3e 28 f2 a4 3c 85 0c 10 3e
       0.038215395 0.16681266 0.020135 0.14067276
000150 66 3f 1c bd 48 44 aa bb 48 c6 22 3e f2 db ce 3c
       -0.0381464 -0.005196128 0.15895951 0.025251362
000160 fa 25 1c bd 79 a1 f0 bc e4 98 b0 3d bb 8d 35 bd
       -0.038122155 -0.029373871 0.086229116 -0.044324618
000170 dd 8d 7d 3d 04 5e 14 bd a2 b3 87 bd 60 be d5 bc
       0.06190287 -0.036222473 -0.06626059 -0.026091754
000180 2a 50 f3 3d d2 a2 1e 3c 08 b1 13 bb d5 61 ff bc
       0.118805245 0.009682374 -0.0022535939 -0.03117458
000190 25 ee 91 3d a1 e2 c3 3d af 54 4a ba 27 47 0c 3d
       0.071255006 0.095647104 -0.00077183073 0.034247544
0001a0 2d bf 49 3d 9d 33 cc 3d 97 58 c1 bc 36 b7 42 bd
       0.049254585 0.09970782 -0.023601813 -0.047538005
0001b0 8c de e8 3d f7 58 42 bd da 9c fd bc de 36 0a 3d
       0.113705724 -0.047448125 -0.030958582 0.03374373
0001c0 a9 87 ee 3d fa 11 38 bc b8 db 9e 3d 72 4a 1f 3e
       0.11646969 -0.011234755 0.07756752 0.15555742
0001d0 a7 5e 8c 3d 16 e2 09 bd 48 72 e6 3d b5 06 50 3d
       0.06853991 -0.033662878 0.11252266 0.050787646
0001e0 71 f0 3d 3e 6c fb 8d bc 50 de 2e 3e b2 a7 e4 3d
       0.18548752 -0.017331801 0.17076993 0.11164798
0001f0 a6 6a a2 3c 2c 61 43 3e 8d 62 e8 3d 6b 79 6f 3d
       0.019826245 0.19080037 0.11346922 0.058465403
000200 64 4d d0 bb f8 df bf 3d a3 a4 b4 bc 4e 8b 50 3d
       -0.006356882 0.093688905 -0.022051161 0.0509141
000210 7e a8 37 bd 1b 59 ce 3d 73 77 d1 3d 54 80 2f 3e
       -0.04483842 0.10075589 0.10227861 0.17138797
000220 f3 ec c1 3d f6 49 03 3d 0c 34 d8 bc ba b0 fa 3d
       0.094690226 0.032052957 -0.026392005 0.12240739
000230 41 34 78 3c 72 e4 1d 3e 52 00 85 3d 37 55 3f bd
       0.015149177 0.15419176 0.06494202 -0.046712127
000240 27 62 1e bd 23 a9 e0 bd 1a 57 6f bd ee d0 33 3e
       -0.038667824 -0.1096976 -0.058432676 0.17560169
000250 18 bd 5b bd 3f 78 21 3e e5 e6 be bc c5 51 31 3e
       -0.05364713 0.15768526 -0.023303458 0.17316349
000260 0d 91 20 3e 45 a0 b1 3d ff a5 fd bc bd b2 34 3c
       0.15680332 0.08673147 -0.030962942 0.011028943
000270 bd 64 1c 3e b7 b2 f2 3d 26 13 0a 3e 3a 71 2c 3d
       0.15272804 0.118504934 0.13483867 0.04210017
000280 58 17 4d 3d a8 ad 8b 3d b9 b3 c7 bc 18 e6 f7 bc
       0.05007109 0.06820232 -0.02437769 -0.030261084
000290 14 20 24 3e e6 f4 a0 3d 6f 10 65 bd 1b 16 6a bd
       0.16027862 0.07859211 -0.055923875 -0.057149988
0002a0 51 4e 30 bd a0 ec e2 bb 15 ff 10 3e 76 e2 34 bd
       -0.04304344 -0.0069251806 0.14159806 -0.044161282
0002b0 42 92 18 bd 6c fb be 3c ca b3 54 3d 02 27 30 3d
       -0.037248857 0.023313247 0.051929273 0.04300595
0002c0 0a 6e 5d bc c7 df 46 3c ea 1f e6 3d c7 38 38 bd
       -0.013515005 0.012138314 0.11236556 -0.044976022
0002d0 64 00 17 3e d7 0d 1a bd 3b bd d0 3d ac 59 43 3e
       0.14746243 -0.037610855 0.10192343 0.19077176
0002e0 eb 87 17 3e 6e d1 20 bd 9e 86 d2 3d f3 91 d4 3d
       0.14797942 -0.039262228 0.102795824 0.103794
0002f0 78 4c 14 3e dc 39 b8 3d 89 b9 eb 3d 28 d7 01 3e
       0.14482296 0.08995411 0.115099974 0.12679732
000300 58 d5 b5 3d 5e ee 75 3c 83 62 41 3d 0f e0 0f 3e
       0.08878583 0.015010444 0.04721309 0.14050315
000310 21 26 38 3e 1f c6 7d bc 89 51 9c 3c 9f 62 00 bd
       0.17983295 -0.01548913 0.019081848 -0.031344052
000320 e4 7a b9 3c ce d0 c5 3c f7 70 69 bd 2f eb 87 bd
       0.022641607 0.024147417 -0.056992497 -0.066366546
000330 7c 36 4c 3d d4 7f 1e 3e 76 db 89 3d 88 3d 8a 3d
       0.049856648 0.1547845 0.06731312 0.067500174
000340 6e ae 39 3d eb 35 16 3e a4 04 29 bd 6c 73 28 3d
       0.045332365 0.14669006 -0.04126419 0.0411257
000350 04 3e 4c bd 08 bc 25 3e 1e 2d 4b 3d e5 79 60 3c
       -0.04986383 0.1618501 0.049603574 0.013700937
000360 8a e4 c6 3d de 91 0f 3e 30 e6 69 bc 21 26 4a 3e
       0.09711559 0.14020488 -0.014276072 0.19741108
000370 0c 5c b2 bc f6 44 59 bd 0a 54 03 3e c9 57 8b ba
       -0.021772407 -0.053044282 0.12825027 -0.001063102
000380 06 5f 6e bd 88 50 f1 3c de d3 d6 3d ab e0 31 3d
       -0.05819609 0.029457346 0.10489629 0.04342715
000390 3d 9b 1c 3d 12 82 27 bd 0f 3d 26 3c 4c 62 b3 3d
       0.038233984 -0.04089553 0.010146393 0.08758983
0003a0 86 e8 dc bc 41 06 b7 3d f0 19 96 bc e3 85 1f 3c
       -0.026966345 0.0893674 -0.018322915 0.009736511
0003b0 d6 0f 8c bd bb 0b ca 3d 89 6c 3d 3e 42 2b b6 3d
       -0.06838958 0.09865519 0.18498434 0.088949695
0003c0 c1 80 ca 3d 6e d3 91 3a e1 c5 ef 3c 9c e9 09 3e
       0.09887839 0.0011125633 0.02926916 0.13468021
0003d0 e0 3e f5 3d 81 38 a6 3c 96 fb d7 3b 8c d9 bf 3d
       0.11974883 0.020290615 0.0065912707 0.09367666
0003e0 c7 cb 0c 3e c7 e9 1b bd f7 83 06 3e 9c 91 b0 3d
       0.1374961 -0.038064744 0.13136278 0.08621523
0003f0 45 74 0e bd f5 25 10 3e 82 b0 1a 3e 80 a6 59 bc
       -0.034778852 0.1407698 0.15106395 -0.013284326

critic.4.weight f4 [1, 256]
000000 c9 9c d3 bd 74 f2 99 bc db f4 a3 bc 7d 5e 6d bb
       -0.10332639 -0.018792368 -0.020014217 -0.003621965
000010 9a 63 c4 bc 1c 9f e7 3d 7b 97 cc bc 49 9a 0e 3e
       -0.023973275 0.113096446 -0.024974575 0.13926043
000020 1b a1 3c 3e 02 8c e6 bd f1 04 82 be 92 16 21 3e
       0.18420832 -0.11257173 -0.25394395 0.15731266
000030 0f 3e cc bc b3 e8 06 3e ad 69 39 3e 66 d0 57 bd
       -0.024931936 0.13174705 0.18106718 -0.05268898
000040 6b ea 53 bc 9d 1d 0d bd be d6 08 3e 0e 7d 28 3e
       -0.012934308 -0.03445207 0.13363168 0.16453955
000050 6c aa d2 bc a8 5d 0a 3e 2e 8f 75 bc ed 5e 5f 3e
       -0.02571603 0.1351229 -0.01498775 0.21813555
000060 59 26 65 3e d9 39 31 3e 07 c5 15 3d 98 55 52 3d
       0.2237791 0.17307223 0.036564853 0.05135116
000070 db ae 54 3e a8 52 87 3c 74 f7 5b 3e 87 6e 57 bd
       0.20769827 0.016518906 0.21481115 -0.05259564
000080 15 58 3b 3e 57 8d f6 3d 38 fa 66 bd 36 b6 26 3e
       0.1829532 0.12038677 -0.05639097 0.16280445
000090 eb 37 39 3e 50 14 b0 3d a9 ec 82 bc c1 03 12 bd
       0.18087737 0.08597624 -0.015981989 -0.03564811
0000a0 bb a5 52 bd 67 6e 78 bb 3a 16 92 3d e3 75 22 3e
       -0.051427584 -0.0037907602 0.07133146 0.15865283
0000b0 44 6a 98 bd ca e4 3b 3e d2 2c 0d 3e 4f f4 55 3e
       -0.074421436 0.18348995 0.13786629 0.20893978
0000c0 c7 32 24 bc 5f 98 28 3c e6 11 9c be 32 e5 24 3e
       -0.010021872 0.010290234 -0.30482405 0.16103056
0000d0 9f 33 0e 3e 12 f2 55 bd 2e 5e 3a 3e 1a 01 9c bc
       0.1388688 -0.05223281 0.18199989 -0.019043494
0000e0 ba 8d 86 3e b7 51 2f bd 45 db 4d 3e 88 e1 45 3e
       0.26280004 -0.04280254 0.20103176 0.19324315
0000f0 f5 70 e1 bc 08 26 01 3e 3e c4 1a 3e ff 69 6d bc
       -0.027519682 0.12612164 0.15113923 -0.0144906035
000100 30 db 71 bc 20 0a 40 bd 2b f9 55 3e 88 3a fe 3c
       -0.014761731 -0.046884656 0.20895831 0.03103377
000110 81 58 f8 3c aa 53 49 3e c0 b9 43 3d 35 78 36 3e
       0.03031564 0.19660822 0.047784567 0.17819293
000120 a3 a8 b5 3b 9f 7f dd bb 39 2c 4a 3e 5b 8c 21 3e
       0.0055437847 -0.0067595984 0.19743432 0.15776198
000130 33 a5 3a bd ea 38 05 3e 5f d9 41 3e 69 f2 49 3e
       -0.045567703 0.13009992 0.18930577 0.19721378
000140 44 c9 f8 bc ac 5b 60 3e 27 41 49 bd 12 46 35 3e
       -0.030369408 0.2190997 -0.0491344 0.17702511
000150 60 53 62 3b 80 94 34 be 51 35 49 3e ef 35 23 bc
       0.0034534559 -0.17634773 0.19649245 -0.009961589
000160 89 de 96 be 65 63 2d 3d 58 d5 d8 3d 0e e2 5e bd
       -0.29466656 0.042331118 0.10587567 -0.0544148
000170 e8 67 44 3e c4 d2 3b bd 87 e9 0a bd 22 80 9a ba
       0.19180262 -0.0458553 -0.033914115 -0.0011787454
000180 63 39 40 3e ca 6a 21 bd 63 aa 38 bd 3f de a1 bc
       0.18771891 -0.039408483 -0.04508437 -0.019759296
000190 42 1a 27 3e 58 7c ee 3d d6 de b0 bc 16 52 1d bd
       0.1631861 0.116448104 -0.021590631 -0.03840836
0001a0 2a bb 4d 3e f0 dd 55 3e 35 8b a1 bc d6 8a 26 bd
       0.20090929 0.20885444 -0.0197197 -0.040659748
0001b0 aa 99 66 3e 6a 82 a0 bc 1e 52 c3 3b 92 65 ca bc
       0.22519556 -0.019593436 0.005960717 -0.024706636
0001c0 49 11 0c 3e 2c d9 20 bc 25 f2 4f 3e 54 c9 42 3e
       0.13678469 -0.009817403 0.20307215 0.19022113
0001d0 22 ca 4c 3e dc 5e 6c bb 1b 5a e3 3d 82 0f 51 3e
       0.19998983 -0.0036067283 0.11101171 0.20416072
0001e0 04 65 02 3e 78 68 e6 bd 14 b8 1d 3e 08 85 13 3e
       0.12733847 -0.112503946 0.15402251 0.14406216
0001f0 2e a8 0e be 91 5f 35 3e 02 f0 4b 3e 22 a0 2a 3e
       -0.13931343 0.17712237 0.19915774 0.16662648
000200 3c 30 5c be eb 23 45 3e d8 9b 5b bd 80 e0 48 3e
       -0.21502775 0.19251983 -0.05361542 0.1961689
000210 dc 41 63 bd 06 61 31 3e 16 af 16 3e 32 31 38 3e
       -0.05548273 0.17322168 0.14715227 0.17987517
000220 ff 31 5f 3e 83 eb 9d bc 00 13 d1 ba 0a e6 4a 3e
       0.21796416 -0.01927734 -0.0015951097 0.19814315
000230 24 c1 b2 bd d8 7b 43 3e 18 cb 4f 3e 48 4e 4e 3d
       -0.08728245 0.19090211 0.20292318 0.050367624
000240 20 34 9c bc 6f 23 15 bd b4 57 8e bc c7 51 41 3e
       -0.019067824 -0.036410745 -0.017375804 0.18878852
000250 8b 18 52 be b8 f3 30 3e 7a 9b a1 be a0 c3 1c 3e
       -0.20517175 0.17280471 -0.31563932 0.15309
000260 0b ba 28 3e 9a 3b 42 3e 0a c4 9f bb 19 53 e0 bc
       0.1647722 0.18968049 -0.0048756646 -0.027383374
000270 22 21 0c 3e 2f 9b 4b 3e df 03 41 3e 7e a5 5f 3e
       0.13684514 0.19883417 0.18849133 0.21840474
000280 be 7a 01 3d 2d cb 40 3e 61 70 39 bc c7 b0 2d 3a
       0.031611197 0.18827505 -0.011318297 0.0006625768
000290 ef 7d 0b 3e 17 55 68 3e cf 2d e4 bc 73 7e 4c be
       0.13622259 0.22688709 -0.027853874 -0.19970112
0002a0 e4 dd 08 bd a6 fb 00 3d 99 9b 35 3e b2 f8 80 bc
       -0.033414736 0.03148999 0.17735137 -0.015743587
0002b0 a9 3e 99 be 7a 1c 5c 3b 02 cd 32 3e 0e 1c ac bc
       -0.29930618 0.003358631 0.17461017 -0.021009471
0002c0 51 56 2a bd ff e1 1b bc 98 89 3c 3e f0 13 c4 bd
       -0.041586224 -0.009514331 0.18411863 -0.09574115
0002d0 2a 50 aa 3d a0 86 fe bc 74 9a 5c 3e f0 ae 2a 3e
       0.08316071 -0.031070054 0.21543294 0.16668296
0002e0 f6 45 2c 3e 7d 63 18 bd 78 5d 48 3e 41 43 2b 3e
       0.16823563 -0.037204254 0.19566905 0.16724874
0002f0 fc 44 18 3e ad 5b 0c 3e 44 0c 2a 3e 03 ec 29 3e
       0.14870065 0.13706847 0.16606241 0.16593938
000300 96 78 2d 3e 53 04 00 bd a3 cf 56 bd 49 fb 28 3e
       0.16940531 -0.031254124 -0.05244411 0.16502108
000310 3b 0e 14 3e cd f5 d1 bb f5 cf da bc 6f 8e 07 bd
       0.14458553 -0.0064074756 -0.02671049 -0.03309482
000320 a9 d7 84 be 17 4c 18 bd d7 3c 39 bd 4b fa b6 ba
       -0.25945786 -0.03718194 -0.045224037 -0.0013960091
000330 4e 8e 5b bd cb 79 27 3e 22 c1 42 3e 8f 2c 76 3e
       -0.05360251 0.16355054 0.19018987 0.24040435
000340 cd 03 2b bd f1 87 20 3e b3 b0 73 be 82 93 67 bd
       -0.04175167 0.15676858 -0.23797874 -0.05653716
000350 c6 fc ba bd 3c 43 79 3e 66 fb 0d bc cb 0d 9e be
       -0.09130244 0.24342054 -0.008665895 -0.30869898
000360 48 40 58 3e 58 0a 2d 3e 08 27 82 bc fe 23 29 3e
       0.21118271 0.16898477 -0.015887752 0.16517636
000370 dd 86 20 bc bf b7 fb 3c 00 fa 77 3e 30 1f 78 3a
       -0.009797779 0.030727265 0.24216461 0.00094650965
000380 70 d4 76 3d b0 9a e8 bc b2 82 19 3e 82 bb 99 bc
       0.06026119 -0.028394073 0.14991263 -0.018766169
000390 ec 8a cf bc 80 ef a0 ba c8 ff 2f bc ad 65 c7 3d
       -0.025334798 -0.0012278408 -0.010742135 0.0973619
0003a0 b1 91 36 bd 09 16 13 3e 48 e9 3a bd a9 8d 10 bd
       -0.044572536 0.14363874 -0.04563263 -0.035291348
0003b0 f2 54 61 bd 0f 57 5e 3e fe e9 15 3e ab be 0c 3e
       -0.05501265 0.21712898 0.14640042 0.13744609
0003c0 79 bd 11 3e 1a 5b 25 bd 09 ef 39 3d 85 e4 ff 3d
       0.14232434 -0.040370084 0.045393977 0.124947585
0003d0 fc 35 62 3e 79 88 19 bc 04 92 fe bd 5c 36 4f 3e
       0.22090906 -0.0093709165 -0.12430194 0.2023558
0003e0 8e b1 31 3e 64 d2 04 bd 57 2b 35 3e ac 03 13 3e
       0.17352888 -0.032427207 0.17692314 0.1435687
0003f0 1a 6e 26 bd bc 58 14 3e 1f 31 46 3e 60 f0 be bd
       -0.040632345 0.14486974 0.19354676 -0.09323192
