projects/codes/DQN/outputs/CartPole-v0/20220823-173936/models/checkpoint.pt (torch, 272151 bytes, 6 tensors)

fc1.weight f4 [256, 4]
000000 5e ff 46 be 25 c4 e2 bd 25 9f b7 3c b3 af 3d 3e
       -0.19433352 -0.11072568 0.022414753 0.18524055
000010 9b 34 bd be 28 d3 1d bd 49 34 3d 3e a0 77 f3 3e
       -0.36954197 -0.038531452 0.18476976 0.47552204
000020 6f 0d fd 3e 42 d1 95 bd cb 80 99 bd 3b b6 a7 bd
       0.49424312 -0.073153034 -0.074952684 -0.081890546
000030 08 8e ae 3d 01 8e 7a 3d 5e 9f 36 3e e2 8b 00 3f
       0.08523184 0.06117058 0.17834231 0.50213444
000040 cf 05 a3 be d8 a4 04 be 95 c9 58 bc 79 da 2c be
       -0.3184037 -0.12953508 -0.013231655 -0.16880216
000050 46 8b 68 3d 7a d2 b6 be 8a 26 0d bf 2b 9d af be
       0.056773447 -0.35707456 -0.5513693 -0.34299597
000060 48 10 bd be 1d b7 01 bf 88 d4 20 bf 2e 30 ea be
       -0.36926484 -0.50670034 -0.62824297 -0.45739883
000070 d0 2c 15 bf 0b 0a 7f 3e c2 95 b4 3e bc 51 c4 3e
       -0.58271503 0.24906175 0.35270506 0.38343608
000080 3b eb da 3e 0e 20 52 3d 7c c4 19 3e d5 9b aa be
       0.42757592 0.0513001 0.15016359 -0.33322015
000090 74 8c 91 3e e8 bd 98 bd 67 42 61 3f 0f 90 4d 3e
       0.2842747 -0.07458097 0.87991947 0.20074485
0000a0 e2 fa 8e 3e 7a 3e c8 3e d6 6a c9 bd a5 bd ec bd
       0.27925783 0.39110166 -0.098348305 -0.11559609
0000b0 e9 64 f9 bd 25 af 3b 3d dd f8 07 3f 2c 6a aa 3e
       -0.1217745 0.045821328 0.5311411 0.33284128
0000c0 0f d8 f2 be 9d ad c5 bc ee 46 e1 be 12 ee f5 3e
       -0.47430465 -0.024130637 -0.43999428 0.48033196
0000d0 c5 74 ea be 25 2a f6 3d 69 3c bb bd b7 e9 9d 3e
       -0.45792213 0.12019757 -0.09142382 0.30842373
0000e0 77 00 64 bd 45 1c 44 3c 2f 2e bf 3e 8c 4a eb 3e
       -0.055664506 0.011969631 0.37339923 0.45955312
0000f0 c4 0f 1c bf 92 b1 ff be 6f 1d ff 3d 9d 24 fb 3d
       -0.60961556 -0.49940163 0.12456786 0.12262843
000100 8e d6 60 be 77 07 35 3f f5 8a cf 3e 63 33 a2 bd
       -0.21956846 0.70714515 0.40535703 -0.079199575
000110 f3 4b 1b bf 29 ae 34 3f 3e 69 31 3f 2f 2c a7 bb
       -0.60662764 0.7057825 0.6930121 -0.0051017026
000120 ab 28 1c be f1 2d cb 3d 67 d9 f5 be 7a c5 5e be
       -0.15249889 0.09920872 -0.48017427 -0.21755019
000130 b7 02 27 bf 36 5a 3d 3e 76 50 4d be 83 3f 73 be
       -0.6523852 0.18491444 -0.20050225 -0.23754697
000140 d1 8a ba be 4b df 2b be 24 5c 0c 3f 0c 82 6e 3d
       -0.36434034 -0.16784398 0.54828095 0.05822949
000150 56 ac a3 3e 04 fe 9b be e7 67 b6 be 80 ed d5 3e
       0.3196742 -0.30467236 -0.35626146 0.4178276
000160 a3 3d 11 bf 9c dc 54 be 97 bd 2f be d8 ba 11 3f
       -0.56734675 -0.20787281 -0.17162167 0.56925726
000170 d6 10 93 3d 79 77 95 be fc 7e 95 be cb 3a 19 3e
       0.071809456 -0.29192713 -0.29198444 0.14963834
000180 6c b2 87 be 9f 67 5a 3d 2a 0e f1 be 80 69 a7 be
       -0.26503313 0.053321477 -0.4708112 -0.32697678
000190 8d 90 0e bd fa c2 54 3e 0a 3a 5a 3f 79 53 61 3e
       -0.034805823 0.20777503 0.8524481 0.22004499
0001a0 d0 5f 2a be 7a 50 8d 3e 5f 2f 1a 3f 8c 70 8b 3e
       -0.16638112 0.2760046 0.6022853 0.27234304
0001b0 3f ee 77 be 0f 7f 67 bc 46 b4 79 3e ce 4a 5a 3e
       -0.24211977 -0.014129414 0.24385175 0.21317598
0001c0 ec 0b aa 3e 8e 8e 99 be e2 bf a0 3e c4 26 47 be
       0.3321222 -0.29991573 0.31396395 -0.19448382
0001d0 a4 33 1b bd 0e d0 5c be ae f5 4d bd 12 98 e4 3e
       -0.037891045 -0.21563742 -0.050283127 0.4464727
0001e0 ee 44 15 3f f3 69 b1 3d 60 47 1f bf a5 21 77 be
       0.58308303 0.08662786 -0.62218285 -0.24133928
0001f0 74 08 b3 3e d0 83 0b be 79 4e fa be 9a 67 9d 3d
       0.34967387 -0.13624501 -0.48887995 0.07685776
000200 c6 98 fc be b3 6a 5a 3d a8 dc fa bd e6 f8 8a bb
       -0.49335307 0.053324413 -0.12249118 -0.004241097
000210 17 f3 55 be 2c 26 c9 bd d0 f2 f1 be 60 8e a4 be
       -0.20893513 -0.09821734 -0.47255564 -0.32139874
000220 af 90 dc 3e 9d d6 a5 3e 2b e3 03 bf dd 7b 05 bf
       0.43079135 0.323903 -0.51518506 -0.52142125
000230 8c 09 b2 be 79 38 5a 3f a1 55 09 3f a5 fe 79 be
       -0.3477291 0.8524242 0.53646284 -0.24413545
000240 7b ef 98 3e 7d 16 ee 3c 2d 24 9c 3e 90 0f 39 be
       0.2987021 0.029063458 0.3049635 -0.18072343
000250 4f a1 c4 3e 30 e7 a1 be 1b a7 6c bf ae 86 2c 3c
       0.3840432 -0.31621695 -0.9244248 0.010530157
000260 b6 5b b7 be ff c9 a2 ba db eb 28 be f2 92 d8 be
       -0.35812157 -0.0012419819 -0.16496222 -0.4229961
000270 9b 12 20 be 80 af bd 3e f1 21 3a 3f aa 0f 96 3e
       -0.15632097 0.37047958 0.7270804 0.29308826
000280 b1 a5 ef be 6d f7 c1 be 72 43 35 be 3f d4 d5 bd
       -0.468061 -0.37884083 -0.1770151 -0.10440873
000290 8c 80 09 bf e5 4c ad 3e 6a 1c e8 be dc 27 10 3d
       -0.5371177 0.33847728 -0.45334178 0.035194263
0002a0 2f 8f 15 bf 6b 22 6c 3e 23 e9 c0 3d c0 ab a6 3e
       -0.58421606 0.23060004 0.09419467 0.3255291
0002b0 b8 89 21 3e 23 1c c9 be f4 c5 89 3e 79 d1 ce be
       0.15775192 -0.3927928 0.2690884 -0.4039419
0002c0 ef f1 8a 3d c9 16 bd be 7b 85 06 3f db 28 2c 3e
       0.067844264 -0.36931446 0.52547425 0.1681246
0002d0 0c d8 de 3d df 8b 3e bd 54 30 06 3f 12 47 06 3f
       0.108810514 -0.04652011 0.5241749 0.52452195
0002e0 0c d0 73 be 54 21 37 be 0b 91 83 3e 7a 5f 9e 3e
       -0.23809832 -0.17883807 0.25696597 0.30932218
0002f0 ba ea 49 3d 7e 77 30 3f 05 a3 f7 3e 5c c6 1c 3e
       0.04929612 0.6893233 0.48366562 0.15310043
000300 9a 49 f0 be 56 0f b8 be c4 1c c3 3e 95 1f 0b bf
       -0.46931154 -0.359492 0.38107884 -0.54345065
000310 57 92 b3 bd 6b a3 c5 3e e4 e7 23 bf 45 b9 c9 be
       -0.087681465 0.3860124 -0.6402571 -0.39399162
000320 e7 4f 22 bf dc e4 99 3e ee b4 37 3e 35 44 c5 3e
       -0.6340317 0.30057418 0.17940113 0.385286
000330 9a ff 96 3d 14 22 8f bd 92 8d 83 3e 6d c1 de be
       0.07372971 -0.06988922 0.25693947 -0.43506947
000340 42 63 f8 be 69 11 0b 3f 07 19 22 3f 0f 77 cd bd
       -0.48513228 0.5432344 0.6331944 -0.10032474
000350 e1 44 13 bf e2 a2 03 be ac 3f 98 3d ee 66 29 3e
       -0.57526976 -0.12855104 0.074340194 0.16543171
000360 5c 7c 97 3e c1 36 26 bc c6 31 26 bf 3c 67 86 bd
       0.29587066 -0.01014489 -0.649197 -0.06562659
000370 fe 7d bf 3e f1 04 8a bc e7 79 37 bf eb 4e f2 bd
       0.37400812 -0.01684806 -0.71670383 -0.11831459
000380 4e cc 1a be 81 3e 18 be 92 0e 8e 3e a7 f1 7c 3e
       -0.15116999 -0.14867593 0.2774549 0.24701558
000390 d4 5f ac 3e e0 53 00 3f 95 f7 79 3d 01 0c ac be
       0.3366686 0.50127983 0.06102713 -0.33602908
0003a0 69 ce 33 3d 98 c8 9b 3e 07 6b a9 3e b5 b1 a3 3e
       0.04389802 0.30426478 0.33089468 0.31971517
0003b0 0e a5 01 3e 81 d9 fe 3d 77 da 03 bc 70 8c 76 3e
       0.1266062 0.12443829 -0.008047692 0.2407701
0003c0 21 d6 21 bf 5b ff 99 3e e6 7f 45 3e f4 3e 5b 3e
       -0.6321736 0.30077633 0.1928707 0.21410733
0003d0 bd e5 ad be 3d 04 05 3e a1 9f fe 3d 86 dc 03 bf
       -0.3396434 0.12989898 0.124327905 -0.5150837
0003e0 a6 a3 d1 be 2c 93 2f 3e bf ff c3 be 12 bf ac bd
       -0.40945166 0.17145985 -0.38281056 -0.08434881
0003f0 45 d5 a3 3e 1b ea 7e 3e 67 48 93 be 2a 77 05 3d
       0.3199865 0.24893992 -0.28766176 0.032584347

fc1.bias f4 [256]
000000 b5 22 29 be 17 f1 0f 3f b2 28 b8 bc 56 08 c4 3e
       -0.16517146 0.5622725 -0.022480343 0.3828761
000010 87 be 16 be 87 3a 92 3d 0a 28 71 3e b4 cb 07 3f
       -0.14721118 0.071400695 0.2355043 0.530452
000020 70 86 a6 bc 98 3a c5 be 83 e7 b3 3e 95 d8 9c be
       -0.020327777 -0.38521266 0.35137567 -0.3063399
000030 69 74 f7 3e 5c 71 83 3e b7 0e 11 3f 83 54 29 be
       0.48331 0.25672424 0.5666308 -0.16536145
000040 8f a1 64 3e fd a2 e9 3e ce fa e5 bd ee 86 fc 3e
       0.22327255 0.45632163 -0.11229478 0.49321693
000050 7f 3a d9 be 5f 56 5a 3e 5f 7f bf bd 92 35 3a be
       -0.4242744 0.2132201 -0.09350466 -0.18184498
000060 b0 f8 99 3e 16 09 ae be f1 6c a5 be 6b 48 c6 3e
       0.30072546 -0.33991307 -0.32309678 0.38727126
000070 34 d8 6b be a4 9f 4c bd e2 19 c9 be 3b aa d8 be
       -0.23031694 -0.049956933 -0.3927756 -0.42317376
000080 71 fa bf 3e 25 03 fc 3e ce 17 42 be 53 cf 04 3e
       0.3749576 0.4922115 -0.18954393 0.12969713
000090 8a 94 53 be d5 a4 72 3e fb 52 b6 3e ca 6a 81 b9
       -0.20662132 0.23695691 0.35610184 -0.0002468436
0000a0 c3 68 f3 3e 37 ce 1e 3f c0 ce 94 3e 3f 9a 7f 3d
       0.47540864 0.6203341 0.29063988 0.06240296
0000b0 ef b1 e3 be 4d ec e9 3e 75 99 c8 be 2c 35 40 3e
       -0.4447169 0.45688096 -0.39179578 0.18770283
0000c0 26 60 aa be a6 07 a1 3e b3 8b e6 3e 12 34 92 be
       -0.3327648 0.31451148 0.45028457 -0.28555351
0000d0 c6 d6 e2 3e f6 50 6c be 62 76 e3 3d 99 77 66 be
       0.44304484 -0.23077759 0.11106564 -0.2250656
0000e0 8b 95 eb 3e 32 65 ba 3e 9c e7 04 3f 6c 10 ac 3e
       0.4601253 0.3640533 0.5191591 0.3360628
0000f0 23 97 d8 3e 58 ec be 3e fc 85 01 3f 73 dc f7 be
       0.42302808 0.3728969 0.5059507 -0.48410377
000100 d8 18 0d 3f 11 fe 80 be 28 c5 c7 be b8 05 bd 3e
       0.55116034 -0.25193837 -0.39017606 0.36918426
000110 c7 83 c3 be 0b 25 90 be 0d b1 17 be 3f 29 df 3e
       -0.38186476 -0.28153262 -0.14813633 0.43586156
000120 65 67 fb be f7 ad d4 bd 51 87 d4 be 8d 55 67 3e
       -0.4910232 -0.10384744 -0.41509488 0.22591229
000130 7f 70 9e be 33 e7 50 be cc 32 68 be 87 45 be 3e
       -0.30945203 -0.20400696 -0.22675627 0.3716242
000140 ca 16 b8 be c8 36 c9 3e 19 bc d5 3e da 9b 2f 3c
       -0.35954887 0.39299607 0.4174507 0.01071831
000150 4b 6d f5 3e f8 11 d1 3e a8 8c 0f 3f ea ac 0e 3f
       0.47934946 0.40834022 0.56074 0.55732596
000160 e9 66 aa 3e 35 34 48 be b8 24 ff 3e 83 6a 0a 3e
       0.3328164 -0.19551165 0.49832702 0.13517193
000170 4e 68 e1 3e be b6 7b 3e 7f 90 2e 3e 9c 74 b4 3e
       0.4402489 0.2458143 0.17047308 0.35245216
000180 5a b2 13 3f 00 6b 07 3f b9 d3 20 3e bb 84 b5 be
       0.5769402 0.52897644 0.15705766 -0.35452828
000190 0e f2 dd be e0 49 f9 be 54 ed e2 3e b2 92 51 3e
       -0.43348736 -0.48689175 0.44321692 0.20466116
0001a0 ad 05 df 3e f8 c2 cf 3e 4f a6 b5 be 6c 42 9c 3e
       0.43559018 0.40578437 -0.35478446 0.30519426
0001b0 e1 ee 0d 3e 82 11 bb be ed 68 57 3d f0 01 01 bf
       0.13860656 -0.36536795 0.0525903 -0.5039358
0001c0 ae 57 32 bc ec 7c f2 3e 41 63 1a 3e dc ea 8e 3e
       -0.010885162 0.47360933 0.15076925 0.27913558
0001d0 75 e2 f0 3e 6d 59 cb 3e 19 9e 10 bf 48 cb 20 be
       0.47047773 0.39716664 -0.5649124 -0.15702546
0001e0 18 25 04 3f c7 72 d6 bd ad 65 a4 be 5d b8 01 3c
       0.516191 -0.10471111 -0.32108822 0.007917491
0001f0 95 cf a7 be 19 bf c1 be fc 38 eb 3e 16 da 96 be
       -0.3277556 -0.37841108 0.45941913 -0.2946326
000200 db db 9f be 66 65 14 3e 01 f7 c7 3d 5c b1 03 3f
       -0.31222424 0.14491805 0.09763909 0.51442504
000210 5a f8 6f be d8 4c 03 bd 79 8e f4 3e dd 0e a4 3d
       -0.23434582 -0.032055706 0.47764948 0.080106474
000220 6e fc 83 bd eb 10 0f bd 39 f6 d5 be 5b e4 b1 be
       -0.064446315 -0.034928244 -0.41789415 -0.34744534
000230 fb 5c 20 be f4 aa db be eb 3c e9 3d a3 a7 87 be
       -0.15660469 -0.42903864 0.11388572 -0.26495084
000240 6d e6 37 3e 25 5f d8 3d 68 43 c4 be 6c 4e c0 be
       0.17958994 0.105650224 -0.38332677 -0.3755983
000250 72 9a f7 3e 94 b9 cb 3e 0d ef ea be e5 e8 98 3e
       0.4836002 0.39790022 -0.45885506 0.29865184
000260 73 dc 89 3d 08 39 5b 3d 69 fc 04 3f c4 c9 c7 be
       0.067315005 0.053521186 0.5194765 -0.39021122
000270 e8 a4 1f 3f ed f5 56 be 24 99 be be 0a f8 14 3c
       0.62361 -0.2099225 -0.37226212 0.00909234
000280 96 f7 f7 3e 4c 07 5b 3e e8 19 5a 3e 74 e9 d4 3e
       0.4843108 0.21389502 0.21298945 0.4158436
000290 07 75 f0 be 98 59 bd 3e ad a6 ce 3e 1e db 4d 3e
       -0.46964285 0.36982417 0.4036154 0.20103118
0002a0 6e 85 e6 3e 8d f1 5a 3e 39 a3 74 be d3 88 89 be
       0.45023674 0.21381207 -0.2389039 -0.268622
0002b0 96 ca c2 be 0b d7 9a 3e d5 cb 5a 3e 6e 7c bf be
       -0.38045186 0.3024219 0.21366818 -0.3739962
0002c0 b3 42 f9 3e e2 36 a8 3e c5 18 b4 3e f3 31 92 bd
       0.486837 0.32854372 0.35175148 -0.07138433
0002d0 a4 30 dc 3e a5 e2 b8 3e 8b 47 a4 3e d7 1f e2 3e
       0.4300586 0.36110416 0.32085833 0.44164917
0002e0 6e d4 22 be 00 40 88 be 5f f6 bc 3e 2c 53 dc 3d
       -0.15901348 -0.26611328 0.36906716 0.10758051
0002f0 9d 83 ee bd 76 29 09 3f b0 12 b0 3e 0a d4 1d 3e
       -0.11646197 0.5357889 0.34389257 0.15412918
000300 88 7b c1 be 3b b8 d3 3e b4 9b 83 be f2 38 6f be
       -0.3778956 0.41351494 -0.2570473 -0.23361567
000310 72 d2 e4 be 04 0d 55 3e a7 63 c3 3b 18 f0 ff 3e
       -0.44691807 0.20805746 0.005962807 0.49987864
000320 30 91 c2 3e af f8 9f 3e 24 8f b0 be a4 e8 4d be
       0.38001394 0.31244418 -0.34484208 -0.20108277
000330 76 c6 09 3e df c1 6f 3e 6e d7 06 3f 2f 96 04 bf
       0.13454613 0.234138 0.5267247 -0.5179166
000340 72 b8 8f 3e b6 a6 c4 3e 88 d3 a8 be 70 3c dd 3d
       0.28070408 0.3840844 -0.32973886 0.10802543
000350 1a 38 bf 3e 37 8a d3 3e de aa 9f 3e 67 43 cf 3e
       0.3734749 0.41316387 0.3118505 0.4048111
000360 22 28 7a be 2c a8 4e 3e f0 30 c9 3e 1a e2 e4 be
       -0.24429372 0.2018134 0.3929515 -0.44703752
000370 3e 36 d6 3e fb 78 f9 be 68 a9 1d 3e 4d f8 ca 3e
       0.41838259 -0.48725113 0.15396655 0.39642563
000380 bf 99 b6 3e 8a 7b d8 3e 2f 52 1f be d1 fd 0c 3f
       0.35664174 0.42281753 -0.15558694 0.55074793
000390 8e 51 b9 be 5c ec fc 3e e9 61 30 3e 36 e0 1e be
       -0.36195034 0.49399078 0.1722485 -0.15515217
0003a0 55 b5 ce ba af 67 fd 3e 00 b3 75 be 6b 22 d4 3e
       -0.0015770594 0.49493167 -0.23994064 0.4143251
0003b0 57 c3 c8 3d 7c f2 d8 be f7 85 40 be 4a a5 6f 3e
       0.09802883 -0.423725 -0.18801104 0.23402897
0003c0 83 12 ce 3e 71 b0 a8 3d 4d 7e e5 be cc ee e6 3e
       0.40248498 0.082367785 -0.44822922 0.45104063
0003d0 15 58 e7 bd 84 1f 08 3f b1 83 65 be 00 d9 88 3e
       -0.11296097 0.5317309 -0.22413518 0.26728058
0003e0 37 05 91 3e cf 2e 24 3f a2 7a ce 3e 7b d4 b1 3e
       0.2832429 0.64133924 0.40327936 0.34732422
0003f0 e2 44 cd 3e 2d f2 c2 3d 32 81 bc 3d aa 32 fe be
       0.40091616 0.095188476 0.092043296 -0.4964803

fc2.weight f4 [256, 256]
000000 4c 2f da 3c d4 5e 50 bd d8 45 0f 3d ae 21 7c 3d
       0.026633881 -0.050871685 0.034978718 0.061555557
000010 50 46 f7 3b 5c 26 d3 3c 20 aa 02 bb 0e 44 55 bd
       0.0075462237 0.025775127 -0.0019937828 -0.052066855
000020 f4 7c 4d 3d e8 fc e8 bc ba 13 0b 3d f2 a6 67 bd
       0.050167993 -0.028440908 0.03395436 -0.056555696
000030 ec 10 a1 3c 36 11 20 3d 4a 9f 24 3d e8 c2 07 bd
       0.01966139 0.039078914 0.040190972 -0.03314486
000040 28 04 50 bd b8 b2 12 bd 54 64 26 3d 5c 63 9d bc
       -0.050785214 -0.03581497 0.040623024 -0.019212417
000050 1c 29 b6 bc 20 73 22 3b 80 dc 50 bb 42 67 48 bd
       -0.0222364 0.0024787858 -0.003186971 -0.0489266
000060 3c 06 e1 3c 80 e2 0e bb 02 b2 16 3d ce 32 79 bd
       0.027468793 -0.0021802485 0.036790855 -0.060839467
000070 c0 3a 8d 3a 84 9d f6 bc 38 69 ae 3c ec 35 93 bc
       0.0010774955 -0.030104406 0.021290407 -0.017970048
000080 38 d8 ff 3c 70 5f 07 3c 1a 23 30 bd 70 5b dd bc
       0.03123103 0.0082625 -0.043002225 -0.02702114
000090 be 7b 60 3d 68 fd a0 3c 68 83 24 bc 94 3f 17 3d
       0.05480551 0.019652084 -0.010041095 0.036925867
0000a0 80 ab f8 bc 18 48 7b bd 78 e4 a5 3c f4 1b 7a 3d
       -0.030355215 -0.06134805 0.020250544 0.061061814
0000b0 48 ba b0 3c e0 81 3b 3d b6 0b 25 bd 64 2c 88 3c
       0.0215732 0.045778155 -0.04029437 0.01662273
0000c0 60 54 49 bb a0 2f c9 bb 40 f1 b9 3b fe 2b 0f 3d
       -0.0030720457 -0.0061397105 0.005674511 0.034954064
0000d0 20 92 e0 3b 5c 4e 80 3c c0 9b ef 3b 0a 11 71 bd
       0.006853357 0.015662365 0.007312268 -0.05885414
0000e0 de 40 6b 3d a0 3f 1a 3b 78 9a ea 3c 22 ea 4a bd
       0.05743491 0.0023536459 0.02863811 -0.049539693
0000f0 1c ac 96 bc 40 e0 3a bc ae ce 74 bd b8 4c 14 3c
       -0.018392615 -0.011406004 -0.059767418 0.009051494
000100 5c 2b 84 bc 00 0d 7e 3c e0 7d 60 3b 80 ee 30 bb
       -0.016133957 0.015506029 0.0034254715 -0.0026997626
000110 9e ca 09 3d c2 55 1c bd a0 ef 05 3c 20 88 a3 bc
       0.033640496 -0.038167723 0.008174807 -0.01996237
000120 38 e7 24 3c 72 3c 3a 3d 20 fb a2 3b b4 8f 77 3d
       0.0100648925 0.0454678 0.004973784 0.06043978
000130 c8 73 06 bc 40 ef b7 3c a4 57 e1 bc 50 f7 89 3c
       -0.008206315 0.02245295 -0.02750761 0.01684156
000140 ee 8b 08 bd 70 fd 1d bc 30 0e 25 3d a8 b8 1a bd
       -0.033336572 -0.009642944 0.040296733 -0.03777376
000150 a0 85 ed 3c 18 d9 96 bc 94 06 f2 bc 40 cb 44 3b
       0.028994381 -0.018414065 -0.029544152 0.0030028373
000160 50 11 55 bd 42 92 4f 3d 0c a5 5f bd 00 fc 1c ba
       -0.052018464 0.05067659 -0.05460076 -0.00059884787
000170 6a 09 03 bd 60 ca 95 bb 9e d0 58 bd 78 86 2d bd
       -0.0319914 -0.004571244 -0.052933328 -0.042364568
000180 ba 8c 0e bd d4 b6 83 3c a8 d8 4a 3c 50 93 c6 bc
       -0.034802176 0.01607839 0.012380756 -0.024240166
000190 34 d6 c4 3c b6 86 5e 3d d0 30 e4 bc 00 e2 e4 39
       0.024027921 0.05432769 -0.027855307 0.00043655932
0001a0 de ef 56 3d 58 21 fa bc b6 70 0f 3d 02 70 1c bd
       0.05247485 -0.030533478 0.0350196 -0.038192756
0001b0 0c f8 1f 3d 40 d1 4e bb 2e 67 33 bd dc 51 55 3d
       0.039054915 -0.0031557828 -0.04379957 0.05208002
0001c0 a8 b2 0f 3d c0 ba d4 bb 40 15 cd bc 70 66 5a 3c
       0.03508249 -0.006491989 -0.025034547 0.013330087
0001d0 80 68 df bb d8 91 41 3d 60 47 22 3c dc 26 cc bc
       -0.0068178773 0.047258228 0.009904712 -0.024920873
0001e0 58 2e db bc 44 a4 7b 3d d8 ff 50 3c e0 9f 40 3b
       -0.026755497 0.061435953 0.01275631 0.0029392168
0001f0 90 1b 11 3d d6 7e 73 3d 40 23 81 3a ac ec e7 bc
       0.035426676 0.059447132 0.0009852424 -0.028311096
000200 f0 3e 48 bd 1a a4 48 3d e0 13 39 3d 0c 7f 7e bd
       -0.048888147 0.048984624 0.04518497 -0.06213288
000210 ce 10 24 bd b8 26 1b 3c 72 06 64 bd e8 ec e3 3c
       -0.04005509 0.0094696805 -0.05567021 0.027822927
000220 48 73 7b 3d 00 55 04 3c 34 c1 e9 bc 0e 95 0d 3d
       0.061389238 0.008076906 -0.02853451 0.034565978
000230 60 00 6e bc 68 f9 7d 3d 78 21 6d bc e0 14 55 bc
       -0.014526457 0.06200543 -0.014473312 -0.013005465
000240 30 d3 8f 3c 3c 58 6f 3d e8 20 10 3d 98 60 41 3d
       0.017556757 0.058433756 0.03518763 0.04721126
000250 f8 ca 88 bc 80 81 29 bc 98 17 e5 bc 1e 13 5f bd
       -0.016698346 -0.010345817 -0.027965352 -0.05446159
000260 a0 ed ab bb 76 a2 35 bd e8 29 3c bd 40 4e 3b bd
       -0.005246833 -0.044344388 -0.045938402 -0.045728922
000270 84 aa 77 3d 46 26 41 bd 00 84 fb bc 28 e1 0b bd
       0.06046535 -0.04715564 -0.030702591 -0.034150273
000280 78 dc 40 3c 04 29 1b bd ae dc 5b bd f8 54 42 bd
       0.011771314 -0.037880912 -0.053677253 -0.047444314
000290 66 78 0f 3d f0 8d 7f 3d 92 bc 77 bd b4 13 1a bd
       0.03502693 0.06239122 -0.06048257 -0.037616447
0002a0 18 11 8a bc 0e fd 1f bd 00 97 32 3b 4c 2d f0 bc
       -0.016853854 -0.03905969 0.0027250648 -0.029318474
0002b0 e0 bd 10 3b 60 f4 fb 3c 90 c1 a0 bb f0 a5 f2 3c
       0.002208583 0.030756176 -0.004905887 0.02962014
0002c0 e8 16 00 bd d6 18 49 3d 64 9d fa 3c 40 59 94 bb
       -0.031271845 0.04909595 0.030592628 -0.004527241
0002d0 92 8f 60 bd 10 bf fe bb 70 fd a6 bb b2 8e 5d bd
       -0.05482442 -0.0077742413 -0.00509613 -0.054091163
0002e0 8c 9e bb 3c 94 60 f3 bc c0 87 01 bc f8 1a 83 bc
       0.02290275 -0.029709138 -0.0079059005 -0.01600407
0002f0 b4 2b fe 3c ec 71 c5 bc d0 d6 2b bd 4e ae 01 3d
       0.031026699 -0.024102174 -0.041952908 0.03166037
000300 40 c1 e2 3b 5c 20 b5 bc 50 d7 d2 3b f8 ac 23 3c
       0.00692001 -0.022110157 0.0064343587 0.009989969
000310 94 f2 d9 bc 00 89 ad 3b 4c ad 01 3d 94 e9 c1 bc
       -0.026604928 0.0052958727 0.03165941 -0.023670949
000320 80 8b 1f 3b 5a 54 1a bd 80 3d 80 bb 60 46 08 bc
       0.0024344623 -0.0376781 -0.0039135814 -0.00831756
000330 f8 aa 47 bc 00 bd 37 3d c8 8d 5d 3c 80 ec 43 3a
       -0.012186758 0.04485798 0.013522573 0.0007473901
000340 64 16 12 bd 64 12 30 bd 98 7f 64 bd 7c 1a 2d bd
       -0.035665885 -0.04298629 -0.055785745 -0.042261586
000350 9c 77 32 bd 68 3a a6 bc cc 05 27 bd 28 02 19 3d
       -0.0435711 -0.020291522 -0.040777013 0.037355572
000360 88 ff ac bc 50 1b df bc de 4c 4d 3d d8 4a c4 3c
       -0.02111794 -0.027234703 0.050122134 0.02396147
000370 ec 6a a7 3c c8 41 5b bc a2 a4 3f bd 00 50 d0 ba
       0.020436727 -0.013382383 -0.046787865 -0.0015892982
000380 c8 87 e5 3c 58 a7 59 3d ec d0 fc bc 98 f3 2e bc
       0.028018847 0.053138107 -0.03086134 -0.010678194
000390 04 04 8d 3c 5a ea 6e bd 80 2c fd 3b e0 61 9d bb
       0.017213829 -0.058328964 0.007726252 -0.0048029274
0003a0 2c 21 de bc 78 cd 11 bd d0 39 b3 3c 56 4d 78 bd
       -0.027115427 -0.03559634 0.021878153 -0.06062063
0003b0 5c a1 4e bd 68 bb 40 3c fa e3 18 bd 90 0a ed 3c
       -0.050446853 0.011763431 -0.03732679 0.0289357
0003c0 fc 95 f0 bc f6 02 46 bd ac 1b 2f bd 30 5c 38 3d
       -0.029368393 -0.048342668 -0.042751 0.04500979
0003d0 c4 64 a1 bc 40 e0 1a bd d0 70 00 3c 20 42 14 3d
       -0.01970137 -0.037811518 0.007839397 0.036195874
0003e0 48 94 42 3d 8a 71 39 3d 3c cd 88 bc 5c fa 2e bd
       0.047504693 0.045274295 -0.016699426 -0.04271923
0003f0 30 fe 50 bd 00 88 5d bb 54 c6 b7 3c e0 32 c7 bb
       -0.051023662 -0.0033802986 0.022433437 -0.006079063

fc2.bias f4 [256]
000000 ba 13 6b 3d 8f e0 86 3d 01 ac 8c 3d 30 47 a4 bb
       0.05739186 0.065858 0.06868745 -0.005013369
000010 bd 8a 06 bc 3e f8 50 bd 57 de 53 bc 51 16 57 3d
       -0.008211789 -0.051017992 -0.012931428 0.052511517
000020 8c 03 ab bc af ec 6b 3d a8 db 14 bd 6c 86 27 bd
       -0.020875715 0.057598766 -0.036342293 -0.04089968
000030 8a 64 f9 3d 2e e8 8b 3d 54 e3 29 bc a3 f8 0c bd
       0.121773794 0.06831394 -0.010369141 -0.034416806
000040 5a dc c0 bc c0 c0 0d bc ee ae 85 bd e6 a4 36 bd
       -0.023542572 -0.008651912 -0.06527506 -0.044590853
000050 e9 2a a0 3c 3c 83 78 bb 5f 6a 85 bd 73 68 87 3b
       0.019551711 -0.0037920019 -0.06514429 0.0041323244
000060 92 88 72 bd 30 ff 0a bd d2 b4 04 3c 46 96 52 bd
       -0.059212275 -0.033934772 0.008099752 -0.051412843
000070 08 12 07 3d 6b 6a 24 3c 5d 47 93 3d 0c a9 4b bd
       0.03297618 0.010035138 0.07191346 -0.049721763
000080 76 a4 c1 3b 1d 91 73 3d e7 55 0d bd 6e 38 89 bd
       0.005909498 0.059464563 -0.03450575 -0.06700216
000090 e6 f0 c7 3c 7e 10 80 3d 08 fa e1 3b f2 75 97 3d
       0.024406862 0.06253146 0.006896261 0.07395543
0000a0 41 36 f9 bc c2 ef 17 bd c4 c9 3f bd 7a 5c 83 3b
       -0.030421378 -0.037093885 -0.046823278 0.004008827
0000b0 29 22 0c 3d 76 7f 03 bd d9 90 2f 3c 15 d5 46 3d
       0.034212265 -0.032103978 0.010715687 0.048543055
0000c0 1f 5d 0f 3b c4 af c3 3b 55 3d 97 3b 50 5d 03 3c
       0.0021875573 0.0059718806 0.0046154656 0.008017853
0000d0 7a 64 4b bd 1c 1d af bc 76 50 ac bb d8 f7 ff 3d
       -0.04965637 -0.021376185 -0.005258615 0.12498444
0000e0 1f f6 1a bd 86 03 1e bd 52 8e 8d 3c d7 aa 85 bd
       -0.037832376 -0.03857758 0.017279778 -0.06526726
0000f0 fb e9 b8 3c f8 7d 4f 3d 6f f8 53 bd 6d 07 46 bd
       0.022572508 0.050657243 -0.051750597 -0.048346926
000100 70 07 ad 3d 5d 6d 98 3b 25 e1 8d bc 58 0d 91 3b
       0.08448684 0.004651709 -0.017319271 0.0044266395
000110 d8 93 f9 bc 63 37 a5 3d ac 39 77 bc 10 42 70 bc
       -0.030466005 0.08067205 -0.015089434 -0.014664188
000120 77 0b 02 3c 9f 3b 19 3b 29 11 8b bb 41 c3 38 3d
       0.007937304 0.0023381484 -0.004243989 0.045108084
000130 86 52 36 bd 37 7f ce 3c 84 2f 47 bd 22 8f f7 3c
       -0.044512294 0.025207145 -0.0486293 0.030219618
000140 7d c6 3a bc 76 2d 0a bc 81 e3 3c 3d 39 0c 10 3e
       -0.011399862 -0.00843369 0.046115402 0.14067163
000150 5c 4a c6 3c 54 66 2e 3d fc 70 fe bc bb e2 df 3c
       0.02420538 0.042578056 -0.031059735 0.027329793
000160 fd 2c 7c 3c 57 b4 fb 3c c0 51 d9 3c e1 03 79 3c
       0.015391585 0.030725641 0.02652824 0.015198679
000170 33 97 33 3d df e3 58 3c 22 56 47 bd 50 7e 44 3c
       0.043845367 0.013237922 -0.048666127 0.011993006
000180 d8 00 52 3c 1b a0 41 bd 22 c6 b5 bc 91 7d 63 3d
       0.012817584 -0.04727183 -0.022189204 0.05553967
000190 de 9f 7b 3c 0a e0 4d ba d2 2a b7 bb fa 9c 52 bd
       0.0153579395 -0.0007853514 -0.0055898214 -0.051419236
0001a0 8f 8f 07 3e 9a a2 26 3d d9 35 6c bc 0a 02 3e bd
       0.13238357 0.040682413 -0.014417135 -0.046388663
0001b0 9f 47 4d 3d a0 8b b1 bc 75 22 9d 3c e3 3a 8a bc
       0.05011713 -0.021673024 0.01918147 -0.016873783
0001c0 9d 47 89 3d 75 06 19 3d 9f d0 09 3d c5 12 53 3d
       0.06703112 0.037359674 0.033646222 0.051531572
0001d0 82 a3 9a 3d a6 55 39 bd 29 f9 56 3d 68 55 6a 3d
       0.07550718 -0.045247696 0.05248371 0.057210356
0001e0 93 be 32 bd 90 80 a3 3c d6 a3 55 3d d6 59 04 3d
       -0.043638777 0.019958764 0.0521582 0.032312237
0001f0 98 12 70 3d 7e ff 5f 3d 1f e0 64 3c ac 85 39 3d
       0.058611482 0.054687016 0.01396945 0.045293495
000200 ca 21 12 3c 15 47 d5 3c c8 a0 9b 3d a5 b3 59 3d
       0.008919189 0.026034871 0.07599026 0.053149838
000210 2a d7 c6 3a 82 3f 5e 3d 3e 02 23 3b 36 a0 7f bd
       0.0015170325 0.054259785 0.0024873163 -0.06240865
000220 dc f8 38 3d 5b 8e 38 bd f3 13 92 3b c3 bd 93 3c
       0.045159206 -0.045057636 0.0044579445 0.018034821
000230 10 db bf 3c b8 cb df 3c e1 7b af bc de 87 22 bd
       0.023419887 0.02731882 -0.021421375 -0.039680354
000240 c1 59 d0 bc fe 1f 01 3c 50 9c bc 3b be b2 49 3d
       -0.025433423 0.007881163 0.0057559386 0.049242727
000250 c7 29 4e 3d 74 74 3e bd 1b a4 98 bc 4a b9 6c bd
       0.05033281 -0.046497777 -0.01863294 -0.057793893
000260 70 9e e0 3c 11 a7 6a 3d ee 25 51 bd 4a 00 5d 3c
       0.027419299 0.057288233 -0.051061563 0.013488838
000270 12 5d 46 bb 26 86 79 bc 07 1b f4 3c 6f 7e 79 bc
       -0.0030267877 -0.015229737 0.029798044 -0.015227898
000280 a5 29 f4 3c df 58 2c bd a1 2c 66 3c dc 9e 2f 3d
       0.029805014 -0.04207694 0.014048726 0.04287611
000290 1a df 92 3b 57 6d 80 bd d1 af 0b 3d b8 76 6f 3d
       0.004482162 -0.06270855 0.03410322 0.05846283
0002a0 29 c4 ac 39 4e d6 4b bd 24 32 5b 3d 83 7d 2d 3c
       0.00032952547 -0.049764924 0.053514615 0.010589006
0002b0 27 fd 81 bd 1b f3 30 3d 64 b4 23 bd 1f c3 28 3d
       -0.06347113 0.043200593 -0.039966956 0.041201707
0002c0 36 04 64 3d dd e0 d0 bc 15 fa 27 3d 63 77 42 bd
       0.05566808 -0.025497848 0.04100998 -0.047477137
0002d0 2c 37 cb 3c b9 b3 d2 bc 43 e7 92 3c 18 a7 0f bc
       0.024806581 -0.025720464 0.01793254 -0.008767866
0002e0 97 cc 67 bd 16 ee ab 3c 1c 24 33 3d 8e 8c 33 3c
       -0.056591596 0.020987552 0.04373561 0.010958804
0002f0 7f 49 1f 3d ee 15 be 3c 70 eb 0c bc 2e 60 12 3d
       0.03888845 0.023203816 -0.008601055 0.035736255
000300 3b cf a6 3c 6a f3 59 bc 51 67 a1 3d 74 80 8b bc
       0.020362487 -0.013302663 0.07881034 -0.017029025
000310 4f 2b 95 3c 75 a9 51 bd ac a2 5e 3d 54 7e 2b 3c
       0.018209128 -0.051186997 0.054354355 0.010467131
000320 cc 0a 70 bd ea bc 8b bd fa 56 94 3d e1 50 56 ba
       -0.058604047 -0.06823142 0.07243152 -0.0008175504
000330 17 49 6e 3c e2 3b 07 3d 72 6f 62 bd bc 85 59 bc
       0.014543793 0.033016093 -0.055282064 -0.013276514
000340 27 0a 36 3c 5c 10 b5 3c 6e 9f 58 bd 8d 04 fa bc
       0.011110819 0.022102527 -0.05288642 -0.030519748
000350 a2 5e 31 3d ee c8 7c bd 8f 09 be 3d ee 83 15 3d
       0.04330314 -0.06171506 0.09279167 0.03650277
000360 b9 8f 2d 3c 04 f3 b3 3c a2 1b 8c bb c2 b9 e3 bc
       0.010593348 0.021966465 -0.004275755 -0.027798537
000370 98 79 23 3d 0f 2b 2f 3d fa 5d 85 bd 32 87 fc 39
       0.039910883 0.042765673 -0.06512065 0.00048165914
000380 3e a4 14 bd 7d 79 0b bd 90 00 1a 3d a5 4c 7c bd
       -0.036289446 -0.034051407 0.037598193 -0.06159653
000390 fc 1e 9f bc ed 3e 09 bd 29 78 a9 3c 49 f4 6d bc
       -0.019423954 -0.033507276 0.02068718 -0.014523574
0003a0 f6 6b 13 3c 98 60 13 3d d8 47 5a 3c db 12 e9 bc
       0.008997908 0.03598079 0.013322793 -0.028451374
0003b0 c3 dc 84 bd b2 b7 14 bd de 5f a8 3c 5e 43 cd 3d
       -0.064874195 -0.036307998 0.020553526 0.10022615
0003c0 2d a5 ed 3d 63 3d 57 3d 2a 3e b5 bc 7c a1 34 bd
       0.116037704 0.052548777 -0.022124369 -0.044099316
0003d0 d8 67 1f 3d 99 7a 0c bd 23 0e ef 3c c1 de 61 3c
       0.038917392 -0.034296606 0.029181546 0.013786019
0003e0 4e d8 a7 3c 57 91 d1 3c 41 ec 49 3d b0 ae 6c bc
       0.020488884 0.025581999 0.049297575 -0.014445946
0003f0 91 f2 b3 bb 51 72 df 3b 90 1f ac bc 84 ba 66 3d
       -0.0054915627 0.0068190475 -0.021011144 0.05633022

fc3.weight f4 [2, 256]
000000 c6 b1 7a 3d 37 4a 93 3e 8b 38 80 be cd 95 9a be
       0.061204694 0.2876756 -0.2504314 -0.30192414
000010 ea 88 59 bd 78 88 88 3e 88 e3 d7 3c bd db 3e 3d
       -0.053109087 0.26666617 0.026353613 0.046596278
000020 cc f9 a0 3e 6b c8 9f be 86 6a 03 3d c3 7f ca be
       0.3144058 -0.31207594 0.03208401 -0.395506
000030 8b d3 07 3e 03 b0 a8 3d fe 0a ad be 39 47 73 3e
       0.13264291 0.082366966 -0.3379745 0.23757638
000040 eb 8b 87 3e 29 d4 8a 3e 4c 61 80 3e a2 29 7f 3d
       0.26473936 0.2711499 0.25074232 0.062295564
000050 78 59 85 3e 50 85 8d 3e db 18 fc bc 03 97 bc be
       0.26044822 0.27640772 -0.03077357 -0.36833963
000060 60 27 ec 3b dc da 79 bd b8 58 92 3e 74 33 59 3d
       0.0072068423 -0.060999736 0.28583312 0.053027585
000070 c9 c7 8a be c8 03 87 3c 6b 4b 92 3e 81 d1 92 3e
       -0.2710555 0.016481295 0.28573164 0.28675464
000080 9f b6 e3 bc 7e c6 a6 bb 91 3d 81 bd a9 3d 52 3e
       -0.027797041 -0.00508958 -0.06310571 0.20531334
000090 ba b6 6d 3e 20 0e 93 3e d1 40 9f 3e bd 57 22 3e
       0.23214236 0.28721714 0.31104138 0.15853782
0000a0 f4 f6 83 3e ff e6 20 bc 13 91 80 bd 7c 6d 8e 3e
       0.25774348 -0.009820699 -0.06277671 0.27817905
0000b0 fd 90 80 3e ba be 8e 3e 80 2b 8b 3e fa 57 13 bc
       0.25110617 0.27879888 0.27181625 -0.008993143
0000c0 12 75 fa bb ae 81 5b be 22 9e 8b 3e 80 0b 57 3c
       -0.0076433504 -0.21436188 0.27269083 0.0131253
0000d0 85 72 97 3e bf 22 93 3e 63 7c 8c 3e a4 e5 c7 3d
       0.2957956 0.28737447 0.2743865 0.09760597
0000e0 f9 4a 8e 3e b7 d1 0b bd 20 a4 b5 bb 8b db cf bc
       0.27791575 -0.034135547 -0.005543247 -0.025373241
0000f0 45 8e 2d 3f 54 cd a4 bd 2e 3b c3 be a6 a4 a8 be
       0.6779521 -0.08046976 -0.38131088 -0.32938117
000100 f9 80 a3 bd 0c 5e 87 3b 89 2f 93 3e 27 69 84 3e
       -0.07983584 0.0041310843 0.28747204 0.25861475
000110 b5 7b 24 3e dd eb 37 be 6c 26 3d be d4 17 47 3d
       0.16062815 -0.17961068 -0.18471688 0.04860671
000120 be 19 d8 bc 81 aa 32 bb 29 db 2b 3c 73 3d 81 3e
       -0.026379462 -0.0027262273 0.010489264 0.25242195
000130 5b 85 86 3e 5c 4f 7d 3e 76 8a 7a 3d 2c 5d d6 be
       0.26273617 0.24737304 0.061167203 -0.4186796
000140 41 bd 80 3e 0d f5 a0 3e 81 ea 85 be d9 b0 13 3e
       0.2514439 0.3143696 -0.26155475 0.14422931
000150 3f bb 82 3e c4 8f 87 3e 60 c9 53 bc 69 46 82 be
       0.25533482 0.26476872 -0.0129264295 -0.25444344
000160 00 fc 2c 3a 21 58 88 3e 0e 1e 7f 3e c4 72 8b 3e
       0.000659883 0.26629737 0.24913809 0.27235997
000170 7a ba 92 3e ef 7e 76 bc bc 3f 5d 3e e4 5f 96 3e
       0.28657895 -0.015044912 0.21606344 0.29370034
000180 92 f0 49 bd f5 0f 28 3f be 15 88 3e 43 e3 8e 3e
       -0.04930169 0.6564935 0.26579088 0.27907762
000190 bb 7d a0 3e 1f f1 c4 be dc 05 20 bd e5 be 89 3e
       0.31345925 -0.3846521 -0.039068088 0.26903453
0001a0 2b 33 ba 3d ab d8 8f 3e d0 a7 a6 3e c4 96 5d bd
       0.09091791 0.28094992 0.32549906 -0.05409886
0001b0 60 9a 8e 3e 59 45 b2 bc 3a bf 5d bd c1 9a 8a be
       0.27852154 -0.021761583 -0.054137446 -0.27071193
0001c0 c9 24 88 3e 3b b4 99 3e 9a 73 c3 bc 05 9b 2d be
       0.26590565 0.30020317 -0.023858834 -0.16953667
0001d0 5f 8b 00 3d e3 9b 96 3e 12 fd 87 3e f7 a2 5a 3e
       0.031382915 0.29415807 0.26560265 0.21351229
0001e0 8c 2e 12 3f 00 85 a7 bc 85 86 96 be d6 d0 50 bd
       0.57102275 -0.020449162 -0.29399505 -0.05098041
0001f0 09 08 82 3e e9 31 76 3e 8c 66 7b 3e b3 df 9d be
       0.25396755 0.24042477 0.24550837 -0.3083473
000200 22 ed 97 3e 04 91 16 3e d4 ba 8c be e0 9a 87 3e
       0.29673105 0.14703757 -0.2748629 0.26485348
000210 8b 10 82 be 0b ad 94 3e e5 3a 8c 3e 6c c2 bc 3c
       -0.25403246 0.2903827 0.27388683 0.023041926
000220 6b 13 31 3f 43 c8 97 3e 1a 21 81 3e a6 bc 4f 3e
       0.69170254 0.29644975 0.25220567 0.20286807
000230 4d 8a 99 3e 85 82 75 3e ec 99 84 be 15 90 61 be
       0.29988328 0.2397557 -0.25898683 -0.22027619
000240 2d 54 81 3e 0b c8 1b be a0 7e 94 3e dc e2 11 bc
       0.25259534 -0.15213029 0.29002857 -0.008904185
000250 a1 65 93 3e 53 10 88 3e f1 3c 30 be c4 07 79 bd
       0.28788474 0.26574954 -0.17210747 -0.06079842
000260 f4 47 94 be c2 5f 94 be bf b3 95 3e 92 61 2e bd
       -0.28961146 -0.28979307 0.29238698 -0.04257352
000270 7c 16 8c 3e cd 75 03 be ec 54 84 3e 49 49 19 be
       0.27360904 -0.12837906 0.2584604 -0.14969362
000280 3f 2d 89 3e df d3 92 3e 7a 19 98 3e cd 0d 56 be
       0.26792333 0.2867727 0.29706937 -0.20903702
000290 08 70 92 3e 99 52 26 bd ff c3 7f 3e 11 22 7a bd
       0.28601098 -0.040606115 0.2497711 -0.061067645
0002a0 8a 0f a9 bc 58 2e a5 be e5 36 8f 3e 53 b6 8d 3e
       -0.020637292 -0.3226192 0.2797157 0.27678165
0002b0 dc a5 87 3e c3 c6 6e bd 51 96 66 bd 6f e6 77 3e
       0.26493728 -0.058295023 -0.056295697 0.24208997
0002c0 9e f9 73 be 22 dc 9e be 68 95 86 3e ee 94 31 be
       -0.2382569 -0.31027323 0.26285863 -0.17341968
0002d0 ec aa 99 3e 0f a5 38 bd af 44 8e 3e 40 5a 1a bb
       0.30013216 -0.045079287 0.27786776 -0.0023552328
0002e0 ab fa 34 3f c7 da da be 4b 49 99 3e 71 f3 3c be
       0.7069499 -0.4274504 0.2993873 -0.1845224
0002f0 26 27 88 bd 04 2f 90 3e 9e be f4 bc 66 78 9d 3e
       -0.06648092 0.2816087 -0.02987605 0.3075592
000300 49 46 aa bc a3 d1 95 3e 93 d7 8b 3e df c8 89 3e
       -0.020785468 0.29261503 0.27312908 0.26911065
000310 aa 32 81 bb 1d 7d 50 bd 1a b8 80 3e 03 5d 39 bb
       -0.003942807 -0.050900567 0.25140458 -0.00282842
000320 7a 93 46 bd 60 f8 75 3e db 68 88 3e 66 8b 8f 3e
       -0.04848049 0.24020529 0.26642498 0.2803604
000330 65 0a 3e 3f 79 69 ac 3b e0 7a a4 3b 1c a5 95 3e
       0.7423461 0.0052615968 0.0050195307 0.2922753
000340 ba 9f 8e 3e f8 4c 2d 3d f9 d7 15 3c 00 dc 9a be
       0.27856237 0.04230973 0.00914573 -0.30245972
000350 be 72 8e 3e 24 20 3a 3a 7c af eb 3d 12 35 85 3e
       0.27821916 0.0007100126 0.1150808 0.26017052
000360 97 26 72 3e 29 c6 27 3f 2a 3b 91 3e 34 24 8c 3e
       0.23647533 0.65536743 0.2836545 0.2737137
000370 3d 7d 9f be 91 5a 84 3e 08 59 1d bd f8 eb 87 bd
       -0.31150237 0.25850347 -0.038414985 -0.06636804
000380 1e b0 8b 3e 55 b9 57 3e 0e 37 74 be 74 ae 65 3d
       0.27282804 0.21066792 -0.23849127 0.056074575
000390 aa 36 96 3e f7 23 85 3e 1b 96 88 3e 43 a7 04 bc
       0.2933858 0.26004001 0.2667702 -0.008096519
0003a0 38 12 93 3e 01 7b 93 3c 7c d4 e2 bc b5 e3 74 3e
       0.28724837 0.018002989 -0.027689211 0.23914988
0003b0 e6 19 36 bc 13 69 90 3e b9 29 1b be 82 19 06 3e
       -0.011114573 0.28205165 -0.15152635 0.13095668
0003c0 5e b3 b8 bc 0f 29 22 bd f9 9d 83 3e cb 7f a6 be
       -0.022546466 -0.039589938 0.2570646 -0.32519373
0003d0 8b 60 8b 3e b3 7d 57 bd 81 bf 3a bc 28 6a d0 3e
       0.27222094 -0.05261011 -0.011398197 0.4070599
0003e0 3a 30 75 be b1 f7 ae 3c 04 6f 28 3e 33 f8 66 3e
       -0.23944178 0.021358343 0.16448599 0.22555618
0003f0 01 55 d9 be 3a 7b 7e 3e a2 2d 86 3e c4 9f 9a 3c
       -0.42447665 0.24851695 0.2620669 0.01887501

fc3.bias f4 [2]
000000 33 86 37 3d 6e b0 f6 3c
       0.044805717 0.030113425
