codes/PPO/outputs/CartPole-v0/20211231-193837/models/ppo_actor.pt (torch, 272279 bytes, 6 tensors)

actor.0.weight f4 [256, 4]
00000000: 58e5 5abe 8228 c13e 7789 40be 46e2 45be
00000010: 72cf cc3c 425f 333e 0c75 88bd ec62 103f
00000020: 336b e53c 4397 a3bd ce4e d5be 4ed9 e63e
00000030: fa87 eebe 855f 4b3e 4cef 8f3e 5a52 c33e
00000040: e22b a8bc f10c 523d c8c8 803e 05d1 11bf
00000050: 76ec f3be 7f22 793d b4fe 67be 6196 c7bd
00000060: 1fa4 64be 7b91 b73e 3820 bf3e f546 00be
00000070: a8aa db3e 9460 f6be 1a11 9cbe 97d4 1bbf
00000080: 98d7 b43e c93d 7cbe 0e35 cebe 85d5 39be
00000090: 3d2a f7be 9262 85be 6078 21bf 0528 d7be
000000a0: 6345 8abe b330 a63e 29ce d73e d46f 073f
000000b0: 26db 7dbe 4d68 bc3e 0041 a6be cecc 943e
000000c0: 00b7 cebe 304e 25bc b9a1 d6be ed6a 313d
000000d0: f48e a33d e061 a8bd 3ba4 f8be 951c 5bbe
000000e0: 244d a2be 52cb e8be 328e 0d3e e755 fe3e
000000f0: 029f d23e 2ebb b4be 9882 c1be 60c6 85be
00000100: edbf fabd 695d 053f befc 923e 1f31 733e
00000110: 13b1 173e f172 ea3e 2095 bb3d dbc7 823d
00000120: 6d66 71be 5455 733e de90 063e 3f58 083f
00000130: f27f ddbe af4b 0cbe 1bf2 b6be 049b 3a3e
00000140: 4607 e23e 9990 43be 80fe 033e 2fb2 f03e
00000150: 39e5 00bf c08b c4be bf56 d6be c23d 5b3e
00000160: bb53 dbbe cbcf 40bc d9f8 e1be 2d5a a7be
00000170: f6d5 d9be 3a94 efbe 8492 c53e 862d 5b3c
00000180: e838 d9be a85f f23d f613 1dbe c1d8 023f
00000190: 42d5 0dbe 02c3 3bbe 81fd 2dbe 84a0 873e
000001a0: e836 80be c9ea a6be 8924 b03e 7c27 383d
000001b0: a749 a9be fc0a 10bd 0d80 b2be d6e6 173e
000001c0: d7ce a23d 6714 bc3e f5f6 1f3d cb31 063f
000001d0: 94bc 09bf 0274 d53d d8c1 8f3e bd33 a03d
000001e0: 07c9 aabe 5d6f 393e a79c 4cbe fa71 373b
000001f0: 4213 c0bd 46cb 4fbd 0233 8a3d a71e 17bf
00000200: 4436 5a3e ce24 b9bb 733c 21be f50d 6fbe
00000210: f828 1ebe c89b c03d 90f9 d3bd a0ec 943d
00000220: e231 853e e1a4 243e 96cc 04be 0324 9abe
00000230: 501c d93e 0c1c a53e 2dce 0bbf 0ead f6be
00000240: 77e9 bf3e 5c25 1b3e e35d d53e de6a af3e
00000250: df93 3dbc cfc5 8ebe 7832 90be ae96 713e
00000260: 7d1a 2abc 5bc8 693c b5ef 71be c9b3 b9be
00000270: e4be b3bc 7663 71bc 4eae 333e 0aa7 c3be
00000280: 0f7b ed3e c693 40be f20a 11be 5bae 44be
00000290: fb41 97be 1845 5d3d 1d42 63be 1c14 8fbe
000002a0: 275d 89be 8b03 be3c 1b23 07bd 79cb ad3e
000002b0: b5ae b5bd 4646 d3be c888 06bf a04b 7c3e
000002c0: a6cb 6cbe ebf5 a43e eb16 e03d 7f8b 843e
000002d0: 2556 b0be 82f1 fd3e 59b4 d13e b5f7 063e
000002e0: 5442 173e 12aa 84be 077c d73e a122 153f
000002f0: d767 403e ec6d f83d 1a2d 7c3d 6e5f cf3e
00000300: f100 3cbe 4221 653e 58af 903d 1907 a4bd
00000310: 8684 a8be ca83 b1be d588 89be e114 a23e
00000320: dfc1 e53e 4428 0d3e 07f1 05bf c6ee 1ebf
00000330: 2812 d3bd 8f89 e5bd ec0d b7be fe37 073f
00000340: 64a4 b8be ff7c c43e d11e 98be c765 dc3d
00000350: 9435 7abd 0a88 c63e aa00 fdbe f8ba 88be
00000360: 73f4 d23e eaa6 dbbd 75c2 04be c098 2d3f
00000370: fb5b 0abe e4a8 94be cfd1 453e 8333 95be
00000380: b500 d1be 7810 37bc 13dd 16bf ac0d e1bd
00000390: 24ee e53e cf8e 52bd b50f 9b3e 7e65 e6be
000003a0: 5dc4 43be 8269 bb3d c6bd 09be 4843 f43e
000003b0: 9843 c53e 1ad5 1ebe 9ff0 a73e 1310 d5be
000003c0: e92b ee3e 3c7c 05bd d5c1 00be f434 4abd
000003d0: d131 b5be 45e5 e23e 3983 71be 5b6b a33e
000003e0: 8150 833e d89a 66be 5236 85be f97d 2cbf
000003f0: caa0 c7be c766 433e c280 0bbd 2e2c dabd
-0.2137655 0.37726218 -0.18802439 -0.19324598 0.025001261 0.17516807 -0.0666295 0.5640094
0.028005218 -0.07987835 -0.41661686 0.45087665 -0.46588117 0.19860657 0.28112257 0.38148767
-0.020528737 0.051281873 0.25153184 -0.56959563 -0.47641343 0.060823914 -0.22655755 -0.097454794
-0.22328232 0.3585318 0.37329268 -0.12527068 0.42903638 -0.48120558 -0.30481797 -0.6087126
0.35320735 -0.24632944 -0.40274853 -0.18147857 -0.48274413 -0.26051766 -0.630743 -0.4202272
-0.27006063 0.3245903 0.42149475 0.5290501 -0.2479063 0.36798325 -0.32471466 0.29062504
-0.40373993 -0.010089442 -0.4192026 0.043314863 0.079862505 -0.08221793 -0.48562798 -0.21397622
-0.3169948 -0.4546762 0.13823774 0.49674913 0.41136938 -0.35299057 -0.37794948 -0.2612791
-0.12243638 0.5209566 0.28708452 0.23749207 0.14813642 0.45790818 0.09159303 0.06385776
-0.23574229 0.23763019 0.131412 0.5325965 -0.43261677 -0.13700746 -0.35731587 0.18223196
0.44146174 -0.19098128 0.12890053 0.47010943 -0.50349766 -0.3838787 -0.41863057 0.21410277
-0.4283732 -0.011768292 -0.44135168 -0.32685986 -0.42546052 -0.46792775 0.38588345 0.013377553
-0.4242623 0.11834651 -0.15339646 0.5111199 -0.13850883 -0.18336108 -0.16991235 0.2648965
-0.2504189 -0.32601002 0.34402874 0.04495953 -0.33064005 -0.035166726 -0.3486332 0.1483415
0.07949608 0.36734316 0.039053876 0.5241973 -0.5380337 0.10422517 0.2807758 0.07822368
-0.33356497 0.18108888 -0.19981633 0.002799152 -0.09378673 -0.050730966 0.0674801 -0.59031147
0.21309763 -0.0056501394 -0.15745716 -0.23345168 -0.15445316 0.09404713 -0.10350335 0.07271695
0.2601462 0.16078521 -0.12968668 -0.301056 0.42404413 0.3224796 -0.54611474 -0.48178905
0.37482807 0.1515097 0.41673192 0.3426122 -0.0115709 -0.2788529 -0.28163505 0.23592636
-0.010382292 0.01426896 -0.23626597 -0.36269978 -0.02194161 -0.014733186 0.1754696 -0.38213378
0.4638295 -0.18806371 -0.14164332 -0.19207136 -0.29542527 0.05402097 -0.22193189 -0.2794503
-0.26828882 0.023195049 -0.032992464 0.339443 -0.08871213 -0.41264552 -0.5255246 0.24638224
-0.2312456 0.3221887 0.10941871 0.25887677 -0.34440723 0.49598318 0.40957907 0.1318043
0.14771396 -0.25911003 0.42086813 0.58255965 0.18789612 0.12130341 0.06156645 0.40502495
-0.18359734 0.22375968 0.07064694 -0.08009166 -0.32913607 -0.3467086 -0.26862207 0.31656554
0.44874474 0.13784891 -0.52320904 -0.6208309 -0.103061974 -0.11207878 -0.3575281 0.5281981
-0.3606292 0.38376614 -0.2971101 0.107616 -0.061086252 0.38775665 -0.4941457 -0.26705146
0.41202125 -0.10725196 -0.12964804 0.67811203 -0.1351165 -0.29035103 0.19318317 -0.29140863
-0.40820852 -0.01117336 -0.5893108 -0.10988936 0.4490825 -0.051405724 0.3028542 -0.44999307
-0.19117875 0.091509834 -0.13451299 0.47707582 0.38528132 -0.1551098 0.32800767 -0.41613826
0.46517876 -0.032589182 -0.12573941 -0.049366906 -0.3538957 0.44315544 -0.23585214 0.31917843
0.25647357 -0.22520006 -0.26018006 -0.6737972 -0.3898986 0.19082175 -0.03405834 -0.10652958

actor.0.bias f4 [256]
00000000: a8ab db3d dd29 1a3e 3733 3b3e c43e d6be
00000010: f1da ba3d 5dfc c4be 2e34 cdbe 9134 19be
00000020: 620a 3e3c 6598 473e e485 0c3e bd18 f3be
00000030: b70d abbe 590d 9fbe 013e bbbe 7a63 a63e
00000040: 3df9 5bbd b24e cf3d 6f5b cc3e 19d7 413e
00000050: 6e48 1c3e a8d5 07be 5802 5b3e 6d9f e03e
00000060: 3376 e33e 4661 9f3d 83d0 cdbd 2d1d d63c
00000070: 3261 d6bd 37ba 81be 743d f0bd 9fb8 973e
00000080: f087 0f3e 98c3 91be cb5b 4abe 8444 5638
00000090: 3aac 84be 6f73 17be 3dde f53d 6660 dd3d
000000a0: 319c aa3e ca2d 7dbe de7c e93e 8d3e be3e
000000b0: 7677 00bf cc85 9b3d 7713 6ebd 5270 9ebe
000000c0: c160 3ebe 8862 9d3e aaed 893e a544 fd3c
000000d0: acf4 e4be 0287 47be 2cd8 9c3d b6af b93d
000000e0: 3ad0 f33b 0a61 ee3c 5578 d7be d27f 66be
000000f0: 1e11 8dbe ac6e da3e 40af 043e f4b6 283e
00000100: 4456 a53e f021 173e 3aab d9be 9302 ce3d
00000110: 0e9a e8be 8b33 8fbe f5f9 8abe acec b53e
00000120: a384 ee3d 7d6b 2bbe 9109 263d fafb debe
00000130: 7f1e a03e b050 8f3e 3eaf e33e 160b afbe
00000140: d95f f9be 656f b5be 38cf 2f3e 652d d7be
00000150: 48cd f23d 094a 11be 3319 bb3e dd25 1b3e
00000160: b24b 51bd 8055 b0be 2108 8ebe aefb 383e
00000170: 30ad c7be 86a3 c93e 8c14 27be 5968 613e
00000180: c3c5 04bf 8120 b8bd 49a5 dd3e 41dd c2be
00000190: 5431 34be cc25 1c3e ffed b43e 31a1 12be
000001a0: 205f 28be 9162 c9be f907 afbe 7221 a83e
000001b0: 7799 a2be 8347 f63e 73ba 003f c2eb 973e
000001c0: 70da 913e 0112 9dbd 1491 8c3e 4b87 f3be
000001d0: d13b 1b3e cc03 643e ef09 9cbe 6a36 1fbe
000001e0: f5b3 493d 7f2f 503d 67c2 9c3d 6c15 0ebe
000001f0: 6896 a1be a764 da3e 7e7b 7a3e 3b9c f63d
00000200: bcfd 38be f0bd c23e 0236 e03e 1921 81bd
00000210: 8bbb 2cbe 5678 cabe 97fd 113e 8609 49be
00000220: 27ac d33d 6423 63be a4e8 8d3e 2307 bfbe
00000230: 393f 423d 4472 4b3d 4b29 163e 3eeb c33e
00000240: ba33 633d b577 323e eb71 1ebc fef6 b73e
00000250: 4426 d93d 844a aabe eb58 6e3e 9a02 8fbe
00000260: 54b4 8a3e a0e3 263e bc32 9d3d f9ab f4be
00000270: 7fc2 cd3d a172 cbbe 7ba3 5e3e 51df d8be
00000280: e841 433e 0f9e 0f3e bc1a bdbe 99b0 22bc
00000290: c983 b53e 8d24 c83e a02b e13e f000 df3e
000002a0: 64be fabe 922e 2cbe fcc1 913e a4f6 d7be
000002b0: 33d3 693e 1a11 8a3e 7846 d1be ee14 20be
000002c0: 9b14 db3e b0de cf3e ee32 7a3d 2adb 5dbe
000002d0: 1db6 b3bd 86d7 773e 07c9 93be eceb bcbd
000002e0: 62fd b93e 5224 903e 68f0 2cbe 30c0 5abd
000002f0: 3d3d aebe 961f 77be 4678 203e 42fa 02bf
00000300: 967d b23e d496 7ebe 553b 503d be8d 6d3d
00000310: 6678 eebe a19d 57be e11e aebe 841f cd3d
00000320: bdf2 bfbe 1461 e3be 1e21 073e 2148 b1be
00000330: 438a a0be 7a99 a73e f6f5 f23e 1453 89bb
00000340: a606 e93e 0e8d e9bd 1fb2 43be 3a24 edbe
00000350: cdf8 70bc d56e cebd 76d7 e7bd e037 0dbd
00000360: 8877 9abe 1a18 92bd 39f6 cfbe 7dab c2bd
00000370: 63d1 ae3e d316 87be b7e8 d6be 255f bb3e
00000380: 3d59 8bbc 3f6c ad3e a3d8 c23e 37d6 073e
00000390: b13c 32be 3ad1 c4be 443e 72be 04b0 e9be
000003a0: c299 613e 0c2d c43e c513 db3d cec3 37be
000003b0: abe1 27bd 8e5c fcbc f83f f3be 51e2 523e
000003c0: f5ea f0be 850a 493e 6e50 a73e 1013 bdbe
000003d0: f1db ce3e ccef 4f3e 032b cd3e 7676 bebe
000003e0: 0c7a 24be 285f 91be 3df8 ffbe afeb a9bd
000003f0: c93c 53be ac06 d43d 57f3 873e 0950 333e
0.107261 0.15055032 0.18281256 -0.4184476 0.09123791 -0.38473788 -0.40078872 -0.14961459
0.011599155 0.19491728 0.1372295 -0.4747981 -0.334089 -0.3106487 -0.36570743 0.3249777
-0.05370449 0.10122432 0.39913508 0.1892971 0.15262005 -0.13265097 0.21387613 0.43871632
0.44426116 0.07782225 -0.10049536 0.026136959 -0.10467757 -0.25337383 -0.11730471 0.29633042
0.140167 -0.2846954 -0.19761579 5.1085386e-05 -0.25912648 -0.14790128 0.12005279 0.10809402
0.3332229 -0.24724498 0.4560308 0.37157097 -0.5018228 0.07593879 -0.058124032 -0.3094507
-0.18591596 0.30739236 0.26939136 0.030916521 -0.4471792 -0.19485095 0.07658419 0.09066717
0.007440594 0.029099006 -0.42083994 -0.22509697 -0.27552122 0.4266256 0.12957478 0.16476041
0.32292378 0.1475904 -0.42513448 0.10059085 -0.45430034 -0.27969012 -0.27143827 0.3553213
0.11646392 -0.16740222 0.040536467 -0.43551618 0.31273267 0.27991247 0.44469637 -0.34188145
-0.48705938 -0.3543655 0.17168891 -0.4202682 0.118555605 -0.14188398 0.36542663 0.15151162
-0.05109758 -0.3444023 -0.27740577 0.18064758 -0.3899932 0.3938257 -0.16316432 0.22012462
-0.5186426 -0.08990575 0.43290165 -0.38059428 -0.17596942 0.15248793 0.35337827 -0.14319302
-0.16442537 -0.39333013 -0.3418577 0.32838017 -0.3175771 0.48101434 0.502845 0.29672056
0.28486967 -0.076694496 0.27454436 -0.47564158 0.15159537 0.22267073 -0.3047633 -0.15548101
0.049243886 0.050826546 0.07654267 -0.1387536 -0.31560063 0.42654917 0.24461171 0.12041517
-0.18065542 0.38035536 0.43791205 -0.06305141 -0.16868417 -0.39544934 0.14256893 -0.19632539
0.1033557 -0.22181469 0.27716553 -0.37310132 0.047423575 0.04966952 0.1466419 0.38265413
0.055469252 0.17428477 -0.009670715 0.35930628 0.10603002 -0.33259976 0.23276107 -0.27931672
0.27090704 0.1629777 0.076756924 -0.47787455 0.10046863 -0.39735892 0.2174205 -0.42357877
0.1906811 0.14025138 -0.3693446 -0.0099297995 0.35452107 0.39090386 0.43978596 0.43555403
-0.48973382 -0.1681464 0.2846831 -0.4218036 0.22834472 0.26966172 -0.40874076 -0.15632984
0.42789158 0.40599585 0.061083727 -0.21665636 -0.0877497 0.2420331 -0.2886431 -0.09224686
0.36326128 0.2815271 -0.16888583 -0.05340594 -0.34031096 -0.24133143 0.1567088 -0.51163113
0.3486144 -0.24862224 0.050837833 0.057996504 -0.46576232 -0.21056224 -0.34007934 0.10015777
-0.37489882 -0.44410002 0.13196227 -0.34625342 -0.31355485 0.3273428 0.47453278 -0.004190812
0.45512885 -0.11403857 -0.19110917 -0.463167 -0.014707756 -0.10079733 -0.11320393 -0.034477115
-0.3016932 -0.07133503 -0.4061754 -0.09505365 0.34144124 -0.263846 -0.41974422 0.36596027
-0.017010326 0.33871648 0.38055906 0.1326531 -0.17405964 -0.38440877 -0.23656565 -0.45642102
0.2203131 0.38315618 0.1069713 -0.17945787 -0.040986698 -0.030805852 -0.47509742 0.20594145
-0.47054258 0.19632919 0.3267855 -0.36928606 0.40402177 0.20306319 0.40071878 -0.37199754
-0.16062182 -0.2839291 -0.49994078 -0.08296906 -0.20628656 0.10352835 0.2655284 0.17511

actor.2.weight f4 [256, 256]
00000000: 52dd 5f3d 624a 8abd 22c7 76bd f8eb cfbc
00000010: b896 703c 4820 6bbd eed3 fcbc 48d1 2a3c
00000020: ca6b 163d e548 9a3c 64fc d2bb 5479 72bd
00000030: 2c38 f4bc 70d0 1d3d c445 b43c 2641 81bd
00000040: 8948 4dbd 6026 143d 14f7 fdbc 8df5 3f3d
00000050: 14a0 a1bc 7033 8d3c 253a d83b 1341 313c
00000060: 7a16 46bd d4ee 2f3d 68a3 56bd 4ccf 903c
00000070: 8899 16bc 9a34 7bbd 505e ed3c 3e1f 72bd
00000080: ac88 a23c 9c5b 883c 060b fc3c 89e5 c93c
00000090: 0cfb c13c ccf0 b33c 7354 c13c d076 63bd
000000a0: e0b4 2f3b 1d37 223d edca 123c 66b1 f4bb
000000b0: 10de b53b 8dde 1a3d b083 673c b4d8 7ebd
000000c0: 8f57 e5bc d24b 133b 784a 30bd 58f1 09bd
000000d0: 004a b93b bfbd 4e3d 0407 8a3c 2878 31bd
000000e0: 6be7 b4bb bd6f 9dbb 4c47 a33c 767c 3c3d
000000f0: 36e3 5cbd 0b77 263d 8731 36bd 88f6 62bc
00000100: dfc4 79bd bbf3 a93c 5c14 a83c 2c56 42bd
00000110: f4a2 b5bc a4a9 f9bc 2942 fdbc 4310 5d3d
00000120: 2ebb 71bd 665a e4bc 74ad 6c3d 2cd1 183d
00000130: e55f 9038 bf52 d9bc 321c 1dbd f82f 153c
00000140: 704f 64bc 5454 6bbd 136d 6fbc 918d 323d
00000150: 7da8 3dbd 6e15 3fbd c810 16bd c376 fb3c
00000160: 5989 2b3d 0ab1 2a3d 32f0 35bd 75c2 883a
00000170: 8ad7 343d a644 afbc fa40 563d e569 cabc
00000180: 6429 753d b7d1 6b3d 2e63 07bd b006 9d3c
00000190: 48e8 8b3c a57f fb3c 6b9a 94bc 1822 613c
000001a0: 4855 85bc 2217 793d 10af 583c 7218 6ebc
000001b0: 8041 363c 073d eb3c 8237 6d3d 8656 503d
000001c0: 7f4b 813c 1fce 59bd 3d3d 4bbc 804c 33bd
000001d0: cd9d 29bd a9c3 89bc c989 27bc 00e2 413a
000001e0: 40d0 0a3d 76b9 12bd 861b 113c 474d 563d
000001f0: 682e 083d b1e7 bf3c d6a0 b1bc f0a7 e93c
00000200: 189a 1ebd e075 e7bc b7fc 2a3d 680b c83c
00000210: 98c2 133d 6e7f 28bd 1299 433d c866 99bc
00000220: 1e8e 113d 16e8 32bd faf7 99bc 00ad f0bc
00000230: aa9f 773d 05c0 7d3c ca3a 1bbd a57e 233b
00000240: a455 98bc 642a 7fbd fb81 9d3b 1031 00bd
00000250: 0f09 103d 64b7 613d 5f87 943b e8d3 5a3d
00000260: 3255 57bd e936 d6bc 8f1a 8b3c 1024 923b
00000270: 7c09 a63c d0d5 d63b c76f 8dbd 284b acbc
00000280: fa6a 28bd 2d06 fdbc 1891 39bd 4efc 463d
00000290: a01e a3bc 7fb2 cdbc 81cb 593d fd94 913c
000002a0: e836 3cbd 7c73 523d 70c3 ecbc 30cf 593c
000002b0: 7dc6 c3ba 5b7b cabc 2838 2bbc 206a db3b
000002c0: add5 453c f0de 443d 0626 8dbc fe1d 67bd
000002d0: 687d c7bc 50d9 25ba 72c5 f2bc 008e f43a
000002e0: 71b0 de3c 696e 653d dc04 1abd 6469 ca3c
000002f0: aa08 1abd db6b 93bc 584c 3e3d 48af e73c
00000300: e678 5fbc b432 a7bc 0e94 6ebd 2cae 153d
00000310: 90fd dc3b 2224 8cbc 4cd7 0e3d a3d3 a5bc
00000320: b660 0a3d 7666 4cbd 51aa f23c f807 33bd
00000330: 3078 d0bc e093 afbc 32f7 43bd 6884 1c3d
00000340: 0abb 963c 2643 e3bb 033a ddbc 54fd 7a3d
00000350: edfb 4fbd 60f6 62bd 18f2 23bc 2af6 04bc
00000360: 972f 7c3d 0019 dabc 22ea 583d 9676 1bbd
00000370: 9d1b bcbb b03a 783d b17a c9bc 54d4 7bbd
00000380: f1ae 7ebc e792 19bd 8ac3 543d eb29 9f3a
00000390: d88c 59bd e4a3 00bd f3f7 33bd 6062 b33b
000003a0: 83e6 c9bb 339b 273c b5c6 20bc 1830 c53c
000003b0: 80d8 733a bd23 9a3c 08fa 19bd 60db 6dbd
000003c0: ef07 23bd a963 34bd 52db e03c a9cd 8d3c
000003d0: 864b 49bc e219 5ebd 5d27 bc3c c089 2d3b
000003e0: c6b3 173c 40be 2abd 688f fb3c 810f 58bd
000003f0: 2045 10bc 10ed b8bc 439a 78bc 2337 27bd
0.054654427 -0.06752469 -0.0602485 -0.025381073 0.014684372 -0.057403833 -0.030862775 0.010425873
0.03672389 0.018833587 -0.0064387787 -0.05919774 -0.029811941 0.03852886 0.022005923 -0.06311254
-0.050118003 0.03616941 -0.031001605 0.046865035 -0.019729652 0.017236441 0.0065987282 0.010818738
-0.04836128 0.042952374 -0.05240193 0.017676972 -0.009191878 -0.06132946 0.028975636 -0.059111826
0.01984056 0.016645245 0.030766975 0.024645584 0.023679279 0.021965407 0.023599839 -0.05553323
0.002681069 0.03960334 0.008959514 -0.0074674366 0.0055501536 0.037809897 0.014130518 -0.062218383
-0.027995853 0.0022475612 -0.04303977 -0.03367743 0.0056545734 0.050473925 0.016849048 -0.04332748
-0.0055207512 -0.00480458 0.019931458 0.046017133 -0.053927623 0.040640872 -0.044480827 -0.013852723
-0.060978767 0.020746103 0.02051752 -0.04744546 -0.022172429 -0.030476399 -0.030915337 0.053970587
-0.0590164 -0.027875137 0.057782605 0.037308857 6.884317e-05 -0.026528714 -0.038356967 0.009105675
-0.013934955 -0.05745347 -0.014613408 0.04359204 -0.04630326 -0.046651296 -0.036637098 0.030696278
0.04187903 0.041672744 -0.04441852 0.0010433929 0.044150867 -0.021395039 0.05230806 -0.024708698
0.059853926 0.057573047 -0.03305357 0.019168228 0.017078534 0.030700514 -0.018140038 0.013741039
-0.016276017 0.060813077 0.013225332 -0.014532195 0.011124015 0.028715624 0.057914265 0.050863765
0.01578307 -0.053175088 -0.012404737 -0.043774128 -0.041410256 -0.01681693 -0.010225722 0.00073960423
0.03389001 -0.0358214 0.00885666 0.05231979 0.03324738 0.023425909 -0.021683138 0.028522462
-0.038721174 -0.02825445 0.041744914 0.024419501 0.03607425 -0.04113715 0.0477534 -0.018725768
0.035535924 -0.043678366 -0.018795002 -0.029379368 0.060455002 0.015487676 -0.037897862 0.0024947312
-0.018595524 -0.062296286 0.0048067546 -0.03129679 0.03516489 0.055106536 0.004532739 0.053424746
-0.052571483 -0.02614923 0.016980438 0.0044598654 0.020268194 0.00655625 -0.069060855 -0.021031931
-0.041117646 -0.030886734 -0.045304388 0.04858046 -0.019912064 -0.025109528 0.053172592 0.017771238
-0.0459508 0.051379666 -0.028901786 0.013294026 -0.0014936473 -0.024717024 -0.0104504 0.0066960007
0.01207487 0.048064172 -0.017230045 -0.056425087 -0.02435179 -0.00063266326 -0.029635165 0.0018658042
0.027183743 0.0560135 -0.03760229 0.024708457 -0.03760592 -0.017995765 0.046459526 0.028281823
-0.013639664 -0.02040992 -0.058246665 0.036543056 0.006744094 -0.017107073 0.03487329 -0.020242518
0.033783637 -0.049902402 0.029622229 -0.04370877 -0.025447935 -0.021432817 -0.047843166 0.03821221
0.018399734 -0.006935495 -0.027005201 0.06127675 -0.050777365 -0.055410743 -0.01000645 -0.008115331
0.061568823 -0.026623249 0.05295766 -0.03795489 -0.0057405964 0.060602844 -0.024594637 -0.06148179
-0.015544639 -0.037493613 0.051944293 0.001214323 -0.053112835 -0.0314063 -0.043937635 0.0054743737
-0.0061615123 0.0102298735 -0.009813 0.024070784 0.00093019754 0.01881587 -0.037591964 -0.05807054
-0.039802488 -0.044040356 0.02744833 0.01730998 -0.012286073 -0.054223903 0.022967989 0.002647981
0.00925917 -0.041685343 0.03070803 -0.05274916 -0.008805543 -0.022573978 -0.015173498 -0.040824067

actor.2.bias f4 [256]
00000000: 0a83 4cbd 3b2b 493c 9f32 c23c 6026 83bc
00000010: 8363 973d 4e32 ec3c 5048 77bb 1707 a03c
00000020: 938c 30bd 8ead 393d 32d8 163d 6cd4 99bc
00000030: 0681 863d 0fd6 90bd 9e03 823d 2488 ee3c
00000040: 8a60 13bc aa20 ae3c 556f 37bc eff5 9d3c
00000050: cb3f babc 7bcf 06bd 9ba5 4e3d 6421 073d
00000060: 2404 02bd ae2f cfbc 5ca2 533d 2ab4 1cbd
00000070: 1665 833c 4e05 0d3d 5f76 753d 9d37 943d
00000080: 40d3 ca3c a316 b8bc 362e 153d f170 91ba
00000090: b84d 553d 0b88 cb3b 1195 35bd 460f 00bd
000000a0: 80d3 1abc f70f 42bd eda5 47bd 6ccb b63c
000000b0: ef24 1d3d e9a7 33bd 50c6 3dbd 4cee 2dbd
000000c0: f6f4 3abd c648 8bbc 1bc7 48bd 917b 40bd
000000d0: 52d1 a33c 6db5 a43d bf29 ddbc adab a23c
000000e0: ee3b dfbb 29a4 933c f06e 0f3d 265e 523d
000000f0: 1f3d d43b daac 5b3c c07a 503d e192 123c
00000100: c8c2 073d ebb8 993d 1467 3abd d0e5 0cbd
00000110: 7d16 493d 44ad bf3b 6283 30bd 6fa1 57bd
00000120: 4779 14bd c004 8e3b 222e e23b 462c db3c
00000130: 20bc 0d3b 9628 19bc 19e1 db3b 7700 0f3d
00000140: 589f f73c ca59 f1bc 982f 2cbd a0f2 5f3d
00000150: 7557 f8bc 15f5 2bbc 8f7d 083d 59b9 703b
00000160: f194 6e3d e3e9 64bd c2c7 2d3c d5f2 d03c
00000170: d843 e23c 89d3 923d 7f49 433d 0849 563d
00000180: 8ed9 a13c 8879 10bc 799b 0d3b 7dde a53d
00000190: b45e 16bd 3665 20bd 0cb9 75bc b93e ffbc
000001a0: 6c81 443d 7e05 67bd 3445 163d 9a8a 8dbc
000001b0: 214a be3c 45d1 673d 8cf2 2c3c 7992 5e3d
000001c0: 2375 c73b f93c b43c 3567 51bd c4ff 64bd
000001d0: b6f7 353d 7a38 94bc dcc6 4a3d c660 15bd
000001e0: 8817 8a3b 4b0c e33b d3d0 593c 3c9d d9bc
000001f0: 72aa c5bc b3f5 cb3c ee96 7f3d 6c33 39bd
00000200: 8058 25ba c570 0ebc 5338 853b bd71 68bd
00000210: 5b3e 79bd b779 48bd 05f3 7dbc ec5a e13c
00000220: fd95 ab3c 501b 5abc 6bf9 e9bb 200a 253d
00000230: f5b5 65bd 7f65 0e3c 29ac 793d cfcd b43c
00000240: b6da c03c 3d4a 3fbd d398 bbbc 746f 293d
00000250: a276 03bd 260d 35bd 1954 1f3d 5a0a 093d
00000260: fa0d 67bb d176 42bd a474 1e3d 5cd7 1ebd
00000270: 6ab5 f33b c882 41bc f874 8a3d 8788 173d
00000280: 7183 86bc 486b 2b3d bde7 3ab9 65a6 bbbb
00000290: cc88 a83b 695b 6d3d 5fde c4bc 7e8f 91bd
000002a0: 568f 053d d2b5 3dbb e0b1 d33c fd1b 433d
000002b0: f20c b6bb e3ec af3c 39f0 42bd a1bd af3c
000002c0: fe4b 37bd 52b5 053d 5575 1e3d 8b1e 0abd
000002d0: f055 aabb eeec 133d 4bd9 1a3c 6f2a f9bc
000002e0: 0da4 7abd 9376 cbbc 6af4 cebc 8507 703d
000002f0: a787 fdbc 78d1 abbc 1739 1dbd 2d23 b33d
00000300: 4bc1 3ebd 5ba6 353d 77f2 80bc ad93 a2bb
00000310: 772b 29bd cf9f 243d b8b4 02bd 323e d6bb
00000320: eefb 2d3c e5d1 53bd 41bf 263d bc1f 8fbc
00000330: 0429 453d 3ca2 23bd f1a5 2dbd 3498 d83c
00000340: 5f10 d83c 44bb 883d 919f d93b ab17 5f3d
00000350: e6e6 083d 67ea 58bb e326 af3d c8cc a63b
00000360: 174b ab3c 14f5 96bc c927 ac3c ebbb 3a3a
00000370: 566d fb3c fc77 0abd a79f 1e3d c5fa 61bd
00000380: b1fb 653d b6eb 593d 141d f0bc f97e 023d
00000390: c0f8 7dbd d5e3 02bd 6637 9fbc 8e93 813d
000003a0: 88c8 063d b92e 68bc 6a37 06bd 67c4 ffb8
000003b0: 67e1 3f3c 8fec b0bc 5146 443c 6e59 56bd
000003c0: 8d63 5bbc dea8 0ebd d6d3 383c 417e 4dbd
000003d0: a038 7d3b f7fb 5fbd df6e e73c 10ae ffbc
000003e0: 4398 1eba c21d 0cbd 4d61 fd3a aaea 293c
000003f0: 63c1 563d bcc8 113d 78e9 9cbc ce70 8a3c
-0.049929656 0.012278373 0.023705779 -0.01600951 0.07392027 0.02883258 -0.003773231 0.01953463
-0.043102812 0.04533153 0.036827274 -0.018778048 0.06567578 -0.070720784 0.06348346 0.029117651
-0.008995185 0.02125581 -0.011195977 0.01928231 -0.022735497 -0.032912713 0.050450902 0.03299083
-0.03174223 -0.02529129 0.05166851 -0.038257755 0.016039412 0.034428887 0.05992734 0.0723717
0.024758935 -0.022471732 0.036421023 -0.0011096281 0.05207607 0.006211286 -0.044331614 -0.031264566
-0.00944984 -0.047378507 -0.048742224 0.022313796 0.0383653 -0.043861303 -0.046331704 -0.042463586
-0.04564377 -0.017002475 -0.049018007 -0.046992842 0.019997273 0.08042417 -0.026997445 0.019857252
-0.006812564 0.018022614 0.035017908 0.05135932 0.0064770128 0.01340791 0.050898314 0.0089461515
0.033144742 0.075059734 -0.04550846 -0.034398854 0.049093712 0.0058495123 -0.043094046 -0.05264419
-0.03624847 0.0043340623 0.006902472 0.02675451 0.0021627024 -0.009348055 0.0067101833 0.034912553
0.030227348 -0.02946176 -0.042037576 0.054674745 -0.03031514 -0.010495444 0.033322867 0.003673157
0.05824751 -0.055887114 0.010606708 0.025506416 0.027620241 0.071692534 0.047677513 0.05231574
0.019757058 -0.008818038 0.0021607562 0.08099077 -0.03671141 -0.039159022 -0.014997732 -0.031157838
0.04797499 -0.056401722 0.03668709 -0.017278004 0.023228707 0.05659606 0.010555875 0.054338906
0.006086962 0.02200173 -0.051123817 -0.05590798 0.04442569 -0.018093336 0.049506053 -0.036469243
0.004214231 0.0069289557 0.0132944165 -0.026564233 -0.024129126 0.024897432 0.062399797 -0.045215055
-0.0006307438 -0.008693879 0.0040655523 -0.056749094 -0.060850482 -0.0489442 -0.015499835 0.027509175
0.020945543 -0.013312176 -0.0071403286 0.04029286 -0.05608173 0.008691191 0.0609552 0.022070793
0.02354179 -0.04670166 -0.02290002 0.041366056 -0.03209556 -0.044201992 0.03889856 0.033457138
-0.0035256133 -0.047476593 0.038685456 -0.0387796 0.0074373977 -0.011810966 0.06760591 0.036995437
-0.016420098 0.04185036 -0.00017824672 -0.005726623 0.0051432606 0.057948504 -0.024031816 -0.07107447
0.0326074 -0.0028947485 0.025841653 0.047634114 -0.0055557424 0.021475261 -0.047592375 0.021452727
-0.044750206 0.032643624 0.038686115 -0.033720534 -0.005198233 0.036114626 0.009451221 -0.030415742
-0.061191607 -0.024836814 -0.02526303 0.05860092 -0.030948473 -0.020973906 -0.038384523 0.087469436
-0.046571057 0.044348102 -0.015740616 -0.004961452 -0.041301217 0.040191468 -0.031910628 -0.006538176
0.010619147 -0.051713843 0.040709738 -0.017471187 0.04813482 -0.03994964 -0.042394582 0.026439764
0.026374994 0.06676343 0.0066413363 0.05446593 0.033423327 -0.00330987 0.08552339 0.00509033
0.020909829 -0.01842741 0.021015065 0.0007123339 0.030691784 -0.033805832 0.038726475 -0.055170793
0.056148235 0.053203307 -0.02931074 0.03185937 -0.062004805 -0.03195556 -0.019435596 0.06326972
0.032906085 -0.014171296 -0.03276769 -0.0001219593 0.011711455 -0.021597175 0.011979655 -0.05233138
-0.013390434 -0.034829013 0.011280974 -0.050169233 0.0038638487 -0.05468365 0.02825111 -0.03121093
-0.00060499104 -0.034208067 0.0019331366 0.01037089 0.05243052 0.035591826 -0.019154295 0.016899493

actor.4.weight f4 [2, 256]
00000000: f7ea fc39 396e 83bd f45e 273d 70c9 b0bc
00000010: 7841 193e f33b 303d 83ac dcbd dbe0 083e
00000020: 5fc1 6e3a 593b bf3c acfb fbbd dae2 bfbd
00000030: 3c1e b3bd a7cd 05bd c8a3 ba3d f85f 163d
00000040: 1467 c93c 2a3e a23d ee38 d5bb 13bb 153e
00000050: c597 91bc dd83 763d 47fd 66bd 7894 3dbd
00000060: fa18 703d ad98 cbbd e06a 773b ff3d 70bc
00000070: f607 bb3c d075 813c ee79 7ebd c827 d63d
00000080: 8113 56bd 15d8 3ebc 9c13 f43d 5a0b 813b
00000090: 9f52 d2bb 10a9 ad3d 8e2e dabd aa74 22bd
000000a0: 109d fa3c 8dda 2bbd 5c14 95bd 549c 323d
000000b0: 91f6 353d 9854 59bd 107d a6bc 3b28 88bc
000000c0: 6561 d0bc 4dcc 0e3c 3e25 51bd 3383 313d
000000d0: d1b6 893d d7df d1bd 2f55 343d 879f a33d
000000e0: 5b16 06be ca68 233d 6f1b c63d a3c7 cb3d
000000f0: 6a86 ca3d b8ed 1e3b ba14 55bd 9103 aabc
00000100: aec6 3fbb b09f 853d c699 d6bd bd06 f8bd
00000110: 6d33 28bd 55b0 a03c 8701 893d 220a c3bd
00000120: e0b7 f73c 9184 9d3d f0f0 c5bc af33 c8bd
00000130: c667 16bd 9c08 78bd 9edc 123e 9890 82bd
00000140: f4eb 9ebd 18a7 3cbd 4fc8 eabd 82ab 4e3d
00000150: fbfe f9bd 5911 90bd f9e2 513d 8136 5cbc
00000160: 16f1 673d dcf9 fc3c 2e12 12bd 3c1c e1bd
00000170: 65ee 65bd c015 283e eb1a 51bd 4fbb 573d
00000180: 36c8 f6bc 46a3 18bd db4b 53bc b279 c93d
00000190: 9d1f d9bd 7ba2 9e3b 271a c0bc 04f9 c1bd
000001a0: 075f cbbd 1b74 783c 5c77 5fbd d1a7 433d
000001b0: 140b f1bd da80 043e a847 2b3d 2565 3a3b
000001c0: 285b 053d 3d5a 14bd 1723 7abd c461 79bd
000001d0: 269e 84bc 9f9a 8e3c 44c0 30bd 3bdf 9cbd
000001e0: 5a14 16bd b1dd 603c dee4 41bd c12b 0e3a
000001f0: e85e a3bd 6d21 053d 165f 213e 08b7 0e3c
00000200: 80f9 abba 80fa 82bc da90 733d 28db 523d
00000210: 1110 83ba cbca b0bd d6de 9a3d 3f3d 233c
00000220: 5b1e 273c 3cae a03c 561e 9c3b f4b8 963b
00000230: 17f9 093d 4d0f 06be b9f5 193e e2c8 8bbc
00000240: dea3 afbc 9d18 3bbd d51f ed3d e8f8 d33c
00000250: 31a4 d2bc 3ce9 373d 4b31 c43d 1ced aebd
00000260: 3183 993d 9a88 643c 838a 5d3d ba20 f1bc
00000270: c42a 103e b283 4fbd a470 52bd b429 4cbb
00000280: 4678 edbd 1071 293d 60a8 b2bc 9e5b 0c3e
00000290: d473 1ebc f13a 76bd 6bb9 ff3c ec50 5dbb
000002a0: d156 393d 819e 6abd f132 f1bd f8c3 f53d
000002b0: a400 933c a9bd 5ebd 8e22 06be f17e 2dbd
000002c0: 6a1b 373d 1175 94bd 6124 333d c0ee 803d
000002d0: 9f34 92bd fe22 953d 3cef eb3d c008 20bd
000002e0: 49ae 35bd c276 1e3d af91 5cbd 9b6b 143e
000002f0: 8b40 eebd 163f 09bd 1e63 8b3d 0f5b a63d
00000300: 53a5 c93c bb73 23bd 20cc d73c c7a6 3cbc
00000310: 9c2b 1f3b d7fc 49bd 94e6 04bc 1fa1 1b3d
00000320: 6693 31bd d2dc 22bd 9006 ddbd 5a77 8ebd
00000330: 437b 03bd 0d42 323d 386a d1bd b33f 0bbd
00000340: 51b7 253d 4db4 ad3d 67fc d3bb 2c8f 04bd
00000350: 7ec1 b43d e7d0 07bd eb7d eb3d 21ff dc3b
00000360: 6387 0f3d 6b5b a83c efdd 2e3c a493 84bc
00000370: 2093 a6bd d07b 6ebc 4816 1c3c a750 5d3c
00000380: f37f 8dbd de80 53bc 432c a63c c399 aa3d
00000390: 0154 36bd 328c 27bd cf39 86bd df1b d1bd
000003a0: e0c5 7e3d 736b 37bd dddc 58bd 7a8a 3ebd
000003b0: 5ebe 8cba dd54 ec3d 126f bf3c 40c4 f23a
000003c0: 937e 35bd b405 e13d 2d50 17bd 4db0 00be
000003d0: 38cc 36bd 3619 dbbd 93dd 343d 023d 7b3c
000003e0: 1dd8 4f3d 4a44 dfbc 6cc0 c5bd b468 413d
000003f0: 6085 af3d 24d1 7abc 6c2f 263e e6a1 72bd
0.00048240248 -0.06417508 0.04086204 -0.021580428 0.1496638 0.043025922 -0.107750915 0.13367026
0.0009107794 0.023343729 -0.12303862 -0.093694404 -0.08746001 -0.03266683 0.0911327 0.036712617
0.024585284 0.07922013 -0.0065070307 0.14622144 -0.017772565 0.06018435 -0.056393888 -0.04628417
0.05861757 -0.0994123 0.0037752911 -0.0146632185 0.022830945 0.015803248 -0.062128 0.104568064
-0.052264694 -0.011648198 0.11917803 0.003938121 -0.0064185406 0.08479512 -0.10653411 -0.03966204
0.030592471 -0.041956473 -0.07279274 0.043606117 0.044424597 -0.05305919 -0.020323306 -0.016620746
-0.025437066 0.008715701 -0.051060908 0.043338012 0.067243226 -0.10247772 0.04402655 0.07989412
-0.13094465 0.039894857 0.09673201 0.09950187 0.09888919 0.0024250578 -0.05202172 -0.020753654
-0.002926271 0.065245986 -0.10478549 -0.1211066 -0.04106467 0.019615332 0.066897444 -0.09523417
0.030239046 0.07691301 -0.02416274 -0.09775483 -0.03672006 -0.060555086 0.14341971 -0.06375235
-0.07759848 -0.04605779 -0.11463987 0.05045653 -0.12206837 -0.07034559 0.05124185 -0.013440729
0.0566264 0.030880861 -0.03566187 -0.109917134 -0.056135554 0.16414547 -0.05105106 0.052668866
-0.030124765 -0.037265085 -0.012896503 0.09837665 -0.10601733 0.0048411465 -0.02344997 -0.09471324
-0.099302344 0.0151644 -0.05455719 0.047767464 -0.11769691 0.12939778 0.041816384 0.0028441634
0.032557636 -0.03621887 -0.06106862 -0.060884252 -0.016188692 0.017407713 -0.04315211 -0.07659765
-0.036640503 0.01372473 -0.047337405 0.000542339 -0.07977086 0.03250258 0.15758929 0.00871063
-0.0013120621 -0.015988588 0.059464313 0.051478535 -0.0009999295 -0.0863243 0.07562034 0.009963333
0.010200108 0.019614331 0.0047643585 0.004599685 0.033684816 -0.13091774 0.15035142 -0.017063562
-0.021440443 -0.04567777 0.11578337 0.025875524 -0.025713058 0.044900164 0.095797144 -0.08541319
0.07495726 0.013948584 0.054087173 -0.02943455 0.14078814 -0.050662704 -0.051376954 -0.0031152787
-0.11595206 0.04136759 -0.021808803 0.13706824 -0.00967117 -0.060114805 0.031216344 -0.0033770157
0.04524881 -0.057280067 -0.117772944 0.12000269 0.017944641 -0.054380093 -0.13099119 -0.04235739
0.04470388 -0.07248891 0.043735866 0.06295538 -0.07138943 0.07282065 0.1152024 -0.039070845
-0.044355664 0.038687475 -0.053849872 0.14494173 -0.11633404 -0.03350743 0.068060145 0.08122837
0.024614966 -0.03990529 0.026342452 -0.011514372 0.0024287468 -0.049313392 -0.008111615 0.037995454
-0.04335346 -0.039761372 -0.10792267 -0.06956358 -0.032099973 0.043520022 -0.10225338 -0.033996295
0.040458027 0.08481655 -0.0064692977 -0.0323631 0.08825968 -0.03315821 0.11498626 0.006744281
0.035041224 0.020551404 0.01067303 -0.016183682 -0.081335306 -0.014555886 0.009526797 0.013507999
-0.0690917 -0.012909142 0.020284778 0.08330109 -0.044513706 -0.040905185 -0.06553995 -0.10210394
0.062200427 -0.044780206 -0.052945007 -0.04651878 -0.0010737886 0.11539624 0.023368392 0.0018521622
-0.044310164 0.10987416 -0.036941696 -0.12567253 -0.044628352 -0.10698168 0.044156622 0.01533437
0.05074321 -0.027254242 -0.09655842 0.047218993 0.08570361 -0.015308652 0.16229028 -0.05923643

actor.4.bias f4 [2]
00000000: c77e 203d c1df a6bc
0.039183404 -0.020370366
