codes/PPO/outputs/CartPole-v0/20211231-193837/models/ppo_critic.pt (torch, 271255 bytes, 5 tensors)

critic.0.weight f4 [256, 4]
0.6539342 -0.16541867 -0.16674271 -0.4281113 -0.17015198 -0.28859425 0.31388104 0.28281382
-0.48875114 0.15920734 0.082920544 -0.37629 -0.24714504 -0.018306538 0.573723 0.29398677
0.040461943 0.34430343 -0.04987505 0.47918245 0.22635855 0.4450399 -0.12575234 0.34598154
0.054580513 -0.10916131 -0.18406317 0.1064967 -0.07874043 0.35162723 0.29336572 0.18603007
0.2919394 0.16130918 0.2357142 -0.01066863 0.06957874 0.41740674 -0.31527418 -0.040405527
0.17732894 -0.37848905 -0.011965993 0.33431488 -0.00058517314 0.2245371 0.14320657 0.34333593
0.013811014 -0.22748113 -0.12665422 0.024932709 -0.11683683 0.021427225 0.0103720855 -0.075000666
0.06999936 0.31810045 -0.101870626 0.33594814 -0.12564363 -0.0032741367 -0.32658613 -0.009609616
-0.13742255 -0.44123504 -0.10171289 0.1084457 0.4779276 0.41230094 0.3016526 0.05757518
-0.22833794 0.24532387 -0.42904168 0.19643085 -0.18849781 0.022072962 -0.39273474 -0.3133964
0.29054058 -0.3470754 -0.10892256 0.085563175 -0.2699202 0.44814909 -0.5876603 -0.34310773
0.28758404 -0.1290384 0.21889836 0.01449868 0.029717041 0.19470982 -0.2693 -0.20078632
0.5267015 -0.16926046 0.0032747064 0.07093411 0.33661354 -0.068224065 0.43573093 0.12257714
0.12262387 0.036138784 0.19897366 -0.26046696 -0.017199269 -0.28964546 -0.39349708 -0.349596
-0.18540354 0.3536334 -0.5863124 0.098328486 0.01951488 0.3763575 0.33233887 -0.20485412
-0.14321762 0.15798524 -0.11498659 -0.086665764 -0.22901322 0.19186115 -0.010980658 0.28501078
0.22557822 0.23686169 -0.39832792 0.19704853 -0.15427285 0.33863333 -0.30181137 0.44281876
0.0036225584 0.19738445 0.2333268 -0.11160507 0.015224582 0.10582684 -0.56658006 -0.37415838
0.47924578 0.024938414 0.1982965 -0.32358128 -0.17388003 -0.044066634 -0.56752926 0.3171303
-0.26207864 -0.056353923 0.36004543 -0.043041915 0.23993699 -0.37736017 0.43730235 -0.5143243
-0.1913784 0.24344906 -0.174329 0.11143451 0.0101414295 0.17868046 0.48696563 0.3112812
-0.055834845 0.11124369 0.14771469 0.114779025 -0.1663937 0.17650306 0.013612688 -0.2974668
-0.28710997 -0.047864832 0.25591812 0.17845346 -0.6107969 0.2341952 0.1360516 -0.17558111
0.022232696 0.06855542 0.21239918 -0.07546117 -0.13956548 -0.075850576 -0.35124177 0.27401975
-0.27048084 0.11563816 -0.5009897 0.05176846 -0.120914355 0.4573967 0.15178569 0.060471073
-0.45670933 -0.26786172 -0.13338149 -0.024342785 0.20533177 -0.11771302 0.39527667 -0.21071583
0.10053202 -0.15218766 -0.38219166 -0.1443686 -0.043184385 -0.36494586 -0.27692613 -0.20990331
-0.13599539 0.44710895 -0.5002695 -0.031066496 -0.038000338 0.15875937 -0.0151370615 -0.23213588
-0.30258563 0.42357004 -0.6122867 0.2870503 -0.35245872 -0.2600116 -0.11773918 -0.30870432
-0.1574913 0.3820209 -0.56261283 -0.082184784 -0.1074745 -0.4698574 0.41131026 -0.2182841
0.18159857 0.24137732 -0.047645293 -0.24051896 -0.012993363 0.5450929 0.20956269 0.12902778
-0.12133974 0.42832994 0.28985062 0.28737924 0.57473016 0.22125298 -0.15217026 -0.16573611
00000000: 3b68 273f 8363 29be 9abe 2abe 6831 dbbe
00000010: 523c 2ebe a0c2 93be 04b5 a03e f9cc 903e
00000020: 973d fabe 4007 233e 3fd2 a93d 15a9 c0be
00000030: 9713 7dbe 98f7 95bc 83df 123f 6f85 963e
00000040: 6cbb 253d 8a48 b03e c849 4cbd 6757 f53e
00000050: 89ca 673e 45dc e33e 39c5 00be 7e24 b13e
00000060: d18f 5f3d f78f dfbd 0e7b 3cbe f11a da3d
00000070: aa42 a1bd 7c08 b43e 0834 963e ab7e 3e3e
00000080: 1579 953e 3c2e 253e 105f 713e 7acb 2ebc
00000090: 4c7f 8e3d 56b6 d53e 9e6b a1be 4480 25bd
000000a0: b895 353e 51c9 c1be 030d 44bc 522b ab3e
000000b0: 4e66 19ba 0eed 653e bea4 123e bac9 af3e
000000c0: 9747 623c d0f0 68be a5b1 01be ae3f cc3c
000000d0: 2648 efbd 2688 af3c aeef 293c f399 99bd
000000e0: d35b 8f3d 10de a23e 8ca1 d0bd 6501 ac3e
000000f0: b9a8 00be e692 56bb 4c36 a7be a771 1dbc
00000100: 7fb8 0cbe 8fe9 e1be d94e d0bd c718 de3d
00000110: edb2 f43e 1c19 d33e 3672 9a3e f4d3 6b3d
00000120: 6cd1 69be 2e36 7b3e 5aab dbbe 2b25 493e
00000130: 9205 41be 5bd2 b43c 8714 c9be 7e75 a0be
00000140: bcc1 943e deb3 b1be cb12 dfbd bf3b af3d
00000150: fb32 8abe cc73 e53e e870 16bf d1ab afbe
00000160: 373e 933e a422 04be e426 603e df8b 6d3c
00000170: 2771 f33c 0362 473e b1e1 89be ee9a 4dbe
00000180: e9d5 063f 9d52 2dbe 759c 563b e745 913d
00000190: 9c58 ac3e 0fb9 8bbd 2018 df3e b909 fb3d
000001a0: 3922 fb3d 4306 143d c0bf 4b3e ed5b 85be
000001b0: 7be5 8cbc 694c 94be 7378 c9be 3ffe b2be
000001c0: 6dda 3dbe 700f b53e 9218 16bf 7260 c93d
000001d0: abdd 9f3c eeb1 c03e 5228 aa3e 47c5 51be
000001e0: a4a7 12be e2c6 213e 177e ebbd d27d b1bd
000001f0: 7182 6abe 4077 443e 38e8 33bc efec 913e
00000200: fafd 663e df8b 723e a3f1 cbbe 17c7 493e
00000210: b4f9 1dbe 5961 ad3e 0587 9abe 24b9 e23e
00000220: 7268 6d3b 261f 4a3e 38ed 6e3e 3391 e4bd
00000230: 8670 793c bebb d83d 640b 11bf b091 bfbe
00000240: b45f f53e a54b cc3c 3d0e 4b3e 72ac a5be
00000250: 9b0d 32be 377f 34bd 9949 11bf e75e a23e
00000260: 2c2f 86be 5fd3 66bd e057 b83e b84c 30bd
00000270: 0bb2 753e 5a35 c1be 18e6 df3e c2aa 03bf
00000280: b3f8 43be b64a 793e 4d83 32be c737 e43d
00000290: 3d28 263c 03f8 363e 8f53 f93e 4060 9f3e
000002a0: 14b3 64bd bbd3 e33d 8542 173e 4411 eb3d
000002b0: 1c63 2abe 38bd 343e c007 5f3c 924d 98be
000002c0: 1400 93be ea0d 44bd b307 833e 81bc 363e
000002d0: 305d 1cbf ded0 6f3e 1c51 0b3e 89cb 33be
000002e0: 5821 b63c c966 8c3d 2c7f 593e 638b 9abd
000002f0: 41ea 0ebe 8c57 9bbd f6d5 b3be 514c 8c3e
00000300: 777c 8abe b3d3 ec3d dc40 00bf 2a0b 543d
00000310: f2a1 f7bd e62f ea3e b56d 1b3e 84b0 773d
00000320: ced5 e9be 2c25 89be 2895 08be 856a c7bc
00000330: 7e42 523e 8613 f1bd b461 ca3e e4c5 57be
00000340: bbe3 cd3d 15d7 1bbe a0ae c3be 5dd5 13be
00000350: 1ce2 30bd 2fda babe 43c9 8dbe e5f0 56be
00000360: 6042 0bbe 77eb e43e a911 00bf 2a7f febc
00000370: 3ea6 1bbd d191 223e 7001 78bc 07b5 6dbe
00000380: 81ec 9abe 2cde d83e d2be 1cbf 42f8 923e
00000390: 7875 b4be 3e20 85be 3d21 f1bd 7e0e 9ebe
000003a0: 6645 21be 3e98 c33e 6507 10bf 7f50 a8bd
000003b0: 971b dcbd 2691 f0be 4297 d23e de85 5fbe
000003c0: faf4 393e 9e2b 773e b627 43bd 9a4a 76be
000003d0: 1de2 54bc 358b 0b3f 9a97 563e dc1f 043e
000003e0: f880 f8bd 104e db3e 4d67 943e 5f23 933e
000003f0: 8421 133f 2490 623e 85d2 1bbe bab6 29be

critic.0.bias f4 [256]
-0.238683 0.03604679 -0.35532844 -0.08137793 -0.3561982 -0.053201567 0.20043305 0.38742864
-0.4864539 -0.41306892 0.47377858 0.5618021 0.39264685 0.4609107 0.5191732 0.3125339
-0.25049722 -0.10120604 0.310998 0.56465346 -0.19101334 0.18012093 -0.20335095 0.55123204
-0.33183846 -0.26879865 0.19866021 0.2741295 0.50644153 0.49084628 0.2041554 0.5082588
0.34979463 0.23208264 -0.11625785 -0.11195676 -0.4103141 0.56449366 -0.41251278 0.048137233
0.24892908 -0.19987653 0.10265323 0.16810322 0.34797177 -0.11017746 0.21276909 0.5431497
-0.15275243 0.56892145 -0.2596235 -0.102058105 0.546626 0.09595433 -0.2361099 -0.04250609
0.3325306 -0.037003618 0.0035657166 -0.38340133 -0.38738003 -0.3864183 -0.23080593 -0.47400114
-0.045527183 -0.4721917 -0.2068919 -0.12705876 -0.3686944 0.5556449 0.46448737 -0.1726058
0.013938945 -0.44540152 0.3059932 -0.20440279 -0.21995974 -0.23375623 0.47750235 -0.21559452
-0.19251159 0.4707225 -0.31928506 0.49914902 0.50469977 0.41562513 0.5309383 0.4060501
-0.25912288 0.50935084 0.5248138 -0.36899108 0.12261751 0.20611027 -0.07888376 0.3243365
0.42308158 -0.078529045 -0.01729318 -0.4222942 0.41283646 0.3447749 -0.18437715 0.09391183
-0.32544264 -0.0017796691 0.11336174 -0.058541104 -0.08975309 0.37855446 -0.24886404 0.51076376
0.24570999 0.269139 -0.075254835 0.534862 0.039264638 -0.042017583 0.42990398 -0.121802494
0.4428621 -0.2641831 -0.34374267 -0.42416808 -0.086803176 0.30984083 0.5793101 0.20923284
-0.42220736 -0.045410234 -0.12133951 -0.30177683 -0.23685512 -0.40604308 0.036461443 -0.34869847
0.16963106 0.4377754 0.31696814 -0.44571942 -0.16901436 0.32275385 0.5092287 0.30930248
0.105435 -0.013273925 0.094451055 0.3276558 0.22822778 -0.39577374 -0.032508023 -0.14724286
-0.23629951 -0.046544235 -0.05014483 -0.22645481 -0.22545798 -0.26366934 -0.3000669 -0.25968218
-0.03878927 0.5011988 -0.0035459602 0.50048435 0.5326742 -0.47788516 -0.22255856 0.47647965
0.16647172 -0.2091401 -0.043777775 -0.14385939 -0.09440799 0.47045955 -0.36849016 -0.10663351
-0.051780127 -0.061018664 -0.06264967 -0.38345662 -0.6066391 -0.47993115 -0.017979993 0.50032395
-0.38475758 0.13020805 -0.06322313 -0.07968851 -0.16826016 -0.25489733 0.22290991 -0.4607402
-0.0079178335 0.26890486 -0.059388436 0.28682208 0.5112153 -0.053689722 0.37590244 -0.20732147
0.3569386 0.54496175 0.52769876 -0.15573114 -0.2868715 0.3322656 -0.10466105 -0.16219167
0.30927905 -0.059239343 -0.042731665 -0.07721694 0.19521666 0.4759239 0.49092638 -0.122285284
-0.08686862 0.29621887 -0.07837744 0.1235066 0.023370033 -0.030657515 -0.4177896 0.543935
-0.092795 0.26832333 -0.346249 0.55033165 -0.04388613 -0.32529745 -0.29593122 0.38195467
-0.2272205 0.43655568 -0.0569785 -0.12920834 -0.31058204 0.44524002 -0.24906059 0.30261034
-0.30524844 0.40801126 0.42876342 0.2760386 -0.16247348 0.0034984879 -1.3398821e-06 0.25078022
-0.034724806 -0.27255058 0.38369104 0.6007193 0.45370388 0.5003322 -0.025340505 -0.28695562
00000000: 5169 74be cda5 133d 9ced b5be 79a9 a6bd
00000010: 9c5f b6be e3e9 59bd 523e 4d3e 0c5d c63e
00000020: 7c10 f9be c57d d3be 1b93 f23e 43d2 0f3f
00000030: 0209 c93e 7dfc eb3e 89e8 043f 7104 a03e
00000040: 2c41 80be 1d45 cfbd 213b 9f3e 218d 103f
00000050: 0099 43be 9f71 383e 3b3b 50be 8b1d 0d3f
00000060: bbe6 a9be fa9f 89be 956d 4b3e b45a 8c3e
00000070: 27a6 013f 3450 fb3e 1d0e 513e 401d 023f
00000080: 4818 b33e 12a7 6d3e 9818 eebd 9649 e5bd
00000090: b114 d2be a882 103f e034 d3be 8c2b 453d
000000a0: 44e7 7e3e 6fac 4cbe db3b d23d 4023 2c3e
000000b0: 5b29 b23e b8a4 e1bd 24e0 593e dc0b 0b3f
000000c0: 226b 1cbe d6a4 113f 5fed 84be d703 d1bd
000000d0: aeef 0b3f b483 c43d cbc6 71be de1a 2ebd
000000e0: 7341 aa3e 1b91 17bd ccae 693b 2e4d c4be
000000f0: ad56 c6be 9fd8 c5be 6458 6cbe 47b0 f2be
00000100: b67a 3abd 1cc3 f1be 78db 53be b11b 02be
00000110: 83c5 bcbe bf3e 0e3f 4ad1 ed3e 93bf 30be
00000120: 2c60 643c ab0b e4be 24ab 9c3e f74e 51be
00000130: 203d 61be cb5d 6fbe 307b f43e cfc4 5cbe
00000140: c221 45be 8a02 f13e 5579 a3be 7690 ff3e
00000150: 0134 013f d1cc d43e 93eb 073f cce5 cf3e
00000160: c1ab 84be d164 023f 325a 063f 66ec bcbe
00000170: e41e fb3d 920e 533e cf8d a1bd 6f0f a63e
00000180: 269e d83e d6d3 a0bd 6daa 8dbc f236 d8be
00000190: 4d5f d33e 5686 b03e 5dcd 3cbe d854 c03d
000001a0: 6ba0 a6be c943 e9ba 332a e83d ccc8 6fbd
000001b0: 78d0 b7bd e4d1 c13e 37d6 7ebe 6ac1 023f
000001c0: 669b 7b3e 96cc 893e 351f 9abd b7ec 083f
000001d0: f5d3 203d a11a 2cbd 601c dc3e 9673 f9bd
000001e0: d2be e23e 0243 87be 0aff afbe 8f2c d9be
000001f0: ddc5 b1bd 75a3 9e3e ab4d 143f 2241 563e
00000200: 902b d8be 1500 3abd d980 f8bd 7e82 9abe
00000210: 268a 72be e1e4 cfbe 9858 153d 9b88 b2be
00000220: c4b3 2d3e 1924 e03e a649 a23e 5635 e4be
00000230: 1a12 2dbe fe3f a53e d05c 023f e55c 9e3e
00000240: 4eee d73d e07a 59bc 8e6f c13d 80c2 a73e
00000250: 8bb4 693e dba2 cabe 2227 05bd d5c6 16be
00000260: 80f8 71be 2ba5 3ebd aa64 4dbd c5e3 67be
00000270: 75de 66be abff 86be 5ea2 99be 10f5 84be
00000280: 7fe1 1ebd 914e 003f 5763 68bb be1f 003f
00000290: 565d 083f 5dad f4be 64e6 63be 24f5 f33e
000002a0: 9077 2a3e d328 56be 5350 33bd e04f 13be
000002b0: fa58 c1bd 13e0 f03e beaa bcbe ab62 dabd
000002c0: 6617 54bd b5ee 79bd 784e 80bd 6d54 c4be
000002d0: b34c 1bbf 89b9 f5be c74a 93bc 3b15 003f
000002e0: f2fe c4be 4255 053e 217b 81bd bb33 a3bd
000002f0: 644c 2cbe e781 82be 7f42 643e 24e6 ebbe
00000300: cdb9 01bc e6ad 893e 4a41 73bd 58da 923e
00000310: 02df 023f c1e9 5bbd 4976 c03e 144c 54be
00000320: a8c0 b63e 9d82 0b3f 4417 073f fc77 1fbe
00000330: d2e0 92be b71e aa3e 8858 d6bd 9315 26be
00000340: d359 9e3e f4a4 72bd 6607 2fbd ea23 9ebd
00000350: e0e6 473e 4cac f33e b45a fb3e b570 fabd
00000360: 2de8 b1bd 00aa 973e 5a84 a0bd 07f1 fc3d
00000370: 8372 bf3c 7825 fbbc 85e8 d5be 533f 0b3f
00000380: 4e0b bebd ad61 893e 8d47 b1be 89e2 0c3f
00000390: f1c1 33bd 638d a6be 4c84 97be 908f c33e
000003a0: 7eac 68be 3a84 df3e 4a62 69bd 314f 04be
000003b0: 9c04 9fbe 80f6 e33e bd09 7fbe beef 9a3e
000003c0: 8649 9cbe dae6 d03e e186 db3e ee54 8d3e
000003d0: 735f 26be e346 653b 00d6 b3b5 4466 803e
000003e0: 993b 0ebd c08b 8bbe 2773 c43e bdc8 193f
000003f0: e04b e83e c515 003f e496 cfbc d9eb 92be

critic.2.weight f4 [256, 256]
-0.190482 -0.03630756 -0.13016316 -0.07577297 -0.23785658 -0.10242317 0.000981983 0.09140721
-0.2158044 -0.18409239 -0.007194544 0.029795278 0.058174867 0.06770996 0.051623397 0.062454354
0.0047261547 -0.103789225 0.08250395 0.070953004 -0.12577294 0.06825035 -0.23222922 0.02673875
-0.20582603 -0.21154779 -0.01908235 0.0010497489 0.13302603 0.03583163 0.0973242 0.061926503
0.091687135 0.09404992 -0.020642838 0.023979051 -0.20720685 0.086178266 -0.009855274 0.02595629
0.037725624 -0.13983515 -0.03254124 -0.014135868 0.057012994 0.034958962 -0.00967528 0.121783674
-0.057800997 0.10608977 -0.09412029 -0.057727672 0.082626544 -0.021996139 -0.015785508 0.055205725
0.12290737 -0.1663714 0.04041272 -0.003212936 -0.04130029 -0.12841375 -0.18003099 -0.15048045
-0.15373069 -0.12528138 0.07575215 -0.050312046 -0.042138726 0.12823163 0.13813716 -0.18221763
0.023584709 -0.089140244 0.015807789 -0.12516499 -0.010833191 -0.0625288 0.12876762 -0.069555335
0.013970054 0.06497558 -0.05563496 0.11691638 0.115883805 0.12341863 0.027559176 0.061222833
-0.23754658 0.03653663 0.010187918 -0.18847221 0.07338054 0.07139812 -0.073646605 0.04209997
0.03237617 -0.09172943 -0.2659719 0.009013545 0.04521405 0.017594019 -0.11570707 -0.008311027
-0.09569184 0.027009886 -0.005832907 -0.043711636 -0.00021862573 0.06586183 -0.09635027 0.07670549
0.16882578 0.08015826 -0.024165252 0.06460977 -0.04837574 -0.13130073 0.0046085683 -0.010712392
0.03626068 -0.11809541 0.015188611 -0.10924599 -0.15672405 0.01744016 0.13176404 -0.018668907
-0.05669423 -0.23051828 0.041989934 -0.08289599 -0.05773158 -0.19408321 -0.053381737 -0.08815328
0.06740922 0.06008893 0.039328024 -0.11067134 0.091911055 0.051187176 0.07334025 0.059992492
0.079233214 -0.1134039 0.031083794 0.0037777212 0.06936132 -0.13620983 -0.17235802 -0.1625648
-0.011078865 -0.09180363 -0.017015276 -0.08310323 -0.038316842 -0.07025313 0.0033883774 -0.13516808
0.017883362 0.0011171808 -0.097920276 0.0773156 0.115641564 -0.13787276 -0.063720174 0.15634939
0.02160515 -0.16463664 0.04717382 -0.030585505 -0.14238216 0.08612081 -0.008581237 -0.12059954
-0.049935065 -0.09177466 -0.19010343 -0.093478836 -0.1386375 -0.061687123 0.022039626 0.03325566
0.05073451 0.09185951 -0.110510886 -0.08886521 -0.08453018 -0.14610657 0.005184527 -0.0012433986
-0.07989149 0.0860391 -0.039528053 -0.013534916 0.15446213 -0.21492207 0.016874358 -0.029711697
0.10041935 0.11381818 0.15628888 0.0074375556 -0.036788046 0.07035388 -0.11704049 0.042806946
0.017570985 -0.12016225 -0.11289689 -0.064799525 -0.016622601 0.1453703 0.013609307 -0.062221833
-0.16835064 0.017007457 -0.04280614 0.075747564 0.0048292954 -0.079238825 -0.09145257 0.09656144
-0.095188126 0.1276769 0.011950628 0.123616286 -0.16240957 -0.117515475 0.03485454 0.05361934
-0.021833556 0.069363385 -0.096581504 -0.10001185 -0.11854513 0.12331691 -0.1071217 0.050109636
-0.1716598 -0.0017586664 0.098970376 0.08321238 -0.10548362 -0.037597455 0.071513355 -0.012878581
-0.09450445 -0.035602357 0.03585856 0.049081307 0.15082942 0.19842808 -0.07595509 0.04285719
00000000: b70d 43be 3cb7 14bd 7e49 05be dc2e 9bbd
00000010: ad90 73be 3dc3 d1bd e2b5 803a b433 bb3d
00000020: d4fb 5cbe b782 3cbe 36c0 ebbb 3a15 f43c
00000030: c548 6e3d 85ab 8a3d 0e73 533d 23d0 7f3d
00000040: dcdd 9a3b 728f d4bd d5f7 a83d cf4f 913d
00000050: 9fca 00be d7c6 8b3d 7fcd 6dbe 390b db3c
00000060: 0fc4 52be fc9f 58be 9752 9cbc ba97 893a
00000070: fa37 083e 30c4 123d e951 c73d a5a6 7d3d
00000080: 77c6 bb3d 3f9d c03d 2b1b a9bc b76f c43c
00000090: 082e 54be 3b7e b03d 0478 21bc 49a2 d43c
000000a0: 2f86 1a3d f230 0fbe f749 05bd 219a 67bc
000000b0: 7586 693d 2131 0f3d 1185 1ebc b869 f93d
000000c0: bdc0 6cbd 9845 d93d 23c2 c0bd da73 6cbd
000000d0: 1b38 a93d 3f31 b4bc 9c50 81bc 661f 623d
000000e0: dcb6 fb3d 445d 2abe cf87 253d 1f90 52bb
000000f0: 7e2a 29bd e57e 03be 0b5a 38be 8c17 1abe
00000100: 946b 1dbe c349 00be f123 9b3d 0114 4ebd
00000110: a899 2cbd 274f 033e d473 0d3e 4297 3abe
00000120: b834 c13c 298f b6bd 567f 813c 402b 00be
00000130: b27d 31bc 190f 80bd a9db 033e 0773 8ebd
00000140: a7e2 643c eb11 853d 7ce1 63bd db71 ef3d
00000150: 7d54 ed3d e8c2 fc3d c8c3 e13c cbc4 7a3d
00000160: 693f 73be 6fa7 153d 3aeb 263c dcfe 40be
00000170: 8948 963d 2d39 923d 08d4 96bd 0571 2c3d
00000180: e09c 043d a4dc bbbd 782d 88be 8cad 133c
00000190: 5e32 393d 5521 903c d4f7 ecbd f92a 08bc
000001a0: 15fa c3bd d643 dd3c f821 bfbb f90a 33bd
000001b0: e63e 65b9 91e2 863d 4a53 c5bd c517 9d3d
000001c0: aae0 2c3e 042a a43d 35f6 c5bc 2152 843d
000001d0: a425 46bd b373 06be 7903 973b 0783 2fbc
000001e0: 1486 143d 02dc f1bd a7d9 783c 5dbc dfbd
000001f0: 457c 20be abde 8e3c 27ed 063e 89ef 98bc
00000200: 3538 68bd fc0c 6cbe a3fd 2b3d 5fc5 a9bd
00000210: f377 6cbd c0bd 46be cfa6 5abd b589 b4bd
00000220: d80d 8a3d cf1f 763d 6c16 213d a8a7 e2bd
00000230: dd3b bc3d a5a9 513d 6a33 963d b0ba 753d
00000240: 0645 a23d 4e40 e8bd 71a3 fe3c a593 773b
00000250: 4f0d 8e3d 977a 0bbe 9f7e 30be 6377 26be
00000260: 2184 35bc 8b03 bcbd 9f63 8bbc 0732 aabd
00000270: 1ff2 1cbd dfe0 8fbd 8a0f 5e3b 8069 0abe
00000280: 2180 923c 5e6e 923a 6d8a c8bd a457 9e3d
00000290: 7cd5 ec3d 842e 0dbe b97f 82bd 0e1a 203e
000002a0: 49fd b03c 8296 28be 5639 413d 748e fabc
000002b0: a1cc 11be 1b60 b03d 5198 0cbc e4fc f6bd
000002c0: b688 4cbd 5af4 bbbd 79aa 42be d571 bfbd
000002d0: fdf6 0dbe a3ab 7cbd 728c b43c 1637 083d
000002e0: fdce 4f3d d720 bc3d 8853 e2bd f7fe b5bd
000002f0: 291e adbd f69c 15be f7e2 a93b 89f9 a2ba
00000300: 269e a3bd 4535 b03d 2be8 21bd 8dc1 5dbc
00000310: 522b 1e3e 8814 5cbe 183c 8a3c f265 f3bc
00000320: a9a8 cd3d 8219 e93d 310a 203e bdb6 f33b
00000330: 10af 16bd b215 903d edb2 efbd 5656 2f3d
00000340: 07f1 8f3c a017 f6bd 7c36 e7bd 9db5 84bd
00000350: 1f2c 88bc f4db 143e 92f9 5e3c 52dc 7ebd
00000360: 1c64 2cbe 3953 8b3c 7e55 2fbd 8a21 9b3d
00000370: 113f 9e3b f747 a2bd 7c4b bbbd 01c2 c53d
00000380: fef1 c2bd bcbd 023e 91cc 433c 892a fd3d
00000390: b24e 26be f4ab f0bd a2c3 0e3d f49f 5b3d
000003a0: 49dc b2bc 640e 8e3d 86cc c5bd 03d3 ccbd
000003b0: cac7 f2bd 938d fc3d 9f62 dbbd c33f 4d3d
000003c0: 96c7 2fbe 0d83 e6ba fbb0 ca3d 416b aa3d
000003d0: cc07 d8bd caff 19bd 9875 923d af00 53bc
000003e0: 8d8b c1bd c7d3 11bd 6de0 123d 7b09 493d
000003f0: 0773 1a3e bb30 4b3e 588e 9bbd 058b 2f3d

critic.2.bias f4 [256]
0.043074112 0.10445854 -0.04986685 0.108828105 -0.004293876 0.056001954 0.03493865 0.11815106
0.12767386 -0.052120686 0.0881929 0.06621785 0.013233752 -0.051336095 -0.102427855 0.012253645
-0.047399182 0.1252656 -0.013251751 0.0002457505 0.107592255 0.008858301 -0.04818545 0.10442075
0.14234956 0.12697168 0.054834068 0.06722561 -0.027808666 0.05311264 0.07691981 0.046972357
0.123240456 0.07118169 0.13460381 0.11887287 0.09371789 0.15627663 -0.021463277 0.023103513
0.13787994 0.07640311 0.13731147 -0.033097073 -0.005726181 0.03501731 0.12186259 -0.059488364
0.15559597 0.14337748 0.044351496 -0.020112641 0.029010588 0.050288793 0.087913305 -0.033109017
-0.01889434 0.078392684 -0.041740436 0.024625123 0.14427644 0.08623923 0.05061655 -0.043980747
0.03143709 0.11531637 -0.0129892 -0.003503956 -0.027119068 -0.009785704 -0.07258045 0.10329412
0.115263335 0.14814225 -0.036574956 0.15300253 0.10006055 0.0056287646 -0.068427056 0.026889741
0.032059282 0.027537268 0.015573911 -0.0053314865 -0.015469856 0.06281698 0.15427294 -0.014076962
0.03203394 0.058066297 -0.020955525 0.10876546 0.043420434 0.010386143 0.030973388 -0.04474988
0.015273665 0.042907987 -0.042572003 0.14034408 0.084051624 0.019005202 -0.057451446 0.010949492
-0.009244328 -0.049669404 0.023525132 -0.059321262 -0.05768617 0.1452879 0.030266559 0.06485448
-0.06813289 0.003816434 0.076184444 0.02179428 0.021972215 -0.04711157 0.048988204 -0.049828406
0.14415765 -0.0055357954 0.07957611 0.14323966 0.055137306 0.115659244 0.13673498 -0.039030373
0.13557704 0.09810575 -0.019758536 -0.035770595 0.013653233 0.047128774 0.09194333 0.12934573
-0.0010132722 0.022007521 0.0827692 -0.01980551 -0.02692842 -0.02184123 0.02157864 -0.009981267
0.08564369 0.10032497 -0.11072267 0.08208372 0.04899833 -0.01607463 0.14749844 0.00939089
-0.045737714 -0.07193391 0.059209432 0.05261033 0.048522342 0.11822084 0.14221482 0.028587742
-0.021302292 -0.026828539 -0.055877693 0.06362423 0.119367905 -0.043358013 -0.040591452 -0.040277462
0.01240485 -0.026180273 0.060702555 0.10955497 0.109638214 0.053903785 -0.046518274 -0.02036521
0.04845809 0.12038016 0.008968827 0.15277158 0.13814728 -0.010289073 -0.032451615 0.11497294
0.11311247 0.03052864 0.06622252 -0.0054178517 -0.06199927 0.025379281 0.14486423 0.03985757
-0.017000534 0.046448063 0.09955435 -0.011302952 0.09873296 0.046326607 0.0130956 -2.4103625e-05
0.055271827 0.1107135 -0.03462577 0.053342417 0.061776284 -0.017971864 -0.038428564 -0.081699096
0.01731468 0.08274202 0.113053516 0.051799785 0.0889472 0.039458156 0.08581626 -0.0060893
0.08755349 -0.05562178 -0.04503763 0.13619916 -0.054844514 -0.06474717 0.031149179 -0.018787608
-0.047094498 0.02095367 -0.032538746 0.011086629 0.07806993 0.016011186 0.02230344 0.10406474
0.07554928 -0.035865605 -0.040732276 -0.004450798 0.005940542 -0.002415143 0.021758635 -0.001195769
-0.057690877 0.09250466 0.13080081 -0.06996935 -0.057812344 -0.076370895 0.013292436 0.11470877
0.15892859 -0.013904417 0.16039461 0.050415445 0.13557047 0.13288817 -0.06692714 -0.11436724
00000000: 7b6e 303d 5cee d53d 2f41 4cbd 45e1 de3d
00000010: a4b3 8cbb 4e62 653d d41b 0f3d 2ff9 f13d
00000020: f0bc 023e 807c 55bd 7b9e b43d 399d 873d
00000030: 61d2 583c cc45 52bd b2c5 d1bd 83c3 483c
00000040: a525 42bd a045 003e df1d 59bc 13d8 8039
00000050: 5459 dc3d 6822 113c 1b5e 45bd 8cda d53d
00000060: 15c4 113e dd04 023e b099 603d 95ad 893d
00000070: 00cf e3bc a48c 593d 2288 9d3d 1666 403d
00000080: 7e65 fc3d b5c7 913d 95d5 093e 9f73 f33d
00000090: 2aef bf3d fb06 203e c1d3 afbc 9443 bd3c
000000a0: 6630 0d3e 3c79 9c3d 619b 0c3e cc90 07bd
000000b0: b0a2 bbbb 506e 0f3d 1893 f93d 12aa 73bd
000000c0: 8d54 1f3e 8cd1 123e eaa9 353d 44c3 a4bc
000000d0: 9da7 ed3c 9ffb 4d3d e40b b43d 529d 07bd
000000e0: 4ec8 9abc 588c a03d 05f8 2abd a0ba c93c
000000f0: 34bd 133e 329e b03d 4d53 4f3d 2825 34bd
00000100: 2ec4 003d fd2a ec3d a7d0 54bc a0a2 65bb
00000110: cf28 debc 3854 20bc 0fa5 94bd de8b d33d
00000120: 2f0f ec3d 9ab2 173e 9fcf 15bd b2ac 1c3e
00000130: 8cec cc3d 8071 b83b 7c23 8cbd e047 dc3c
00000140: 9850 033d d695 e13c b829 7f3c c0b3 aebb
00000150: 4775 7dbc 30a6 803d baf9 1d3e 0fa3 66bc
00000160: 0536 033d edd6 6d3d ecaa abbc 6dc0 de3d
00000170: a0d9 313d a42a 2a3c e7bb fd3c a64b 37bd
00000180: 653e 7a3c 49c0 2f3d fb5f 2ebd 5cb6 0f3e
00000190: 4223 ac3d ccb0 9b3c 3552 6bbd 8065 333c
000001a0: 8675 17bc 2572 4bbd c7b7 c03c dafa 72bd
000001b0: 5548 6cbd 5ac6 143e 93f1 f73c 6dd2 843d
000001c0: 4289 8bbd 231d 7a3b 9706 9c3d eb89 b23c
000001d0: 13ff b33c 10f8 40bd dba7 483d df18 4cbd
000001e0: 109e 133e 9e65 b5bb cdf8 a23d 6bad 123e
000001f0: a8d7 613d c1de ec3d 4104 0c3e 50de 1fbd
00000200: b5d4 0a3e abeb c83d a7dc a1bc 3084 12bd
00000210: cfb1 5f3c 1a0a 413d c94c bc3d 3573 043e
00000220: c6cf 84ba 1e49 b43c e682 a93d 2a3f a2bc
00000230: fd98 dcbc 61ec b2bc b0c5 b03c 7888 23bc
00000240: f565 af3d 2e77 cd3d 91c2 e2bd 821b a83d
00000250: 79b2 483d f1ae 83bc d509 173e 3fdc 193c
00000260: 7857 3bbd 1652 93bd 9785 723d ee7d 573d
00000270: 5dbf 463d c51d f23d c3a0 113e d730 ea3c
00000280: 2582 aebc 86c7 dbbc 02e0 64bd 6c4d 823d
00000290: 2977 f43d 2c98 31bd 3943 26bd fbf9 24bd
000002a0: b63d 4b3c 0378 d6bc 3ea3 783d 5b5e e03d
000002b0: 008a e03d 37ca 5c3d f289 3ebd f1d4 a6bc
000002c0: fd7b 463d e089 f63d fdf1 123c 2770 1c3e
000002d0: 7b76 0d3e 8093 28bc fceb 04bd ef76 eb3d
000002e0: 83a7 e73d 3317 fa3c ac9f 873d 3c88 b1bb
000002f0: f2f2 7dbd 36e8 cf3c 4a57 143e b141 233d
00000300: b444 8bbc 5340 3e3d 27e3 cb3d 0430 39bc
00000310: 8234 ca3d f8c0 3d3d ed8e 563c 2432 cab7
00000320: b664 623d c2bd e23d c0d3 0dbd 947d 5a3d
00000330: 2109 7d3d bb39 93bc 4567 1dbd db51 a7bd
00000340: 84d7 8d3c a674 a93d 9a88 e73d 032c 543d
00000350: f329 b63d e09e 213d 6fc0 af3d c088 c7bb
00000360: 3f4f b33d aad3 63bd 6179 38bd cb77 0b3e
00000370: a4a4 60bd 2a9a 84bd 902c ff3c 78e8 99bc
00000380: 29e6 40bd 08a7 ab3c 5947 05bd b1a4 353c
00000390: 21e3 9f3d e429 833c b4b5 b63c e51f d53d
000003a0: 95b9 9a3d d0e7 12bd e3d6 26bd 00d8 91bb
000003b0: e1a8 c23b 6047 1ebb 2a3f b23c 59bb 9cba
000003c0: 454d 6cbd 1573 bd3d a6f0 053e 174c 8fbd
000003d0: a3cc 6cbd 5868 9cbd 84c8 593c 6eec ea3d
000003e0: 2dbe 223e 5acf 63bc 7c3e 243e 6d80 4e3d
000003f0: fcd2 0a3e d613 083e 1911 89bd 5f39 eabd

critic.4.weight f4 [1, 256]
0.1078131 0.10770489 9.099242e-05 0.10450584 -0.022596609 0.051610623 0.08904832 0.10343714
0.055329703 -0.05496785 0.11171306 0.077530034 -0.12562127 -0.036115576 -0.06612629 -0.052758954
0.019215917 0.115458705 -0.00061843294 -0.036601312 0.06799029 -0.00076806545 -0.011665587 0.07038184
0.05695761 0.10528637 -0.0018327244 0.05997351 -0.0048603043 0.0631035 0.07050456 -0.032748703
0.057908144 0.07366496 0.09516101 0.08912973 0.047175214 0.0721898 0.0031084642 -0.04939201
0.06511415 0.06326044 0.057302233 0.00023539028 -0.023334414 0.06627022 0.06669346 -0.0012569982
0.07529786 0.11417441 -0.002627538 0.0012946654 -0.051193345 -0.030172402 0.06381342 0.057812065
-0.14059985 0.052635357 0.029165598 0.0031522354 0.11609547 0.073948115 0.029593443 0.03927187
-0.03457711 0.06738834 -0.13229519 -0.040269304 -0.055991296 -0.030228293 -0.0717196 0.061572034
0.08242275 0.08864611 -0.065952994 0.118312396 0.050631534 0.060402818 -0.11551931 -0.022104936
0.06139555 0.06723097 -0.050706893 -0.081055194 -0.009274138 0.07928543 0.09124663 -0.05026249
-0.007546901 0.058011174 0.031116135 0.10700491 -0.0061460654 -0.053205475 0.082382254 -0.16846582
-0.016985664 -0.035584822 -0.005634485 0.0841546 0.05975241 0.0012499535 -0.0040877806 -0.04531631
-0.05575083 0.00043049324 -0.050649207 0.009491508 -0.016494842 0.06140237 0.07078082 0.10153814
-0.08432708 -0.026312213 0.08942333 -0.02695591 -0.024261603 0.007070947 0.010595933 0.032139968
0.04948101 -0.0058483086 0.07445553 0.11938842 0.024816783 0.08971465 0.064577416 0.05955214
0.11564317 0.08332453 -0.040607795 -0.027851108 -0.05565256 -0.019308718 0.08241615 0.09290646
-0.030545384 -0.0030909204 0.083443254 -0.055120867 -0.016209466 -0.0019863525 -0.010159442 0.05654064
0.074969806 0.06647407 -0.16959068 0.05512947 -0.05031132 -0.04102724 0.08607367 -0.054405283
0.033002697 -0.059358895 -0.023919504 0.008847342 -0.047798816 0.07873712 0.11475867 -0.0758605
-0.009304696 -0.023013301 -0.16895044 0.07690137 0.083378375 -0.0010218803 -0.022467805 -0.02256487
-0.0871414 3.7314672e-05 0.10059278 0.0643935 0.0940319 0.080755815 0.011657216 0.002034806
-0.010463433 0.062385093 -0.029286006 0.08102627 0.12190385 -0.030136747 -0.0018831576 0.10221242
0.07257899 -0.05608466 0.025816107 -0.09971227 -0.026876554 -0.15994179 0.107945904 -0.044569034
-0.011806088 0.0016159314 0.10079761 -0.03453658 0.072839156 -0.0033152292 -0.0129894735 -0.024851954
-0.02127412 0.07378921 0.00092370063 0.06531149 0.054556508 -0.0916615 -0.03750199 -0.16199107
-0.006207401 0.08209686 0.062315874 -0.046251968 0.057184935 -0.060424775 0.1054256 -0.02493579
0.10442773 -0.060684055 -0.057130147 0.08112826 -0.029309139 -0.009096762 0.0509004 0.042980976
-0.03208298 -0.017468892 -0.030504763 -0.011087494 0.06303572 -0.017672405 0.010296863 0.10058018
0.061069306 0.00361564 -0.07509062 -0.022943309 -0.0342176 0.0044648945 0.0032904504 -0.03741584
-0.019357285 0.10150669 0.07263861 -0.11795856 -0.035463072 -0.019933088 -0.061582923 0.076497875
0.06090182 -0.017865732 0.10731315 0.10428634 0.093863435 0.117341876 -0.04527874 -0.13746771
00000000: 1dcd dc3d 6294 dc3d 2fd3 be38 2807 d63d
00000010: 861c b9bc a965 533d f75e b63d dad6 d33d
00000020: 66a1 623d f825 61bd d1c9 e43d 11c8 9e3d
00000030: dda2 00be eded 13bd 386d 87bd c619 58bd
00000040: b36a 9d3c 9d75 ec3d 551e 22ba 42eb 15bd
00000050: 7e3e 8b3d 0058 49ba 0521 3fbc 5b24 903d
00000060: 624c 693d 61a0 d73d 0738 f0ba c9a6 753d
00000070: 3043 9fbb 683c 813d b264 903d 8123 06bd
00000080: 1731 6d3d a8dd 963d c7e3 c23d a689 b63d
00000090: cc3a 413d 3fd8 933d 60b7 4b3b 474f 4abd
000000a0: 915a 853d b18e 813d bfb5 6a3d 19d3 7639
000000b0: d027 bfbc aeb8 873d 9596 883d dcc1 a4ba
000000c0: c435 9a3d 46d4 e93d c632 2cbb c3b1 a93a
000000d0: 1db0 51bd 1d2c f7bc 9cb0 823d 58cc 6c3d
000000e0: 68f9 0fbe 2c98 573d b1ec ee3c bc95 4e3b
000000f0: 76c3 ed3d 1c72 973d f36d f23c 8adb 203d
00000100: baa0 0dbd e602 8a3d 6478 07be 6df1 24bd
00000110: 2157 65bd 53a1 f7bc bae1 92bd f532 7c3d
00000120: 42cd a83d 178c b53d 5d12 87bd c54d f23d
00000130: 0363 4f3d f268 773d 6395 ecbd 6915 b5bc
00000140: e679 7b3d 64b0 893d 08b2 4fbd 4400 a6bd
00000150: 8ef2 17bc 6660 a23d 83df ba3d 0ae0 4dbd
00000160: fe4b f7bb 209d 6d3d 44e7 fe3c 6425 db3d
00000170: ef64 c9bb fced 59bd 07b8 a83d 4e82 2cbe
00000180: 8525 8bbc 64c1 11bd 7ca1 b8bb 3f59 ac3d
00000190: f1be 743d 7bd5 a33a caf2 85bb 989d 39bd
000001a0: fb5a 64bd d3b3 e139 8b75 4fbd 4582 1b3c
000001b0: 3120 87bc 0d81 7b3d 89f5 903d 3af3 cf3d
000001c0: adb3 acbd b68c d7bc 9423 b73d a4d2 dcbc
000001d0: 45c0 c6bc 67b3 e73b 909a 2d3c 33a5 033d
000001e0: 99ac 4a3d 2ba3 bfbb 247c 983d ea81 f43d
000001f0: 914c cb3c 50bc b73d 2a41 843d f2ec 733d
00000200: 54d6 ec3d 0da6 aa3d 5c54 26bd 0228 e4bc
00000210: f0f3 63bd 512d 9ebc ccc9 a83d be45 be3d
00000220: 503a fabc 0a91 4abb 4ce4 aa3d 6bc6 61bd
00000230: b7c9 84bc 772d 02bb ca73 26bc 2897 673d
00000240: c589 993d 8f23 883d 2ea9 2dbe 70cf 613d
00000250: 3e13 4ebd 2e0c 28bd 6447 b03d 13d8 5ebd
00000260: d62d 073d 5022 73bd d6f2 c3bc 71f4 103c
00000270: b1c8 43bd ed40 a13d 9806 eb3d c05c 9bbd
00000280: b972 18bc 6486 bcbc 5801 2dbe 777e 9d3d
00000290: 48c2 aa3d 9df0 85ba 670e b8bc f6d9 b8bc
000002a0: 3177 b2bd 5382 1c38 9603 ce3d bde0 833d
000002b0: cc93 c03d 4e63 a53d e8fd 3e3c 615a 053b
000002c0: d26e 2bbc 8387 7f3d 35e9 efbc 1af1 a53d
000002d0: baa8 f93d 57e1 f6bc 49d4 f6ba bf54 d13d
000002e0: 4ba4 943d 07b9 65bd 4d7c d33c f235 ccbd
000002f0: 382c dcbc c8c7 23be be12 dd3d 058e 36bd
00000300: 526e 41bc a9cd d33a fa6e ce3d 3b76 0dbd
00000310: b22c 953d 5144 59bb cdd1 54bc 5396 cbbc
00000320: 1047 aebc cc1e 973d 8024 723a 08c2 853d
00000330: a576 5f3d 06b9 bbbd b09b 19bd fde0 25be
00000340: 7467 cbbb 6622 a83d ee3e 7f3d b472 3dbd
00000350: c03a 6a3d f87f 77bd 61e9 d73d 2446 ccbc
00000360: 35de d53d d88f 78bd 4d01 6abd 9326 a63d
00000370: b819 f0bc 960a 15bc f07c 503d d20c 303d
00000380: 7169 03bd ec1a 8fbc 20e5 f9bc 52a8 35bc
00000390: df18 813d b8c5 90bc 2cb4 283c fbfc cd3d
000003a0: cf23 7a3d 60f4 6c3b 1cc9 99bd 9bf3 bbbc
000003b0: c127 0cbd 404e 923b 99a4 573b 5a41 19bd
000003c0: 2b93 9ebc bde2 cf3d 8dc3 943d 4294 f1bd
000003d0: ba41 11bd b74a a3bc 603e 7cbd ebaa 9c3d
000003e0: 3074 793d 285b 92bc ffc6 db3d 1494 d53d
000003f0: 793b c03d f050 f03d 3376 39bd 56c4 0cbe
