codes/PPO/outputs/CartPole-v0/20211117-184614/models/ppo_critic.pt (torch, 271845 bytes, 5 tensors)

critic.0.weight f4 [256, 4]
000000 dc 88 13 bf ec 9b 7c 3e b8 0c 0c 3f 91 1f 54 3e
       -0.57630706 0.24668854 0.5470691 0.20715167
000010 79 9e 7d be e9 d7 26 3e bd 6d b1 be 00 46 bb 3e
       -0.24767484 0.162933 -0.34654036 0.36576843
000020 59 a4 38 3e 45 74 8f 3e a6 68 24 3e 1a bc 99 3c
       0.18031444 0.28018394 0.16055545 0.018766452
000030 b4 8f a7 be f2 75 d4 3e 33 9e b9 3e df 75 47 be
       -0.32726824 0.41496235 0.3625351 -0.19478558
000040 dd 6e d0 be 14 6e b4 3e 9f 0a fc be c2 7a bc 3e
       -0.40709582 0.35240233 -0.49226853 0.36812407
000050 7c 7d 39 be 9e cc 8c 3e f5 77 cd 3d 98 4f 2c 3e
       -0.18114275 0.2749986 0.100326456 0.16827238
000060 86 92 a6 be 24 a8 ec be a3 0f 50 bf 6f 48 cb be
       -0.32533664 -0.4622203 -0.8127386 -0.397037
000070 25 be 6f bd 7a 54 e9 3e 68 5e 5b be 38 40 8e 3e
       -0.058530945 0.45572263 -0.21422732 0.2778337
000080 ca 76 7e bd bb 36 b0 3e 4d 36 5c be 6a 97 02 be
       -0.062125005 0.34416756 -0.21505089 -0.12753072
000090 b3 3a a0 be d1 cf 07 be 99 6d 02 3e 38 06 92 3e
       -0.31294784 -0.1326287 0.1273712 0.2852037
0000a0 92 2e 27 bd 7d d7 9f bd 4a 9e 09 3f 4f b6 14 3d
       -0.040815897 -0.07804773 0.53757155 0.036306676
0000b0 7d 6f d9 be aa e3 bd be 2f a6 18 bf c3 4b 82 be
       -0.4246787 -0.37087756 -0.59628576 -0.25448427
0000c0 82 e5 1d be bc 33 d1 3c d3 e1 9f 3d e3 aa b1 3e
       -0.15419582 0.025537364 0.078067444 0.3470069
0000d0 40 07 2e bc 80 ef b2 3d 28 60 67 3e 28 bb 38 3e
       -0.010621846 0.08737087 0.22595274 0.18040144
0000e0 4f 96 bd 3e 78 86 9c 3e 9e 98 39 3e 6c b8 68 3e
       0.3702874 0.30571342 0.18124625 0.22726601
0000f0 e5 e9 33 bd bd 9c a0 3e ec 9f f3 bd 6b 1c b9 be
       -0.04392423 0.31369582 -0.11895737 -0.36154494
000100 33 51 d5 3e 23 3b 0b be 15 3c e8 3d 8e b5 a5 3e
       0.41663513 -0.13596778 0.11339585 0.32365078
000110 61 3e ca 3e d1 ae 26 3e 3a ed 6e 3f df 2a cd 3d
       0.39500716 0.16277625 0.9333073 0.10017943
000120 90 5e 6b be 6c af 0a 3c 91 ac c0 3e c7 e8 a0 be
       -0.22985291 0.008464675 0.37631658 -0.31427595
000130 e8 af 40 3e 71 84 2e 3e 00 1e fa be b7 27 dd be
       0.18817103 0.1704271 -0.48851013 -0.43194363
000140 16 26 ea be 1d 3a c2 be 90 55 75 bf d1 aa 83 be
       -0.45732182 -0.37934962 -0.95833683 -0.2571626
000150 b2 d2 18 3f d5 35 25 3f 5b 7c 5a 3e 2e 16 01 3f
       0.59696496 0.64535266 0.213365 0.5042447
000160 3b 14 8f be 63 6c a4 3e c3 f0 d4 be c7 7f db 3e
       -0.27945122 0.32113943 -0.41589937 0.42870924
000170 95 e9 03 3e 56 01 32 be 8b 08 18 bf f1 c4 8f 3e
       0.12882073 -0.17383322 -0.59388036 0.28079942
000180 c1 e3 40 3e 2c 49 5b 3d 63 5a d5 be 32 e9 5a 3e
       0.18836881 0.05353658 -0.41670522 0.2137802
000190 9e 0b 44 bd be 5c bf bd 3b f3 03 3e 35 f7 d0 be
       -0.04786264 -0.09343861 0.12885754 -0.40813604
0001a0 30 1b aa 3e d6 ca ee 3e b5 65 3e 3f 50 0e 0b 3f
       0.33223867 0.46639127 0.7437394 0.54318714
0001b0 54 1d 3d bf 93 f1 ae 3d e9 bf 0f be 33 ff a3 3e
       -0.73872876 0.085421704 -0.14038052 0.3203064
0001c0 00 45 44 3e dc 5b b1 be df b6 a7 3e 2c 12 d1 bd
       0.19166946 -0.34640396 0.32756707 -0.10208544
0001d0 d6 d9 3d 3e 60 09 1f 3e 1f 35 47 bc e2 65 3c 3d
       0.18540129 0.1553092 -0.012158661 0.0459956
0001e0 16 29 0f 3f 81 86 81 bd 78 d4 13 3f 2a af 2c be
       0.5592207 -0.06324483 0.57746077 -0.16863695
0001f0 1f d7 fb 3d 70 38 dd be 63 e2 49 be 31 79 41 3d
       0.122968905 -0.4320712 -0.19715266 0.047234718
000200 b1 9b 44 bf 88 cc c6 3d 76 31 3c bf 5b 4b aa be
       -0.76800066 0.0970698 -0.7351297 -0.33260617
000210 00 f0 11 3f e2 8d 02 3f 38 a9 b5 bd e5 e9 58 3e
       0.57006836 0.50997746 -0.088701665 0.21182974
000220 e3 69 a2 be 97 43 3a be e5 f7 03 bf c5 6b ae be
       -0.3172141 -0.18189846 -0.5155013 -0.34066597
000230 91 da 27 bd d5 a6 10 3f 2b 3f bc be b9 84 c4 be
       -0.040979926 0.56504565 -0.36766943 -0.3838251
000240 ce 34 c4 be 4d 86 bc be 6e 79 84 bf 60 ef 85 be
       -0.38321537 -0.36821213 -1.0349557 -0.2615919
000250 af de 8e be b9 c8 c7 be 1c 16 ec be d0 23 9c bd
       -0.2790427 -0.39020327 -0.46110618 -0.07624018
000260 6b 4b a3 be 6b 31 bd 3c 94 98 a0 bd 43 88 b1 bd
       -0.31893477 0.023094853 -0.07841602 -0.08668568
000270 c1 8d af be f7 1b 8b be 4a ed f6 be f4 eb 0a be
       -0.34287837 -0.27169773 -0.48227912 -0.13566571
000280 c4 c0 de be 63 d0 05 bf 20 55 80 bf 38 51 bc be
       -0.43506444 -0.522711 -1.0025978 -0.36780715
000290 1a 80 22 3f 22 df c0 3d a0 0e f6 3e 74 1d fb 3d
       0.6347672 0.09417559 0.48058033 0.12261477
0002a0 eb 6e 1b bd d1 d4 09 3e 25 e5 d0 3e fd a3 87 3c
       -0.037947576 0.1346009 0.40799823 0.016557688
0002b0 18 67 80 be 37 4a ab 3e 1c b5 c2 3e f0 a9 cd 3e
       -0.25078654 0.3345506 0.380288 0.40168715
0002c0 a2 2f 9f 3e d3 9e 99 be 2f 6b 75 3e af 8c 80 be
       0.31091028 -0.30003986 0.23966669 -0.25107333
0002d0 8e 19 6a be 98 18 cb 3d a0 32 0b bf 46 89 be 3b
       -0.22861311 0.099168 -0.5437412 0.005814704
0002e0 0a 6e ac be b7 f4 9c be 55 2f d1 be 0d c6 31 3e
       -0.33677703 -0.30655453 -0.40856424 0.17360707
0002f0 25 73 8f be 30 7c f1 be dc 78 c6 be 43 17 09 3e
       -0.28017536 -0.4716506 -0.38764083 0.1338778
000300 1b 58 3e be 60 d3 80 bc 6e 0c 9f 3e cf 24 ec 3d
       -0.18588297 -0.015725791 0.3106417 0.11530458
000310 e6 ab cd bd ec f7 5f be 49 e6 e8 be a3 d4 b3 3d
       -0.10042553 -0.21871918 -0.45488194 0.087807916
000320 45 42 14 3e 5f 73 4d 3e ae 4a 50 bd cb 1e cb 3e
       0.14478405 0.20063542 -0.05085247 0.3967193
000330 2a c5 54 3d b9 d8 b9 be 59 91 4e 3e 22 73 63 bd
       0.051945843 -0.3629816 0.20172633 -0.05552972
000340 ed 3d 26 bf 54 5a 84 be 24 7b 81 bf 78 de 2b be
       -0.6493824 -0.25850165 -1.0115705 -0.16784084
000350 cf 14 95 3e 03 5b b4 3e 5d fc 63 3f 4f 00 89 3e
       0.29117438 0.35225686 0.8905695 0.26758048
000360 a7 c8 88 be 1a a4 2d be dd 1a 90 3e d1 59 cb be
       -0.26715586 -0.16957131 0.28145495 -0.39716962
000370 2f 12 80 be c2 20 9b 3e 7c 17 3a 3f 22 df 69 3e
       -0.25013873 0.3029843 0.72692084 0.22839025
000380 fd bd 32 be c3 a0 8f 3e dc 3a 1d be 0f 18 ae be
       -0.17455287 0.2805234 -0.15354484 -0.3400273
000390 69 c6 a6 be c4 c0 e4 3e a8 1d d3 be 26 3c b2 3e
       -0.3257325 0.44678319 -0.41233563 0.34811515
0003a0 8a eb fc be 0a fa d3 be 53 0d 86 bf 30 9e 8b be
       -0.49398452 -0.41401702 -1.0472816 -0.27269125
0003b0 15 51 ab 3d 78 17 e3 3e 88 6b 85 bd d6 ec b8 3d
       0.083650745 0.44353843 -0.065146506 0.09029548
0003c0 3a ef 38 3d a8 83 54 bd 95 66 cc 3e 7d 32 11 bd
       0.04515002 -0.05188337 0.39922014 -0.03544854
0003d0 6b cd 83 3d 5e 77 6e be ac cc 31 bf 82 35 75 bc
       0.06435665 -0.23287722 -0.6945293 -0.014966371
0003e0 a4 bb 51 bf e0 f3 a4 3e 2b 92 72 3e 43 36 7b 3e
       -0.8192694 0.32217312 0.23688571 0.24532418
0003f0 a3 c3 91 3d 0a 96 11 3e da 7f 2b 3e 39 f4 58 be
       0.07117393 0.14217392 0.1674799 -0.21186914

critic.0.bias f4 [256]
000000 95 c3 7a bd 88 3d ed 3e 0e 7a 15 3f 8e c8 f2 3e
       -0.061221678 0.46336007 0.58389366 0.47418636
000010 0d 91 1b 3f e3 2d 00 3f 4b 9f a4 bd 4e 00 1f 3d
       0.60768205 0.5007002 -0.08038195 0.03881865
000020 0f 3f 45 3e 79 b8 de 3e 34 e7 0d 3d 80 b9 e4 bd
       0.19262336 0.43500116 0.03464432 -0.11168194
000030 c9 d2 dd 3e c6 f2 fb be c1 a0 aa be d7 c0 9d 3e
       0.4332488 -0.4920866 -0.3332577 0.30811188
000040 8c ce d9 be 76 4c 87 3b bf 09 fa 3e 34 bf d4 be
       -0.42540395 0.004128988 0.4883556 -0.41552126
000050 3b 4b 2c bd da a0 d9 bb 51 fd c2 3e b5 a0 7f 3e
       -0.042063933 -0.0066414895 0.3808389 0.24963649
000060 ad d9 0c 3f 2f ac 01 bd ea 64 b0 bd 00 67 35 be
       0.55019647 -0.031658348 -0.08612998 -0.17715073
000070 55 33 d1 3e 35 1f 2a 3e de fe 08 bd 11 d0 1d 3f
       0.40859476 0.16613467 -0.033446185 0.6164561
000080 66 33 83 be 44 d2 6e bb 5c 0b 06 3f 15 f9 54 be
       -0.2562515 -0.0036441246 0.52361083 -0.20798142
000090 68 bc cb bc 3c 56 e2 3e 32 eb f4 3e d3 a9 0d 3f
       -0.024870113 0.44206417 0.4783569 0.55337256
0000a0 b3 39 07 bd a6 e2 c7 bb 29 a4 a6 3e 8e e8 fd 3e
       -0.03301401 -0.0061000166 0.3254712 0.49591488
0000b0 d8 2b 62 3e b9 52 c8 3e 21 6b fa 3e 25 64 a7 3e
       0.22087038 0.39125612 0.48909858 0.32693592
0000c0 a2 c3 b4 3e 89 53 9b be 10 26 f6 3e 08 56 84 3d
       0.35305506 -0.3033717 0.48075914 0.06461722
0000d0 78 a2 f1 bc 24 f9 60 3b c0 f7 72 3e 17 ca 08 bc
       -0.029496416 0.0034328187 0.23727322 -0.008348963
0000e0 be a8 fb be 44 89 7b 3e 1c 26 17 bd f0 28 c4 bd
       -0.49152178 0.24564081 -0.03690158 -0.09578121
0000f0 0a ef 45 3e 80 bd 80 3d d2 5e 44 bd ae 97 31 bd
       0.19329467 0.06286144 -0.04794199 -0.043357544
000100 b4 b6 98 3e a7 5a 1d 3f dc 2c 0c 3f e4 97 08 3f
       0.2982689 0.6146645 0.5475595 0.53356767
000110 59 64 a7 bd d6 0e bb 3d 44 6e eb 3d 64 5c 0f 3f
       -0.08173437 0.09133689 0.11495641 0.5600035
000120 b9 1c 82 3e 2d f1 b9 3e c3 48 05 3b b6 3b e1 3d
       0.2541254 0.36316815 0.0020337559 0.10997717
000130 9c d0 4f 3e f8 99 3e be ef e2 7a bc 6c 38 96 bd
       0.20294422 -0.18613422 -0.015312894 -0.0733498
000140 bb 19 68 3e 99 df 88 3e 61 87 11 3f 16 69 17 3f
       0.22666065 0.2673309 0.56847197 0.59144723
000150 fb 7b 1f 3f 43 72 fb bc 19 95 af 3e d2 46 75 be
       0.62298554 -0.030694133 0.3429344 -0.23952797
000160 f2 27 36 3e 6d e0 81 be e6 97 53 bc 76 ab d9 bd
       0.17788675 -0.25366536 -0.012914633 -0.10628407
000170 8e fb bf 3e 25 05 dd 3e c5 8b 68 3e 34 d5 ea 3e
       0.37496608 0.43167987 0.22709568 0.45865786
000180 f9 2f 24 3c 43 32 36 bc 6e d6 05 3f f5 aa 87 bd
       0.010021203 -0.011120382 0.5228032 -0.06624404
000190 a7 88 00 bd 35 60 b8 3e 3c 61 dc 3e fe c0 e9 bc
       -0.03138032 0.360109 0.43042934 -0.028534409
0001a0 e8 e1 de be 28 7c 8a be 66 b6 b7 3a db 22 fc 3e
       -0.43531728 -0.2704785 0.0014016151 0.49245343
0001b0 0b ef 8a 3e 1d ba d1 ba 10 93 c6 be 56 47 12 bc
       0.271355 -0.0016000901 -0.38784075 -0.008928141
0001c0 79 1b ec 3e 1c b6 a7 bc 3f 2b f7 3c de eb a8 3e
       0.4611471 -0.020472579 0.030171989 0.32992452
0001d0 34 ca cd bc 54 fe 89 3e 46 f6 87 bb 12 df 3a 3d
       -0.025120832 0.2695185 -0.004149231 0.045622893
0001e0 33 76 f2 3e 8d 5d b4 bd 24 f6 17 bd b9 1e b9 bd
       0.47355804 -0.08806906 -0.037099972 -0.09039063
0001f0 75 2b 83 3e 14 99 a6 3e 68 54 2c bc 72 74 14 3f
       0.25619093 0.32538664 -0.010518171 0.5799018
000200 6c 82 ea bc 2f 3a a3 be ac fa e9 be 8f 99 a6 3e
       -0.028626643 -0.31880328 -0.4569906 0.3253903
000210 68 6a 89 bc 08 9c 0d 3f 73 98 03 3f 1b 6b 08 3f
       -0.016774371 0.5531621 0.51404494 0.5328843
000220 f3 15 cc 3e da 6a e0 3d 9c 03 20 bd a1 0c 09 bf
       0.39860496 0.1095788 -0.039065942 -0.53534895
000230 95 2c b6 be 24 8e 28 3e 1b 5d ea bc f5 b5 70 be
       -0.35580888 0.16460472 -0.02860885 -0.23506911
000240 f6 06 57 3e f1 6a ec be 81 de f2 be ae 23 f2 3e
       0.20998749 -0.4617534 -0.47435382 0.47292846
000250 0e e4 95 bc f9 d4 8f bd 7e e6 c2 3e ee 11 7d be
       -0.018297222 -0.07023043 0.38066477 -0.24713871
000260 ac c6 f6 3e b2 67 b5 3d d9 1d f0 be 7d 5b 28 3f
       0.4819845 0.08857669 -0.46897772 0.657646
000270 e2 66 21 3f f5 3f 1d bc 54 f5 b4 be e9 c2 00 3f
       0.6304761 -0.009597768 -0.3534342 0.5029741
000280 ad f7 28 3f 2e 83 ef be f3 a2 e1 3e 1e 94 b7 be
       0.66002923 -0.4677977 0.44069633 -0.35855192
000290 93 9e 7d 3e df 29 dc be 63 73 b1 be 89 a1 f6 3e
       0.24767523 -0.43000695 -0.34658346 0.48170117
0002a0 63 8c ce 3e 66 7e 0f be 95 7a 21 3f e9 5e ae 3c
       0.40341482 -0.14013061 0.6307767 0.021285491
0002b0 2d a3 18 3f 59 e1 05 bd b2 53 06 3f ff 83 1c 3f
       0.59623986 -0.03268561 0.5247146 0.6113891
0002c0 9e 39 19 bc e0 5e a6 3e ac 0a e4 3e f0 09 c8 be
       -0.009352116 0.3249426 0.44539392 -0.39070082
0002d0 88 47 e4 3e ed f5 df bc fa 4b 26 bd 59 c0 b3 be
       0.44585824 -0.027338946 -0.0405998 -0.35107687
0002e0 6e 0f e2 bc 66 a4 f7 be d7 58 01 bf 81 78 9c bd
       -0.027595248 -0.48367614 -0.50526184 -0.07640172
0002f0 8c f5 f6 3e 24 6a 9b be 7e 57 1b 3f 96 3a 1d bd
       0.48234212 -0.30354416 0.6068038 -0.03838595
000300 71 9a 4f 3e c7 6b 12 3f ff 29 27 3e 9b 85 96 3e
       0.20273758 0.57195705 0.16324614 0.29398808
000310 24 14 cc 3e 32 a8 03 bf a1 a0 8f be f8 22 da 3e
       0.39859116 -0.5142852 -0.28052238 0.42604804
000320 8d 36 ce 3e 97 5c 1a 3f e8 e5 dc be b7 73 02 3f
       0.40275994 0.6029753 -0.43144155 0.50957817
000330 6b 01 b9 be ed a1 21 3f d7 62 b0 3e 43 e8 29 bd
       -0.36133894 0.63137704 0.3445041 -0.041481268
000340 3e 64 2c 3e 3f e9 16 3f 16 f4 f5 3e d7 31 9f bd
       0.16835114 0.58949655 0.48037785 -0.07773178
000350 39 57 b5 3e 72 6b a9 bc ef bf ce bc 41 e2 19 3e
       0.35418108 -0.020681117 -0.025238005 0.15027715
000360 86 d8 8f be 7d 0f 08 3f 27 25 02 bd 97 78 12 3f
       -0.28094882 0.53148633 -0.031773712 0.57215255
000370 92 eb fb be 94 fd 09 3e 02 6c f2 3e c0 4a 4b be
       -0.49203163 0.13475639 0.47348028 -0.19852734
000380 ce e1 41 3e 84 26 0f be 45 4b 01 3f e1 8e f8 bd
       0.18933794 -0.13979536 0.5050548 -0.12136627
000390 df 35 ca 3e ae 8b c9 be 30 69 05 3f 18 b0 43 be
       0.39494225 -0.3936438 0.5211363 -0.19110143
0003a0 11 3e d0 be a4 5d 94 be 1b 83 d6 3e dd 83 10 be
       -0.40672353 -0.28977692 0.418969 -0.14112802
0003b0 f8 82 ee bd cb 6c 97 be b2 a6 4f be 4d 83 ba bd
       -0.11646074 -0.2957519 -0.20278433 -0.09107075
0003c0 68 1e c7 3e 20 ac ce bd fe 5c 04 bd a1 47 fa 3e
       0.38890386 -0.10091424 -0.032315247 0.48882774
0003d0 7f cd 0e bd 9a 83 b0 be 6c 40 d9 be 65 54 50 3e
       -0.034863945 -0.34475404 -0.42431962 0.20344694
0003e0 5a 40 85 bd 4e 4d 32 3b 4d 98 dc bd e0 fe 6c 3e
       -0.06506415 0.0027206722 -0.107712366 0.23144102
0003f0 88 85 68 bd 4a 43 a2 3e f4 ef a3 bd d6 be cc bd
       -0.05676797 0.31691962 -0.08004752 -0.099973366

critic.2.weight f4 [256, 256]
000000 7a a7 1c bd 3a 09 df bb 13 5d 28 3d cc be 4d 3d
       -0.038245656 -0.00680652 0.041104387 0.050230786
000010 5e e0 1b 3d 04 0f 78 bd d8 10 5f 3c 8a 83 71 bd
       0.03805577 -0.060561195 0.013614856 -0.058963336
000020 c3 1e 45 bd 3e c4 03 bd 5e 9a 2e bd 48 31 bd bc
       -0.04812504 -0.032169573 -0.042627685 -0.023094788
000030 08 d1 a1 bc 48 3e 7c bd 60 59 38 bc eb 91 4b 3d
       -0.019752994 -0.061582834 -0.011251777 0.049699705
000040 58 ad 61 bd e4 71 1c bd 1e 2c 1b bc d0 67 84 3c
       -0.055096954 -0.038194552 -0.009470968 0.016162783
000050 16 08 1c 3d 30 c5 a7 bc 80 9a 45 3d ce 45 4c 3d
       0.03809365 -0.020479769 0.048243046 0.04987126
000060 8a 8b 55 bd e3 3f dd bc a2 fc 56 3d 20 73 c8 bb
       -0.052135028 -0.027008003 0.052487023 -0.0061172396
000070 c7 04 67 3c 8b 13 d2 3c 29 01 68 bd c3 5f 1c bd
       0.01410026 0.025644084 -0.05664173 -0.038177263
000080 7d ed d3 bc dc 27 75 3d c4 dd 33 3d fc 45 d7 bc
       -0.02587008 0.059852466 0.043912664 -0.026278488
000090 44 1e 52 3d 8a db 0b bd ae db b6 3b 7d 63 0b 3d
       0.051298395 -0.034144916 0.005580387 0.034030426
0000a0 c0 72 ba ba 6c b5 28 bd 44 ea 7e 3c 43 a1 2e 3d
       -0.0014224872 -0.041188642 0.015558783 0.04263426
0000b0 67 f3 f7 bc 97 fb 41 bd a3 cc 5f 3d 19 d6 09 bd
       -0.03026743 -0.047359075 0.054638516 -0.033651445
0000c0 54 89 1c 3d 22 b2 70 3d dd 27 ee 3b 68 26 01 3c
       0.038216904 0.05876363 0.0072679357 0.007882692
0000d0 b6 2c 18 3d 37 1e 1a 3c a5 25 5e bd 2a cb 2e 3d
       0.037152015 0.009406618 -0.05423512 0.04267422
0000e0 7b 28 88 3c 36 a6 85 3c 3c df 11 3d 70 76 b3 bb
       0.016620865 0.016314607 0.035613284 -0.0054767653
0000f0 97 0d 21 bc ab ed 66 bd f0 3a 70 3c 0a e7 95 bc
       -0.0098299 -0.056379 0.014662489 -0.018298645
000100 b2 ea 2a bd 36 b8 e6 bc 42 9c 54 bd 0e e0 07 bd
       -0.04172773 -0.02816401 -0.05190683 -0.03317266
000110 1c 0c 9a 3c 86 3e 28 3d a5 8d a2 bb 6d b9 a4 bc
       0.018804602 0.041075252 -0.004960733 -0.02010795
000120 8c 84 0b 3d 7d a8 77 3c 16 35 2b 3d 4a 6d 7d bd
       0.034061953 0.015115854 0.041798674 -0.061871804
000130 c1 e5 38 bc f8 4c 09 3d 28 8c 32 3c ce fb 1d bc
       -0.011285246 0.03352067 0.010897674 -0.009642554
000140 03 97 23 3d f8 74 c8 3c e8 ed d4 3c 86 9f 10 bd
       0.039938938 0.024469838 0.025992349 -0.035308383
000150 3a 79 24 bb 40 cb e5 3c 87 fd 56 3c 90 5d 32 3c
       -0.002509667 0.028051019 0.013121969 0.010886565
000160 29 7a 5c 3d 68 eb 17 bd f8 9d 51 3c 8b 33 5a 3c
       0.05382744 -0.037089735 0.01279401 0.013317953
000170 1f 3b 97 bc ad 51 31 3d c2 f5 fc 3c 27 1b 03 bd
       -0.018460808 0.043290783 0.030878905 -0.032008316
000180 78 c4 37 bc 50 11 9b bc e9 d6 b8 3c 94 c5 1a 3d
       -0.011216275 -0.018929154 0.022563415 0.03778608
000190 82 ed 49 bd 7c 27 8a bd d6 10 bc 3c ee a1 63 bd
       -0.04929877 -0.06745812 0.022957247 -0.05557435
0001a0 c4 d8 7e bd 70 8d d4 bb 10 61 6b 3d d2 e5 f9 3b
       -0.062218443 -0.006486587 0.057465613 0.0076262737
0001b0 b4 4d 68 bc a9 41 f1 bc 27 99 90 3c 86 62 40 bd
       -0.014178682 -0.029450255 0.017651154 -0.04696896
0001c0 08 74 44 bd 64 4e 0f bd 6a 11 bd 3c 29 7e 45 bd
       -0.04796222 -0.03498687 0.023079593 -0.04821602
0001d0 30 ce 86 3c 0c 15 ba 3c e8 d4 63 3c 6e 91 85 bb
       0.01645574 0.022715114 0.013905741 -0.0040761745
0001e0 c5 13 40 3d 97 4c 03 bd 6c c7 2a 3d a8 cb 6a 3d
       0.046893854 -0.032055464 0.04169409 0.057323128
0001f0 3f 76 d9 bc 7f 8a 89 bc df 87 6d 3d 82 2a 49 3d
       -0.026545642 -0.016789673 0.057990905 0.049112804
000200 10 a8 09 3d 58 64 25 3c d4 88 0a 3d b5 2d 89 bc
       0.033607543 0.010094725 0.033821896 -0.016745428
000210 53 7b 08 bc 5d ba 22 3d d4 64 0e 3c e3 0f 4a 3d
       -0.008330184 0.03972851 0.0086910315 0.049331557
000220 90 8e 2d 3d d5 9a 42 bd 38 e0 73 3c 10 28 88 3c
       0.042372286 -0.04751094 0.014885001 0.016620666
000230 f4 17 f9 bc 52 02 e7 bc d4 84 15 3d b4 21 06 3d
       -0.03040693 -0.028199349 0.036503628 0.032746986
000240 fa 50 2a 3c 5c 8a e9 bc 6c 37 4a 3d b1 7c 11 bc
       0.010395283 -0.028508358 0.04936926 -0.008879826
000250 fa 3a 69 3d 75 07 81 3c 16 e7 74 bd d4 d6 1a bd
       0.05694101 0.015750626 -0.059790693 -0.037802532
000260 b9 50 5a ba 8f a8 09 bd 50 25 88 3b 82 6c b5 3c
       -0.00083280687 -0.033608016 0.0041548386 0.022146467
000270 b4 ce e5 3c f2 94 61 bd b0 44 e0 3b 7e f5 f2 bc
       0.028052665 -0.055073686 0.0068441257 -0.029658075
000280 78 2c 4e 3d 8c 61 37 bd 3a d4 44 3d 68 41 27 bd
       0.050335377 -0.044770762 0.048053958 -0.04083386
000290 17 54 c1 bc d4 43 a0 bc 36 95 1c 3d 89 3b 8a 3c
       -0.023599667 -0.019563593 0.038228236 0.016874092
0002a0 81 22 78 bd c8 d8 53 3c c8 a9 5b 3c 41 99 42 3c
       -0.06057978 0.012930103 0.013407178 0.011877359
0002b0 13 aa d3 bc 49 77 fa bc be b6 d0 3b 9c 65 10 bd
       -0.025837934 -0.030574458 0.006369441 -0.035253152
0002c0 20 02 35 bd 32 62 f1 bb b1 ec 32 bd 6d 0a ff bc
       -0.04419148 -0.007366442 -0.043682758 -0.031132901
0002d0 fb 14 05 bd 28 d1 49 bd fc 9f 2f bd f4 dd 6e bd
       -0.03249071 -0.049271733 -0.042877182 -0.05831714
0002e0 8a 1d 32 3d 6a 6b 79 3d 97 3d 80 bd 10 30 86 bd
       0.043485202 0.060893454 -0.06261747 -0.06552136
0002f0 5e 8b 0b bd 22 b1 19 3d db df 3d 3d 40 12 e0 ba
       -0.034068458 0.037522443 0.046356063 -0.0017095283
000300 2f f0 b6 3c 64 fa fd bc 9f ac 62 3c 20 a0 3a 3c
       0.022331325 -0.031003185 0.013835101 0.011390716
000310 c2 ea 56 bc 3a c4 19 bd 28 2f f2 bc fc 77 d7 bc
       -0.013117494 -0.03754065 -0.029563501 -0.02630233
000320 28 73 20 bd 42 aa 80 bd 12 1b 0e 3d bf 55 fd bc
       -0.03917232 -0.06282474 0.034693785 -0.030924676
000330 58 e5 5b 3c 22 3a 42 bd fd bf 80 bc a0 cb 13 3d
       0.013421379 -0.04741872 -0.015716547 0.036082864
000340 d8 66 1f bd 4f f1 da bb 9e 52 ab 3c f2 e0 40 bd
       -0.03891644 -0.0066815983 0.020913418 -0.047089525
000350 a5 a4 46 bd 08 36 7f bc 96 4d 50 3d 0f 07 1d bd
       -0.04849686 -0.015576847 0.05085524 -0.03833681
000360 14 65 ad 3c 5f f4 1e bd 7b 8a 20 3d 3f 24 94 bb
       0.021166362 -0.03880727 0.039194565 -0.0045209224
000370 20 13 9f 3c 65 3d 5f bd d5 8a e7 3c 28 c5 58 3d
       0.0194183 -0.05450191 0.028264442 0.052922398
000380 0c bb 4e bd 78 0f 61 3d e4 7d 76 bd 3b 1e 23 3d
       -0.05047135 0.054946393 -0.060178652 0.039823752
000390 28 44 85 bd e4 d7 f3 3c bc 8f 35 bc 4c ba 48 bd
       -0.065071404 0.02976603 -0.011081632 -0.04900579
0003a0 a8 80 c6 3c 00 ee d6 ba a9 e2 81 bc b6 c8 33 bd
       0.02423127 -0.0016397834 -0.01585515 -0.043892585
0003b0 d0 27 9e 3c 44 a1 e0 bc 40 56 47 3d 08 ad 12 3c
       0.019306093 -0.027420647 0.04866624 0.008952387
0003c0 bd 8c b7 bb d8 3e 36 3c 87 84 59 3c 48 8c 84 bd
       -0.005601494 0.011123382 0.013276226 -0.06472069
0003d0 f6 f7 7a bd 42 4c 0d 3d c8 09 94 bc 85 8d d3 bc
       -0.06127163 0.034496553 -0.01807107 -0.025824318
0003e0 9c d0 3b bd 3a de 77 bd fc ea 46 bc da d0 69 bd
       -0.045853242 -0.060514666 -0.012140986 -0.057083942
0003f0 48 e9 68 bd 51 3c b4 3c 7e 48 7f bd 2c d8 d4 bb
       -0.0568631 0.022001417 -0.062324993 -0.0064954963

critic.2.bias f4 [256]
000000 b0 b6 aa 3c 93 64 37 3d a1 4d b0 ba d6 4f 31 3e
       0.020839065 0.04477365 -0.001345087 0.17315611
000010 ca 9b 4c 3d 24 97 79 bd fd ca 92 bd a6 e0 67 3d
       0.04995326 -0.060935155 -0.07167623 0.056610726
000020 c0 ba 3b 3c 02 7e 55 bd 04 a5 46 bc 37 f5 5e 3e
       0.011458099 -0.052122124 -0.012124304 0.2177323
000030 19 24 08 3e 3d 90 07 bd 1d 0e 85 3d 55 1e 4e 3e
       0.1329502 -0.03309654 0.064968325 0.20128758
000040 10 5a 9d 3b 21 53 97 3d e3 79 a5 3d dd 7e 7e bd
       0.004801996 0.073889025 0.08079889 -0.062132705
000050 7c 13 8d bd f1 d1 38 3e 25 19 3e 3e 18 ad a1 bd
       -0.06888482 0.18048836 0.1856428 -0.07894343
000060 1f 83 28 3e 2e 1d 89 3d 7d 32 80 3d 8e 3c 1b 3e
       0.16456269 0.06695019 0.0625963 0.15159819
000070 dd 98 62 3b a5 25 27 3d f0 36 89 bc 27 64 bf bd
       0.0034575977 0.040807385 -0.016749829 -0.093452744
000080 a6 21 a6 bc 07 75 44 3d 4e 1d 3b 3d 85 f2 98 bd
       -0.020279717 0.04796317 0.045682244 -0.07468132
000090 3c 76 6e 3e 9f a8 f1 3d b2 3e 39 3d 90 42 25 3d
       0.2328729 0.1179974 0.045225807 0.040346682
0000a0 e7 d3 9a 3d 57 8d 1b 3e 06 f6 80 3d c5 ff b3 3d
       0.075599484 0.15190636 0.06296925 0.087890185
0000b0 d8 0d c9 bc 09 08 87 bd 1e df 1c 3e ed 30 d4 3c
       -0.024542734 -0.065933295 0.15319487 0.025902236
0000c0 97 9b a5 bd eb b6 9f bd a3 da 43 3d a4 22 a0 bc
       -0.08086317 -0.07798561 0.04781593 -0.019547768
0000d0 f3 27 09 3e 81 a7 06 3e 49 2e d0 3c ed 70 64 3e
       0.13394146 0.13149835 0.025412695 0.22308703
0000e0 a0 aa 06 bd e4 cd 04 3e 8b 50 3b bd 5e 37 11 3e
       -0.032877564 0.12969166 -0.04573111 0.14181277
0000f0 40 92 29 bc e8 df 6e bd 3e 8e d9 3d 83 82 41 bd
       -0.01034981 -0.058319002 0.10622834 -0.047243606
000100 39 dc 8a 3d f0 71 13 3c 0b 4c 80 3d 93 7a 8f 3d
       0.067802854 0.008999333 0.06264504 0.07005801
000110 4f 4b 3a 3e db 81 09 3c af e3 e3 3d cb 51 ae 3b
       0.1819279 0.008392776 0.111274116 0.005319809
000120 92 96 f7 3d 9e d8 04 3e 93 25 b7 bb 8f 85 90 3d
       0.12089266 0.12973258 -0.005589196 0.07056724
000130 3a fb e5 3c 9a 6e 91 bc 87 53 39 3c 67 8d 8a bd
       0.028073896 -0.017752934 0.011311418 -0.067652516
000140 58 3a a7 3d af 19 5c 3c f3 5c 5c bd 12 33 28 3e
       0.08165425 0.013433858 -0.05379958 0.16425732
000150 5b bb 66 3e ba b6 df 3d 20 e3 f3 3d d3 7d 5e 3e
       0.22532408 0.10923524 0.11908555 0.21727686
000160 92 f2 2d 3e 83 ec c8 bb 9c ef e9 3b 4e 83 dc 3d
       0.16987064 -0.00613171 0.0071391594 0.10767232
000170 4c 86 81 bd c2 57 0e 3e d8 16 f2 bc 36 c3 dd bc
       -0.06324443 0.13900664 -0.029551908 -0.027070623
000180 59 bf 07 3d f1 0f 99 3c 25 74 49 bd 13 65 6c 3e
       0.033141468 0.01868436 -0.04918303 0.23085432
000190 6e 9a 09 3e 5a cc 0d 3d 13 7e b9 3d e0 4f 8c 3b
       0.13437817 0.034618713 0.0905725 0.004281983
0001a0 3a 62 7a bd 7a 87 cd 3d fa 7d fe 3d 87 72 40 3e
       -0.061128832 0.10035606 0.12426372 0.18793689
0001b0 8f 40 df bc 8f 20 4f 3e 8c 04 ff 3c ad ea 85 bd
       -0.027252464 0.20227264 0.031130098 -0.065389015
0001c0 2b 20 15 3d b7 bb 56 bd 3b 95 b0 3c e2 7e 2e bd
       0.03640763 -0.052425113 0.021555534 -0.042601474
0001d0 85 09 90 bd b4 40 bb bc 71 fa 7e bd 7e 7c f8 3d
       -0.07033066 -0.022858001 -0.06225056 0.1213312
0001e0 4c 0e aa bd 9a 22 7a bd 82 c8 19 3e 81 4c f1 3d
       -0.08303508 -0.061068155 0.15017894 0.1178217
0001f0 7b e7 fc 3b fc 4f bb 3d 10 8c ac 3d 62 ef 8a bd
       0.0077180243 0.09146115 0.08425152 -0.0678394
000200 6d 56 5f 3d 3f 87 4d 3e 41 ad 16 bb 7f 75 16 3e
       0.05452578 0.20071124 -0.002299145 0.14693259
000210 c1 2f 0b bc 13 55 e2 bc f9 cd 0d 3e 39 d7 92 bd
       -0.008495272 -0.027628457 0.13848104 -0.07169957
000220 e2 34 22 ba b6 16 61 bd 0c 9a 44 3c 5f 57 5e 3d
       -0.000618769 -0.0549533 0.011999618 0.054282542
000230 a3 64 1f 3d 2d 08 40 3e 33 3d 82 bc 0b 5a 0d bd
       0.038914334 0.18753119 -0.015898323 -0.0345097
000240 28 20 43 bc b7 76 0d 3b 84 78 2c 3e bc a3 44 3e
       -0.011909522 0.0021585652 0.16842848 0.19203085
000250 7c 82 d0 3d 9d ba c6 3b 95 2a 8f 3d 52 b4 7c bd
       0.10181138 0.0060647265 0.06990544 -0.061695404
000260 9d c7 71 3e d3 2b c2 3d b9 fb b6 3d 40 81 fb 3c
       0.23611303 0.09481015 0.08934731 0.03070128
000270 05 39 f4 bc 86 a4 16 3d 64 0d 33 3d a3 8c d1 ba
       -0.029812345 0.036777996 0.043713942 -0.0015987348
000280 a4 b2 a4 3c 8f 73 b0 bc b7 b9 91 bc 43 72 c4 3d
       0.020104714 -0.021539478 -0.017788751 0.09592106
000290 ad b1 3a 3e 7f 9c f3 bc 91 8f ec 3d cb 24 30 3e
       0.1823184 -0.02973771 0.115508206 0.17201535
0002a0 3f f2 8e bd a5 4c 46 3e 33 08 33 3e bd 4a ac 3c
       -0.069797985 0.19365175 0.17483597 0.021031732
0002b0 99 e1 db bc e2 e5 0f 3e f1 f9 6b bd 83 b6 d9 3a
       -0.026840972 0.14052537 -0.05761141 0.0016610179
0002c0 39 73 ef 3c 4a 40 34 3e 74 10 72 bd 33 a4 e3 3d
       0.029229747 0.1760265 -0.059097722 0.11115303
0002d0 98 04 ad 3d 9a d5 d9 bc f1 23 2b 3d c4 97 a7 bc
       0.08448142 -0.026591111 0.041782323 -0.02045811
0002e0 5e bb b8 3c 84 13 3a 3e be ef 2a 3d e5 aa e7 bc
       0.022550281 0.18171507 0.041732542 -0.028279731
0002f0 b5 5e 57 3d 26 48 05 3b 27 83 2d 3e fa c9 d0 3d
       0.052580554 0.0020337193 0.16944562 0.10194774
000300 8b 39 0c 3e c0 b2 7c 3e 44 ca f1 3d 2d 27 57 3e
       0.13693826 0.24677563 0.11806157 0.21011038
000310 f3 16 17 3d d6 bf 12 3e 09 42 17 3e 1b f8 83 3d
       0.03688712 0.14330992 0.14771284 0.06443807
000320 68 c4 3a 3e 8b 79 c3 3d b4 05 1f 3e b3 60 ca 3d
       0.18238986 0.09544667 0.1552952 0.09881725
000330 ec ed 8e 3a 4a 22 d2 3b 79 ba 78 bc d9 0e 2a 3e
       0.0010904646 0.006412779 -0.015181177 0.16607226
000340 50 90 bb ba 27 63 52 3d 6e 98 82 3d 78 78 8c 3c
       -0.0014309976 0.05136409 0.0637673 0.017147288
000350 68 40 b2 3d 1f be 4d 3e 54 93 29 3e 7b 26 31 3d
       0.08703691 0.20092057 0.16560107 0.04324959
000360 80 d7 bd bc a4 79 57 bd 2c bd 00 3e c0 0b 31 3e
       -0.023174047 -0.05260624 0.12572163 0.17289639
000370 32 57 30 bc b3 64 0b 3e 4a 3b 31 3d 9a 5f e1 3c
       -0.0107629765 0.13612632 0.043269433 0.027511407
000380 44 69 97 3e 1d f5 c7 3d 00 77 12 ba 8a 95 0f 3d
       0.295725 0.097635485 -0.00055871904 0.03505472
000390 54 27 96 3c 8c c3 e7 3d 49 92 5a 3e b3 42 0b bd
       0.0183293 0.113165945 0.21344866 -0.033999156
0003a0 01 d9 82 bc a3 f8 f0 3d 1c 6e 7b bd 62 9b e5 3d
       -0.015972616 0.11766174 -0.061384305 0.112112775
0003b0 fd fc 06 3e 2e c6 2c 3e da 87 36 3d 6a e3 b7 3d
       0.13182445 0.16872475 0.044563152 0.08978923
0003c0 b3 51 0c 3d ec 61 13 3d f8 5d 30 bb b8 2a 51 3d
       0.034257602 0.035982057 -0.0026911478 0.05106613
0003d0 3a 74 04 3e cb eb 38 3d cd ab 21 3d e9 9e 5b 3d
       0.12934962 0.045146745 0.039470483 0.053618345
0003e0 8d 6e b9 3d 68 2c 5f 3e b0 00 24 3d 21 85 4c bc
       0.09054289 0.21794283 0.04003972 -0.012482912
0003f0 db 61 b2 3b 9f b2 79 bd 2b 43 bb bc e1 12 d8 3d
       0.005443794 -0.060961362 -0.022859177 0.10550476

critic.4.weight f4 [1, 256]
000000 6c bd 54 bd d4 67 26 3e 69 1c f9 bc ee e4 14 3e
       -0.05193846 0.16250545 -0.030409055 0.14540455
000010 59 7b 85 bc 27 0d 68 bd 37 a8 91 bd cc b6 54 bd
       -0.016294168 -0.056653168 -0.071121626 -0.05193214
000020 d7 30 60 bc 84 eb 29 3d 2f 6f 82 bd f6 fa 0e 3e
       -0.013683519 0.04148437 -0.06368863 0.13962922
000030 95 d9 17 3e ca a3 f1 bb 7d 6e 5b 3e 0b 8a 22 3e
       0.14829095 -0.0073742615 0.21428867 0.15872972
000040 40 9c e0 ba 8e 1e 2c 3e 31 f1 0a 3e 69 88 32 bd
       -0.001713641 0.1680853 0.1356857 -0.043587122
000050 79 8e d3 bc 84 ca 23 3e 18 a5 24 3e 83 b7 27 bd
       -0.025824772 0.15995222 0.16078603 -0.040946495
000060 eb c9 53 3e cb 39 55 3e 11 c5 2c 3e 9f c8 17 3e
       0.20682494 0.20822828 0.1687205 0.14822625
000070 43 1b 86 bb aa 18 0b bd 3b 7a a7 bd 03 e0 e7 bd
       -0.0040926053 -0.03395907 -0.081776105 -0.11322024
000080 43 ac fb bc 57 8f 3b 3e 85 15 2b 3e e1 82 6f bd
       -0.03072179 0.18316399 0.16707428 -0.058474425
000090 51 d8 0f 3e 1b ce 37 3e b8 82 5b bd 0c 75 1a 3e
       0.14047362 0.17949717 -0.05359146 0.15083712
0000a0 79 10 34 3e e3 d2 12 3e 56 84 1c 3e a5 c4 3e 3e
       0.17584409 0.1433826 0.15284857 0.18629701
0000b0 16 49 24 be 56 bd d6 bd 83 54 6c 3e ad e5 00 bb
       -0.16043505 -0.10485332 0.23079114 -0.0019668147
0000c0 66 a1 94 bd 27 36 48 bd 40 41 61 bc 00 83 fe b9
       -0.07257347 -0.04887977 -0.013748467 -0.00048544258
0000d0 1a 20 4e 3e d0 eb 51 3e 5e 52 8f bc 72 f5 45 3e
       0.20129433 0.20500112 -0.01749533 0.19331911
0000e0 c9 f8 31 bd cc 8f 23 3e 40 cb 31 bc b3 84 1a 3e
       -0.04345015 0.15972823 -0.010851681 0.15089683
0000f0 fa e7 af bb 4c 3d 65 bd 1f f0 0f 3e 7d 44 eb bc
       -0.00536823 -0.05596666 0.14056443 -0.028719181
000100 6c db 50 3e df cb d7 bb 7b 07 81 3e d6 bc 1f 3e
       0.20396203 -0.0065855826 0.2520102 0.15599379
000110 ab e9 13 3e ef 33 1f bd d8 16 0e 3e fd 8e 1e be
       0.14444606 -0.038867887 0.13875902 -0.15484233
000120 4b fa 37 3e 6d 9c bb 3d bb 61 5c bd 7a 46 36 3e
       0.17966573 0.09160695 -0.05380414 0.17800322
000130 8c 94 33 bd 4c 97 31 ba 72 22 00 bd 12 ca 01 3b
       -0.043842837 -0.0006774559 -0.03128285 0.0019804281
000140 5d 48 4a 3e 57 fa 46 bb e7 5a ea bd d7 a5 16 3e
       0.19754167 -0.0030361617 -0.114431195 0.147117
000150 7d 55 13 3e 2f 00 20 3e 01 6c 18 3e 26 7c 21 3e
       0.1438808 0.1562507 0.1488495 0.15770015
000160 54 30 19 3e 2c bd 13 bd 55 45 18 bd e6 ec 1a 3e
       0.14959842 -0.03606908 -0.037175495 0.15129432
000170 70 99 b9 bb 22 ff 29 3e fd 86 98 bb ba 76 34 3d
       -0.005664043 0.16601232 -0.0046547637 0.04405854
000180 0b 5b 65 3e 47 37 75 bd e6 26 16 bc e6 b1 45 3e
       0.22398011 -0.05986717 -0.009164548 0.19306144
000190 b7 b1 4c 3e 4f 2e 3c 3e 2c ea 6e 3e ae b4 6e bd
       0.19989668 0.1837704 0.23331517 -0.05827778
0001a0 3e 12 c9 3a 42 db 39 3e 6b 79 06 3e 8a 9b 0d 3e
       0.001534052 0.18150046 0.13132255 0.13828865
0001b0 c9 29 1c be b5 eb 0a 3e f9 be 1a bd 08 ae fa 3b
       -0.15250315 0.13566478 -0.037779782 0.0076501407
0001c0 d2 7b 57 bd 6c 2a 40 bd a5 e2 c9 bd e9 3a f5 bc
       -0.05260832 -0.046915457 -0.09857682 -0.029935317
0001d0 61 2d 04 bc c3 76 07 bd 55 ac 02 3c 10 24 3f 3e
       -0.00806746 -0.033072244 0.0079756575 0.186661
0001e0 ff 62 5d bd 78 ef 0d 3d 2c f4 12 3e 14 ab 19 3e
       -0.05404949 0.034652203 0.14350957 0.15006667
0001f0 53 f0 ee 3c cc 34 34 3e e5 3f 22 3e 23 12 e4 bc
       0.02916733 0.17598265 0.15844686 -0.02784068
000200 cc 08 24 39 72 02 0d 3e 4b 1f ab bc 22 42 56 3e
       0.00015643536 0.13770464 -0.020888945 0.20923665
000210 a9 1c bc bd 73 f0 9e 3c 1c 54 03 3e 60 64 b7 bd
       -0.09185154 0.019401764 0.12825054 -0.08954692
000220 5f 00 6e bd ff a4 04 be 74 59 f2 bb b1 48 dc bc
       -0.058105823 -0.12953566 -0.0073959175 -0.02689013
000230 ad cc 4c b7 98 ee 2d 3e fe 92 21 bd a7 f0 24 bc
       -1.2207002e-05 0.16985548 -0.039446823 -0.010067142
000240 ac 61 91 bc ee fe 19 bc b4 ba 11 3e 05 1e dd 3d
       -0.017746769 -0.009399159 0.14231378 0.107967414
000250 c0 10 51 3e 89 52 1b bc 89 83 2c 3e 85 96 35 bd
       0.20416546 -0.009480127 0.16847052 -0.044333
000260 60 00 24 3e 0c 72 2e 3e 0b dd 19 3e 9f 04 87 bd
       0.16015768 0.17035693 0.15025727 -0.06592678
000270 b5 76 b3 3b db e7 37 bd 9a 18 ff bc 17 38 92 bd
       0.0054767975 -0.04489885 -0.03113966 -0.071396045
000280 81 20 03 be ad 40 85 bd 61 1a 4a bd 3d 10 5c 3e
       -0.12805368 -0.065064766 -0.049341563 0.2149057
000290 c8 8a 21 3e 09 f1 31 bd 17 e0 23 3e f7 2d 32 3e
       0.15775597 -0.04344276 0.16003452 0.17400347
0002a0 27 46 52 bd 2c ae 1b 3e d1 56 12 3e 1a 44 27 bc
       -0.051336434 0.1520316 0.1429093 -0.010209108
0002b0 79 a7 8b bb 26 f5 38 3e cc ed ea bd 87 0c 7f bd
       -0.0042619077 0.18062267 -0.114711374 -0.062267806
0002c0 19 1b 44 bd 1e fc 3a 3e 47 29 8a bc 2b 74 2b 3e
       -0.047877405 0.18260238 -0.016865386 0.16743533
0002d0 63 f8 1c 3e 35 dd ed bd d2 ad 38 bd 2d 4f 2f bd
       0.15329127 -0.116144575 -0.045087643 -0.042800117
0002e0 5b 8c 04 bd 6b 57 35 3e 3c bd ac bd 54 21 05 bc
       -0.032360416 0.17709129 -0.08434531 -0.008125622
0002f0 4f 0e 50 bd d7 1d 96 bc de bb 1b 3e 55 8c 75 3e
       -0.050794896 -0.018324776 0.15208384 0.23979314
000300 89 3e 27 3e 22 34 10 3e 83 19 1c 3e 9b 88 44 3e
       0.16332449 0.14082387 0.15244107 0.19192736
000310 95 87 4c bb e6 f6 3d 3e 79 96 17 3e 36 53 45 3e
       -0.0031208743 0.18551216 0.14803495 0.19270024
000320 ac d9 0e 3e c5 5e 11 3e 5c 2d 10 3e 76 15 1f 3e
       0.13950223 0.14196308 0.14079803 0.1553553
000330 a3 84 a7 bd 29 4d 4e bd 6e 85 a1 bd 6f 1b 62 3e
       -0.08179595 -0.050366554 -0.07886778 0.22080778
000340 e9 5d 11 bc d6 06 51 bd e6 90 67 3e e9 72 0d bd
       -0.008872488 -0.05103191 0.22613868 -0.034533415
000350 62 d0 4b 3e 88 13 19 3e ca 6f 2f 3e 9b 62 55 bd
       0.1990371 0.14948857 0.17132488 -0.05209599
000360 c2 83 ce bc a5 81 99 bd 31 cc 4b 3e c4 97 3e 3e
       -0.025209311 -0.07495431 0.19902112 0.18612581
000370 fd dd b3 bc 5d a6 3f 3e 5c 90 08 be 2b eb 51 bd
       -0.021956438 0.18715806 -0.13336319 -0.051249664
000380 0f 57 6d 3e 6b e9 26 3e 2a ae 43 bd f6 12 22 bd
       0.23177741 0.1629998 -0.047773518 -0.039568864
000390 91 11 5f 3e 9a 9c 08 3e ff 0f 34 3e 90 50 82 bd
       0.21784045 0.13340989 0.17584227 -0.06363022
0003a0 c8 0c 10 bc 89 4c ed 3d 2c 59 20 be 35 df 17 3e
       -0.00879211 0.115868635 -0.15659016 0.1483124
0003b0 31 2d 0f 3e 14 6c 53 3e fc 77 3d 3e 0a 17 20 3e
       0.13982083 0.20646697 0.18502802 0.15633789
0003c0 c2 f9 ea bc cc 2b c0 bc 03 ce 40 bd 5c 94 4e 3e
       -0.028683547 -0.023458384 -0.047071468 0.20173782
0003d0 58 e4 1a 3e d6 c4 18 3e 9a 15 ca ba 89 f0 0e 3e
       0.15126169 0.14918837 -0.0015417815 0.13958944
0003e0 ee a2 fd 3d a9 33 14 3e 60 be 2b 3d d1 c4 78 bb
       0.12384592 0.14472832 0.041929603 -0.0037959109
0003f0 99 bf 4e bd 13 e9 24 bd f9 a3 56 bc 5c c0 1e 3e
       -0.05047569 -0.04026134 -0.013100618 0.15503067
