codes/PPO/outputs/CartPole-v0/20211117-184614/models/ppo_actor.pt (torch, 272869 bytes, 6 tensors)

actor.0.weight f4 [256, 4]
000000 87 ec 63 be b6 fb 79 be e4 8f a4 3e 2a 51 0a bc
       -0.22258197 -0.24412426 0.3214103 -0.008442203
000010 53 b0 57 bd c5 70 9e bc 76 2c 06 be b8 c6 a0 3e
       -0.05265839 -0.019340882 -0.13102898 0.3140161
000020 dd d2 9e 3e e9 50 4e bd b8 81 f7 bd 23 b5 ee be
       0.3102025 -0.05037013 -0.12085289 -0.4662257
000030 3d 33 ec 3d 3d 1f 9b 3e 0e 3a a3 3d a9 3a 4e 3e
       0.115332104 0.3029727 0.079700574 0.20139565
000040 e3 65 93 3e f8 44 7b be c5 dc 37 3f ac d3 c7 3e
       0.2878867 -0.24538028 0.7182124 0.3902868
000050 33 72 c4 be 9c 2b a0 be 57 bc f0 bd db f9 24 be
       -0.38368377 -0.3128327 -0.11754673 -0.16110937
000060 88 0a 35 be d5 44 9c 3e 2b aa 0b 3e 7d 0c 96 3e
       -0.17679799 0.30521265 0.13639133 0.29306403
000070 99 e7 75 3c 42 e3 ed 3e 4d 6d b0 bd 28 07 0c bf
       0.01500883 0.46462446 -0.086145975 -0.5469842
000080 97 8e bb be 89 15 68 be b3 e3 34 bf e6 47 aa be
       -0.36632225 -0.22664465 -0.7065994 -0.3325798
000090 68 b7 e5 bd 20 2d 06 3f 54 04 28 3f 74 50 dc 3e
       -0.112166226 0.52412605 0.65631604 0.4303013
0000a0 aa 02 c0 be 2c 51 b3 be fe 14 9b 3e 2b fb 72 3e
       -0.37502033 -0.35022867 0.30289453 0.23728625
0000b0 de ab 91 3e 46 0b de 3e 28 e6 61 be 62 e3 3d be
       0.28451437 0.43367976 -0.22060454 -0.18543771
0000c0 10 f3 9e 3e 45 72 82 be ad 62 e0 be cc 3c 93 be
       0.31044817 -0.25477806 -0.43825284 -0.28757322
0000d0 11 cc 2c be 74 7e f0 bd 26 a7 ad be 44 a8 ab be
       -0.1687472 -0.11742869 -0.33916587 -0.33526814
0000e0 3a 20 1b bd 82 d3 46 3e 0f 19 4a bd 29 6e 09 3e
       -0.03787253 0.19416621 -0.049340304 0.13420929
0000f0 e8 47 7c 3e 64 e6 c9 3e 28 f7 7c be d8 77 94 3e
       0.24636805 0.39433587 -0.24703658 0.28997684
000100 85 3e 3e 3e 39 b6 de 3e 09 56 c8 3e 30 91 bb be
       0.18578537 0.434984 0.3912814 -0.36634207
000110 e6 47 a4 3e a9 f8 96 bd 21 3b e9 bd 66 bf 9a 3e
       0.32086104 -0.07371647 -0.11388231 0.3022415
000120 78 02 82 3e 55 d5 b7 3e 89 23 df 3e 16 a6 9d 3e
       0.25392509 0.35904947 0.435818 0.30790776
000130 e1 d6 9a 3e 7e bd 00 bd 31 d4 05 bf 65 80 5e be
       0.30242065 -0.031430714 -0.52276903 -0.21728666
000140 75 3d 01 3e ce c8 68 3e 3f 05 0f 3f 02 9e 09 3f
       0.126211 0.22732851 0.5586738 0.53756726
000150 72 bf b8 3e 7c 4c b6 3d a5 b1 98 3e b2 51 cd be
       0.3608356 0.08901307 0.29823032 -0.4010139
000160 9b 86 5e 3d ca 3c 82 3e 53 1e 0a be 4f 10 60 be
       0.05432759 0.25437003 -0.1348813 -0.21881221
000170 dd 02 e0 be f5 d4 83 be 9e 36 ca be 87 f9 aa be
       -0.43752185 -0.2574841 -0.39494795 -0.333935
000180 d2 6a d5 3e 79 76 a1 3c 54 81 e8 3e 0c ee 62 3e
       0.4168306 0.019709812 0.4541117 0.2216112
000190 59 2a 4e 3e 31 2e e5 bd 17 c9 d7 3d 52 11 96 3e
       0.20133342 -0.11190451 0.10536402 0.2931009
0001a0 61 04 dd 3e 09 14 fd 3e 1a ba 90 3b e6 de 80 3e
       0.43167403 0.49429348 0.0044167163 0.25170058
0001b0 87 cc 31 be 97 48 17 3e 88 d8 01 3d 7d a0 7c 3e
       -0.17363177 0.14773785 0.03170064 0.24670596
0001c0 d5 99 ca be bc da 69 3e 39 71 20 3f 07 53 06 3f
       -0.3957049 0.22837347 0.62672764 0.5247044
0001d0 d2 86 bb be d1 65 7e be 3b bc 39 bf 12 8c 75 be
       -0.36626297 -0.24843527 -0.7255284 -0.23979214
0001e0 0b 54 cd be 62 ed 29 bd 32 3c cd be 97 3c 91 be
       -0.40103182 -0.04148615 -0.40084988 -0.2836654
0001f0 9d 4c d2 be d4 4f 92 3e 8c e6 64 be f8 76 9e be
       -0.41074076 0.2857653 -0.22353572 -0.3095014
000200 e2 f7 a5 3e dc 39 9c be 18 d1 26 3f 2d d8 63 3e
       0.32415682 -0.30512893 0.651628 0.22250433
000210 6c 80 ed 3e 9b ea b9 bd 4f 7f 53 be f1 60 11 3e
       0.4638704 -0.090779506 -0.20654033 0.14197136
000220 5e b9 84 3e 04 33 06 bf 71 78 bb bd 63 ab 43 3d
       0.25922674 -0.52421594 -0.09153832 0.04777087
000230 b0 42 b6 bc 82 ec 11 3e e6 9f 25 bb 7b c8 ac be
       -0.022248596 0.14250377 -0.002527231 -0.33746704
000240 d7 87 cb 3e 10 d6 93 3e 01 10 81 be 8a 58 69 3e
       0.39752075 0.28874254 -0.25207523 0.22787681
000250 67 93 d3 3e 83 ca e2 bd 28 b0 d0 3e b4 10 64 be
       0.41323397 -0.11073782 0.40759397 -0.22271997
000260 41 dd 47 be a0 2b 7e 3e bb 8d 91 be a2 6b aa be
       -0.19517995 0.24821329 -0.28428444 -0.33285242
000270 a4 f8 c1 be 52 5d 89 3e 09 16 94 3e 15 bb 02 3e
       -0.3788501 0.2682901 0.2892306 0.12766679
000280 ef 84 b3 3d 01 01 b8 be 8f 45 e0 3e 59 f8 38 be
       0.087655894 -0.35938266 0.4380307 -0.18063487
000290 2a 14 b6 bd bd 52 6f 3d 2e 05 bd be 48 60 87 3d
       -0.08890565 0.058428515 -0.36918014 0.06610161
0002a0 e6 3d d7 3e 6c 7c 1c be cc 66 f9 bd 40 96 91 be
       0.42039412 -0.15281838 -0.1217781 -0.28434944
0002b0 32 c8 fe 3e 8d 00 a7 3e 64 cb a6 3d d6 7f f5 3e
       0.49762112 0.32617608 0.081442624 0.47949094
0002c0 10 95 8e be bc d4 b4 3e 79 59 43 3e 1a 50 23 3e
       -0.278481 0.35318553 0.190771 0.15948525
0002d0 04 94 99 3e 06 dd 93 bd f9 89 09 3e 3e b6 98 be
       0.2999574 -0.07219891 0.13431539 -0.2982654
0002e0 27 6b 93 3e 44 f0 a5 bd a9 ce 04 3f 89 b0 cf 3e
       0.28792688 -0.08102468 0.5187784 0.40564373
0002f0 59 7d d1 3e 82 77 a7 3d 4a d4 11 3f 05 52 fa 3e
       0.40915945 0.08177091 0.5696455 0.488907
000300 22 39 8c 3e 14 24 15 3c 36 4d cb 3e 62 c7 ba be
       0.2738734 0.00910284 0.39707345 -0.36480242
000310 70 9c dd be f4 1f 87 3d de 5d 6e be 1c b7 a0 3e
       -0.43283415 0.065978914 -0.23277995 0.313897
000320 00 c5 8a 3c 20 e6 e6 3c 50 3b 7a be 8c 78 3f 3e
       0.01693964 0.028185904 -0.24436688 0.18698329
000330 8e b5 f5 3e 1d aa 22 3e de e5 21 3e ba 07 a0 3e
       0.47990078 0.15885206 0.15810344 0.31255895
000340 78 07 b4 bc 23 24 29 3e 88 76 18 3d a4 02 f7 3e
       -0.021976218 0.16517691 0.037222415 0.48244202
000350 56 88 c9 bc 36 ab 51 3e 7d c4 ce be a1 3c ea 3e
       -0.024601143 0.20475468 -0.40384284 0.4574938
000360 e3 df 10 be 12 f9 2e bd 20 62 07 3f 74 5a f3 3e
       -0.14147906 -0.042718 0.528841 0.47529948
000370 27 10 8a 3d 3a c8 ed 3e 3f 67 7e be 64 63 ac 3e
       0.06741362 0.46441823 -0.24844073 0.3366958
000380 25 2b 27 be a7 f6 0d 3e f3 61 79 3d 3f d0 c9 bb
       -0.16325052 0.13863622 0.060884427 -0.006158858
000390 e0 5d 97 3e 89 62 03 3e 45 45 e4 be 83 02 9f be
       0.29563808 0.12830557 -0.44584098 -0.31056604
0003a0 90 55 a2 3d cf a4 1c 3e e1 f7 9c be 4c 1f 81 bd
       0.07926476 0.15297244 -0.30657867 -0.063047975
0003b0 20 96 36 3e b8 5e 9b be 88 87 1c bf f1 e2 a2 3e
       0.17830706 -0.30345702 -0.61144304 0.31813768
0003c0 c9 55 89 be 8c b0 f6 3e ff af ba 3e 23 2b 5c be
       -0.2682326 0.4818157 0.364624 -0.2150083
0003d0 0e ab 70 3e 7c de e5 be 21 f4 71 3e 7d cb df be
       0.23502752 -0.44896305 0.23628284 -0.43709937
0003e0 77 81 e3 be 49 4d 88 be 39 6a 87 be 29 1e b4 be
       -0.4443471 -0.26621464 -0.2644823 -0.3517926
0003f0 79 e3 d0 be 8a a9 97 3e 77 51 5e 3e 24 2b d4 3e
       -0.40798548 0.29621536 0.21710764 0.41439164

actor.0.bias f4 [256]
000000 7c dc a2 be cf ad af be 72 36 e7 be 53 89 fd 3c
       -0.3180884 -0.34312293 -0.45158726 0.03094927
000010 74 89 71 3e 53 fa d5 3c e1 cc 33 3e db 12 f2 be
       0.2358759 0.02612034 0.17558624 -0.4728001
000020 f0 9e cf 3e 76 15 5c 3e b4 90 ef 3d 39 a3 84 bd
       0.40550947 0.21492562 0.11697522 -0.06476445
000030 ed 89 88 3d 19 39 92 be b3 d1 8c 3d c0 49 b4 be
       0.06666932 -0.28559187 0.068759345 -0.35212517
000040 b0 b3 09 bf 05 eb 61 3b 27 13 0c be 7c b6 3e 3e
       -0.53789806 0.0034472358 -0.13679181 0.186243
000050 f8 a5 af 3e e0 01 47 be ec 39 af be 2b 4e a6 be
       0.34306312 -0.19434309 -0.34223878 -0.32481512
000060 b0 26 de be 7f c4 65 3e c6 50 45 3e 79 08 be 3e
       -0.4338889 0.22438239 0.19269094 0.3711584
000070 84 d9 24 3e b8 ae 8c 3d 33 da 19 3e 0b 05 c5 be
       0.160986 0.068692625 0.15024643 -0.3848041
000080 0f 8c 0a 3d a9 0c c2 be 27 38 42 3e a2 eb 64 3d
       0.033824977 -0.37900284 0.18966733 0.05588878
000090 9f 84 7a be 13 97 80 bd 56 5a 0d be f0 e7 a0 be
       -0.24464653 -0.06278815 -0.13803992 -0.31426954
0000a0 fc 04 1b bd 1c 20 85 3d ae 87 85 3d 4d 73 5b 3e
       -0.03784655 0.06500265 0.065200195 0.21430703
0000b0 f2 82 b8 be fb 4b c9 be 2a 33 12 3d f1 c1 78 3e
       -0.36037403 -0.3931578 0.035693325 0.24292733
0000c0 9a e2 a1 be 2e a4 95 3e d4 f6 ed be 4f db df 3c
       -0.31618196 0.29226822 -0.46477377 0.027326254
0000d0 7b 1d d1 39 da a2 a5 bd 26 f4 ab bd 0a 09 44 3e
       0.0003988555 -0.08087702 -0.08396177 0.19144073
0000e0 2d 1c cf bd 91 e7 61 be 50 03 93 3e 48 68 16 3e
       -0.10112796 -0.22060992 0.28713465 0.14688218
0000f0 a3 47 89 3e b5 cb e7 3e 80 32 9c 3d b7 fc 73 be
       0.26812467 0.45272604 0.076268196 -0.23826872
000100 ba b7 b6 3e 09 58 b9 3e 17 21 d9 be 1b bc 2b 3e
       0.35687047 0.36199978 -0.42408058 0.16770975
000110 03 d1 f5 be cc f5 aa 3d 0e e2 3c 3d 51 64 b5 3e
       -0.48011026 0.08347663 0.04611402 0.35428098
000120 83 21 c8 be fe 46 da 3d 46 c3 56 be 2b d4 be 3d
       -0.39088067 0.10658072 -0.20972928 0.093178116
000130 8c 38 54 3e c9 c5 fd 3c 5e a5 84 3d 50 ff b0 3e
       0.20724696 0.0309781 0.06476854 0.34569788
000140 fb b4 58 3e b1 5b a2 3e 75 aa 16 be 30 de 36 3e
       0.21162789 0.3171058 -0.14713462 0.17858195
000150 fd ca 46 bd 21 4d a2 be 82 9f 90 3d 9c 5a 00 bf
       -0.04853343 -0.3169947 0.07061674 -0.5013826
000160 b6 20 14 3e d2 63 e0 be d5 85 f7 bd 5a 47 98 be
       0.14465603 -0.43826157 -0.12086073 -0.29741937
000170 27 8f 0b bd 08 0a 77 3e 94 87 55 3e 97 95 ac 3b
       -0.034072068 0.2412492 0.208525 0.005266856
000180 f0 bf 6c be 60 0e 43 be 0e 3d af 3e fc 49 24 3e
       -0.23120093 -0.19048452 0.3422627 0.16043848
000190 49 da f4 be 14 c5 6f 3e f9 2b 0f bd 62 45 36 3e
       -0.47822788 0.23415023 -0.034954045 0.17799905
0001a0 da e6 3b be 01 f5 4a be 91 10 0c bd fd e0 02 3e
       -0.18349782 -0.19820024 -0.034195486 0.12781139
0001b0 2b 24 ca 3d e3 90 07 bf e9 13 14 3e 62 fc 1d 3e
       0.0987018 -0.52955455 0.1446072 0.15428308
0001c0 0d 7f 1f 3e 67 3c 21 3d 74 d2 21 3e 31 b6 e9 3d
       0.1557581 0.039364245 0.15802938 0.114117034
0001d0 48 84 b2 be ee ca 20 3e ed a8 d0 be 18 a9 92 be
       -0.34866548 0.15702412 -0.4075388 -0.28644633
0001e0 36 87 a4 be f1 48 69 3d 25 1d 99 bd 56 71 f8 3d
       -0.32134408 0.056954328 -0.07476262 0.12130992
0001f0 d1 03 b3 3d 50 c5 e5 3d 24 ee 87 3e 74 de 88 be
       0.08740962 0.11219275 0.26548874 -0.26732218
000200 22 43 ff 3d 2c 96 b2 3e 48 32 38 3e 76 4a 8c 3e
       0.124639764 0.34880197 0.17987931 0.2740056
000210 f3 a0 35 be 81 cc 86 3e 4f 5c 47 3e 2f b3 f2 3d
       -0.17737179 0.263279 0.19468807 0.11850583
000220 06 ce 30 3e 70 d7 a5 3e 1b 0c 37 3e 97 89 1c be
       0.17266092 0.32390928 0.17875712 -0.15286861
000230 59 89 2e 3e d6 96 85 be 6c 27 f6 be 72 f1 a6 be
       0.17044581 -0.2609164 -0.48076952 -0.32606083
000240 a4 b9 aa be 98 76 b5 bd 3f 03 3d bd d1 cc b5 be
       -0.33344758 -0.088605106 -0.046145674 -0.35507825
000250 d9 f2 10 3e aa e4 ba bd 2b 89 0f 3e 24 15 b7 be
       0.14155139 -0.091256455 0.14017169 -0.35758317
000260 10 ba 99 3e e5 bc b3 3e a2 1b a3 3e b2 09 e7 3e
       0.30024767 0.35105053 0.3185702 0.45124584
000270 94 f3 81 3e bb 83 c7 3d 90 d7 09 be 0e fa 95 3d
       0.25381148 0.097419225 -0.13461137 0.07323085
000280 4e 24 d8 3e 93 3a 54 bd 47 35 02 3e 41 c6 9d be
       0.42215198 -0.051813673 0.12715636 -0.30815318
000290 77 6d 1d 3e 3a df 46 be 4c 4a 91 be 49 08 2c 3e
       0.15373789 -0.19421092 -0.28376997 0.16800036
0002a0 e7 72 88 3e c5 ff ae be ed 8b 49 be 7f d1 8c 3e
       0.26650164 -0.34179512 -0.19682284 0.27503583
0002b0 d0 29 e9 3c 5c 7b e2 be 11 88 77 3c 28 7f 94 be
       0.02846232 -0.4423474 0.015108124 -0.29003263
0002c0 c7 d5 d0 be 80 a5 d0 3e 57 b1 df be 56 94 21 3e
       -0.407881 0.40751266 -0.43689987 0.15779242
0002d0 a6 9f ce be 22 2b 86 3d b1 35 c7 3d 28 9f 71 3e
       -0.40356177 0.06551196 0.09727038 0.2359587
0002e0 d6 af 27 3d 95 78 5e 3e b7 46 86 3d 87 29 8b 3e
       0.040939175 0.21725686 0.065564565 0.2718012
0002f0 ee 0d 83 3d ee 7d d1 be 2c a1 c2 3e 59 20 12 be
       0.06399141 -0.4091639 0.3801359 -0.14270152
000300 39 4d 24 3e 4e 11 12 3c 12 48 cc be 23 79 b3 be
       0.16045083 0.008915259 -0.39898735 -0.35053357
000310 17 5a 82 3e b8 e7 da 3e b5 8d 86 3e 70 32 af 3d
       0.25459358 0.42754912 0.2627999 0.08554542
000320 6b c0 de 3e 4c 5a 7d 3e 7a 80 25 3e 1a c4 b0 bd
       0.43506178 0.24741477 0.16162291 -0.086311534
000330 92 d0 bb 3e f3 3a 04 bf dc b0 3a be f1 ed b5 3e
       0.36682564 -0.5165245 -0.18231529 0.35533097
000340 1b 70 06 be e9 40 3f 3e 5b 1f cf be 48 ca c3 be
       -0.13128702 0.18677105 -0.4045361 -0.38240266
000350 93 e2 16 3c 9a 9d d1 be 71 7b e9 be a5 fe a9 3d
       0.009209293 -0.40940553 -0.4560199 0.08300523
000360 b8 1a e7 3d e6 fe ec bd db 29 fa 3d 4c 4d 85 3e
       0.11284393 -0.115720555 0.122150145 0.26035535
000370 d2 c2 68 3a 76 6f a5 be f7 11 0f 3d 05 76 84 be
       0.0008879128 -0.323116 0.034929242 -0.25871292
000380 56 27 85 3e 24 00 dd bd 28 b2 ef be b8 c6 e4 bd
       0.26006573 -0.107910424 -0.4681561 -0.11170715
000390 39 72 88 3e bc 3d 89 be 32 4d ae 3d 07 0b e6 bd
       0.26649645 -0.26804912 0.085108176 -0.11232572
0003a0 30 80 cb 3e ff 38 8b be d3 95 d2 be 06 a1 c4 be
       0.39746237 -0.27191922 -0.41129932 -0.384041
0003b0 46 27 a4 be 61 21 0e 3d e8 39 bc be 1e 9c e6 be
       -0.32061213 0.0346998 -0.3676293 -0.45040983
0003c0 ed ef 85 3d 92 c5 a3 3e b8 54 47 3d d5 c8 b7 3e
       0.06539903 0.31986672 0.04866478 0.3589541
0003d0 1a 75 53 be 85 19 cc 3e f8 70 77 3e 66 50 af be
       -0.2065014 0.3986322 0.24164188 -0.34241027
0003e0 25 a3 a4 3e 61 1e 8e 3e d8 fc e9 be 02 db 4b be
       0.3215572 0.27757552 -0.45700717 -0.19907764
0003f0 1c ab 6f be 14 27 56 3e de 01 70 3e 78 34 e7 3d
       -0.23405117 0.20913345 0.23438212 0.112893045

actor.2.weight f4 [256, 256]
000000 0d 17 6a bd 99 5d 81 3c 97 20 1b 3d 71 5a 64 bd
       -0.05715089 0.015791701 0.037872877 -0.055750314
000010 1f de 46 bd e9 83 2f 3d ef 53 d2 3c 45 9e 2d bc
       -0.048551675 0.04285041 0.025674788 -0.010596816
000020 e5 11 25 bd 3c 70 05 bb 2f 31 f8 3c 3f 93 3a bd
       -0.04030027 -0.0020361086 0.03029689 -0.04555058
000030 2e 0b 22 3d 47 93 b9 bb d8 fc ae 3c ed 50 6a bb
       0.039561443 -0.005663309 0.0213608 -0.0035753802
000040 a9 70 12 bd 82 92 fb bc e4 20 17 3d 4d 65 1b 3c
       -0.035751972 -0.030709509 0.0368966 0.009484601
000050 e5 1f 4f bd 09 ae 1c bd 05 3f 18 bc f5 e3 a7 3c
       -0.050567526 -0.03825191 -0.009292369 0.02049444
000060 4e 2b 8a bd 4d 57 c6 bc c8 45 a0 3b 77 c9 9b bd
       -0.06746541 -0.02421155 0.004891131 -0.07606786
000070 ab 11 22 bd 94 fc c6 ba c5 a9 36 bd 45 1f 0e bc
       -0.03956763 -0.0015181475 -0.0445955 -0.008674447
000080 79 e1 d9 bc 02 4c 2f bd 91 a6 61 bd ab ee 0f 3c
       -0.026596772 -0.042797096 -0.05509049 0.00878493
000090 d8 e3 73 3d d1 eb 47 bd b0 d7 58 bd 89 5f 97 3c
       0.05954346 -0.048808876 -0.05294007 0.018478172
0000a0 90 b6 84 bd ba f3 7c bd de 5a 8f 3d 41 9e ea bb
       -0.064801335 -0.061755873 0.069997534 -0.0071599786
0000b0 c1 b6 08 bd c6 51 06 bd 28 98 a2 bb 14 74 ed bc
       -0.033377413 -0.03279283 -0.004961986 -0.028986014
0000c0 62 e9 69 3d 9b f7 3e 3a a8 a3 2d bd 7e 5e 02 bd
       0.057107337 0.0007284821 -0.042392403 -0.031828396
0000d0 ee 4e 21 3d fa 39 e8 bc 9e cb 16 3d d6 e8 b4 bc
       0.039381914 -0.028347958 0.03681528 -0.022083681
0000e0 d2 50 16 3d a6 29 9a 3d 68 92 63 bd 59 5b 78 3c
       0.03669817 0.07527475 -0.055559546 0.015158498
0000f0 23 bf 95 3b 2a fe 73 39 c7 bd 22 bd d8 4f c4 3c
       0.0045699044 0.0002326897 -0.039731767 0.023963854
000100 60 3b ba bc 19 f6 8c 3c 7e 9a 73 3c da 54 6e 3a
       -0.02273339 0.017207192 0.014868377 0.00090916234
000110 91 5e 8e bb ed d6 c0 bb 7f e1 47 3b 12 66 24 3d
       -0.0043447693 -0.005884996 0.0030499396 0.040136404
000120 c3 4b 21 3d ad 52 3a 3d a3 02 d9 3c 67 c7 74 bd
       0.039378893 0.045489002 0.026490515 -0.059760477
000130 91 73 74 3d a7 15 65 3c b1 37 64 bd 8e f1 55 3d
       0.059680525 0.013982213 -0.055717174 0.052232318
000140 aa f7 db 3c c4 fe 48 3d da ef 3b bd 46 78 57 bc
       0.026851494 0.04907109 -0.045883037 -0.013151234
000150 2b d3 28 3c f0 ad 99 bc d2 fa 2d bd ab 7b fc 3c
       0.010304253 -0.018759698 -0.04247553 0.030820688
000160 f8 78 f2 bc e2 b8 06 3d 63 a6 20 bd 5f 53 58 bd
       -0.029598698 0.03289116 -0.03922118 -0.052813884
000170 88 11 a5 3a 2f e5 35 bd 7e 20 d7 bc 8a ac 21 bd
       0.0012593726 -0.04440802 -0.02626061 -0.039471187
000180 48 2f 53 3d ab 83 41 3b a2 f0 f9 3c 2e 6e 0a bd
       0.051558763 0.0029527943 0.03051025 -0.03379648
000190 32 46 42 bd 15 ec 46 bd 4f 69 0b bd 55 60 55 bd
       -0.047430225 -0.04856499 -0.034035977 -0.052093823
0001a0 82 13 44 bd 6f c1 50 3d 85 84 8f 3c ff 14 3a bc
       -0.047870167 0.050965723 0.017519245 -0.011357545
0001b0 de ef 8f bc 5a 92 6f bc 4b e5 dd 3c 0a 2d 51 bd
       -0.017570432 -0.014622295 0.027086874 -0.051068343
0001c0 a5 0b 82 bd b0 d2 eb 3c ae 94 a3 3c 27 f0 d6 3a
       -0.06349877 0.028786987 0.019968357 0.0016398475
0001d0 54 db 20 3d 9e 6c dd bb 6e 10 88 bc d4 87 c2 bc
       0.039271668 -0.006757333 -0.016609397 -0.023746409
0001e0 3a 91 c8 3c f3 9c 4a 3d 74 4b 39 bb 2a 5a a3 bc
       0.024483312 0.049466085 -0.0028273733 -0.019940455
0001f0 64 fc 91 bd 10 a3 fb 3a 35 4c bd bc 80 d7 ce 3a
       -0.07128218 0.0019198377 -0.023107627 0.0015780777
000200 63 85 eb bc 83 14 ce 3c cd 12 a4 3c 27 6e 8c 3c
       -0.028750127 0.025156265 0.020028496 0.017142368
000210 6e 48 e2 3c 25 06 ec bb ba a9 38 3d d4 db 84 bc
       0.027622428 -0.007202881 0.04508374 -0.016218103
000220 b2 17 a9 3b 41 24 3c bd 66 1f 87 bd aa 0b cd 3b
       0.0051602954 -0.045933012 -0.06597786 0.006257494
000230 78 01 81 bd 85 99 b4 3a d8 5e a4 3c 17 61 5e 3c
       -0.06299108 0.0013778663 0.020064756 0.013572953
000240 61 dc 5f bd 56 4e 42 bd 5e 26 43 3c b4 f8 8e 3b
       -0.05465353 -0.04743799 0.011911003 0.004363144
000250 ce fd 8b bd a9 28 f9 3c ed a8 87 3b ef d0 97 3c
       -0.06835519 0.030414896 0.0041400106 0.018532244
000260 6e 1f 4d bc 05 68 92 bc 2f 74 55 bd 0e 0b 97 bd
       -0.0125197 -0.017871866 -0.052112754 -0.073751554
000270 9f 15 d2 3c b4 3b d1 3c 72 f8 5d bd 1f 8b 98 bc
       0.025645075 0.025541164 -0.054192014 -0.018621026
000280 07 4a 24 bd d1 f0 96 bc 3b 6f 98 3c ca 98 52 3d
       -0.04010966 -0.018425377 0.018607726 0.051415242
000290 25 f6 1d 3d 5d 25 56 bd f1 ab e0 3c f4 fb 69 3c
       0.03856482 -0.052281726 0.027425738 0.014281262
0002a0 ba c8 91 bd c8 56 e6 bc 94 50 81 3c 89 6d 3b bc
       -0.07118364 -0.028117552 0.015785493 -0.011439689
0002b0 0e 98 a8 3c 1f 0b 23 3d 7a 38 c6 3c 7b b1 5e bd
       0.020580318 0.039805528 0.024196852 -0.054368477
0002c0 0e 7a 02 bd df 0e 1d bd 61 aa 87 3c 58 59 a9 3c
       -0.03185468 -0.03834426 0.016560735 0.020672485
0002d0 12 b4 87 bd a6 0a 13 3d ec db f8 3c 02 c6 94 bc
       -0.066261426 0.035898827 0.030378304 -0.018160824
0002e0 06 2e 30 3d 4b 34 7e 3c e3 09 3f 3c f6 7d 61 bd
       0.04301264 0.015515397 0.011660072 -0.055051766
0002f0 96 cd b2 bb 03 bd 32 bd 6e 6d 29 bd e0 77 4b bd
       -0.0054566367 -0.043637287 -0.041364126 -0.04967487
000300 66 dd 83 bd f6 b8 93 3b 48 a4 3c 3d b2 62 22 bd
       -0.06438713 0.004508133 0.04605511 -0.039644904
000310 a7 66 7a bd ac 42 bc 3c cd 0c 99 bd 37 c9 84 3d
       -0.061133053 0.02298101 -0.07473145 0.06483691
000320 f4 bf 2e 3d 60 3a 0f 3d 02 cd 7b bb 99 d6 3d 3d
       0.04266353 0.03496778 -0.0038421755 0.046347234
000330 e9 9f 2c 3d 15 b7 12 3d ad b8 c1 3c 33 9e 44 3d
       0.04214469 0.035819132 0.02364763 0.048002433
000340 10 3f e4 3c 53 bb 0c 3b 18 29 27 bd 15 c7 5b bd
       0.027862102 0.0021473959 -0.040810674 -0.053656656
000350 db 85 f0 bc fa 20 36 bd 50 07 ae 3c 4e e3 8c bc
       -0.029360702 -0.044465043 0.021243721 -0.017198231
000360 38 a1 16 bd b6 ac 7e 3c 0f ae c4 3b a1 43 20 bd
       -0.036774844 0.015544107 0.0060021947 -0.039126996
000370 e2 ad 9a bb 31 1c da 3c 4a 9f 31 3d 89 2a 77 bd
       -0.0047204355 0.02662477 0.0433648 -0.0603433
000380 a2 c2 82 bd f9 ee 48 3d 2c 3e 06 bd 8c aa 05 bc
       -0.063847795 0.049056027 -0.032774135 -0.008158337
000390 69 c4 30 3d 6f 5b 24 bb e3 e3 92 bb 6b 06 2b 3d
       0.04315606 -0.0025078913 -0.0044827326 0.041754168
0003a0 95 c1 93 ba 06 35 61 3d c9 5d 60 3d 1e bc 57 3d
       -0.0011272902 0.054982208 0.05477694 0.052669637
0003b0 44 51 04 3c ed 80 ca bc 81 ad 23 3d 3b 58 ee bc
       0.008076016 -0.02471968 0.039960388 -0.029094806
0003c0 e2 e6 93 3d 8d d8 90 bd fa ce 5a 3d e7 44 3e bc
       0.07221772 -0.07072554 0.053420044 -0.011613107
0003d0 0d 36 76 bd 11 51 1c bc 28 55 bf 3c 94 6d 25 3c
       -0.06011014 -0.009540812 0.023356035 0.010096926
0003e0 91 a0 5b 3c 0e fe 22 bd 8d 58 4f ba 03 17 14 bd
       0.013404981 -0.039793067 -0.00079096184 -0.03615476
0003f0 5f 5c e2 bb 93 64 83 bd da c2 64 3c 0c 01 2b 3d
       -0.006907984 -0.064156674 0.013962472 0.041749045

actor.2.bias f4 [256]
000000 74 9a 17 bc c9 21 4c 3d 0b 97 71 bc 90 83 97 bd
       -0.009253133 0.049836908 -0.014745484 -0.073981404
000010 1a f3 38 bd e6 39 f6 bc 42 a6 41 3d 88 44 94 3c
       -0.045153715 -0.030056905 0.047277696 0.018099084
000020 a6 a7 b1 bc 19 9e 12 bc df 41 5a bd 99 0c 81 bd
       -0.021686386 -0.008948826 -0.053285476 -0.06301231
000030 0a d1 14 bd 86 3a 84 3c c6 28 14 3c ae 41 0e ba
       -0.036332168 0.016141187 0.009042924 -0.0005426657
000040 a6 49 fe bc 41 d7 65 bd 1f db 26 bd d9 d1 77 3d
       -0.031040978 -0.056113485 -0.040736314 0.06050286
000050 c1 aa 7e bd 25 af 23 bd 75 ce 42 3d 79 75 30 3d
       -0.062174562 -0.039961953 0.047560174 0.04308078
000060 46 61 8b 3d 90 69 71 bd d2 ab 69 bd a3 07 60 3c
       0.06805663 -0.058938563 -0.057048626 0.013673696
000070 64 4f fc bc fc b6 88 3c 11 a8 4f 3d 28 36 c6 bb
       -0.030799575 0.016688816 0.05069739 -0.0060489364
000080 d3 37 1d 3d ff 60 63 bd ee 94 98 bd c3 14 17 3d
       0.038383316 -0.055512425 -0.07450281 0.036885034
000090 68 c9 ab bc 0b 21 53 bd a6 bf 09 3c d3 30 c3 bc
       -0.020970061 -0.051545184 0.008407509 -0.023826992
0000a0 3e c3 b1 bc 36 b6 4c 3d 23 84 5f bd cc 58 f8 3b
       -0.021699544 0.049978457 -0.054569375 0.007578945
0000b0 70 8d f2 bc 02 24 42 bd bb 7b 91 bd 3b ad f4 bc
       -0.029608458 -0.04739762 -0.07103678 -0.029867759
0000c0 12 18 d3 bb c1 ea 37 3b 02 10 3d bc ba b8 47 bd
       -0.0064420784 0.0028063508 -0.011539461 -0.048760153
0000d0 ff 6d 86 bd 40 62 61 3d e3 79 11 3d 01 a1 b5 3c
       -0.06563949 0.05502534 0.03551663 0.0221715
0000e0 a9 68 a3 3b 38 fc f7 bc dc 58 40 3d a2 d4 71 bd
       0.0049868417 -0.030271634 0.046959743 -0.059040673
0000f0 de 60 a5 bd dc 20 9c 3c 07 6b b8 3c b3 1d 3f 3d
       -0.080751166 0.019058637 0.022511972 0.046659183
000100 76 f5 f6 bc a9 2d 31 bd 9f 46 86 3d 6e 90 c0 3c
       -0.030146342 -0.043256436 0.06556439 0.02350637
000110 81 da 85 bd 8f 79 95 3c 77 68 b4 3c 9d 4b 02 bc
       -0.06535817 0.01824644 0.022022469 -0.007952598
000120 94 94 e6 3c e4 de 86 bc de d1 ef 3c bd e3 d7 bc
       0.02814702 -0.016463704 0.029274877 -0.026353711
000130 f6 f3 0a 3d 3e 41 9a 3d 20 cb 21 bd cd 95 6c bd
       0.033924066 0.07531975 -0.039500356 -0.05776005
000140 4a 71 cb ba d3 3e 41 bc ed f8 9c 3c 1b ec 2b 3d
       -0.0015521434 -0.011794764 0.019161666 0.041973215
000150 e9 d3 66 3d 9d 41 44 3a 44 1b 71 bc 16 30 9d 3c
       0.056354437 0.0007486584 -0.014715973 0.019187968
000160 e4 14 0b bd 0c ce c8 3b ca 5d 3c bd 52 0b d7 3b
       -0.03395547 0.0061280783 -0.04598788 0.006562629
000170 9c 6e 06 3d bf 30 72 bc 22 a1 87 3d fd 53 a1 bc
       0.03282033 -0.01478213 0.066225305 -0.019693369
000180 85 66 1c bc 37 b4 ce 3c 31 a3 b0 bc b0 48 1a 3c
       -0.009545927 0.025232418 -0.02156219 0.009416744
000190 cc 45 1e bd bf 6b ad 3d 4e 8a bd 3b 58 c7 aa bd
       -0.038640782 0.084678166 0.0057843095 -0.08338803
0001a0 63 b3 3c 3a 21 3e 2c bc b1 86 68 3d 5b d9 4b bd
       0.00071983616 -0.01051286 0.056769077 -0.049767833
0001b0 ba 1e 43 3d 3f e7 f9 bc 28 7c 13 bd 9d a9 b1 3b
       0.047636725 -0.030505775 -0.036007077 0.005421831
0001c0 65 56 12 bd 9d 34 1d 3d 8a 48 ac bc f7 78 ec 3c
       -0.035726923 0.038380254 -0.021030683 0.028866274
0001d0 dc a3 9c bb d4 a3 9b bb 79 02 c2 bc 38 1c 41 3d
       -0.0047802757 -0.0047497544 -0.02368282 0.047146052
0001e0 a8 59 af 3c db 1f 41 bd f2 be 09 bd 2c ab f1 3c
       0.021405056 -0.04714952 -0.033629365 0.029500566
0001f0 9f 3f c3 3c c0 a5 fd 3c 62 a9 99 bc c0 df 00 bc
       0.023834048 0.030962825 -0.018757526 -0.007865846
000200 74 02 fe bc 21 e8 fa bc e2 19 41 3c bc ec 50 3d
       -0.03100703 -0.030628266 0.011785956 0.051007017
000210 32 3e 40 bd bb 90 a2 3c fe 67 72 3d 8e d3 90 3d
       -0.046934314 0.019844403 0.059181206 0.07071601
000220 9a 34 1d bd 0b 0e f6 bc d8 e3 2b 3d 8c e5 30 bd
       -0.038380243 -0.030035993 0.041965336 -0.043187663
000230 78 9a 8e bd 31 65 8f 3b f5 c0 85 bd 5c a0 04 bd
       -0.06963056 0.0043760766 -0.06530944 -0.032379493
000240 f4 9f bc 3c 0f 01 07 bc 5c dd 62 3d e8 ef 9a 3d
       0.02302549 -0.0082399985 0.055386886 0.0756529
000250 5f 23 73 3c 76 94 25 3d 63 32 b5 bc e9 3c 08 3d
       0.014839976 0.040424787 -0.022118753 0.033261213
000260 cb 60 4c bc 0e d8 7d 3c 54 5e 16 3d 2e 6b bc b9
       -0.012474249 0.015493406 0.036711052 -0.0003593801
000270 bf cd a2 3c 06 36 7b bc 37 c8 ea 3b 0b 40 1d bd
       0.019873498 -0.015332704 0.0071649808 -0.038391154
000280 4a 01 00 bd e6 7b 46 3d 24 80 03 bd bb 5a 8d bc
       -0.03125123 0.048458003 -0.032104626 -0.017255178
000290 ee ee 23 bd 1c fb 2f 3d 92 8e 45 bc b8 c1 8c 3c
       -0.040022783 0.042964086 -0.012057917 0.017182216
0002a0 e9 c5 99 bc 66 28 72 3d 4b e8 a1 3c 0a 16 d2 3c
       -0.018771129 0.05912056 0.019764086 0.025645275
0002b0 15 cc be bb 2e d2 76 bb 0a ed ed bc 65 ac 68 bd
       -0.0058226683 -0.0037661898 -0.029043693 -0.056805033
0002c0 0d 54 90 bc c0 ab 11 bb 21 6f 82 3d 3f 81 9f bb
       -0.017618204 -0.0022227615 0.063688524 -0.0048677023
0002d0 61 2b fc 3c 53 44 52 3b d5 66 de 3c 2c f9 26 bd
       0.030782403 0.0032084181 0.027148644 -0.040764973
0002e0 84 0e 8f bd 11 f0 7b bd af d3 b2 3c 23 85 89 3d
       -0.069851905 -0.061508242 0.021829454 0.06714847
0002f0 ab 59 70 bd 70 44 6b 3d a7 9f a4 3c dd 2c 64 bd
       -0.058679264 0.057438314 0.02009566 -0.055706847
000300 5a a2 2f 3b be 80 4a 3d 16 c7 4e 3d b2 a7 4c bd
       0.002679965 0.049439184 0.050482832 -0.049964614
000310 00 a2 21 3d 94 00 e0 3c 3d 47 d2 bb 4f 9c 5e 3c
       0.039461136 0.027344026 -0.0064171837 0.013587072
000320 b7 0f 1f 3c f7 ad 18 bd 00 af 6e bc 92 3b 60 ba
       0.009708337 -0.03727528 -0.01456809 -0.00085537985
000330 de 58 1d 3d cc 8e 9f bc fa 22 07 bd cc 04 63 3d
       0.03841483 -0.01947727 -0.03299234 0.055424497
000340 9a 0d 17 bd 65 a1 43 3c d9 44 1f 3d 93 eb 6d 3d
       -0.036878206 0.011940335 0.038884018 0.05808599
000350 69 ca 2c 3d 05 7f 4d 3d 9c e4 86 bd 98 27 85 3d
       0.04218522 0.050169963 -0.065865725 0.065016925
000360 c3 b8 bf 3c b0 2b a9 bb ab ac 26 3d bf ec 5a bc
       0.023403531 -0.0051626787 0.040692013 -0.013362109
000370 4c f7 86 bd 2e bd a9 bc 26 58 75 bd 08 e3 8f 3c
       -0.06590137 -0.02072009 -0.059898518 0.017564312
000380 30 70 6f bc 50 12 f6 3b 30 97 d0 3c 57 3c 5a 3d
       -0.01461415 0.0075095072 0.025462717 0.0532802
000390 26 22 02 3d 2f 46 26 bd 2a 14 21 bd 55 d5 ae bb
       0.031770848 -0.040594276 -0.03932587 -0.0053354898
0003a0 f2 61 18 bd 0a a3 6b 3d 26 8e b8 3b 62 72 cb ba
       -0.037202783 0.057528533 0.00563218 -0.001552176
0003b0 2d 05 64 bd 43 e2 e3 3c 94 6d af bb 28 2b 32 bb
       -0.055669 0.027817851 -0.005353639 -0.0027186368
0003c0 42 4d 95 bd a0 83 42 bb 93 54 e9 3c 18 45 59 bc
       -0.072901264 -0.0029680505 0.028482711 -0.013261102
0003d0 08 0a 5a 3d 9a ea c5 bc a6 23 c8 bc 97 9f 2d 3d
       0.053232223 -0.024159718 -0.024431061 0.042388525
0003e0 0b 15 d7 ba 70 dd f0 bc eb bc b8 39 da f5 70 bd
       -0.001640947 -0.029402465 0.0003523597 -0.058828212
0003f0 ca e5 36 3d ea c2 54 3d 3f 29 56 bd d7 4c 21 bd
       0.044652738 0.051943697 -0.05228543 -0.03937992

actor.4.weight f4 [2, 256]
000000 cd ce dc 3c 45 12 38 bd ad 4f bb bc 5d f3 71 3b
       0.026954079 -0.0449393 -0.02286514 0.0036918737
000010 ff b1 48 3c 30 f9 2f bd 1a f8 27 bd fe 9c e7 bb
       0.012249469 -0.042962253 -0.041008092 -0.0070682755
000020 0d 93 71 3d ad 91 64 bd ea ad 71 bd 94 66 b6 3c
       0.05897813 -0.05580299 -0.059003748 0.02226571
000030 7b 8d 24 bc 30 b6 17 bc 22 53 fb b8 99 4e d4 bb
       -0.010043497 -0.0092597455 -0.000119840974 -0.006479096
000040 66 47 41 bd 7a 2b 31 3d c5 a9 11 3c 8f 27 57 bd
       -0.04718723 0.043254353 0.008890574 -0.05252796
000050 3a ec 0e bd 48 b5 e6 bc c1 c1 7c 3d 67 39 07 3e
       -0.034893252 -0.028162614 0.061708216 0.13205491
000060 53 2a 89 bd bc 25 e5 3c 61 3b 46 3d 19 fd ed 3c
       -0.06697526 0.027972095 0.048396472 0.02905135
000070 1b 22 bb b9 04 4f ac bc c5 85 d0 bc b7 e4 82 bd
       -0.0003569283 -0.021033771 -0.025454411 -0.0639128
000080 b1 72 0a bc 4e 32 51 3c 8d 4c 3b bd 75 2d 54 bc
       -0.008450196 0.012768341 -0.0457273 -0.012950291
000090 3a c0 0b bd ee 1e 9c 3c e3 e0 e5 3b 64 ae 66 3d
       -0.03411887 0.019057717 0.007015334 0.056318656
0000a0 5e 47 e5 3c 79 52 c5 bd 3f 3d 86 3d f2 1e 1e bb
       0.027988132 -0.09634871 0.065546505 -0.0024127332
0000b0 46 9f 99 3d 0a 7a 6a 3d 9c d4 f2 3c 27 42 45 bd
       0.07501082 0.05724529 0.029642396 -0.04815879
0000c0 42 db 16 3d bc 86 07 bc e7 1a 55 3c d7 ce 3c 3d
       0.036830194 -0.008271869 0.013006902 0.046095695
0000d0 fb 68 e6 3c 78 99 03 3c cb 8a 1d 3d 49 4f 84 bd
       0.02812623 0.008032195 0.03846244 -0.06460435
0000e0 3b dd 9e 3b 79 f3 41 3d d3 92 36 bd 42 52 60 3d
       0.00484815 0.047351334 -0.044573616 0.054765947
0000f0 19 68 00 3b 8b 70 3d 3c ce 51 5c bd 1a fe 90 3d
       0.0019593297 0.011562477 -0.053788953 0.07079716
000100 4c a3 fe bb 4e 7a ff bb 1e 43 b8 bd 34 ec 61 3d
       -0.0077709313 -0.0077965623 -0.089971766 0.0551569
000110 c2 f4 2e bd a8 20 78 bb 13 c4 da bc 66 1e 90 bd
       -0.042713888 -0.0037861262 -0.026704824 -0.07037048
000120 c7 12 32 3c c8 20 fe 3c 8f cc dd 3d e3 19 5e bd
       0.010868735 0.03102149 0.10830032 -0.054223906
000130 4a 9a 39 bd e6 bb ba bd d6 3c 69 3d 0d e9 44 3c
       -0.045313157 -0.0911787 0.056942783 0.012018454
000140 53 8f c3 ba db a8 0b bd 8f 10 bb bb c6 e2 6d 3c
       -0.0014920033 -0.03409658 -0.005708761 0.014519399
000150 bc 13 3e 3d f1 24 03 bd b0 f7 4d bc f6 57 8a bd
       0.04640554 -0.032017652 -0.01257126 -0.067550585
000160 62 35 52 bd 10 e4 52 bd d4 86 16 bd e1 d7 19 3d
       -0.05132044 -0.05148703 -0.036749676 0.037559394
000170 d2 95 96 3d 74 c4 ca 3b 05 06 0f 3d f4 63 0a bd
       0.07352795 0.00618797 0.03491785 -0.03378673
000180 b5 aa 96 3d d1 ac 9b 3d c5 fa 1a bd 9c 31 37 3d
       0.073567785 0.076013215 -0.03783681 0.044725046
000190 32 5c 3c 3c 5d 70 44 bd d6 29 af bd b1 73 21 bd
       0.01149659 -0.04795872 -0.085529014 -0.039416973
0001a0 b1 ac b2 3c 83 70 2b 3d 7d d1 15 3d 58 43 c5 3c
       0.021810861 0.041855346 0.036576737 0.024079964
0001b0 08 62 c4 3c 97 84 0f 3b c0 d9 56 bd 70 22 95 bc
       0.023972526 0.0021899098 -0.052453756 -0.018204898
0001c0 f9 0c db ba 90 63 26 3c 80 ae d7 3b f4 d0 31 3d
       -0.001671224 0.0101555735 0.0065820813 0.043412164
0001d0 f7 06 2e 3d 12 6a 83 bc ce f0 33 bd fa 09 0c bd
       0.04248711 -0.01604179 -0.04393082 -0.034189202
0001e0 cb ba 04 3c b5 10 70 3c 81 bc d0 bc 92 20 7e 3d
       0.008101176 0.014652421 -0.02548051 0.06204278
0001f0 3d 54 1b bc 4e 0c e6 bc 4a fc 11 3d c6 c6 0f bd
       -0.009480533 -0.02808204 0.035640992 -0.035101674
000200 b1 60 3a bd 66 7d 7c 3d 47 b9 7b bd da c0 96 3d
       -0.04550237 0.061643027 -0.06145599 0.07361002
000210 02 31 1b 3d bf 9b c5 3c 43 13 ce 3c 74 ab bf bd
       0.037888534 0.024122117 0.02515567 -0.09358874
000220 35 30 83 bd 30 9f 4f 3c 36 6d 0c bc 5d a7 9e bc
       -0.06405679 0.012672231 -0.00857096 -0.019366914
000230 18 ae 69 3d 4e f9 79 bb 73 48 0e 3d 85 0a 38 3d
       0.057050794 -0.0038142982 0.03473706 0.044931907
000240 6b 9a 3d 3d 0c f9 16 3d 02 69 bf bc 63 fa 2f bd
       0.046289843 0.036858603 -0.023365501 -0.042963397
000250 c6 ee 4d 3d 6d 1c 32 bc 00 44 14 3d 61 5a c6 3c
       0.05027654 -0.010871035 0.036197662 0.024213018
000260 34 0a 56 bd f0 44 81 3d e1 de 60 bd f1 3b 63 bd
       -0.052255824 0.06311977 -0.054900054 -0.055477086
000270 e4 d3 ab 3d 57 a0 52 bd 7c 28 47 bb a1 a6 b3 bb
       0.08390024 -0.051422443 -0.003038912 -0.00548251
000280 22 19 69 bd 53 73 4a 3b 3e af 09 3c 45 08 6b 3c
       -0.056908734 0.0030891492 0.008403597 0.014345233
000290 98 03 4a bd 7f 2f 64 3d c9 fc 4d 3d 10 b6 28 bd
       -0.049319834 0.05570936 0.050289903 -0.041189253
0002a0 0d 89 99 3d bb 8c 10 3d 7b b6 73 bd 25 b8 df bc
       0.074968435 0.03529046 -0.0595002 -0.027309487
0002b0 d1 4f 1b 3d 4c 36 1e bd f6 bd a3 3b 64 99 1b 3c
       0.037917916 -0.038626 0.0049970103 0.00949702
0002c0 d7 50 06 3e 68 9c 1b bd 87 1b 93 bd eb 02 66 bd
       0.13116775 -0.037990957 -0.07182985 -0.056155127
0002d0 65 0a 0d bb f0 09 65 ba 78 21 39 3d 32 e8 ed bb
       -0.0021521088 -0.00087371375 0.045197934 -0.007260346
0002e0 73 4e b7 bc da 83 1c 3d 9f d7 07 bd 7d 17 e6 3d
       -0.022376275 0.03821168 -0.033164617 0.11234949
0002f0 9a c6 be bc b0 54 cd 3c 09 57 c6 3c 3d 13 b4 bc
       -0.02328806 0.025064796 0.024211423 -0.02198183
000300 56 f5 1e bd 9e d3 30 bd 97 af c4 3c 7c ca 97 bc
       -0.03880819 -0.043170564 0.024009509 -0.01852917
000310 26 6b 28 3d e7 cd b1 3d 12 da e4 bd aa 96 b7 bc
       0.04111781 0.08681851 -0.11174406 -0.02241071
000320 52 4a 7e bd 08 6e 8b bd 60 9d 2c bd 1b 39 b1 bc
       -0.062082596 -0.06808096 -0.042142272 -0.021633675
000330 80 32 79 bd 08 68 1c bd 0a 70 b6 3c c1 2b 58 3d
       -0.060839176 -0.03818515 0.022270221 0.052776102
000340 f6 bb 83 ba 96 f4 b9 3c 77 75 43 bd ca 8f 6d bd
       -0.0010050524 0.022699635 -0.047719445 -0.057998456
000350 c4 cb ac bd a4 81 17 3d 72 14 9c 3c 49 34 90 3d
       -0.08437303 0.03698887 0.019052718 0.070412226
000360 44 e1 01 bd 52 70 73 3d 55 1b fa 3c 6b 90 fe bb
       -0.03170897 0.05943329 0.030530611 -0.007768681
000370 de ad d1 bc 8f 9d 32 3d 2e 57 2b bc 75 4b c3 3d
       -0.025595602 0.04360729 -0.010457797 0.09535877
000380 29 10 16 3d fd c7 ea 3b 03 25 2d 3d 43 77 33 3d
       0.036636505 0.0071649537 0.042271625 0.04381491
000390 02 78 3d bd 42 cb 52 bc d2 dc 55 bc c8 6c 5c bc
       -0.046257026 -0.012865843 -0.013053136 -0.01345367
0003a0 ad 0c 02 3d 25 f9 07 bd a4 b3 99 3c 9c db b1 bb
       0.03175037 -0.033196587 0.018762417 -0.005427791
0003b0 f1 1c 6d 3c d1 bf b3 3d d7 65 ab 3c 6f ba 02 3d
       0.014472232 0.087768205 0.020922584 0.03191608
0003c0 52 53 84 3c ea 31 06 bd 94 b2 62 bd 27 95 9a bc
       0.016153011 -0.032762446 -0.055346087 -0.01886995
0003d0 b6 39 5e bd 1c ec 05 3d 92 15 7a bd 37 35 2a 3d
       -0.054254256 0.032695875 -0.061055727 0.041554656
0003e0 08 75 9a bb 9c 37 fc 3b 71 51 1a 3d d9 a1 da bc
       -0.0047136582 0.007697059 0.037675325 -0.026688503
0003f0 72 8d b1 bd aa 33 08 bd 10 d5 e3 bc d3 8e 1c bd
       -0.08669557 -0.033252396 -0.027811557 -0.038222145

actor.4.bias f4 [2]
000000 b7 22 5e bc fc 74 19 bd
       -0.013558081 -0.03746508
